save_mode/SAC_v_50_qf1_network.pth (torch, 329559 bytes, 5 tensors)

fc0.weight f4 [256, 61]
0	0xbd4f85f8	-0.050664872
1	0x3c19c5d0	0.009385541
2	0xbb9bde60	-0.004756734
3	0x3d7504ee	0.059819154
4	0x3bdcf340	0.006742865
5	0xbcce5c85	-0.025190601
6	0x3fa8fb51	1.3201696
7	0x40028eb1	2.0399592
8	0xbd71ba9a	-0.059015848
9	0xbd358322	-0.04431451
10	0xbb6946a0	-0.0035595074
11	0xbd30e450	-0.043186486
12	0x3d7bb70a	0.061453857
13	0xbddd3071	-0.10800255
14	0x3ddee1e0	0.10882926
15	0x3fddca60	1.7327385
16	0x3d630e38	0.055433482
17	0xbcd7c398	-0.026338384
18	0xbcc8ee10	-0.02452758
19	0xbd3c5f54	-0.04598935
20	0x3ca699ec	0.020337068
21	0x3fcffc43	1.6248859
22	0x3fb142b8	1.3848486
23	0x3fc75245	1.5571982
24	0x3cd682b0	0.026185364
25	0x3d11861c	0.035528287
26	0xbc8a58c4	-0.01688803
27	0x3c3cef50	0.011531666
28	0x3d32713e	0.043565027
29	0xbdbd832b	-0.09253534
30	0xbde48036	-0.11157267
31	0xbcf4966e	-0.029856887
32	0xbd56c5e2	-0.05243481
33	0xbcd28404	-0.025697716
34	0xb8446800	-4.68269e-05
35	0x3d115fe2	0.03549183
36	0x3d039cd6	0.032131992
37	0xbf430175	-0.761741
38	0xbf851a66	-1.0398681
39	0xbf93ea84	-1.1555943
40	0x3c5cc7f0	0.013475403
41	0x3d161d28	0.0366489
42	0xbc042238	-0.008064799
43	0xbd43edb8	-0.04783413
44	0xbd6af9ec	-0.05736725
45	0xbe8276f9	-0.25481394
46	0xbeaaa4c6	-0.33328837
47	0xbe771499	-0.24128951
48	0x3fba9f22	1.4579813
49	0x4079dab8	3.9039745
50	0x40b0d1e8	5.5256233
51	0xc10ce026	-8.804724
52	0xbfafb18f	-1.3726062
53	0x400b801a	2.1796937
54	0xbee07593	-0.43839702
55	0xbfe99e07	-1.8251351
56	0xbe7a3267	-0.2443329
57	0x3ec9245d	0.39285555
58	0xc0128875	-2.2895787
59	0xbd89f229	-0.067356415
60	0xbe3bbd55	-0.18333943
61	0xbcf03450	-0.02932182
62	0xbd7dbf96	-0.06195029
63	0xbc89a8f0	-0.016804188
64	0x3d07deea	0.03317157
65	0x3c8f02f0	0.017457455
66	0x3fccfd1b	1.6014742
67	0x3f711548	0.941731
68	0x3efa62ea	0.4890359
69	0x3d1fb364	0.03898944
70	0xbd6a94a8	-0.057270676
71	0x3c926c24	0.017873831
72	0x3c24a990	0.0100501925
73	0xbcb3dad8	-0.021954939
74	0xbd001099	-0.03126583
75	0x3f4db333	0.8035156
76	0x3f9412fd	1.1568295
77	0x3bcd47e0	0.0062646717
78	0xbb13b4c0	-0.0022538155
79	0x3d5a41f4	0.053285554
80	0x3a753500	0.0009353906
81	0x3cd837a8	0.026393726
82	0x40018094	2.0234728
83	0x3feb5524	1.8385358
84	0x3ff232f0	1.8921795
85	0xbc382ec8	-0.011241622
86	0x3d1b6ab8	0.03794357
87	0x3c02c400	0.0079813
88	0xbd78c560	-0.060735106
89	0x3bc81850	0.006106414
90	0x3e587c84	0.21141249
91	0x3e4e091c	0.20120662
92	0x3eb2cdd1	0.3492265
93	0xbd4cd738	-0.050009936
94	0x3d09d0c2	0.033646353
95	0xbd20df3a	-0.039275385
96	0x3b363620	0.0027803257
97	0xbc03d580	-0.008046508
98	0xbf2617d8	-0.6488013
99	0xbf0d9d0f	-0.5531778
100	0xbf443898	-0.76648855
101	0xbd141076	-0.03614851
102	0xbd51ba2c	-0.051202938
103	0x3d0dfdc8	0.034665853
104	0xbba10f40	-0.004915148
105	0x3d05cff4	0.032669023
106	0xbc8a1060	-0.016853511
107	0x3d9ebaf8	0.07750505
108	0x3e61ce25	0.22051294
109	0xbdb9d60f	-0.090740316
110	0x40657806	3.5854506
111	0x40a756c3	5.229341
112	0xc108fd68	-8.561867
113	0xbefdf156	-0.49598187
114	0x3f8c8fac	1.0981345
115	0xbded1aa9	-0.11577351
116	0xbf34d097	-0.7063078
117	0x3f111037	0.56665367
118	0xbdf306c4	-0.11866525
119	0xbf2d9214	-0.6780102
120	0x3f6f02a8	0.9336343
121	0xbf2102e2	-0.62895024
122	0xbb7f33c0	-0.0038940758
123	0x3d2e7272	0.042589612
124	0xbb9f8dd0	-0.0048692003
125	0xbd53ebb8	-0.05173847
126	0x3c75d6f8	0.015004866
127	0x3f5b55f0	0.85678005
128	0x3fce5382	1.6119235
129	0x3f3f0754	0.74620557
130	0x3c4be238	0.0124440715
131	0xbc8bd194	-0.017067708
132	0x3d3f7012	0.046737738
133	0xbd673aa6	-0.056452416
134	0x3b4dc4e0	0.0031397864
135	0xbee37632	-0.44426113
136	0x3f3f6ca8	0.7477517
137	0x3f68577f	0.9075851
138	0x3d2925ca	0.041295804
139	0xbbb85ec0	-0.0056265295
140	0x3d56a1b2	0.0524003
141	0x3bf07980	0.0073387027
142	0xbd0bfc84	-0.034176365
143	0x3fd59029	1.6684619
144	0x3fc1d17b	1.5142053
145	0x3fc5c2ea	1.5450108
146	0x3c925344	0.01786197
147	0xbd21012e	-0.039307766
148	0xbc7d1c68	-0.015448667
149	0x3d0f9cd0	0.035061657
150	0x3d4cc5d6	0.04999336
151	0xbe096d7a	-0.13420668
152	0xbd835888	-0.0641337
153	0x3dafce2a	0.085842445
154	0x3a70f600	0.00091919303
155	0x3cd09660	0.02546233
156	0x3c533718	0.012891553
157	0xbd5fc50a	-0.05463127
158	0x3d4c0bde	0.049816005
159	0xbf531da6	-0.82467115
160	0xbf557708	-0.8338475
161	0xbf882730	-1.0636959
162	0x3c8f7fd8	0.017517015
163	0x3b45f520	0.003020592
164	0x3c1680f8	0.009186022
165	0xbd1018b0	-0.035179794
166	0x3d08250e	0.033238463
167	0xbeabac19	-0.33529738
168	0xbe1d6fe0	-0.15374708
169	0xbdae4146	-0.08508544
170	0x3d94182c	0.07231173
171	0x40749799	3.8217528
172	0x40b027e2	5.5048685
173	0xc10c6e78	-8.77697
174	0xbf694ef3	-0.9113609
175	0x3e431a11	0.19052912
176	0x3d819cb8	0.0632872
177	0xbf8cccb4	-1.099997
178	0xbe26ed29	-0.16301407
179	0x3e335b75	0.17515357
180	0xbf7543a7	-0.95806354
181	0x3f46b505	0.77619964
182	0xbefe3d61	-0.49656203
183	0xbcc2497c	-0.02371668
184	0xbca31614	-0.019907989
185	0x3ca4b3d0	0.020105273
186	0xbb038140	-0.0020066053
187	0xbc85351c	-0.016260676
188	0xbea587b9	-0.3233011
189	0x3efe702a	0.4969495
190	0x3ce29d20	0.027662814
191	0x3cb03968	0.021511748
192	0x3ca5bf30	0.020232767
193	0x3c6af148	0.0143397525
194	0x3c2ab298	0.010418557
195	0x3d250d70	0.040296018
196	0xc07ccd3f	-3.9500272
197	0xc0996ed1	-4.7947774
198	0xc0a515f6	-5.158931
199	0x3d447896	0.047966562
200	0xbc810bc4	-0.01575268
201	0xbd40ab1a	-0.047038175
202	0xbd3fddee	-0.046842508
203	0xbcd02214	-0.025406875
204	0xc11eadac	-9.9174
205	0xc11c6f7e	-9.77722
206	0xc1236bf9	-10.2138605
207	0x3c3f9830	0.011693999
208	0x3d1946f4	0.03742118
209	0xbd2a090e	-0.04151254
210	0xbc8be724	-0.01707799
211	0x3bf49dc0	0.0074650943
212	0x3e3b78c3	0.18307786
213	0xbdb85e6c	-0.090023845
214	0xbd2f7e70	-0.04284519
215	0x3c694608	0.014237888
216	0xbc94fb78	-0.018186316
217	0xbd2c402a	-0.04205338
218	0x3ca7322c	0.020409666
219	0x3d31db36	0.043421946
220	0x3e0aff7d	0.13574024
221	0xbdf12e9c	-0.11776468
222	0xbdec25f0	-0.115306735
223	0x3d736a0e	0.059427314
224	0x3d28f7fe	0.04125213
225	0xbc74c0d0	-0.014938548
226	0xbd153b32	-0.036433406
227	0xbcafdefc	-0.021468632
228	0x3e404347	0.18775664
229	0xbdb41a92	-0.087941304
230	0xbd3318b2	-0.043724723
231	0x40ccb4f6	6.39709
232	0x40887489	4.2642255
233	0x40d75158	6.7286797
234	0x3f181d0b	0.59419316
235	0x40aeb31f	5.4593654
236	0x405929bc	3.3931723
237	0x40184083	2.3789375
238	0xc02bff58	-2.68746
239	0xc040ad25	-3.010568
240	0xbfe2e952	-1.7727454
241	0xc090d7a9	-4.5263257
242	0x3fa69182	1.3013155
243	0xc0bed888	-5.963932
244	0xbd105ea6	-0.035246514
245	0x3cfab5d4	0.03060428
246	0x3ba4f2f0	0.005033843
247	0xbc932c64	-0.017965503
248	0x3d37b688	0.04485181
249	0xbcb95320	-0.022622645
250	0xbd6e0cb2	-0.058117576
251	0xbe368b36	-0.17826542
252	0xbc35d900	-0.0110991
253	0x3c527940	0.012846291
254	0x3bb527e0	0.005528435
255	0xbd68d70c	-0.05684571

fc0.bias f4 [256]
0	0x4203535f	32.831417
1	0x42069d80	33.65381
2	0x4204485d	33.070667
3	0xc150ff01	-13.062257
4	0xbd403826	-0.046928547
5	0xc1c8deff	-25.108885
6	0xbd53c845	-0.051704664
7	0x41d9e9e0	27.239197
8	0xbd262fab	-0.040572803
9	0x4197c247	18.969862
10	0x41c7c528	24.971268
11	0x4207657f	33.849117
12	0xc1caf671	-25.370333
13	0x420746fd	33.819324
14	0x41b59fda	22.703053
15	0xc1cfdafb	-25.981924
16	0xbd1fde55	-0.03903039
17	0x41b9d995	23.231241
18	0x42062efd	33.545887
19	0xbd9399e0	-0.07207084
20	0x4206ef6b	33.733807
21	0x00000000	0.0
22	0x42061785	33.52297
23	0x41edf9d0	29.746979
24	0x41dde229	27.73543
25	0x4206dafc	33.713852
26	0x41dff0eb	27.992636
27	0x4206dfd6	33.71859
28	0xbd0d5f57	-0.03451475
29	0x41c0203e	24.015743
30	0x41d6efc5	26.867075
31	0x00000000	0.0
32	0x4201ae3b	32.420147
33	0x41790b0e	15.565199
34	0x420781b6	33.87667
35	0x4206745b	33.61363
36	0x41ffca02	31.973637
37	0x41bcae11	23.584993
38	0x42017e78	32.373505
39	0x420450ae	33.07879
40	0xbd55e1b1	-0.05221719
41	0x41c456da	24.542408
42	0xc1cfd816	-25.98051
43	0x41e3326d	28.399622
44	0x41ca3b8f	25.279081
45	0xbd73cc5f	-0.059521075
46	0x4206c5d3	33.693188
47	0x42077753	33.866528
48	0xbd36b7da	-0.04460893
49	0x42061aa5	33.52602
50	0x41bcba51	23.590975
51	0xbd06eefa	-0.03294275
52	0xc1c8cbd3	-25.099524
53	0x41f536d8	30.65178
54	0x42012c15	32.29305
55	0x41fa35dc	31.276299
56	0x416c1b80	14.756714
57	0x00000000	0.0
58	0x4206c743	33.69459
59	0xbba7fa60	-0.0051262826
60	0x4207c3e8	33.941315
61	0xbd9025d3	-0.070384644
62	0x4204ebf4	33.230423
63	0xbd6382c4	-0.05554463
64	0x41aef590	21.869904
65	0x42070ec6	33.764427
66	0xbecab718	-0.39592814
67	0x41c726c2	24.893925
68	0x41abafac	21.460777
69	0xbd0f143a	-0.0349314
70	0xbd0078f2	-0.031365342
71	0xbd4c9ea5	-0.049955983
72	0xbc50a6df	-0.012735098
73	0x4205d930	33.462097
74	0x41b9be18	23.21782
75	0xc201ee74	-32.482864
76	0x41c8c029	25.093828
77	0x4207636f	33.847103
78	0x4207554d	33.8333
79	0xc1cac84d	-25.347803
80	0x41d5c647	26.721815
81	0xc1cfb5ce	-25.963772
82	0x41ad489c	21.660454
83	0x41ec99b1	29.575045
84	0x00000000	0.0
85	0xbce3b185	-0.027794609
86	0x4206c866	33.6957
87	0x41f3fc42	30.498173
88	0x41dd1449	27.634905
89	0x00000000	0.0
90	0xbdc56ede	-0.09640287
91	0x42067825	33.61733
92	0x42044212	33.06452
93	0x41eef904	29.87159
94	0xbd54e6c7	-0.0519779
95	0xbbcad645	-0.0061900937
96	0xbd5a141a	-0.053241827
97	0xbd97cbe6	-0.074119374
98	0xbd404aee	-0.04694646
99	0x4206ae46	33.67019
100	0x41bd81eb	23.688437
101	0x420636b3	33.553417
102	0x42063149	33.54813
103	0xbd2d6cb7	-0.042340007
104	0x42064583	33.567883
105	0x4204b416	33.175865
106	0x420706a0	33.75647
107	0x41fc4a68	31.536331
108	0xbd3949c6	-0.04523637
109	0x41b5d58e	22.729275
110	0x41fcd082	31.60181
111	0x4206e27c	33.721176
112	0x41f9a8e3	31.207464
113	0xbd7b11ca	-0.06129626
114	0x4205f688	33.490753
115	0x419d4b5e	19.6618
116	0x41ed9092	29.695591
117	0x41896020	17.171936
118	0x00000000	0.0
119	0xbcf09e98	-0.029372498
120	0x41ecb534	29.588478
121	0x41f4f589	30.61989
122	0x42071b35	33.77657
123	0x41c4a29b	24.579397
124	0x4209e6ad	34.47527
125	0x41ddffa4	27.749825
126	0xc1cd97df	-25.699156
127	0xbcad96da	-0.021190096
128	0x4206a5bd	33.661854
129	0x41d9173e	27.136349
130	0x41da1922	27.262272
131	0x4206936d	33.64397
132	0x420703b7	33.753628
133	0x4205d5b7	33.458706
134	0x41e84f85	29.038828
135	0x420651ce	33.579887
136	0x4206dcb5	33.715534
137	0xbd12391f	-0.035699006
138	0x41ebe6dd	29.487726
139	0x41e16efc	28.179192
140	0x42040528	33.005035
141	0x42074dd5	33.826008
142	0xbd194650	-0.03742057
143	0xc15329ad	-13.197675
144	0xbd3eb577	-0.046559777
145	0xbc6a49e3	-0.0142998425
146	0xbd0b4fc4	-0.034011617
147	0x41f4d3f8	30.6035
148	0xbd021cdd	-0.031765807
149	0xbd979cb8	-0.074029386
150	0x41923d8a	18.280048
151	0x42065038	33.57834
152	0x41ee104e	29.757961
153	0xbd87b68d	-0.06626616
154	0xbd87d58e	-0.06632529
155	0x42073a1d	33.80675
156	0x41ed2ead	29.64779
157	0x41f8528d	31.040308
158	0x41d37fdc	26.437431
159	0xbd385563	-0.045003306
160	0x4206658e	33.599174
161	0xbcb3ef3a	-0.021964658
162	0x42076651	33.84992
163	0xc130480b	-11.017589
164	0xbd79f0bc	-0.061020598
165	0x41f87c12	31.060581
166	0x41c6ca93	24.848913
167	0x42072192	33.782784
168	0x41fb1f53	31.390295
169	0x42068617	33.630947
170	0xbd1c7c1c	-0.038204297
171	0xc10be5b5	-8.743581
172	0x00000000	0.0
173	0xbcb96c49	-0.022634642
174	0x4207acdc	33.918808
175	0xbd42d177	-0.047563042
176	0xbd26bea1	-0.04070914
177	0x41d73ac6	26.903698
178	0xbd510c75	-0.05103727
179	0x4206ffed	33.749928
180	0x41fbc362	31.470402
181	0xbc52091f	-0.012819557
182	0xbd18512a	-0.03718678
183	0x41a42142	20.51624
184	0x42059374	33.393997
185	0xc13c51b1	-11.769944
186	0x42071319	33.76865
187	0xbd95296b	-0.072832905
188	0x420735d6	33.802574
189	0xbd2d8919	-0.042367075
190	0x41e5b50e	28.713406
191	0x41fac3ce	31.345608
192	0x4204d793	33.21052
193	0xbd6ad170	-0.05732864
194	0xbc080462	-0.008301826
195	0xbd98ebc1	-0.074668415
196	0x4205bd38	33.434784
197	0xc1a93796	-21.152142
198	0x41e22246	28.266735
199	0x4206c9bc	33.697006
200	0x41daf118	27.367722
201	0x420adba6	34.7145
202	0x00000000	0.0
203	0xbd17674e	-0.036963753
204	0x41bcc8ce	23.59805
205	0xc1ff2aff	-31.895994
206	0x41eca1d3	29.579016
207	0x4206e162	33.7201
208	0xbd02327d	-0.03178643
209	0x41c591fd	24.696283
210	0xbd8a27f4	-0.06745902
211	0x42074070	33.812927
212	0xbcaafc51	-0.020872267
213	0x41fa7807	31.308607
214	0x00000000	0.0
215	0x4206aacd	33.666798
216	0x420714f0	33.770447
217	0xbcfbb148	-0.030724183
218	0x42062162	33.5326
219	0x42060b6a	33.511147
220	0x4207a97c	33.915512
221	0x42064524	33.56752
222	0xc1ce75b6	-25.807476
223	0x00000000	0.0
224	0x41c471a5	24.55549
225	0x420684f6	33.629845
226	0xbd54e7e4	-0.05197896
227	0x420b8fee	34.890556
228	0x41e2d657	28.354658
229	0x42067e39	33.623264
230	0x41c24a4a	24.286274
231	0x41ede919	29.738817
232	0xbf0017a3	-0.50036067
233	0x41ba4998	23.285934
234	0x420645c2	33.568123
235	0x4206a85e	33.66442
236	0x41c62b75	24.77122
237	0x41c8b058	25.086105
238	0xbd253523	-0.04033388
239	0xbd25a131	-0.040436927
240	0xc1bf6df2	-23.928684
241	0x42065a6a	33.588295
242	0x42072a36	33.79122
243	0xc1c8975b	-25.073904
244	0xbd9b8b8c	-0.07594976
245	0xbce32ebb	-0.027732244
246	0x4207f788	33.99173
247	0x4207503c	33.828354
248	0xbd50890b	-0.050911944
249	0x4206ba4e	33.68194
250	0xc094718f	-4.638862
251	0xbd5b7dae	-0.053586654
252	0xbd6816f2	-0.056662507
253	0xbd14ed2c	-0.036358997
254	0x41ca4569	25.283892
255	0xbce1fc5a	-0.02758615

fc1.weight f4 [256, 256]
0	0x3f5ef773	0.8709633
1	0x3f01fedf	0.5077953
2	0x3ef93d8d	0.48679772
3	0x3ed4194d	0.41425553
4	0xbd5ff3de	-0.05467593
5	0xc0383a1e	-2.8785472
6	0x3d4ba094	0.049713686
7	0x3eafc755	0.34331766
8	0xba95ee0e	-0.0011438744
9	0x3e96f19d	0.2948121
10	0x3f23e993	0.6402828
11	0x40afefef	5.498039
12	0xc03162f3	-2.7716644
13	0x3f1f7129	0.62282044
14	0x3d482f7f	0.04887342
15	0xc003cd7d	-2.059417
16	0x3d217f52	0.039428063
17	0x3fbcf6cc	1.4762816
18	0x3ed0c3d0	0.40774393
19	0x3da55143	0.0807214
20	0x3e88db0e	0.26729625
21	0x3ceba9cc	0.028767489
22	0x3f215372	0.6301795
23	0x3edc7b27	0.43062708
24	0x3f0eba32	0.5575286
25	0x3f073c05	0.5282596
26	0x3f46eb8d	0.7770317
27	0x3ecfb3db	0.40566906
28	0x3d173c70	0.036922872
29	0x3fe599da	1.7937577
30	0xbfa46439	-1.2843086
31	0xbcf926b0	-0.030413955
32	0x3ee9c6f5	0.45659605
33	0xbf59a9f9	-0.8502498
34	0x3f1206ab	0.57041425
35	0x3eff88b9	0.49909
36	0x3ed43641	0.41447642
37	0x3e14d3c4	0.14533907
38	0x3edf461b	0.43608174
39	0x3eaef2df	0.3416967
40	0x3ce47992	0.02789
41	0x3ea060d0	0.31323862
42	0xc00526fe	-2.080505
43	0x40044f15	2.0673268
44	0x3eb3aad7	0.35091278
45	0xbcf1c68f	-0.029513625
46	0x3f0ea239	0.5571628
47	0x3f0c61c2	0.54836667
48	0x3c81bdb7	0.015837533
49	0x3ef1d54f	0.47233054
50	0xbe77552f	-0.24153589
51	0x3cdc12d9	0.026864456
52	0xc0454c2a	-3.0827737
53	0x3e0be4e8	0.1366154
54	0x3ed6c12b	0.4194425
55	0x3ef3707d	0.4754676
56	0x3e0cc41b	0.13746683
57	0xb9fab000	-0.00047814846
58	0x3ee1ca5d	0.44099703
59	0x3b88b270	0.004171662
60	0x3f0f304f	0.5593309
61	0x3d864293	0.06555667
62	0x3ed64895	0.4185225
63	0xbcf36837	-0.02971278
64	0x3d72605f	0.059173938
65	0x3f3f0f1c	0.7463243
66	0xbedbedcd	-0.42954865
67	0x3f298bf9	0.66229206
68	0x3f557f01	0.8339692
69	0x3ae4309c	0.0017409506
70	0xbb751747	-0.0037397908
71	0x3cd629bd	0.02614295
72	0xbd97f775	-0.074202456
73	0x3ed9dfde	0.4255361
74	0x3f5cd0fb	0.8625638
75	0xbfd83578	-1.6891317
76	0x3e453569	0.19258656
77	0x3ef091e9	0.4698632
78	0x3f7a2283	0.9770891
79	0xc022c5b0	-2.543316
80	0x3f39e2d0	0.72611713
81	0xbfd0880d	-1.6291519
82	0x3f732506	0.9497837
83	0x3eaa0a59	0.3321102
84	0xbd7fc44a	-0.062443055
85	0xbcec0ad5	-0.028813759
86	0x3f0e92bf	0.55692667
87	0x3e0de4bf	0.13856791
88	0x400efb93	2.2341049
89	0x3cdca140	0.026932359
90	0xbe5bb072	-0.21454027
91	0x3efb8549	0.49125126
92	0x3ec9a2e1	0.3938208
93	0x3f27b12d	0.65504724
94	0x3d810d75	0.06301395
95	0xbd59dbf0	-0.053188264
96	0xbcf71e55	-0.03016583
97	0xbe55d225	-0.20880945
98	0xbc0246ef	-0.007951482
99	0x3ee215ea	0.44157344
100	0x3f168bbf	0.58806986
101	0x3f01bd0e	0.506791
102	0x3eea367c	0.45744693
103	0x3da44c4c	0.08022365
104	0x3eb67e14	0.35643065
105	0x3f2cf391	0.6755915
106	0x3ef6f23b	0.48231682
107	0x3ed692d1	0.41908887
108	0xbdcf93ed	-0.101356365
109	0xbe9c84e7	-0.30570146
110	0x3eab9a1d	0.33516017
111	0x3eeb8ef7	0.4600751
112	0x3e34afe7	0.17645226
113	0xbd56250c	-0.052281424
114	0x3eba6bcb	0.36410365
115	0x40247aae	2.5699878
116	0x3e0cba12	0.13742855
117	0x3f7a9d01	0.9789582
118	0x3c1e3178	0.009655349
119	0xbdb82b69	-0.08992655
120	0xbceac7cd	-0.028659726
121	0xbcd4d262	-0.025979225
122	0x3ee2bf45	0.44286552
123	0x3eb33e14	0.350083
124	0x3ee880fc	0.45410907
125	0x3ec77151	0.3895364
126	0xc04f339b	-3.2375247
127	0xbce497d6	-0.027904432
128	0x3f182103	0.5942537
129	0x40250ad8	2.5787868
130	0x3e8a1d45	0.26975456
131	0x3f1a9c9c	0.60395217
132	0x3ea65fc8	0.3249495
133	0x3ee79a76	0.45235032
134	0x3efd4b5b	0.49471554
135	0x3ef80719	0.48442915
136	0x3f071f3b	0.5278203
137	0xbd9f12ba	-0.07767244
138	0x3f086a73	0.5328743
139	0x3f2e69c9	0.68130165
140	0x3eb6d160	0.35706615
141	0x3ef9a784	0.48760617
142	0x3cce92fc	0.025216572
143	0xc08ffe8a	-4.4998217
144	0xbd74be32	-0.059751697
145	0xbcc5c3f1	-0.024141284
146	0xbd3b3102	-0.045701034
147	0x3d90d99f	0.07072758
148	0x3d8f4622	0.06995799
149	0xbd76ddc2	-0.06027008
150	0x3f18833a	0.59575236
151	0x3eb25ad0	0.3483491
152	0xbe0495cc	-0.12947768
153	0xbd976872	-0.07392968
154	0xbe3109e9	-0.17288937
155	0x3f21624a	0.630406
156	0x3f084bc2	0.532406
157	0x3e6a432a	0.22877184
158	0x3ec7d704	0.3903123
159	0xbc93ddd0	-0.018050104
160	0x3f0fdf89	0.5620046
161	0xbd3fa1d4	-0.04678519
162	0x3ae9c614	0.0017835521
163	0xbf04608b	-0.5170981
164	0xbd3da6cd	-0.04630165
165	0x3e386fb2	0.18011358
166	0x3dc36e52	0.09542526
167	0x3f1cce98	0.6125274
168	0x3d94cb61	0.07265354
169	0x3ecfe1a3	0.40601835
170	0xbbb772ca	-0.0055984007
171	0xbe8e9186	-0.278454
172	0xbcfaaf8c	-0.030601285
173	0xbd94e5e6	-0.07270412
174	0x3f35f535	0.7107728
175	0x3d57e297	0.052706327
176	0x3c990a19	0.018681573
177	0x3eac6466	0.33670348
178	0xbcd5d80b	-0.026103994
179	0x3f1bbdad	0.608363
180	0x3e106178	0.14099681
181	0x3d1b74c9	0.037953172
182	0xbd0ad789	-0.033896957
183	0x3e8d1b7f	0.2756004
184	0x3ea93223	0.33046064
185	0xc00a5ff1	-2.1621058
186	0x3f1e5253	0.61844367
187	0xbd1a2113	-0.0376292
188	0x3f2d25f3	0.6763603
189	0xbd641b12	-0.05568988
190	0x3e9b585d	0.30340853
191	0x3f2bfa4a	0.67178786
192	0x3f1beb2c	0.6090572
193	0xbd0c72c2	-0.03428913
194	0xbc2abb40	-0.01042062
195	0xbe6c8315	-0.23096879
196	0x3ec52fe2	0.38513094
197	0xc1822026	-16.265697
198	0x3dd05049	0.10171563
199	0x3ec7ef56	0.39049786
200	0x3e222c8e	0.15837309
201	0x40853af6	4.1634474
202	0x3d7a4c42	0.06110788
203	0xbcd5882a	-0.026065905
204	0x3c548511	0.012971179
205	0xc0651b90	-3.5798073
206	0xbe020c16	-0.12699923
207	0x3eccc0db	0.39990887
208	0x3c50fdb0	0.012755796
209	0x3db29bce	0.08721124
210	0x3d669e09	0.056303058
211	0x3f16dac0	0.58927536
212	0xbd017a39	-0.0316107
213	0x3ea57de9	0.32322624
214	0xbc8370e4	-0.016045041
215	0x3ee84af8	0.45369697
216	0x3ee62d95	0.4495665
217	0xbd3c902f	-0.04603594
218	0x3ee8eabe	0.45491594
219	0x3eab4212	0.33448845
220	0x3f159750	0.5843401
221	0x3edad7f9	0.427429
222	0xbfd3ecf7	-1.6556691
223	0xbbec6160	-0.0072137564
224	0x3e920b87	0.2852442
225	0x3ebfcb73	0.37459907
226	0x3da32574	0.07966128
227	0x400bd1f4	2.1846895
228	0x3e4fec24	0.20304924
229	0x3ef8c391	0.48586705
230	0x3f3471ae	0.7048596
231	0x3e870960	0.2637434
232	0xbe91f80f	-0.28509566
233	0x3f47b763	0.780142
234	0x3ede30bd	0.4339656
235	0x3f0adae3	0.54240245
236	0x3f552359	0.8325706
237	0x3ec9718e	0.39344448
238	0xbd000966	-0.031258963
239	0x3cf8230c	0.03029015
240	0xc1361821	-11.380891
241	0x3edf4460	0.43606853
242	0x3f1f0b1f	0.62126344
243	0xc0a84d23	-5.259416
244	0xbe438da4	-0.19097
245	0x3d08f437	0.033436026
246	0x3f1eaf72	0.6198646
247	0x3f283432	0.65704644
248	0xbda4dc1f	-0.08049797
249	0x3f0556a0	0.52085304
250	0xbfa02081	-1.250992
251	0xbb4081a8	-0.0029374156
252	0x3a29d166	0.0006478041
253	0x3d141fff	0.036163326
254	0x3fa1ebc8	1.265008
255	0xbcc7d4c7	-0.024393452

fc1.bias f4 [256]
0	0x42066de7	33.607327
1	0xbd1b785b	-0.037956577
2	0x3cd9dc76	0.026594382
3	0x41b294ef	22.322721
4	0xbc3acf6f	-0.011401995
5	0x418efc49	17.873186
6	0x41b36813	22.425817
7	0xc0d43e1b	-6.632581
8	0x4206555e	33.583366
9	0x42064606	33.568382
10	0x42063348	33.55008
11	0xbd1e44ed	-0.03863995
12	0xc0c17366	-6.0453367
13	0xbd021cdd	-0.031765807
14	0x41aee930	21.863861
15	0x42064d5d	33.57555
16	0x41b65438	22.791122
17	0xbd447812	-0.04796607
18	0x41db1e5f	27.38983
19	0x420615c5	33.52126
20	0xbd5727fc	-0.052528366
21	0x4206579e	33.585564
22	0xc14d2160	-12.820648
23	0x41b09eef	22.077604
24	0x42062357	33.53451
25	0x41b2379c	22.277153
26	0x41ad275e	21.644222
27	0xbd585f82	-0.05282546
28	0xbd007c60	-0.031368613
29	0x00000000	0.0
30	0xbd171954	-0.03688939
31	0xbcf9f95e	-0.030514415
32	0x00000000	0.0
33	0x41b1303b	22.14855
34	0x42065f02	33.59278
35	0x41aecab1	21.84897
36	0x4186e1c1	16.860231
37	0x418c06ec	17.50338
38	0xc1767da8	-15.405678
39	0x41b96b38	23.177353
40	0xbd80a6fc	-0.0628185
41	0x42069b69	33.651768
42	0x00000000	0.0
43	0x41adaf8e	21.71072
44	0xbe48aef9	-0.19597997
45	0xbc555add	-0.013022152
46	0x42064584	33.567886
47	0xbd228ad3	-0.039683174
48	0x41ab7be1	21.435488
49	0x41b62e53	22.77262
50	0xbbf170bc	-0.0073681753
51	0x41bab809	23.33986
52	0xbd491500	-0.049092293
53	0xbd03e372	-0.03219933
54	0x420b26df	34.78796
55	0xc187fb0a	-16.997578
56	0xbd052fdf	-0.032516357
57	0xbc4ff91d	-0.012693671
58	0x41b2803c	22.312614
59	0x3dc02ed5	0.093839325
60	0xbc610de3	-0.013736221
61	0x420621c2	33.532967
62	0x42061eaf	33.529964
63	0x42062623	33.537243
64	0xc0d55033	-6.66604
65	0xc0d25c9b	-6.5738044
66	0x41ada22d	21.704187
67	0x419dd162	19.727238
68	0xc147185d	-12.443448
69	0x42065dd9	33.59165
70	0xbd021cd9	-0.031765793
71	0x42064b3e	33.57348
72	0xbcb28ac6	-0.021794688
73	0x41ade485	21.736582
74	0xbc44f807	-0.012022025
75	0x41b1bfd5	22.218668
76	0xbd03350a	-0.032033004
77	0x420718f8	33.774384
78	0xbc01f4dd	-0.007931915
79	0x41b143f7	22.158186
80	0x42064be0	33.574097
81	0xc0d3158f	-6.5963817
82	0x4206050b	33.504925
83	0x42060d6c	33.513107
84	0x41b77e18	22.93657
85	0x41ae94a4	21.822578
86	0xbc52b013	-0.012859362
87	0xbd1ab617	-0.03777131
88	0x42064cf6	33.575157
89	0xbc945e13	-0.018111264
90	0x42068ee8	33.639557
91	0xc0d44fd6	-6.6347456
92	0x42064a11	33.57233
93	0x42061bc2	33.527107
94	0x41a1d2fc	20.22802
95	0x3c4d65df	0.012536495
96	0xbc5a5004	-0.013324741
97	0x42062037	33.53146
98	0x420648e6	33.57119
99	0xbbde89ec	-0.006791344
100	0xbd7d8e3e	-0.06190323
101	0x41c10feb	24.132772
102	0x41b03937	22.027937
103	0xbd0ceabb	-0.034403544
104	0x41b3f89c	22.496391
105	0x42065691	33.584538
106	0x420625a0	33.536743
107	0x420651af	33.57977
108	0x42065c18	33.589935
109	0x41b437ec	22.527306
110	0x41aa4cdd	21.28753
111	0x42063619	33.55283
112	0xbd1560cf	-0.036469277
113	0xbd021cdc	-0.031765804
114	0x41af0e2b	21.881918
115	0x420679be	33.61889
116	0x41c7408c	24.906517
117	0x41b2684d	22.300928
118	0x3e08c560	0.13356543
119	0x420618ba	33.524147
120	0xbce36e27	-0.027762486
121	0x420621c4	33.532974
122	0x420d4b7e	35.323723
123	0xbd021cdc	-0.031765804
124	0xc114c26d	-9.297467
125	0xbd3073ec	-0.0430793
126	0xbd3fe166	-0.046845816
127	0x42064c93	33.57478
128	0xbc1094dc	-0.008824553
129	0xbbf0fd3b	-0.007354406
130	0xbd354613	-0.04425628
131	0x41b12b92	22.146275
132	0xbc25f648	-0.010129519
133	0x42062164	33.532608
134	0x4206573d	33.585194
135	0x42066c3f	33.60571
136	0x42066016	33.593834
137	0xc0d32c8b	-6.5991874
138	0x42062bb4	33.54268
139	0xbd1ab2b3	-0.037768077
140	0x42063865	33.555073
141	0x4206587b	33.586407
142	0xbce2ed95	-0.027701179
143	0x42067132	33.610542
144	0x41b850e1	23.039492
145	0x41a52788	20.644302
146	0x3c10b4a9	0.008832135
147	0x42061f7f	33.530758
148	0xbd021a64	-0.03176345
149	0x420615d6	33.521324
150	0x41b3d763	22.48017
151	0x4206583c	33.586166
152	0x42063c79	33.559055
153	0x41b10c11	22.130892
154	0x4186b0f1	16.836397
155	0x3bdb4089	0.006691043
156	0xc13f1208	-11.941902
157	0xbca28006	-0.019836437
158	0x420641bf	33.564205
159	0x420666f2	33.600533
160	0x41b103d1	22.126863
161	0x42064222	33.564583
162	0x420637ca	33.55448
163	0xbc91ccc1	-0.01779783
164	0x3f2a07b7	0.6641802
165	0x41cb6265	25.423044
166	0xc0d41848	-6.627964
167	0x3ca1924e	0.019723084
168	0x00000000	0.0
169	0x412283ec	10.1572075
170	0xbd99dc3d	-0.0751271
171	0xbc1ee7b7	-0.0096988
172	0xbd021c8d	-0.03176551
173	0xbdc45144	-0.09585813
174	0xbd1ab618	-0.037771314
175	0x42061b81	33.52686
176	0x420648ea	33.571205
177	0x41840467	16.50215
178	0xc0d485a1	-6.641312
179	0x42083f00	34.061523
180	0x41e35e0b	28.42092
181	0x4206281a	33.53916
182	0x4200a3e0	32.160034
183	0x41ae109c	21.75811
184	0xbd530db5	-0.051526744
185	0xbd91d8f0	-0.07121456
186	0xc0d2c278	-6.586239
187	0x42064c3d	33.57445
188	0x42065742	33.585213
189	0x41cf66fc	25.925285
190	0x41c1c831	24.22275
191	0x420629f3	33.540966
192	0x418da713	17.70658
193	0x4206731a	33.612404
194	0xbdea9571	-0.11454285
195	0x42064032	33.56269
196	0x41dec59f	27.846495
197	0xc0d4705e	-6.6387167
198	0xc0d2fc6f	-6.5933146
199	0x41b870f8	23.05516
200	0x41adb764	21.714546
201	0xbcb39fb2	-0.021926735
202	0x420cf38d	35.237843
203	0x420660fb	33.594707
204	0xbcc93201	-0.024559977
205	0x419cfa35	19.622171
206	0x41ce033f	25.751585
207	0x4206499b	33.57188
208	0x420bff24	34.99916
209	0xbd143c35	-0.03619023
210	0x419cac5d	19.584162
211	0x00000000	0.0
212	0x42065450	33.582336
213	0x418cee8e	17.616482
214	0xc0d2cbaf	-6.5873637
215	0x41ab7bd0	21.435455
216	0x42062bb8	33.542694
217	0xc12a8d96	-10.659567
218	0xbcd509e7	-0.026005698
219	0x42062906	33.540062
220	0x41ad88dd	21.691828
221	0xc1b9f657	-23.245283
222	0xbd3e5b32	-0.04647369
223	0xbd485977	-0.048913445
224	0x00000000	0.0
225	0x41af7c7d	21.935785
226	0x42065733	33.585155
227	0xbd2a18d0	-0.04152757
228	0xc0d52be4	-6.6616077
229	0xbbb62759	-0.00555889
230	0xbbfee4de	-0.007778748
231	0x41afa9c1	21.957888
232	0x42064d57	33.575527
233	0x420c8b25	35.135883
234	0xbbc4c9d8	-0.006005507
235	0xbd295811	-0.041343752
236	0xbc88ea44	-0.016713269
237	0x4206288d	33.5396
238	0x41b5c7e2	22.722599
239	0xbc45c577	-0.012071005
240	0x42066cd8	33.606293
241	0x420627ec	33.538986
242	0x418a757b	17.307364
243	0x420616cf	33.522274
244	0xbc27291b	-0.010202671
245	0x41b7ed9b	22.991018
246	0x42065e1c	33.591904
247	0xbc3c55f0	-0.0114950985
248	0x42064abc	33.572983
249	0xbc57d466	-0.013173198
250	0x41ad72bc	21.681023
251	0xc15e6fb5	-13.902272
252	0xbca7cfdd	-0.02048486
253	0x41b6eb61	22.864931
254	0x41158653	9.345294
255	0x42061bf4	33.527298

last_fc.weight f4 [1, 256]
0	0xbf571812	-0.84021103
1	0x3ce1c351	0.027558954
2	0x3bc7068d	0.006073779
3	0xbf9fa54c	-1.247232
4	0xbc0b7638	-0.008512072
5	0x3d4eadb8	0.05045864
6	0xbffd8f01	-1.9809266
7	0x3c605fc8	0.013694711
8	0xbf516cc4	-0.8180659
9	0xbf4d74f1	-0.80256563
10	0xbf404fa0	-0.751215
11	0xbd082d16	-0.033246122
12	0xbf073147	-0.52809566
13	0xbcf581c2	-0.0299691
14	0xbfb40a63	-1.406567
15	0xbf4b9c70	-0.7953558
16	0xc0091d7c	-2.1424246
17	0x3cf8cabd	0.03037011
18	0xc02c3f0a	-2.6913476
19	0xbf3e6d07	-0.7438511
20	0x3c3ff054	0.0117150135
21	0xbf504ef2	-0.8137046
22	0xbef62e86	-0.4808237
23	0xc0181846	-2.3764815
24	0xbf3f3f4b	-0.7470595
25	0xc04a8798	-3.164526
26	0xc0406cb6	-3.0066352
27	0xbd006170	-0.031342924
28	0xbced3f14	-0.028960742
29	0x3a24798c	0.00062742154
30	0x398b8c37	0.00026616614
31	0x3c013173	0.007885325
32	0x3acd9dc4	0.0015687277
33	0xbf1425a0	-0.5786991
34	0xbf58eeb3	-0.84739226
35	0xc00e8498	-2.2268429
36	0x3ed66858	0.41876483
37	0xbcc56cb0	-0.024099678
38	0x3aaf4441	0.0013371782
39	0x3dd0bae9	0.101919
40	0x3abf2578	0.001458331
41	0xbf60c95b	-0.87807244
42	0x3b0714f4	0.0020611854
43	0xc0179675	-2.3685582
44	0x3c19821e	0.009369401
45	0xbc276436	-0.010216763
46	0xbf51a30b	-0.8188941
47	0x3cd89e66	0.026442718
48	0xbff79999	-1.9343749
49	0xbfb479e9	-1.4099704
50	0xbb82ac9f	-0.003987863
51	0x3ec1c2d9	0.3784397
52	0xbc7a5178	-0.015278213
53	0x3c1729d9	0.009226286
54	0xbf2dbe29	-0.67868286
55	0x3f1142c8	0.56742525
56	0x3c51594f	0.0127776405
57	0x3c4858bd	0.012228188
58	0x3eddc5ec	0.43315065
59	0xbd273e74	-0.040831044
60	0x3c55bc42	0.013045372
61	0xbf3b69ff	-0.7320861
62	0xbf3ec740	-0.7452278
63	0xbf3b3e6a	-0.7314211
64	0x3cfbb7bf	0.030727265
65	0xb97758ca	-0.00023588832
66	0xbf853d54	-1.0409341
67	0x3e1e326d	0.15448923
68	0xbee91d86	-0.45530337
69	0xbf5279d6	-0.82217157
70	0x3d000a52	0.031259842
71	0xbf54a297	-0.8306059
72	0x3d11bc85	0.035580177
73	0xc0224ccb	-2.535937
74	0xbc7124d5	-0.014718254
75	0xc01c8942	-2.4458776
76	0xbcf4cb7b	-0.029882183
77	0xbf83573d	-1.0260998
78	0xbbae0698	-0.0053108446
79	0x3cd34cf8	0.025793537
80	0xbf462ff6	-0.7741693
81	0x3c0c80a0	0.008575588
82	0xbf2abfa4	-0.6669867
83	0xbf28fa29	-0.66006714
84	0xbf854e3f	-1.0414504
85	0xbfb46d44	-1.4095845
86	0xbc49a9cc	-0.012308549
87	0x3cd6fa08	0.026242271
88	0xbf506dee	-0.8141774
89	0x3c913510	0.017725497
90	0xbf6d874b	-0.92784566
91	0xbccf7249	-0.02532305
92	0xbf504d4e	-0.8136796
93	0xbf3baaaa	-0.7330729
94	0x3f013092	0.5046474
95	0xbb983779	-0.0046452847
96	0xbb06911d	-0.0020533272
97	0xbf36d2d7	-0.71415466
98	0xbf52bf1c	-0.8232286
99	0xbbc81ae7	-0.0061067226
100	0xbc85d4f6	-0.0163369
101	0xc10b68e2	-8.713106
102	0xc0033ee1	-2.0507128
103	0xbc04409d	-0.008072046
104	0xc02e1055	-2.7197468
105	0xbf58200c	-0.844239
106	0xbf4057b7	-0.7513384
107	0xbf57c744	-0.8428843
108	0xbf546442	-0.8296548
109	0xbf9f4927	-1.2444199
110	0x3cfb813e	0.030701276
111	0xbf48bfc9	-0.7841764
112	0x3cd3c675	0.025851468
113	0xbcf22d03	-0.029562479
114	0x3ed54524	0.41654313
115	0xbf5c167f	-0.85971826
116	0xc085c26f	-4.1799846
117	0xc0103c13	-2.2536666
118	0xbcce86d7	-0.025210781
119	0xbf3f94d5	-0.74836475
120	0x3d125fb8	0.035735816
121	0xbf3e3223	-0.7429525
122	0xbf3c7159	-0.73610455
123	0xbcf4eba0	-0.029897511
124	0xbeb71bcd	-0.35763398
125	0xbc950ee6	-0.01819558
126	0x3ad26777	0.0016052563
127	0xbf4fb992	-0.8114253
128	0xbbb0e3bc	-0.005398242
129	0x3c179da8	0.009253897
130	0xbc868feb	-0.016426047
131	0x3c199648	0.009374209
132	0xbba629a1	-0.0050708805
133	0xbf3db61a	-0.7410599
134	0xbf4a18bc	-0.7894399
135	0xbf526d22	-0.82197773
136	0xbf569217	-0.83816665
137	0x3cb64c30	0.022253126
138	0xbf4131e8	-0.75466776
139	0x3cda32d4	0.026635565
140	0xbf461c78	-0.7738719
141	0xbf53ce48	-0.82736635
142	0x3cf0d5fd	0.029398913
143	0xbf46e3c5	-0.776913
144	0xbf0f4287	-0.5596089
145	0xbcca82ec	-0.024720632
146	0x3ac23867	0.0014817835
147	0xbf3a097e	-0.72670734
148	0x3d017da8	0.031613976
149	0xbf388da1	-0.7209111
150	0xc04d8e43	-3.211808
151	0xbf533750	-0.82506275
152	0xbf4b9825	-0.7952903
153	0xc001cabe	-2.0279994
154	0x3eec5f5f	0.46166512
155	0xbd0b2eca	-0.03398017
156	0x3dd67794	0.104720265
157	0xbd1e7cb5	-0.03869315
158	0xbf4f7b8c	-0.8104789
159	0xbf5516a1	-0.83237654
160	0xbffd2e57	-1.9779767
161	0xbf549096	-0.8303312
162	0xbf41fb30	-0.75773907
163	0x3bb7bc35	0.005607153
164	0xbefb51e8	-0.49085927
165	0xbe84bce7	-0.2592537
166	0x3ce158af	0.027508108
167	0x3c5bb73b	0.013410385
168	0x3a14c990	0.0005675787
169	0x3e87a1ca	0.26490623
170	0x3c883112	0.016624961
171	0xbbf0e8d1	-0.0073519726
172	0xbd00cf74	-0.031447843
173	0x3c06585a	0.008199776
174	0x3cdc1855	0.026867071
175	0xbf3bf56b	-0.73421353
176	0xbf4388ea	-0.7638079
177	0x3ecc1aaf	0.39864108
178	0xbcfeb6e2	-0.031093065
179	0xbf163b47	-0.586842
180	0xc03c233a	-2.93965
181	0xbf430236	-0.7617525
182	0xc037ce2c	-2.8719587
183	0x3c8bb8ca	0.017055888
184	0xbc9a34c3	-0.018823987
185	0xbcbdb4f7	-0.02315758
186	0xbc0482f3	-0.008087861
187	0xbf565725	-0.8372672
188	0xbf564241	-0.83694845
189	0x3d8683ff	0.06568145
190	0xc0b80f37	-5.7518573
191	0xbf431ff4	-0.7622063
192	0xbdf26fb5	-0.11837713
193	0xbf02ae09	-0.51046807
194	0x3c74dfb1	0.01494591
195	0xbf4b1564	-0.79329515
196	0xc133362a	-11.200724
197	0xbbe2e12f	-0.0069238166
198	0x3cbf34f5	0.023340682
199	0x3e5bd936	0.21469578
200	0xbe1fb9fa	-0.15598288
201	0x3c3a766b	0.011380772
202	0xbf985f98	-1.1904173
203	0xbf4f7b81	-0.81047827
204	0x3c193fee	0.009353621
205	0x3ec9d3db	0.39419445
206	0x3e6bd6c9	0.23031153
207	0xbf4eedb3	-0.8083145
208	0xbf8fb02f	-1.1225642
209	0x3c122f17	0.00892236
210	0x3f8bd6cd	1.0924927
211	0xbb31cd6f	-0.0027130505
212	0xbf543597	-0.8289427
213	0xbf38d602	-0.7220155
214	0x3ce0109d	0.027351672
215	0xbf71f123	-0.9450857
216	0xbf34eca3	-0.7067358
217	0xbf884838	-1.064704
218	0x3c33b778	0.010969035
219	0xbf3edc51	-0.74554926
220	0xc00597b6	-2.0873847
221	0x3f3a9b6b	0.728934
222	0x3cd201a7	0.025635554
223	0x3c78f3c3	0.015194836
224	0x3b2fe2b4	0.0026838006
225	0xbf30e49a	-0.6909882
226	0xbf4cf74a	-0.80064833
227	0xbcef99af	-0.029248087
228	0xbb0c560f	-0.00214136
229	0xbb3d772c	-0.0028910143
230	0xbbe3c4fd	-0.006950973
231	0xc02044f3	-2.5042083
232	0xbf574256	-0.84085596
233	0xbf63266f	-0.8873052
234	0xbb79f83d	-0.0038142346
235	0xbcec7310	-0.02886346
236	0x3c62a667	0.013833619
237	0xbf44a885	-0.7681964
238	0xc03d08ad	-2.9536545
239	0xbc1a3554	-0.0094121285
240	0xbf56b20d	-0.83865434
241	0xbf4a9385	-0.79131347
242	0xbaf073b4	-0.0018345029
243	0xbf4552d9	-0.7707954
244	0xbc0f4b3b	-0.008745964
245	0xc0c5719f	-6.17012
246	0xbf550d5c	-0.8322351
247	0x3c6c2a48	0.0144143775
248	0xbf4be3d1	-0.79644495
249	0x3bb817d3	0.0056180744
250	0xc000c884	-2.0122385
251	0xbdef7b48	-0.11693436
252	0x3cd181ea	0.025574643
253	0xbfdc6338	-1.7217779
254	0x3f71af6b	0.9440829
255	0xbf3a9941	-0.72890097
