save_mode/SAC_v_500_policy_network.pth (torch, 342351 bytes, 8 tensors)

hidden1.weight f4 [256, 48]
000000 70 b2 74 bd 70 64 37 be 2a 34 0e 3d 80 c2 34 3b
       -0.059740484 -0.17909408 0.034717716 0.0027581751
000010 80 b6 3e bb 6e 76 08 bd 5c 3b 97 3c e0 13 43 bc
       -0.0029100478 -0.03331607 0.018460922 -0.011906594
000020 88 1f 7b 3c 33 9b fc bd df f0 0a be fa 22 17 bd
       0.015327342 -0.123342894 -0.13568448 -0.03689859
000030 e8 62 08 3d a6 7b 5d bd 2f b5 2a bd 58 c6 01 bc
       0.03329745 -0.054073 -0.041676696 -0.007920824
000040 fc b1 18 bd 14 3a 8a bc 45 d0 b4 3c 8a da 77 bd
       -0.037279114 -0.016873397 0.022071967 -0.06051115
000050 9c 18 12 3d a6 76 3f bd 66 be c5 bd 80 27 c7 bc
       0.035668 -0.04674401 -0.09655456 -0.024310827
000060 00 60 2b b8 dc b9 48 3d a8 a1 93 3d dc 27 9e bd
       -4.0858984e-05 0.049005374 0.07208568 -0.07722446
000070 f0 cb 28 3d 5e 05 7b bd 61 1f 3e bc 1f e3 a4 bd
       0.041210115 -0.061284415 -0.011604161 -0.080511324
000080 18 e6 01 3d 80 6b fb 3a e8 89 2a bc c7 9c 14 bd
       0.031713575 0.0019181818 -0.010408856 -0.036282327
000090 90 f9 ab 3b 5c 51 6d 3d 88 d4 31 bd d6 7e 73 bd
       0.005248256 0.05793892 -0.043415576 -0.059447132
0000a0 7c a2 98 bc e0 9b 0b bb e0 79 ba bc c1 0a a9 bc
       -0.018632166 -0.0021302626 -0.022763193 -0.02063501
0000b0 dd 5e 9b bc 08 84 1e 3c 4a 5b 5d bd c6 4e 52 bd
       -0.018966133 0.009675033 -0.05404214 -0.051344655
0000c0 78 4e 62 bc 47 70 30 be 38 24 56 3c c0 8d 14 3c
       -0.013812654 -0.1723033 0.013070159 0.009066999
0000d0 e4 6d e9 bc 09 0e 04 be 94 02 c7 bc cc 4e 08 3d
       -0.028494783 -0.12895979 -0.024293222 0.03327827
0000e0 aa 60 7b bd 9b 39 86 3d 97 c6 42 3c 40 12 0a 3b
       -0.061371483 0.06553956 0.011888168 0.0021068007
0000f0 98 85 61 3d 32 33 87 3a ad d2 03 bd c8 f0 01 3c
       0.055059046 0.001031494 -0.032183338 0.007930942
000100 88 77 8d 3c 80 98 b1 bb f0 d3 f5 3c fc d1 30 3d
       0.017268911 -0.0054197907 0.030008286 0.043169007
000110 c0 c6 0e 3c cc 57 32 3d a9 b2 cc bd 16 4e 79 3d
       0.008714378 0.04354076 -0.09995014 0.060865484
000120 18 9c 28 bc c0 2c d5 3c f1 0b 22 bd 81 b1 0f be
       -0.010291122 0.026022315 -0.03956217 -0.14032556
000130 3c a1 6e 3d b6 9c 52 3d 05 8a 96 bd 3e 8d fc bc
       0.058259234 0.051418982 -0.07350544 -0.030829068
000140 a0 45 a6 3c 9c 15 aa 3c c6 c3 53 bd 72 92 d2 bd
       0.020296872 0.020762257 -0.051700376 -0.102818385
000150 30 ed 26 bc cc bb 25 bd 8a 5d 70 bd 03 1e c0 bd
       -0.010188386 -0.0404623 -0.058682956 -0.09380724
000160 3d a9 11 be 22 73 23 3d 06 58 30 3d 2f 3d 0c be
       -0.14224716 0.03990472 0.043052696 -0.13695215
000170 00 52 3c bd 1e fd 61 bd 80 0b ab 3b f6 25 25 bb
       -0.04597664 -0.055173032 0.0052198768 -0.0025199628
000180 1c 02 d7 3c 63 7e e3 3d 16 58 22 3d dc be 5a 3d
       0.026246123 0.11108091 0.039634787 0.053404674
000190 be 1d 5e bd 4d 98 2f bb fa 10 24 bd 94 8f 24 bd
       -0.054227583 -0.002679366 -0.040055253 -0.04017599
0001a0 c8 ae 71 bd e8 43 2d bd 81 67 b7 3c e0 4e 87 3c
       -0.059004575 -0.04230109 0.022388222 0.016517103
0001b0 80 e0 e7 3b 5c 80 95 bd 73 a5 0c bd 8a a6 03 bd
       0.007076323 -0.07299873 -0.034337472 -0.032141246
0001c0 20 9b 0a bc fc ff 19 bd 87 15 89 bd 80 14 27 3b
       -0.008459836 -0.03759764 -0.06693559 0.0025494397
0001d0 40 b8 e8 3b 94 88 04 bd 45 a0 aa 3c 80 25 3f 3a
       0.0071020424 -0.032356814 0.020828376 0.000729166
0001e0 38 b2 69 3c 7a 75 53 3d 50 04 70 bc 19 50 1f be
       0.014263682 0.051625706 -0.014649466 -0.15557899
0001f0 f0 33 6d bc a6 32 6d bd 13 e8 ef bd 39 91 b7 bc
       -0.014477715 -0.05790963 -0.117141865 -0.022408115
000200 00 02 bf 3b f4 44 87 bc 00 d6 2f 39 8e 4a 2b 3b
       0.005829096 -0.016512372 0.00016769022 0.0026136967
000210 e8 a7 0c bd a0 15 d2 3b ec 9f 40 bd c0 f9 d7 3c
       -0.034339815 0.0064112693 -0.047027513 0.026364207
000220 c2 f3 53 be 04 d5 14 bd c0 11 fa 3b 26 ae ab 3b
       -0.20698455 -0.03633596 0.0076315105 0.005239266
000230 54 23 d9 bc b4 7c 73 bd 72 a2 36 bd b2 57 21 bc
       -0.026506104 -0.059445098 -0.044588514 -0.009847568
000240 82 b5 02 bd 2a dc 23 3e 4a 8d 7a 3d 50 5b 5c 3d
       -0.03191138 0.16001955 0.0611699 0.05379802
000250 e8 e6 73 bd 76 93 b3 bd fc b6 f4 3c 98 18 14 3d
       -0.05954638 -0.0876836 0.02987241 0.036156267
000260 86 82 76 3d 5d 1b 68 3d dc ba 9a 3c 86 19 7d bd
       0.06018307 0.05666672 0.01888793 -0.06179192
000270 50 a6 53 3d 4d 9c 9c bc 76 10 b0 bb 10 59 c9 3c
       0.05167228 -0.019117499 -0.005373056 0.024578601
000280 dc 55 a7 3c a4 9e b4 3c 09 eb 2e bd 0c c2 68 3d
       0.020426683 0.022048302 -0.042704616 0.056825683
000290 74 ae a4 bc a4 95 a5 3c 67 8d b1 bd 3a c9 52 bd
       -0.020102717 0.020212956 -0.086695485 -0.051461436
0002a0 b2 a4 6f 3d b2 37 17 bd 80 a4 30 bc 6c 15 4a 3d
       0.058506675 -0.03691835 -0.010781407 0.049336836
0002b0 36 d3 5a 3d b4 73 33 3d 33 64 80 bd 87 1e b7 bd
       0.053424083 0.043811515 -0.062691115 -0.089413695
0002c0 28 ca bd 3c b4 10 11 bd e4 2a 1f bd 9a 73 4f bd
       0.023167685 -0.03541632 -0.038859263 -0.050647356
0002d0 40 48 bc ba f8 7d 32 3d 14 5c 7b bd 64 36 d5 bc
       -0.0014364794 0.043577164 -0.06136711 -0.026026912
0002e0 25 75 88 be 80 fa 66 3d 24 d9 df bc a2 ab 14 bd
       -0.26651874 0.05639124 -0.02732522 -0.036296494
0002f0 2e f9 81 3b ba aa 70 bd 40 45 ce bc 03 9d 50 bc
       0.003966472 -0.058756568 -0.025179505 -0.012732747
000300 2e 94 62 3d 76 68 47 be 40 93 6e bc 48 a6 6a 3d
       0.055317096 -0.19473442 -0.014561474 0.057287484
000310 4c 54 c6 3c 4c 15 91 bd 6c a7 e7 bc 1a ad 10 bd
       0.024210118 -0.0708414 -0.028278075 -0.035321333
000320 3c fb ad 3c bf 9c 1f 3d f0 35 a4 bd 64 37 0e bd
       0.021237962 0.038967844 -0.080181 -0.034720793
000330 84 40 6d 3d 63 19 35 bd 80 54 09 bd 12 0b 7a 3d
       0.057922855 -0.044213664 -0.03352785 0.061045714
000340 fa d1 38 bd e0 17 7c 3d 6f 7c 85 3b c2 da 31 3d
       -0.045122124 0.061546206 0.0040736715 0.043421514
000350 08 56 3c 3d f4 6d 51 3d f4 0b c8 bc b0 6b 2e 3d
       0.045980483 0.05113025 -0.024419762 0.042583168
000360 9e cc 10 bd 80 38 03 3a e3 3b b0 3b ca c5 80 bc
       -0.03535139 0.00050056726 0.005378233 -0.015719313
000370 6e 83 5f bd 80 42 63 3b da 81 89 bd 38 95 8f 3c
       -0.0545687 0.0034677088 -0.0671422 0.017527208
000380 70 3c 13 3c c0 86 e0 bb 92 8d 50 bd d3 70 37 bc
       0.008986577 -0.006852001 -0.050916262 -0.011196333
000390 f8 a6 aa bc 12 07 64 3d b6 c6 02 3d 9e da a9 bc
       -0.02083157 0.055670805 0.031927787 -0.020734128
0003a0 8e 79 15 3c 94 bc bd 3c 84 56 62 bd f5 4e af 3d
       0.009123219 0.02316121 -0.05525829 0.08559982
0003b0 52 88 aa 3c 14 3a ab bc c4 1b 72 bd f9 19 28 3d
       0.020816956 -0.020901717 -0.05910851 0.041040394
0003c0 be 45 45 3d de 51 b9 bd 74 dd 15 3d f0 99 05 bc
       0.048162214 -0.09048818 0.036588147 -0.008154377
0003d0 30 fb f4 3b 16 58 a5 3c a2 95 09 3d 98 61 ef 3c
       0.007476233 0.020183604 0.033589967 0.029221341
0003e0 62 cd 0e 3d c6 af 24 3d a3 e4 cb 3a 38 07 58 3d
       0.034863837 0.040206693 0.001555581 0.05274126
0003f0 e0 2f ae bc 4d 6f 32 3c a9 d6 20 bd 50 68 aa 3b
       -0.021263063 0.010890794 -0.039267216 0.0052004233

hidden1.bias f4 [256]
000000 0a 75 f1 bc 37 3f bd bd d5 86 38 bd b4 c0 27 bd
       -0.029474754 -0.09240573 -0.04505046 -0.04095526
000010 41 1d 8d 3b 40 54 87 bc cf 6c b2 bc 8f f0 af bd
       0.004306466 -0.016519666 -0.0217804 -0.08590805
000020 b0 91 94 bc 64 4e b8 bc 00 00 00 00 eb 08 eb bc
       -0.018135875 -0.022498317 0.0 -0.028690776
000030 25 11 fc bb d5 40 89 ba 93 da 89 be 8e da 7d bc
       -0.0076924735 -0.0010471592 -0.2692457 -0.015494002
000040 e0 bc 2b bc a9 18 68 3c 2d 17 a1 bd af 01 57 3e
       -0.010482043 0.014166036 -0.078657486 0.20996736
000050 69 58 0d 3e f7 18 00 bf 3a aa 7c bc 9e cc 73 3b
       0.13803257 -0.50038093 -0.015421445 0.0037200819
000060 d8 1d 2b 3c ec e2 24 b9 f5 ee f5 3c 85 61 2f bd
       0.010444127 -0.00015724794 0.03002117 -0.04281761
000070 e4 4f 80 bd 33 e0 22 3b b6 e1 47 3d 69 87 87 3c
       -0.06265238 0.0024852871 0.04879924 0.01654406
000080 d6 22 37 3c b7 0c c3 3c aa 26 26 3e cf fa f9 3c
       0.011177739 0.023809774 0.16225687 0.030515103
000090 9c 92 ef 3c e3 27 77 3d 11 8a 06 bd af 51 dd bb
       0.029244713 0.060340773 -0.032846514 -0.006754122
0000a0 7a ad 7e bc aa 05 a6 3c 2a a8 47 bd 33 90 95 bb
       -0.01554429 0.020266373 -0.048744358 -0.004564309
0000b0 f3 81 0e bd f9 57 c3 bc 9e b8 a7 3b 4e b0 d3 bb
       -0.034791898 -0.02384566 0.0051184436 -0.006460226
0000c0 70 c3 9a bc f6 19 b0 bd ce 08 ef bc 76 5d 38 bd
       -0.01889202 -0.08598702 -0.029179003 -0.045011006
0000d0 f9 34 09 bd 0f 2c db bd 19 51 3a bd 59 f4 15 3b
       -0.033497784 -0.10701763 -0.045487497 0.0022881238
0000e0 64 cb 4a bc fa 76 e3 3a 55 7d 85 bd ae 92 d3 3d
       -0.012377594 0.0017354183 -0.06518046 0.10330711
0000f0 2e 14 a8 bc 2f 9b fd bc e0 53 26 3d 53 b2 57 bc
       -0.020517435 -0.030957786 0.040607333 -0.013165074
000100 98 9b ec 3c 53 a6 d2 3c 01 24 e7 bc 08 02 b9 bc
       0.028882787 0.025714075 -0.02821541 -0.022583976
000110 25 ac 29 bb e8 39 a8 3c dc 28 09 3d 4b ee b4 3c
       -0.002588996 0.020535424 0.033486232 0.022086283
000120 ac a5 e1 be 1a cf 2c 3c 3f 1a ae bd ec 8b 39 bf
       -0.4407171 0.010547424 -0.085011 -0.7247913
000130 c3 2d 30 bc ab 02 93 3b 82 b9 eb bd f0 34 19 bd
       -0.010753098 0.004486402 -0.11509992 -0.037404
000140 6b 9b 26 bd e2 f6 e5 bc 7d c3 56 bc 6f 15 cd bb
       -0.040675562 -0.028071824 -0.0131081315 -0.0062586586
000150 00 00 00 00 69 5f 6e bc 0b ee 56 3c c6 0b 8b bb
       0.0 -0.014549115 0.013118277 -0.004243347
000160 33 73 1f bd ae 1e 5f 3d 3f 6b 24 bd 6d 6c 99 3a
       -0.038928222 0.054472618 -0.04014134 0.0011705287
000170 a1 a0 35 bc 40 5b 48 3d b2 b7 48 be da fb ad 3b
       -0.01108566 0.048915148 -0.19601324 0.005309564
000180 00 00 00 00 ba 75 98 bb fa c6 e3 bc 41 ca 4a bd
       0.0 -0.004652706 -0.02780484 -0.04950929
000190 3c 91 cc bb 00 00 00 00 76 5a 28 bd 65 e6 c1 be
       -0.006242899 0.0 -0.041101895 -0.3787109
0001a0 ff c2 fb ba fe 7c 1a be f4 dd e5 bc ba 58 4a bc
       -0.0019207894 -0.15086743 -0.028059937 -0.012350256
0001b0 b7 09 bb 3a 96 59 b0 bd b0 7c 02 bd 51 ed 56 bd
       0.0014269863 -0.08610837 -0.031857193 -0.052472416
0001c0 c2 11 b6 be 0c 25 d7 bc 6c 5b c0 bd 58 e5 7c bc
       -0.35560423 -0.026262783 -0.09392437 -0.015435539
0001d0 04 ee 9a be 86 dd de 3d 5a cc 9b bc a1 ee 3a bd
       -0.30259717 0.10882096 -0.01901834 -0.04563773
0001e0 42 58 86 3b 2f 3d 12 ba c7 82 2d 3c 17 89 b9 bb
       0.0040998766 -0.0005578575 0.010590262 -0.0056620943
0001f0 b8 89 8e bc fe 3a 70 3b 66 1c 57 be 8e 28 82 be
       -0.017399654 0.0036656256 -0.21006927 -0.25421566
000200 99 97 1b bb d8 b4 de bd 9e fc f6 bb ee 3b 4a bb
       -0.0023741482 -0.10874337 -0.0075374385 -0.0030858475
000210 15 3d 36 bc c7 84 57 3c f6 12 28 bc 19 29 a0 3a
       -0.0111229615 0.013154215 -0.010258427 0.0012219279
000220 31 40 49 bd d0 9f 55 bc 0c 25 90 bd 63 58 47 bd
       -0.049133483 -0.013038591 -0.07038316 -0.048668277
000230 7a 2c 9c bc 89 17 15 3d ef e5 b6 3d 71 22 95 bc
       -0.019064177 0.036399398 0.08930575 -0.0182049
000240 f0 08 22 3d a3 44 f3 bc 57 04 b6 bc a6 fb ac bc
       0.039559305 -0.029695814 -0.022218866 -0.02111609
000250 00 00 00 00 31 3d 03 bd aa e5 bb bc e5 45 47 3d
       0.0 -0.03204078 -0.02293666 0.04865064
000260 b6 07 5e 3c 00 00 00 00 a7 cb f7 bb 24 ee c5 3c
       0.013551643 0.0 -0.007562119 0.024161406
000270 08 90 21 bd fe 46 64 be ae 5e a2 bd 75 fd 39 bc
       -0.039444 -0.22292706 -0.07928215 -0.011351933
000280 46 e3 18 bc 61 8b aa bc 0f dd b6 bc 2f 8e 54 bc
       -0.00933153 -0.020818414 -0.022322206 -0.012973352
000290 34 4f ad bd 00 00 00 00 41 4e 22 bd 50 f8 a6 bb
       -0.084623724 0.0 -0.03962541 -0.005095519
0002a0 b8 1e 29 bb 14 e9 cc 3c 11 e8 f2 bc cf 5a 48 bb
       -0.0025805663 0.025013484 -0.029651674 -0.0030571704
0002b0 54 92 de 3b e1 7a 44 3c d7 c9 24 bc 9d 07 e1 bc
       0.006792346 0.011992187 -0.010057888 -0.02746945
0002c0 3d b7 14 3e 47 12 15 be 93 5a 7f bc 40 e2 09 bc
       0.14523025 -0.14557754 -0.015585559 -0.008415759
0002d0 81 4d 91 bc e4 c2 b1 bc 0a 91 18 3b b7 52 86 3c
       -0.017737152 -0.021699376 0.002327981 0.016396863
0002e0 ef 0e b0 bc 6c 58 4f bb ef e3 b4 bc c4 76 06 bd
       -0.021491496 -0.0031638397 -0.022081343 -0.032828107
0002f0 6e 86 19 bd 3d b7 23 bd 5f 0c ca b9 a9 a3 96 bc
       -0.037481718 -0.03996967 -0.0003853766 -0.018388586
000300 da b2 51 bd 94 22 34 3e 9c 27 0e bd 00 00 00 00
       -0.051195957 0.17591316 -0.034705743 0.0
000310 26 62 be bc 0e f7 e6 3a a8 42 f2 be 99 21 0b bd
       -0.02324016 0.0017621235 -0.4731648 -0.033967588
000320 8b eb 55 bc 00 00 00 00 3c 10 d8 bb 74 c4 a7 bd
       -0.013056646 0.0 -0.006593732 -0.08191767
000330 00 00 00 00 d3 03 6f bc de fb bc bc fe c3 07 bd
       0.0 -0.014588314 -0.023069318 -0.033145897
000340 a0 f1 97 bd 56 82 d1 3c 1b f5 4b 3d e2 54 94 bd
       -0.07419133 0.025574844 0.049794298 -0.072427526
000350 d4 b2 8d bc ec 4f 33 bc ba 59 ee bc 04 97 cf bd
       -0.017297186 -0.010944348 -0.02909552 -0.10136226
000360 7c 22 0d be d2 49 90 3d 3d 1d 2c 3d 1c f5 34 39
       -0.13782686 0.0704533 0.04202007 0.00017257448
000370 32 49 ee 3c 5d 63 5c bd 32 d7 36 bd a4 e4 87 bc
       0.029087637 -0.053805698 -0.04463882 -0.016588517
000380 df e7 10 bd 33 19 42 bc 1e 6b 75 bd 19 6e 86 bc
       -0.03537738 -0.011846828 -0.059916608 -0.01640992
000390 35 6b d2 bb c0 f8 be bb 85 2f 49 3c c0 82 a1 bb
       -0.0064214715 -0.005827993 0.012279396 -0.0049289167
0003a0 3a ae 53 bc 1e ac 81 bd 5c 2d 0f bd c5 66 8d be
       -0.012919957 -0.06331657 -0.034955367 -0.2761747
0003b0 25 79 1d 3d 06 d0 00 bd 3c 8a a3 bb 0c e6 d0 3b
       0.03844561 -0.031448387 -0.004990844 0.00637508
0003c0 88 96 c6 bc ee 5e 8c be 11 c6 fc ba 01 dd 1f be
       -0.0242417 -0.27416176 -0.0019285103 -0.1561165
0003d0 b5 50 b1 3c 5b f7 11 bc 7b fc 03 bd e8 d1 13 bd
       0.02164493 -0.008909072 -0.032223206 -0.036088854
0003e0 06 16 06 bc 80 3e b5 bc 59 ed e2 bd 1f ab c9 3c
       -0.008183962 -0.022124529 -0.11080427 0.02461773
0003f0 d8 2e 76 bd 9e c0 05 bd 36 88 a8 3d 81 5c ec bb
       -0.060103267 -0.032654397 0.08229105 -0.0072131758

hidden2.weight f4 [256, 256]
000000 8a 7f 31 3d d2 04 09 3d 82 e3 3c bc 49 e9 99 3b
       0.04333452 0.033451863 -0.011528851 0.004696999
000010 52 4f a5 bd fe 94 6d bd 48 2c 3d 3c f2 73 a8 3c
       -0.0807177 -0.05800342 0.011546202 0.0205631
000020 57 c4 82 3c 07 2e f8 bc 66 f0 59 3d e4 d9 bc bc
       0.015962763 -0.030295385 0.053207777 -0.023053117
000030 28 9b 08 3c 64 5b 83 bc 6e 03 4c bf b0 0c 4f 3d
       0.008337773 -0.01603479 -0.79692733 0.05054921
000040 24 88 66 3d 81 df 02 ba 63 51 56 bb 14 58 a9 bc
       0.056282178 -0.0004992411 -0.003270232 -0.020671882
000050 04 c8 1f bc ae 82 2f be 45 91 8f bd c2 e3 d3 3c
       -0.009752277 -0.17139694 -0.0701013 0.02586544
000060 09 c8 49 3d a8 bc 22 bc 88 cf 52 bc bd 00 2f 3b
       0.049263034 -0.0099326745 -0.012866862 0.002670332
000070 5e 52 c0 3d c4 8b b8 bc 35 df c9 bc e4 5c e2 bd
       0.0939071 -0.022527583 -0.024642566 -0.11052874
000080 28 68 16 3d 70 09 90 3d 73 18 32 3b 5d 14 e6 bc
       0.036720425 0.0703305 0.0027175217 -0.028085882
000090 5e 73 d6 bc 97 5c be bc af 8e 28 bd b4 c3 bd bc
       -0.026178058 -0.02323751 -0.0411517 -0.023164608
0000a0 07 97 c6 3a cf 14 1e 3c a0 42 a1 3b a8 58 1e 3d
       0.0015151211 0.009648516 0.0049212724 0.038658768
0000b0 6e 7f 12 3d e1 e3 39 3d 41 6a bc bd 5a f9 36 bd
       0.035766058 0.045383338 -0.09199954 -0.044671394
0000c0 6b 78 15 bd 56 60 d7 3c 7a a3 d1 bc 5d db 17 bd
       -0.036491793 0.026291054 -0.025590647 -0.037074436
0000d0 ba e5 2d 3c f2 04 9e 3d 58 f8 6c bd f9 ff 9c 3d
       0.010613853 0.07715787 -0.057854027 0.076660104
0000e0 20 9c 99 bd 74 b6 d2 bc 39 3c 97 b9 96 a6 08 be
       -0.075004816 -0.025721766 -0.00028845834 -0.13344797
0000f0 61 cf 55 3d aa 22 28 3d 73 21 04 be 1b 0c 2f 3d
       0.052199725 0.041048683 -0.12903385 0.042736154
000100 1d 61 da 3d 5f 29 21 bd 46 4b 3e bd 2c 05 8f 3c
       0.10663054 -0.039346095 -0.046458505 0.01745852
000110 39 88 b6 bc de 4d 3c bb 9f 17 c6 bc 96 8e d3 bb
       -0.022281753 -0.0028732936 -0.024181185 -0.0064562066
000120 9d 24 19 bd a6 ac 6d bd 20 d8 99 3d 59 72 42 3c
       -0.037388433 -0.05802598 0.07511926 0.011868083
000130 7c ce 1b bd 10 7a 58 3c af a6 22 bc 56 28 ec 3b
       -0.038038716 0.013212696 -0.009927436 0.007206957
000140 10 9d 49 3d af 3b 18 3d 5a e1 8d bd cd 72 59 bd
       0.049222052 0.037166294 -0.06927748 -0.053088
000150 40 f7 da 3c 7d 7c f5 3c 8e 7e 98 bc 80 2f b0 bd
       0.026729226 0.029966587 -0.018615033 -0.0860281
000160 cc c9 22 bd b5 9d 70 bc 85 61 ef 3d bb a5 5b bc
       -0.03974323 -0.014686038 0.11688522 -0.013406212
000170 5c 2d de 3c 87 8c e3 3c 90 f9 b5 3b 94 89 ad bc
       0.027121238 0.02777697 0.005553432 -0.021183766
000180 82 52 47 3d 9e 8c 30 3d 0f 12 6a 3d 6c 35 27 bd
       0.04866267 0.043102853 0.05714613 -0.04082243
000190 03 11 65 3d 40 a5 2a 3d 96 73 f8 bc c3 76 3e bd
       0.055924427 0.0416615 -0.030328553 -0.04649998
0001a0 36 20 5b bd 7d 16 87 be d3 5f 82 bd ba 0b 38 bd
       -0.053497516 -0.26384345 -0.06365933 -0.04493306
0001b0 98 a8 43 3d 5a 05 cf bb 3c bb df bc 9f c0 9c bd
       0.047768205 -0.0063177766 -0.02731096 -0.07653927
0001c0 21 59 73 3c 22 70 fe 3c b2 3e 17 bb 0e f9 a3 3c
       0.014852793 0.031059328 -0.002307814 0.02001622
0001d0 e5 a0 28 be a1 c5 13 bd 66 44 8b 3c e4 ae 35 3d
       -0.16467626 -0.036077145 0.017000388 0.04435624
0001e0 24 fe 9a bd bb 8c 66 3d 70 7d 5a 3c fe a3 80 3c
       -0.07568005 0.056286555 0.013335571 0.015703198
0001f0 e6 0e 88 3c 1d 6d 7e 3b 46 76 19 3a dd cb cf bd
       0.016608667 0.003882236 0.0005854111 -0.10146306
000200 b8 3d e3 3c bd 91 a8 bb a0 43 87 bd 82 d8 7f 3c
       0.02773939 -0.0051443265 -0.06604695 0.015615584
000210 91 46 88 bd 89 e1 41 3d 92 2f 29 bd 5d 85 80 bd
       -0.066540845 0.047334228 -0.041305132 -0.06275437
000220 b0 5c 2a bd 02 ca 91 bb 86 7d b9 3c ef 80 cb bc
       -0.0415923 -0.00444913 0.022642862 -0.024841754
000230 b5 e6 3d bc 69 ba bc bc b5 78 8e bc df a1 97 3c
       -0.011590649 -0.023038106 -0.017391542 0.018509803
000240 4f 94 84 bc 95 c2 3c 3d 1b 20 a5 bd 3e 37 7a 3d
       -0.016184 0.046084005 -0.08062764 0.06108784
000250 88 e2 02 3d 20 9c 04 bd b3 ed 6f bd 03 d6 63 bd
       0.03195432 -0.032375455 -0.058576297 -0.05562402
000260 99 6e 48 3d 34 4d 22 bd 42 74 86 bd da 36 99 bd
       0.0489336 -0.039624408 -0.06565143 -0.07481165
000270 46 fe 8a 3c 58 b5 89 bd ea 32 16 be c2 48 21 3d
       0.01696695 -0.06724042 -0.1466786 0.039376028
000280 68 6a 63 3c ba 4d 8d bc 47 bd be bc 0d bf c9 3c
       0.01388035 -0.017248977 -0.023283614 0.024627233
000290 25 7d fd 3c b0 8b 5d 3d 99 a2 c2 bc c4 6a 06 3d
       0.030943463 0.054088295 -0.023759173 0.032816663
0002a0 2e b4 37 bd a1 fb 8c ba e7 76 6a bd bd 86 1d 3d
       -0.044849567 -0.0010756144 -0.0572423 0.038458575
0002b0 db 7a 98 3c 22 61 27 bd 52 79 09 bd f8 f9 8e 3b
       0.01861327 -0.040864117 -0.033562966 0.0043632947
0002c0 45 06 de 3c 20 6e 1b 3a e1 7f 4b bd 6a e3 66 bd
       0.027102599 0.00059291907 -0.0496825 -0.056369223
0002d0 bc 1a 6a 3d 65 3d ab 3c 2f 1e e1 3a 83 e3 54 be
       0.057154402 0.020903299 0.0017175133 -0.20789914
0002e0 53 6c 1f bd 5c 13 c4 38 0f 18 95 bd 3f ff e2 b9
       -0.038921665 9.349614e-05 -0.072799794 -0.00043296252
0002f0 d7 2e 93 bc da bb 88 3d e1 87 62 3d 8e 18 8d 3d
       -0.01796667 0.06676455 0.055305365 0.06889449
000300 26 04 70 3c 5a 96 35 bb f8 a3 34 3d 9a 20 1a 3d
       0.014649427 -0.0027708025 0.044101685 0.037628748
000310 66 f4 3a 3d 69 3a 4f 3d 3b cf a3 bb b2 9b 78 3a
       0.045643233 0.050592814 -0.004999069 0.00094836496
000320 39 42 b1 3c 30 12 e5 bb a0 92 37 bd e0 ce c5 bc
       0.021638023 -0.0069906935 -0.044817567 -0.024146497
000330 0e 23 1e bd 00 17 26 bd e5 14 13 3d 98 ea 97 bc
       -0.03860765 -0.04054928 0.0359086 -0.01854448
000340 d9 56 b7 bc 79 92 8d bd 4e 45 65 3e 0d 52 78 38
       -0.02238028 -0.06912703 0.22389719 5.9204223e-05
000350 84 7f c3 bd d4 e7 3b bd a0 ac 05 bd 97 ae 02 bd
       -0.09545806 -0.045875385 -0.03263533 -0.031904783
000360 d1 c4 e0 3c a3 c8 a7 bc cf 16 69 bd 36 3d 52 bd
       0.0274376 -0.020481413 -0.056906518 -0.051327907
000370 ab 00 20 be e3 da 37 bb db 35 68 bc db 70 46 bd
       -0.15625255 -0.002805405 -0.014172996 -0.04844747
000380 2c e6 65 be 1c 4f 2c bb 5e ab ae 3d 04 e5 c8 3b
       -0.22451085 -0.002629227 0.085287794 0.0061308164
000390 c5 73 55 3c 58 9d 67 3d 18 86 41 bd 04 c7 3b bd
       0.01302809 0.05654654 -0.047247022 -0.045844093
0003a0 1d 36 6d bc e3 38 8e bd 7c 26 81 bd be fc 0b be
       -0.014478234 -0.06944444 -0.063061684 -0.13670632
0003b0 68 a8 0e 3c 3a 31 2f bd f7 af 0e bd 3c 65 f2 bc
       0.008707143 -0.042771555 -0.034835782 -0.029589288
0003c0 e4 35 16 3d ad 18 01 3d 71 f8 67 3d 09 a5 59 bd
       0.036672488 0.031517673 0.056633417 -0.053135905
0003d0 06 80 63 bd ba 27 52 bd dc a5 e9 bc 9e 93 dc bc
       -0.055542015 -0.051307417 -0.02852147 -0.026925858
0003e0 0c 25 29 bd e7 6c cd 3c 87 d1 49 be 06 f5 76 bd
       -0.041295096 0.025076343 -0.19708835 -0.060292266
0003f0 ac 9d 52 3d 38 0e 5b 3d 8f f7 bf bc ae 63 42 bd
       0.0514199 0.053480357 -0.023433475 -0.047458343

hidden2.bias f4 [256]
000000 08 82 cf 3e 10 7c 90 bc 7f 6f 37 3c 2e 2a d7 3c
       0.40528893 -0.017637283 0.011196016 0.02626523
000010 29 f1 82 bd 82 f5 09 bd 9a c2 6d bd 67 b1 fd bc
       -0.06393654 -0.0336814 -0.058046915 -0.030968381
000020 59 a3 06 3d 3c 67 e0 bb ea 56 01 3d 1c 06 fd bc
       0.032870624 -0.006848244 0.03157703 -0.030886702
000030 d3 19 96 bb 08 22 49 bd ea dd 1b 3c 15 df 19 3c
       -0.004580715 -0.04910472 0.009513358 0.009391566
000040 10 23 15 3d e7 20 14 bd c8 6b d5 3c d3 ce ae bc
       0.03641039 -0.03616419 0.02605237 -0.021338856
000050 5f 12 37 3f f1 1a 01 bd 0c 27 dd bc ef 10 81 bd
       0.7151241 -0.031519834 -0.026996158 -0.06302058
000060 02 6c 66 bc e8 88 d3 bc a0 08 48 bc fe 35 53 bd
       -0.014063837 -0.025822118 -0.012209088 -0.051565163
000070 84 82 42 3a ce c3 e7 bb ad f2 af bb 9c a8 f9 3c
       0.0007419961 -0.0070729023 -0.0053695054 0.030475907
000080 70 44 72 bc 91 c7 fa bc f5 0f 4d bd 04 4e 8d bc
       -0.014786825 -0.030612739 -0.050064046 -0.017249115
000090 7b 38 49 3c 91 b4 78 bc f2 16 0c 3d f8 5c 42 bc
       0.012281532 -0.015179769 0.03420157 -0.011862986
0000a0 fa d9 2f bd 61 19 97 3d f6 8e 8e bd 2d 89 7a bd
       -0.042932488 0.073778875 -0.069608614 -0.061165977
0000b0 f5 2d 47 3c 91 e8 67 bd 52 69 cd bc 2e b6 0c bb
       0.012156953 -0.056618277 -0.025074635 -0.0021470892
0000c0 ee 3a e3 bc 6c b8 2c bd 38 7b 91 bb 27 3b c0 bb
       -0.02773806 -0.042168066 -0.0044397376 -0.0058664265
0000d0 b6 29 0f bd 14 3a 90 3c 05 d0 97 bd 66 6a db bd
       -0.034951888 0.017605819 -0.074127235 -0.10713653
0000e0 09 24 80 3c c9 56 5d 3d 94 41 a0 bc f7 c2 42 3c
       0.015642183 0.054037843 -0.01956252 0.011887304
0000f0 06 1c da bb 93 f2 e5 bc 7b de 0b bd dd ee c1 3b
       -0.0066561727 -0.02806977 -0.03414772 0.0059183673
000100 1e 49 50 bd c0 f8 db bb 25 b8 fd 3b 87 87 b3 bc
       -0.05085098 -0.006713003 0.007742899 -0.02191521
000110 4f 43 c8 bc ad b1 e5 3c dc a2 8c 3c d9 4c 2a 3c
       -0.024446158 0.028038824 0.017167501 0.0103942985
000120 0f ea 16 3d 58 f5 b0 3d 01 f6 b3 3d 8f ba 99 bc
       0.03684431 0.086405456 0.08787156 -0.018765716
000130 25 11 c9 3b 56 79 bf bc b9 16 57 3c b1 92 0d 3b
       0.006136077 -0.023373287 0.013127976 0.0021602327
000140 63 05 81 bb 24 3f 32 bd f1 e0 f6 3d bc 5c c7 3c
       -0.0039374097 -0.043517247 0.12054623 0.024336211
000150 66 cf 15 bd 87 87 17 bd 77 82 b6 bb 08 11 01 bd
       -0.036574744 -0.036994483 -0.005569752 -0.031510383
000160 cc 4a a0 bd 53 7f f5 3b f4 fb b0 3a 4d 10 52 bd
       -0.07826766 0.007491985 0.0013502822 -0.051285077
000170 e5 ae 4f bb 59 85 75 bd da a5 5d 3d ce 00 05 bd
       -0.0031689939 -0.059941623 0.054113247 -0.03247147
000180 c9 ed fe bd 1f 1b c9 bc 69 36 71 bd 57 f9 0a 3d
       -0.12447698 -0.024549065 -0.05888978 0.033929195
000190 1b 0b 44 bd b0 b6 b2 3c 6a 48 12 bc 61 84 b6 3b
       -0.047862154 0.021815628 -0.008928398 0.00556998
0001a0 fa fd 1c bd ec 0d 27 bc 97 d4 5e bd c5 8d 22 bd
       -0.03832815 -0.01019619 -0.05440196 -0.039685983
0001b0 b2 fb d9 bc 1d 1b 82 bc 4a f7 99 bc 7c 4b 58 bd
       -0.026609275 -0.01588207 -0.018794674 -0.052806363
0001c0 ba b7 f5 3e 9a 18 91 bd e1 32 a9 bc 52 e6 42 3d
       0.47991735 -0.070847705 -0.020654144 0.04758293
0001d0 3f df 87 bc 8e 42 9c bd 0b 3f a1 bc 3d bb 6e 3c
       -0.016585944 -0.07629882 -0.019683382 0.014571008
0001e0 3f 4e 80 bb 2b 7a 50 bd 03 ca 42 3c 52 35 1a bb
       -0.0039155777 -0.05089776 0.011888984 -0.0023530317
0001f0 b2 6a c3 3d 7a f0 4b bd de d4 03 bd da 06 62 3b
       0.09541835 -0.049789883 -0.032185428 0.0034488947
000200 65 ac e2 bc bb d6 20 3c 69 39 43 bd 26 e0 42 3e
       -0.027670095 0.009816821 -0.047662172 0.19030818
000210 bf e8 bb 3b 12 33 2a 3a a4 a1 68 bd c1 2d 6c bc
       0.0057345326 0.00064925954 -0.056794778 -0.014415205
000220 6f c9 25 3c 8e b6 14 bd 91 9a 0c 3e aa df 27 3d
       0.010118826 -0.03630691 0.13730837 0.040984787
000230 a2 26 98 bc 35 6e b8 3e 0f 4b 0a be 27 f0 6d bd
       -0.018573109 0.3602158 -0.13505195 -0.058090355
000240 d7 3f fe 3c c1 6a 08 bc 51 3f 39 3a 78 b5 9e bd
       0.0310363 -0.008326233 0.0007066625 -0.07749456
000250 41 cf df bc 4b 25 5c bd 06 99 c7 bc 27 2c 15 3d
       -0.027320506 -0.053746503 -0.02436496 0.03641906
000260 cb 4c 8d bd 20 ec 12 bc 2d f9 d9 3c e3 a3 18 3d
       -0.06899413 -0.008967429 0.026608074 0.03726567
000270 93 0f 44 3f 47 b0 d3 bc 27 61 7b bc 37 03 d5 3c
       0.76586264 -0.025840892 -0.015342987 0.02600251
000280 99 9e 24 ba 3b 1d 45 bd cf f3 06 bd 80 f4 a6 bc
       -0.00062797364 -0.04812358 -0.032947358 -0.020380259
000290 73 52 2f bd 42 ea 1d 3c b5 7c 14 bd 4f 97 1c bd
       -0.04280324 0.009638371 -0.036251742 -0.038230237
0002a0 9a 44 86 bd 1f e1 bb 3e cc 89 e6 bd 71 be d5 bd
       -0.065560535 0.3669519 -0.112567514 -0.104367144
0002b0 9e 6a 99 bd 19 6f 4c bd 3c ca fe bc ef 89 a6 bd
       -0.07491039 -0.04991064 -0.031102292 -0.081317775
0002c0 33 c4 43 bd b4 4a cf bd 65 53 0d bd d6 a0 27 bb
       -0.047794532 -0.1012167 -0.03450336 -0.0025578043
0002d0 f1 85 b0 bc 04 f8 df bc df a0 75 3c 8a 47 2c bd
       -0.021548243 -0.027339943 0.014991968 -0.042060412
0002e0 24 e1 c5 bd 2e 57 1f bb 58 05 a1 bd bd 71 f8 3c
       -0.09662083 -0.0024313438 -0.07862347 0.030327672
0002f0 b0 c7 15 bc 24 b8 2d bd 41 43 a6 bd 67 2c a8 bc
       -0.0091418475 -0.04241194 -0.081182964 -0.020528985
000300 17 2d 1e bd 9e 7a ff bc 4a 02 15 bb 68 e7 1a bd
       -0.03861722 -0.031186398 -0.002273696 -0.037818342
000310 b6 8f 3e bc 05 0e 54 3e 49 5b 20 bd 18 2a 13 bd
       -0.011630943 0.20708473 -0.039149556 -0.035928816
000320 9c 0f c8 bc 34 65 d1 bc d7 c5 15 bd fe dd 2f bd
       -0.024421506 -0.025560953 -0.036565628 -0.042936318
000330 9c 8c dd bd 41 0b 8e bc c8 28 05 bc 47 63 81 bd
       -0.10817835 -0.01733935 -0.008127399 -0.06317764
000340 53 b4 59 3c 19 2b 96 3d 27 3f 22 bd 65 63 bb bb
       0.013287622 0.07332439 -0.039611008 -0.005718636
000350 b5 b4 d7 3b 08 6b 2c 3d 63 94 5b bb e1 85 e5 bc
       0.0065828213 0.04209426 -0.0033505193 -0.02801794
000360 c7 6e 35 bd 77 80 17 3d e4 cf 7e bc c5 e4 8b 3b
       -0.0442951 0.036987748 -0.015552495 0.004269215
000370 98 47 70 3d ad 82 de bd da 27 24 ba 9b 96 56 bd
       0.058662027 -0.10864768 -0.0006262042 -0.052389722
000380 cb 91 fd bc 96 5a 0f bd 83 f2 bb bc 0a 32 11 bb
       -0.030953309 -0.0349985 -0.022942787 -0.002215507
000390 13 1c 88 bc 66 12 98 bc 00 76 1c bd 49 e6 5f bd
       -0.01661495 -0.01856346 -0.03819847 -0.054662976
0003a0 fa 4b cc 3c 80 24 ca bd e2 a6 d1 bd 12 11 b4 3d
       0.024938572 -0.09870243 -0.102369085 0.087923184
0003b0 9a 36 2d bd 8d 36 c7 3d 74 c4 da 3c 8c 0c 5a bd
       -0.0422884 0.097272016 0.026705004 -0.053234622
0003c0 9d f4 92 bd f0 05 28 3c b0 22 4e 3b 2a 53 67 3d
       -0.071755625 0.010255322 0.003145378 0.056475796
0003d0 2a 26 61 bd bb 8d 9a bd 3b 08 b5 3d 6b c0 ab 3c
       -0.054968037 -0.07546564 0.088394605 0.020965775
0003e0 d9 18 0e 3c 32 37 16 3e 37 75 cc bc 9d 27 e7 3d
       0.008672916 0.14669493 -0.024958236 0.112868525
0003f0 2a 53 49 bc 48 9e 00 bd 12 34 cf bc e7 c3 1d be
       -0.012287894 -0.03140095 -0.025293384 -0.15406762

last_mean.weight f4 [13, 256]
000000 da b1 89 3b e4 94 f3 bd 68 b9 1c be 0e 57 c1 bd
       0.0042021098 -0.11893633 -0.15305102 -0.094404325
000010 c8 2e 44 bd ee 4a 7f bb d5 56 11 bd 54 29 7e bd
       -0.047896177 -0.0038954574 -0.0354832 -0.062051132
000020 f2 0a 3c 3d de 20 0b bd 53 46 70 bd 12 70 61 bb
       0.045908876 -0.03396689 -0.058660816 -0.0034399075
000030 74 1f 8d 3c 9e ee cf ba a0 6d b7 3c e1 37 d9 3d
       0.017226912 -0.001586396 0.02239114 0.10606361
000040 9e 54 c1 3d 05 89 ec 3b dd fa c0 bd ae 71 62 bd
       0.094399676 0.0072184824 -0.094228484 -0.055284195
000050 5c 94 25 3d 2c b6 ad 3d 25 19 f2 bd 0b cc 3c 3e
       0.04042469 0.08482012 -0.11821202 0.18437211
000060 96 1a d7 3d ff 6e 36 bf 1d 76 43 bd 65 03 e4 3b
       0.10503118 -0.71263117 -0.047720063 0.0069584125
000070 f9 a8 8c 3b d7 4c bc ba 6b 6b ae 3d 09 09 a2 3e
       0.004292604 -0.0014366162 0.08516582 0.31647518
000080 c4 81 e6 3c c5 d9 0b 3d 46 ee bc bd ff 57 19 3c
       0.028138049 0.034143228 -0.092251346 0.009359359
000090 bd 3e 2b bd 52 a4 76 bd ca e7 a6 bd 58 aa a7 3c
       -0.04180788 -0.0602153 -0.08149679 0.020466968
0000a0 d2 40 2b 3d 0c 17 a1 3a 79 b9 2d bf 71 fa b7 bd
       0.041809864 0.0012290194 -0.67861134 -0.08983315
0000b0 dd 8b ac 3c 90 c3 cb bd 7a 68 43 3b a4 a4 84 3d
       0.021062786 -0.0994941 0.0029816912 0.06476715
0000c0 d9 11 88 bd de 88 79 bd 7a de b6 3d e7 d5 4d bc
       -0.06644029 -0.060921542 0.08929153 -0.012563205
0000d0 3a c6 0b 3c ca a0 49 be a0 c9 47 bd f5 1c 13 3d
       0.008531148 -0.19690242 -0.04877627 0.035916287
0000e0 e9 b4 85 3e bd 67 54 be 6e 57 51 bc eb f8 af 3d
       0.26114586 -0.20742698 -0.0127771925 0.08592399
0000f0 d8 23 ea 3c ad c9 a1 bd cd 2c 55 bd 0e 3e 27 bf
       0.028581545 -0.07899795 -0.05204468 -0.6532906
000100 0d 8c 8d b8 55 ab c9 be 5a 49 47 bb d7 5d bb bd
       -6.7494904e-05 -0.39388528 -0.0030408711 -0.09148758
000110 75 f7 25 bf c8 f4 a6 bd d9 7a 5e 3d 50 40 9c bd
       -0.64830714 -0.08152157 0.054316375 -0.07629454
000120 59 4e 3f bd b8 dc 18 3b f2 9b 34 3f 0c e2 a8 ba
       -0.046705578 0.0023324918 0.70550454 -0.001288475
000130 3b f0 7b bd f6 5a 6c bd a5 74 54 3d e3 e5 d9 3d
       -0.0615084 -0.057703935 0.051869053 0.106395505
000140 99 02 01 bf 00 26 88 3e dd b7 91 ba 6e 17 70 3d
       -0.5039459 0.26591492 -0.0011117418 0.058616094
000150 34 29 82 3d 8b ce 7a bb 0d 51 f2 3e ad 58 98 bc
       0.06355515 -0.0038270082 0.47327462 -0.018596971
000160 b7 35 9c ba 94 aa 25 bd c7 ad f7 bd 72 1e 24 bd
       -0.0011917864 -0.04044588 -0.12093692 -0.040068097
000170 ec 80 c4 bc d4 3d 65 3e f6 b7 c3 bd fb 78 4a 3d
       -0.023987256 0.22386867 -0.09556572 0.049431782
000180 9f 01 be 3e dd 11 9c bc a6 19 a6 bc f9 e7 dc 3b
       0.37110612 -0.019051487 -0.020275902 0.0067415205
000190 07 52 ad 3c e7 42 48 3e 47 6b 04 bd 47 d8 91 3d
       0.021157278 0.19556771 -0.03232887 0.0712133
0001a0 e4 a5 46 3c ee f1 41 bd 47 ef a9 3d a4 4c b1 3d
       0.012124512 -0.047349863 0.08297592 0.08657196
0001b0 26 78 87 3c 3f 98 ba bd e8 79 7f bc 08 42 55 3d
       0.016536783 -0.0911107 -0.01559303 0.052064925
0001c0 da 19 e2 bd ab 2b 32 3d 2e 9a d5 3d 07 c1 42 bd
       -0.11040087 0.043498676 0.10429798 -0.047547366
0001d0 b3 de 15 3e 74 c2 2c 3e 30 e0 6a bc 8b b0 60 3d
       0.14635734 0.16871053 -0.014335677 0.054855864
0001e0 eb 16 34 3e e8 c3 16 bc 57 d4 4d 3d fd 72 c1 3d
       0.17586868 -0.009201981 0.05025133 0.094457604
0001f0 65 7e f8 bc 64 61 30 bd 34 3b 8e 3c a9 ff 8c 3c
       -0.030333707 -0.04306163 0.017362215 0.017211752
000200 78 aa 3b bc e9 62 eb bc c0 79 07 bd de b8 9a 3f
       -0.011454217 -0.028733687 -0.033075094 1.2087667
000210 0c db 9f bd 87 6d 36 be 50 5a 29 3d 13 35 49 3e
       -0.07805452 -0.17815219 0.041345894 0.19649152
000220 62 ca 98 bd 4e 28 2a 3d 4d 9b a1 be d3 d1 61 bd
       -0.074604765 0.041542344 -0.31563798 -0.055131745
000230 6d 61 67 3c e2 8e 64 38 8e 27 f9 bc 4c 0a e8 bc
       0.014122349 5.4492506e-05 -0.030414369 -0.028325222
000240 47 00 c4 3d 32 92 db 3c 96 16 0d be bb a8 68 bd
       0.095703654 0.02680311 -0.13778147 -0.05680154
000250 98 3d a9 bb f5 e3 d8 3d d1 a5 92 3c 88 36 78 3e
       -0.0051648133 0.10590354 0.017901333 0.24239552
000260 f3 f5 8d 3c 6d f2 d5 bd bb cd 12 bd 06 12 98 3e
       0.017329192 -0.1044663 -0.03584073 0.2970125
000270 2a b9 69 3d c8 70 50 bc d4 d1 85 3c fc 1a 0a 3f
       0.05706135 -0.012722202 0.016335405 0.53947425
000280 98 05 9f 3c 78 eb 6e 3d 3e 35 2d be 47 e5 25 3e
       0.019411847 0.05833003 -0.16914842 0.16200744
000290 39 55 2f be ef 7b 04 3d 1d e0 09 3e df b3 27 bd
       -0.17122354 0.032344755 0.13464399 -0.040943023
0002a0 6e 31 2a 3c f3 29 4d be fb 39 67 3d b1 ed ef 3c
       0.0103877615 -0.20035534 0.05645178 0.029288145
0002b0 f8 26 3a bd 4c 7a dd 3d 7d 6c db 3d 1e 00 a7 be
       -0.04544732 0.10814342 0.10714052 -0.32617277
0002c0 f9 b9 c9 be f2 7d a5 3d b3 da e1 b8 8c be 20 3e
       -0.39399698 0.08080663 -0.00010769572 0.15697688
0002d0 e9 ac 8e bd 74 a7 96 3a cf 69 39 be 18 09 b8 bd
       -0.06966574 0.0011493997 -0.18106769 -0.089861095
0002e0 ac cb a2 3e a8 62 3b 3b f2 53 03 3e 35 d9 b8 3d
       0.31796014 0.002859274 0.12824991 0.09025804
0002f0 76 8f 47 3d 31 3f b6 3d d1 19 b4 3d 00 cd 07 3e
       0.0487208 0.088987716 0.087939866 0.13261795
000300 b2 6d ef bc 7f eb 30 bc ef d1 d3 3c 70 69 92 3e
       -0.029227111 -0.010798334 0.02585694 0.28596067
000310 25 e6 bd bc e8 94 23 bd da 25 0e 3c b4 da 8f bd
       -0.02318103 -0.03993693 0.008676017 -0.07024136
000320 5d df 1a be 5b a7 a5 bb 39 84 e7 bc 69 f0 ae 3c
       -0.15124269 -0.0050553507 -0.02826129 0.02135487
000330 a0 af 3b 3e f9 88 10 bf 4a 69 47 3d 3f 9c 10 3b
       0.18328714 -0.56459004 0.048684396 0.0022065786
000340 85 4c ff 3d 26 cc 5a be 16 93 e1 3c 65 ca 99 bd
       0.12465767 -0.21366939 0.027535956 -0.07509307
000350 15 43 69 3e 82 60 35 bd 74 00 81 bd 6e c7 1b bd
       0.22779496 -0.04428149 -0.062989146 -0.038031988
000360 97 5b 65 3d ca dd 5b 3a d3 15 02 3c b6 b1 18 3c
       0.05599555 0.0008387236 0.007939774 0.009319713
000370 04 78 63 3e ce 90 43 be d7 96 7c 3d 44 3a bf 3e
       0.22213751 -0.19098207 0.06166729 0.3734914
000380 18 44 39 3c 65 2d a3 3d 9e c1 10 3e bd 83 b7 bb
       0.011307739 0.07967643 0.14136359 -0.005600421
000390 01 f3 05 3d e9 12 46 3c 52 91 8b 3e 91 a1 26 3e
       0.03270245 0.0120894695 0.27259308 0.1627257
0003a0 b9 7c 10 3e de ce 3f 3e c1 c7 c9 3d af 6d cb bd
       0.14110078 0.18731257 0.09852553 -0.0993303
0003b0 c1 58 85 be f7 2d 3f 3e 74 9f 35 3d d5 fb 02 3d
       -0.26044276 0.18669878 0.04434152 0.031978447
0003c0 95 33 58 3e c4 0c 02 3e dd b1 1b 3d 9d 98 18 3f
       0.21113427 0.12700182 0.03801142 0.5960787
0003d0 c2 d6 00 bc e3 77 bb 3c d5 a6 66 bf a7 d8 78 bc
       -0.007863702 0.022884315 -0.90098315 -0.015188373
0003e0 c9 ea 72 3e 97 15 34 be 01 a0 0e 3c be 6d 83 3e
       0.23722376 -0.17586361 0.00870514 0.25669664
0003f0 21 63 26 3e 57 35 93 3d 00 e0 6e bd d0 45 15 3e
       0.16248752 0.07187908 -0.05831909 0.14577413

last_mean.bias f4 [13]
000000 5d 4b 6a 3c 70 c5 43 bf 97 51 64 bf cf 2e 7b 3f
       0.014300195 -0.7647314 -0.89186996 0.981183
000010 dc b1 c6 bd e8 ed c2 3d 3f b7 c8 bd 4b 9a 1e be
       -0.09701893 0.09518033 -0.098005764 -0.15488546
000020 3b 24 92 3d e5 bd 5a bd 1f f8 c5 bd 57 24 09 3e
       0.07135817 -0.053403754 -0.09666466 0.13392769
000030 ef 6d 5b 3d
       0.053571638

last_fc_log_std.weight f4 [13, 256]
000000 0f bb 02 bd 08 2f 16 3b a9 21 02 3d d5 5f 7b 3c
       -0.031916674 0.0022916216 0.031770382 0.015342672
000010 40 92 7f 3b 7e e7 a3 3d 8b 5f 8c 3d 58 9b 62 3c
       0.0038997084 0.08003138 0.06854161 0.013830982
000020 ce ed 64 bd 0d 53 81 ba c0 98 1c 3e 10 74 24 3b
       -0.05589085 -0.000986667 0.15292645 0.0025093593
000030 74 0c 05 3b 4f f1 bd 3c 67 b7 84 bc b4 97 eb bb
       0.0020301612 0.023186354 -0.016200734 -0.0071897153
000040 55 57 01 3e a6 80 27 3d 71 39 33 3d 81 c2 2f bb
       0.12630971 0.040894173 0.043755952 -0.0026818814
000050 37 67 a3 3c ee d7 ad 3c 6f c8 68 3c 35 40 01 bb
       0.019946678 0.021221127 0.014207943 -0.0019722108
000060 70 33 c9 3c 91 3c d2 be 4b 44 a0 bb 76 27 78 3c
       0.02456066 -0.41061834 -0.0048909537 0.015146127
000070 b0 8e 83 3b cd 06 09 ba 33 03 d3 3c 25 6f 94 3e
       0.0040148124 -0.00052271486 0.025758361 0.28991047
000080 91 6d f8 3c 32 07 47 bd 37 73 93 3c 4c aa 89 3c
       0.030325683 -0.048590846 0.017999275 0.016804837
000090 f1 b0 84 3d 3a 38 92 3d 55 be 90 bb 8d 71 24 3d
       0.064790614 0.071396306 -0.0044172206 0.040147353
0000a0 87 34 b0 bc 59 be 6f 3d 62 b2 90 3e 82 43 30 3c
       -0.021509422 0.05853114 0.28261095 0.010758283
0000b0 39 a4 bf bc 31 de b9 3d 26 2f 36 3c ed bc a2 3d
       -0.023393737 0.09075583 0.0111196395 0.07946191
0000c0 18 e1 06 bd 34 d8 4b 3d 50 79 f7 3b 12 34 96 3d
       -0.03292951 0.049766734 0.0075523034 0.073341504
0000d0 c6 44 16 3b 96 a5 12 3d 72 7d 83 3d 6c ff a2 3d
       0.0022929176 0.035802446 0.06420411 0.07958874
0000e0 6c 81 4b bc f3 a0 f5 3b d5 5e fc 3b a9 14 85 bb
       -0.012420993 0.0074959933 0.0077017345 -0.004061301
0000f0 cb ec 8b 3d bf ac d1 3c cd 2b d5 3d 9d eb 82 3d
       0.06832274 0.025595067 0.10408745 0.06392596
000100 e6 45 d7 3c f6 66 9e 3d 22 55 84 3c 01 29 81 3d
       0.026278447 0.07734482 0.016153876 0.06306649
000110 e6 10 11 3e 5e ea 7b 3c 32 ac 2c 3c a8 08 ab bd
       0.14166602 0.015375702 0.010539101 -0.083512604
000120 3b 35 ad bb 4a 1f 5f 3d 7b 36 6c 3d 23 0a 87 ba
       -0.0052858866 0.0544732 0.057669144 -0.0010302704
000130 1c 46 0c 3d 00 6b a7 3c 73 6b 0c bc 89 d5 e0 3b
       0.03424655 0.020436764 -0.00857054 0.006861393
000140 08 a7 c4 3e 12 6d 41 bd 10 bd b2 3c 74 a3 81 bd
       0.38408685 -0.04722316 0.021818668 -0.06330004
000150 01 a7 1a bc e7 a5 49 3a 0c 78 06 3d fb 2e 0a 3d
       -0.009439231 0.0007692263 0.03282933 0.03373621
000160 16 b4 9f 3c 9d 99 b4 3d 18 dc fb bc cb 2c 2b 3e
       0.019495051 0.08818362 -0.030744597 0.16716306
000170 34 f4 d8 3c 7a 95 f3 bc 80 90 e2 bb bd 1c 09 3c
       0.026483633 -0.029734362 -0.0069141984 0.008368668
000180 1c 4f f0 bc 83 f9 05 3c c4 0b b3 3c cd 8a c3 3c
       -0.029334597 0.008177164 0.021856196 0.023869896
000190 8d 39 7b 3d 0c 1e 24 3e 6c fa eb 3d 31 bf 15 3e
       0.06133418 0.16027087 0.115223736 0.14623715
0001a0 f7 2d b9 3c 08 a7 9c 3b e0 0c d9 3c 0e c7 08 3e
       0.022604926 0.004780654 0.026495397 0.13357183
0001b0 96 3d f8 3c 69 9b 63 3e 76 db b2 3c 6c 04 13 3d
       0.030302804 0.22227253 0.021833163 0.03589289
0001c0 a4 7a f0 3b 5f b2 53 3d c0 4d e1 3a 32 c2 f9 bb
       0.0073388387 0.05168378 0.0017189309 -0.007622027
0001d0 bb 38 b5 3d e2 4c 98 3d 71 1b 9c bb 9a 5b 18 3e
       0.08848711 0.07436539 -0.0047640135 0.14878693
0001e0 15 fe 9f 3d d5 73 de 3c b4 46 66 3c f3 47 37 3c
       0.07812134 0.027154842 0.014054943 0.011186588
0001f0 38 b7 19 3b b7 57 64 3c fb e9 1f 3d 28 43 ca 3b
       0.0023455154 0.0139369285 0.0390415 0.0061725564
000200 91 d7 bc 3c 79 d0 af 3c 34 81 04 bc 45 21 9b 3c
       0.023052009 0.021461712 -0.008087445 0.018936763
000210 cf 86 fe 3c 90 a8 f7 3c 89 22 1d 3d c2 9f 93 bd
       0.031070141 0.030231744 0.038363013 -0.07208206
000220 b9 a9 0a bd ae d5 20 3b b9 6a 1b 3d 39 89 21 3d
       -0.033853266 0.0024541426 0.037943576 0.039437506
000230 8a a2 8b bb 19 50 cc 3c e3 18 89 3a ad 3c a6 3d
       -0.0042613195 0.024940537 0.0010459687 0.08117042
000240 88 df d6 3d 7f 50 3e 3c c1 47 25 3e 86 14 a8 3c
       0.10491854 0.011615871 0.16140653 0.020517599
000250 0a f5 64 3d 19 3f 36 3a ff 9d 89 3c 40 72 05 3d
       0.05589775 0.00069521513 0.016798971 0.03257966
000260 99 5b 86 bc 95 af 06 3d bb 80 b4 ba 09 c1 9b 3d
       -0.016401099 0.03288229 -0.0013771275 0.07605178
000270 00 a3 ab bd 52 1b 58 b9 75 44 ba 3c 2b 2d 5d bd
       -0.08380699 -0.00020609543 0.022737721 -0.053998154
000280 1d 7a 1a 3d 48 3f 6a 39 ca 55 06 3d 65 e1 b3 bc
       0.037714113 0.00022339553 0.03279666 -0.021958062
000290 69 21 3a 3e 65 75 0b 3d d2 d4 02 be 42 a4 60 bd
       0.18176807 0.034047503 -0.12776497 -0.05484415
0002a0 2b a2 93 3d ce 2b b6 3d c0 8c 2e 3d b7 ef cb 3c
       0.072086655 0.08895074 0.0426147 0.024894578
0002b0 e2 64 4d 3d ba 11 a7 3d b2 82 94 3b 65 f5 a6 3d
       0.050145037 0.08157678 0.0045321817 0.08152274
0002c0 c9 73 a7 3d 60 ce 04 3e b7 2a 9f 3d b3 56 70 bd
       0.08176381 0.12969351 0.07771819 -0.058676433
0002d0 38 9c be b9 87 15 a7 bb 00 db 4d bd cf 4b 0b be
       -0.00036356016 -0.005099002 -0.050257683 -0.13603137
0002e0 79 2f be 3c dd ef e5 3c b9 6a 85 bd 35 76 d5 bb
       0.023215996 0.028068477 -0.06514496 -0.0065143355
0002f0 62 d1 b7 3c b1 1c 20 3b ca 5a d3 3d 2c c4 69 3e
       0.022438709 0.0024431164 0.10320051 0.2282874
000300 0e bc 27 3d 2c ac c5 3c f9 bc ed 3b 56 91 5d ba
       0.040950827 0.02412995 0.0072551933 -0.00084521377
000310 c3 ae 19 bd f7 ed 64 bc 37 52 a8 3c a3 33 28 3d
       -0.03752018 -0.013972751 0.020547016 0.04106487
000320 61 1a d6 bc c6 8c d9 3d 1d 2a 11 3d 8b e5 f8 3c
       -0.026135625 0.106225535 0.035440553 0.030382892
000330 72 6b be bd ca e1 80 bd c1 45 1d 3d 12 c3 b7 3c
       -0.09297837 -0.06293066 0.0383966 0.022431884
000340 5f 1b 04 3c 10 e9 bc 3d ac be 88 3e 69 c9 b3 3c
       0.008063166 0.09224141 0.2670797 0.021946626
000350 06 3c af 3c 6e a7 e9 3c 41 57 81 3a a7 6e 38 3d
       0.021390926 0.02852222 0.0009867923 0.0450274
000360 16 1b d8 bc 39 7b 27 3e 59 4e 7d bc 8d 14 79 3c
       -0.026380103 0.163556 -0.015460574 0.015202654
000370 c3 a8 3b 3e 52 e0 7e 3e 37 a5 21 3c ee 36 96 bd
       0.18326096 0.24890259 0.00986605 -0.07334696
000380 bd 44 63 3b 6f 7a 1b bd c4 40 f4 3d 73 f5 f1 3c
       0.0034678422 -0.03795856 0.119264156 0.029535985
000390 bc df 74 3c 90 64 40 3c 4f 7d 81 3e e9 3a 5c 3d
       0.014945921 0.011742726 0.25290915 0.05376712
0003a0 23 87 06 3c fa 86 a7 ba 55 44 9d bb fc 4e d2 bd
       0.00821093 -0.0012781315 -0.0047994056 -0.10268971
0003b0 a1 47 45 bd 8e 30 8f 3d 63 33 a4 bc a3 56 10 3e
       -0.048164014 0.06991683 -0.020044034 0.1409555
0003c0 9c 83 9c 3d 9c 21 31 3d 44 40 94 3d 55 39 1e be
       0.0764229 0.043244943 0.0723882 -0.15451558
0003d0 26 5b 1c 3c 07 36 1a bb 8a 41 ce 3e 7c 75 98 3c
       0.009543216 -0.0023530738 0.40284377 0.018610708
0003e0 23 64 00 3d b0 3d 55 3d 97 7c af 3b f8 b2 b7 3d
       0.031345498 0.052060783 0.0053554284 0.089696825
0003f0 e2 0c 26 3e dc 7e 1f 3d a1 7d 60 3c cc 87 8e 3d
       0.16215852 0.038939342 0.013701827 0.06959495

last_fc_log_std.bias f4 [13]
000000 65 43 10 be 38 c9 ba be e4 f6 cc be 22 93 dc be
       -0.14088209 -0.36481643 -0.40032113 -0.43081003
000010 b1 13 11 be 6c e8 07 be f8 41 16 be 7c b4 11 be
       -0.14167668 -0.13272256 -0.14673603 -0.14229006
000020 a0 3d 09 be c9 99 0e be c8 cf 0e be f6 3a 15 be
       -0.13402414 -0.13925852 -0.1394645 -0.14573273
000030 1c 04 1a be
       -0.1504063
