save_mode/SAC_v_1000_qf2_network.pth (torch, 329559 bytes, 5 tensors)

fc0.weight f4 [256, 61]
000000 b0 52 f9 3b aa c9 43 3d e4 03 bb bc 80 74 3b 3a
       0.007608734 0.047799744 -0.022829004 0.0007150844
000010 ec 4c 5c 3d ff d2 c7 be ee 63 68 3d 74 c9 df 3f
       0.053784296 -0.39028165 0.056735925 1.7483354
000020 cc ef 9c bc 30 d9 d7 3c 24 31 b6 3c f8 bc 37 3c
       -0.019157313 0.02634868 0.022240229 0.011214487
000030 b0 31 1a bc 2a ad d2 be d8 d2 b2 be b9 c5 a3 3f
       -0.0094112605 -0.4114774 -0.34926486 1.2794715
000040 90 73 b7 bc 1a d2 0c 3d d6 06 45 bd 5c 93 d1 bc
       -0.022393972 0.034380056 -0.048102222 -0.025582962
000050 90 41 fb bc 8c f8 4a be d1 e9 95 3d 43 d9 11 3e
       -0.030670911 -0.19821376 0.073199876 0.14243035
000060 5c a3 f9 bc b6 47 05 3d 7c 76 a2 bc 92 5f 5d 3d
       -0.030473404 0.032539092 -0.019831888 0.05404622
000070 00 d1 42 3d 59 89 d8 bd ee 1c a5 bd fb 89 5b be
       0.0475626 -0.10573072 -0.080621585 -0.21439354
000080 c8 a2 0d bc e2 1b 2b 3d c4 a3 2a bd 9c 3b f8 3c
       -0.008644767 0.041774638 -0.041660085 0.030301861
000090 ee 40 62 bd e3 b3 ea be c7 b7 26 bf 28 a6 3a bf
       -0.055237703 -0.45840368 -0.6512417 -0.72909784
0000a0 e0 e3 b4 3b 32 4c 15 bd 98 19 3d 3d 66 b6 40 3d
       0.005520329 -0.03644962 0.046166986 0.04704895
0000b0 0c f6 bc 3c 0b 5c 40 be 68 64 4a be 15 e1 74 be
       0.023066543 -0.18785112 -0.19764864 -0.23913987
0000c0 62 e5 ea 3f 5a fe 37 40 02 0c 9b 40 6d eb b1 c0
       1.8351252 2.8748994 4.845216 -5.5599885
0000d0 bd 2e 63 3f 21 16 29 c0 ad 06 7c 3f 8e a7 0e c0
       0.8874319 -2.6419756 0.98447686 -2.2289767
0000e0 a7 7a aa bf dd c0 14 3e f9 b9 c4 bf 13 7c 98 3f
       -1.331868 0.14526697 -1.5369254 1.1912864
0000f0 ea d0 22 40 88 23 8e 3c 26 a0 1d bd 28 ca 4f bc
       2.544001 0.017350927 -0.038482808 -0.012682475
000100 d0 22 66 bc ee e4 44 bd 71 be 27 bf 9d db 07 40
       -0.014046386 -0.048069887 -0.65524966 2.1227791
000110 d3 93 1a 3e 80 97 39 3b 58 15 f2 3c 70 84 fe 3c
       0.15095453 0.002831906 0.029551193 0.03106901
000120 e8 4d 43 bd e6 ae 62 bd 33 97 42 3f ee 38 23 3e
       -0.04768172 -0.055342577 0.7601196 0.15939686
000130 56 a1 28 3f 30 98 f6 bb 0a db 17 3d 28 94 d1 3c
       0.6587118 -0.0075254664 0.037074126 0.025583342
000140 d6 07 43 3d d0 08 9b 3c 92 d3 ed 3f a8 d3 d3 3f
       0.047614895 0.0189251 1.8580191 1.6548967
000150 41 a4 c7 3f 48 5b 2b bc 80 c0 41 bc fc 63 db 3c
       1.5597001 -0.010458775 -0.011825681 0.026781075
000160 5a 31 12 3d 94 b7 e6 bc 7f 64 9b be d0 0b 23 bf
       0.035691597 -0.028163709 -0.3035011 -0.636899
000170 7b c8 28 be 3c f2 8a 3c 9c 3e 38 bd f6 e8 7d bd
       -0.16482727 0.01696121 -0.044981584 -0.061989747
000180 3c b5 bf 3c ec 62 f7 3c 75 18 38 3d 90 7b f7 bd
       0.023401849 0.030198537 0.0449452 -0.120841146
000190 19 e5 93 3e 88 17 6b bc 36 48 30 3d 38 fc 49 bc
       0.28885725 -0.014348872 0.043037616 -0.0123282
0001a0 60 45 a5 bc 7c 19 bd 3c 75 25 54 be b5 23 15 bf
       -0.020174682 0.023083441 -0.20717414 -0.5825761
0001b0 d6 cb 95 bd c5 04 0b 41 4a 4c 81 c0 77 92 af c0
       -0.07314269 8.688664 -4.0405626 -5.486629
0001c0 b4 bf d9 40 d1 c1 08 40 94 3b 1f bf ef 94 42 be
       6.8046513 2.1368296 -0.62200284 -0.19002126
0001d0 17 1e 65 be 51 64 bb 3f 15 af ac 3d f9 1d 9e be
       -0.2237476 1.4639989 0.08431832 -0.30882242
0001e0 43 7b 0a 3e d8 8b c7 be 5e 29 1a bd fc e1 f8 3c
       0.13523583 -0.3897388 -0.037637107 0.030381195
0001f0 a6 da 33 3d 40 17 b5 bc 6a 67 17 bd 01 19 b9 be
       0.04390969 -0.022105813 -0.036963858 -0.3615189
000200 1a d6 08 c0 48 2e 72 bf 80 0e 7a bb 18 7d 17 bc
       -2.1380677 -0.9460187 -0.0038155615 -0.009246133
000210 34 53 6e 3d 64 92 bb bc 7e 6e 18 3d cf 42 bb 3e
       0.058184817 -0.022896953 0.03721475 0.36574408
000220 95 ac 04 3e 47 8a 21 be 00 7d ab ba 2a 10 4e bd
       0.1295646 -0.15775405 -0.0013083518 -0.050308384
000230 a0 ad d5 bb 10 e2 91 3b 2a 71 0c bd 73 be 94 3f
       -0.006520942 0.0044519976 -0.03428761 1.162062
000240 18 65 bd 3f 91 54 b3 3f 30 f6 4d 3c e4 bf 25 bd
       1.4796476 1.4010183 0.012570903 -0.040466204
000250 e4 1e 7a 3d a4 ba fd 3c d0 95 bc bc f7 ab 31 3e
       0.061064616 0.030972786 -0.023020655 0.17350756
000260 19 c3 30 3e a5 00 73 3e fe a4 1c bd b4 94 c0 bc
       0.17261924 0.23730715 -0.038243286 -0.023508407
000270 7c f5 64 bd 9c dc d2 3c 8a 4f 3d 3d 5c 0f 12 be
       -0.055898175 0.02573996 0.046218432 -0.14263672
000280 d2 a0 c1 be f5 2d 80 be 40 56 ac 3c 00 7a 8d 3a
       -0.3781801 -0.25035062 0.021037221 0.0010793805
000290 00 9f 1b 3b 70 1d 30 3c d8 d1 72 3c 31 cb 9e 3b
       0.0023745894 0.010749206 0.014820538 0.0048459996
0002a0 95 2e 9e 3d 9e 90 cd 3d f5 bb 6a c0 1e 2a 54 40
       0.077237286 0.10037349 -3.667722 3.3150706
0002b0 f9 fd 85 40 ae 32 bc c0 23 1b 9e 3f 9f bf eb bf
       4.1872525 -5.8811865 1.2352031 -1.8417853
0002c0 23 1c 7c 3e 13 21 d4 3f c9 c5 63 bf 56 19 2e bf
       0.24620108 1.6572593 -0.8897367 -0.6800741
0002d0 6e 5f eb 3e 4b f7 9f bd e9 c0 b8 3d a0 43 b0 3c
       0.45971245 -0.07810839 0.0902117 0.021516621
0002e0 68 da bd 3c 90 f2 18 3c 00 04 68 bb 64 10 53 bd
       0.023175433 0.009335175 -0.0035402775 -0.051529303
0002f0 40 b4 b4 bb 50 78 21 bd 56 88 35 bd d8 b3 9b bc
       -0.0055146515 -0.03942138 -0.044319473 -0.019006655
000300 b0 3b 10 bc 08 34 08 bd c0 88 4d bc a0 a9 2f bc
       -0.008803293 -0.033252746 -0.012544811 -0.010721594
000310 40 74 2d bd 30 66 2c bc 70 6e 09 3c 54 c9 4e 3d
       -0.042347193 -0.01052241 0.008388147 0.05048497
000320 d0 44 ec bb 5e df 2c 3d 60 93 3a 3b a2 e1 3e 3d
       -0.0072103515 0.042205207 0.002846919 0.0466019
000330 44 b9 60 bd 1c 3d f0 3c b8 d8 34 bd c8 9c 2e 3d
       -0.054864183 0.029326014 -0.04415199 0.042629987
000340 6c f4 28 bd 98 ea d7 bc 40 13 af bc e0 c5 25 3d
       -0.041248724 -0.02635698 -0.021371484 0.04047191
000350 10 86 a3 bc 82 57 34 bd 2a 0d 16 bd b0 e0 31 3c
       -0.019961387 -0.044028766 -0.036633648 0.010856792
000360 60 82 1f 3b 24 af 2d bd 36 5d 2c bd b0 73 ce bc
       0.0024339184 -0.042403355 -0.04208108 -0.025201648
000370 9c 63 f5 3c d8 c5 47 bd e4 6c ce bc c8 a2 68 bc
       0.029954724 -0.048772663 -0.025198407 -0.014198966
000380 90 77 04 3c 90 e8 93 bb 84 d5 66 3d 1a d0 34 bd
       0.008085147 -0.0045138076 0.056355968 -0.044143774
000390 80 01 4e 3a 88 09 26 bc 70 18 c5 3b 4e 19 3d bd
       0.00078585 -0.010134108 0.006014876 -0.04616671
0003a0 b0 f3 9b bb 92 da 7f 3d 44 bf 5a bd 00 94 d5 3b
       -0.0047592744 0.062464304 -0.05340506 0.006517887
0003b0 40 11 f6 3b fe b8 1c 3d 28 30 01 bc c8 89 1a 3d
       0.0075093806 0.03826236 -0.0078850165 0.037729055
0003c0 c0 83 3e 3d aa 2c 7c bd 34 10 e4 3c f4 21 1e 3d
       0.046512365 -0.061566032 0.027839758 0.0386066
0003d0 e8 46 21 bd d0 5a a1 bb 8e f5 6a 3d 1c ec 1d bd
       -0.039374262 -0.004924156 0.057363085 -0.03855525
0003e0 08 a9 78 3d 60 5f 7b 3e b2 2b 2b 3e a8 63 f4 3d
       0.060708076 0.24548101 0.16715887 0.119330704
0003f0 b0 7e 1a bd f8 a2 16 bc 9c 2d f9 bc c0 2f df 3c
       -0.037718475 -0.009194128 -0.030417256 0.027244449

fc0.bias f4 [256]
000000 b5 7a 71 41 23 83 5f c1 29 28 c4 41 00 00 00 00
       15.092458 -13.969516 24.51961 0.0
000010 1c 2c c2 41 07 e2 be 41 a8 e3 14 be 48 2e bf 41
       24.271538 23.860365 -0.14539969 23.897598
000020 1c 1d 97 41 87 90 bf 41 1b 6f be 41 98 8d be 41
       18.889214 23.94557 23.80425 23.819138
000030 a0 a1 00 be f8 82 be 41 94 79 bd 41 a6 3e bd 41
       -0.12561655 23.81395 23.684364 23.65559
000040 b9 da d6 c0 a2 cf 72 41 1c 59 cb bf ec c5 bf 41
       -6.7141995 15.175692 -1.5886569 23.971642
000050 fb 50 42 be 88 da a0 41 92 4c 97 be 6b ab bf 41
       -0.18976204 20.106705 -0.29550606 23.9587
000060 c1 e5 bd 41 e2 1f bf 41 e9 b8 ad 41 6a 86 bd 41
       23.737185 23.890568 21.715288 23.690632
000070 fd ba c0 41 dc f3 d1 41 44 0d 4b bd 30 c4 36 bf
       24.091303 26.244072 -0.049573198 -0.7139311
000080 07 31 ae 41 7f a0 bd 41 94 26 1c bd a7 e8 be 41
       21.77394 23.703367 -0.03812273 23.8636
000090 33 88 9e 41 62 8c 8e bc 1c f2 bd 41 23 5d 57 41
       19.816504 -0.017400924 23.743217 13.460238
0000a0 e6 32 ac c1 63 06 fd 40 d2 3d bf 41 8f 0a bf 41
       -21.524853 7.9070296 23.905186 23.880156
0000b0 75 27 b8 41 72 90 be 41 e7 20 bf 41 0e 18 bc 41
       23.019266 23.82053 23.891066 23.511745
0000c0 08 85 a5 c1 cc 04 c0 41 3e 0d 9c 41 37 3a 98 c1
       -20.689957 24.002342 19.506466 -19.028425
0000d0 69 f3 a4 41 18 22 a2 41 d4 8d c1 41 d0 1c be 41
       20.618853 20.266647 24.194252 23.764069
0000e0 00 00 00 00 4c fc 83 bd 5e b5 26 c1 ed 90 a3 41
       0.0 -0.06444606 -10.419279 20.445765
0000f0 23 22 c2 41 bb f0 01 bd 9e 4c bf 41 f8 6b 98 c1
       24.266668 -0.03172372 23.91241 -19.05272
000100 a6 bf be 41 09 1b 01 bd 65 17 f1 bc 5b 4c 38 bd
       23.843578 -0.031519923 -0.0294301 -0.044994693
000110 fd 82 bc 41 85 1a 44 bd 03 7e 9a c0 c5 f4 bf 41
       23.56396 -0.047876853 -4.8278823 23.994516
000120 d6 80 6d 41 c0 c6 b7 41 7b 1b 08 c1 85 52 c0 41
       14.843954 22.972046 -8.506709 24.040293
000130 1b fb 19 bd f4 e1 bc 41 cb db bc 41 5c 27 c3 41
       -0.03759299 23.610329 23.60732 24.394218
000140 00 00 00 00 54 23 be 41 dd b5 3d be e0 ad 98 c1
       0.0 23.76725 -0.18526407 -19.0849
000150 4c b5 bd 41 00 00 00 00 e9 70 bf 41 cf bc a3 41
       23.713524 0.0 23.930132 20.467192
000160 6e a6 84 41 e1 b9 1e bd 13 f8 41 c1 ab fa 1a bd
       16.581264 -0.038751487 -12.123065 -0.03783671
000170 ed d8 be 41 00 00 00 00 00 00 00 00 5c d6 bc 41
       23.85592 0.0 0.0 23.604668
000180 70 d2 bd 41 2b 3a 04 c1 a8 10 76 41 0e 45 63 bd
       23.727753 -8.264201 15.379066 -0.055485778
000190 2d b5 38 bd 87 8d 8f bd d9 27 24 bf e8 f1 bf 41
       -0.045094658 -0.07009416 -0.641233 23.993118
0001a0 d5 ff bc 41 3f e3 a6 be 44 ed ce bc 53 1c bf 41
       23.624918 -0.3259525 -0.025259621 23.88883
0001b0 00 00 00 00 20 23 bd 41 96 1c 97 be 29 b8 c7 41
       0.0 23.64215 -0.29513997 24.964922
0001c0 64 e9 ae 41 19 79 99 bc 2e ca be 41 00 00 00 00
       21.86396 -0.018734502 23.84872 0.0
0001d0 fe 9b 2a bd 1b 78 be 41 1d b7 7d 41 07 e8 be 41
       -0.041652672 23.808645 15.857205 23.863295
0001e0 d1 8b a1 be 68 ff 2e bd b4 e5 84 bd e3 60 be 41
       -0.31551984 -0.042724043 -0.06489125 23.797308
0001f0 6a 21 e5 bc 0f d1 be 41 74 de a6 41 26 b6 46 bd
       -0.027970035 23.85208 20.85862 -0.048513554
000200 37 ef b3 bc 97 5d b8 bf 72 bd 75 41 51 b0 bf 41
       -0.021964652 -1.4403561 15.358751 23.961092
000210 da c1 39 bc 62 0f bf 41 b8 6a fb bd 33 dc 27 c0
       -0.011337722 23.882511 -0.12276214 -2.622815
000220 00 b5 be 41 9c 62 9d 41 0c 21 32 bd 6d 15 3b 41
       23.838379 19.67315 -0.043488547 11.692731
000230 1c eb be 41 d6 2e a3 41 b9 44 bf 41 dc 64 bd 41
       23.8648 20.39787 23.908556 23.674248
000240 b4 78 4a 41 83 0e 5a bd 00 00 00 00 c9 2e be 41
       12.654469 -0.053236496 0.0 23.772844
000250 a3 41 bf 41 0d 28 c0 41 d0 af bd 41 17 7d bf 41
       23.90705 24.019556 23.710846 23.936079
000260 5a ea bd 41 81 bd 9b c1 51 8f 5a 41 57 20 be 41
       23.73943 -19.467531 13.659989 23.76579
000270 4e 70 be 41 b9 7a 6e 41 93 c9 95 41 34 73 03 bc
       23.804836 14.904962 18.723425 -0.008023072
000280 1c b3 bd 41 00 00 00 00 b0 96 bf 41 77 da be 41
       23.712456 0.0 23.948578 23.856672
000290 6a 30 bf 41 85 1c 8e 41 1e 18 86 41 a0 3d ad 41
       23.89864 17.763926 16.761776 21.65509
0002a0 70 54 92 41 11 6a 3d bc 40 fe 99 41 00 00 00 00
       18.29123 -0.011560933 19.249146 0.0
0002b0 d3 12 9d 41 36 1c 34 bd 66 71 bd 41 67 51 bf 41
       19.634192 -0.043972217 23.68037 23.914747
0002c0 bb 49 9f 41 1e bd bf 41 c0 53 bc 41 8b 1e bd 41
       19.911001 23.967342 23.540894 23.639914
0002d0 be bd 1b bd 46 65 3b bd 1b b0 99 41 df 46 28 bd
       -0.03802275 -0.04575088 19.210989 -0.041083213
0002e0 c7 8b be 41 ab 3d 88 41 05 69 6f c1 8b dd 2c bd
       23.81825 17.030111 -14.96314 -0.042203467
0002f0 e9 f4 85 41 a2 5c 9a c1 bf 5c e0 c1 08 56 ab bb
       16.744585 -19.29523 -28.045286 -0.0052287616
000300 7f 5d c9 bf 21 6e a2 41 3e 76 be 41 70 20 de bb
       -1.5731658 20.303774 23.807735 -0.006778769
000310 a1 74 bd 41 25 e0 a8 41 90 91 c1 41 7d 08 bf 41
       23.681948 21.109446 24.196075 23.879145
000320 b5 5d be 41 69 55 a1 c1 e2 79 bb 41 74 57 be 41
       23.795755 -20.166704 23.434513 23.792702
000330 43 2f 3c 41 00 00 00 00 70 c7 82 bd 0e cb bb bc
       11.7615385 0.0 -0.06385696 -0.022923972
000340 f4 72 bf 41 c1 86 23 bd 70 e6 a0 41 82 3b 52 bd
       23.93113 -0.039923433 20.112518 -0.051326282
000350 11 a8 bd 41 ee 4f be 41 ff 2a 68 41 d2 2f bf 41
       23.707064 23.789028 14.510497 23.89835
000360 b0 b4 f3 bf f7 57 9f c1 94 07 bf 41 73 b0 b5 41
       -1.9039516 -19.917952 23.8787 22.711157
000370 29 da a3 41 29 7d 16 c1 f8 9d 85 41 3c 71 a2 41
       20.481524 -9.405557 16.702133 20.30529
000380 bb 25 ab c1 4d 75 fc bc 11 dd 87 41 3c 79 be 41
       -21.393423 -0.030817652 16.982943 23.809196
000390 ca 0a c0 41 33 ea a8 c1 79 13 a2 41 cc f8 be 41
       24.005268 -21.114355 20.259508 23.871483
0003a0 72 67 be 41 00 18 83 c1 f9 21 06 be 0d 17 c0 41
       23.80051 -16.386719 -0.13098897 24.011255
0003b0 1a 13 be 41 10 a2 3a c1 15 5f 80 c1 5f bc a2 41
       23.759327 -11.664566 -16.046427 20.341978
0003c0 00 00 00 00 68 2b 9e 41 78 51 55 bd 09 af 16 bd
       0.0 19.771194 -0.052079648 -0.03678802
0003d0 00 00 00 00 6d 9c be 41 9d fa 74 41 4d 11 be 41
       0.0 23.82638 15.311185 23.758448
0003e0 41 5b c4 41 9b 04 c1 41 4b 4b bd 41 42 39 98 c0
       24.544558 24.127249 23.661764 -4.7569895
0003f0 43 dc ad 41 fe f4 02 bd 34 50 25 bd e3 c8 be 41
       21.73255 -0.031971924 -0.04035969 23.84809

fc1.weight f4 [256, 256]
000000 9f 8d 18 3f 05 6a 45 bf 13 bd dd 3f fc 4f 94 3c
       0.59591097 -0.771149 1.7323326 0.018104546
000010 35 6e f5 3e 7f 5a fd 3e 6f d3 09 bf d8 31 ce 3e
       0.47935644 0.49483106 -0.5383825 0.40272403
000020 a7 21 8f 3c 18 44 fc 3e 50 46 8b 3e a7 e5 d8 3e
       0.017472101 0.492707 0.27202082 0.4236271
000030 65 50 56 bf 66 50 ae 3e 30 25 bc 3e da 33 b4 3e
       -0.8371642 0.34045714 0.36747122 0.3519581
000040 10 42 fa bf 81 f5 f2 3f 01 e5 9c 3f 00 28 14 3f
       -1.9551411 1.8981172 1.2257386 0.57873535
000050 ce 17 0f c0 ef 33 b7 be fa 18 fd bf c1 49 66 3f
       -2.235828 -0.3578181 -1.9773247 0.8995629
000060 29 ee aa 3e 4d e0 fe 3e 2e 23 1a 3f 63 70 a8 3e
       0.33384827 0.49780503 0.6020993 0.32898244
000070 66 c6 db 3e e7 1f 94 40 71 59 4a 3d b2 5d a7 bf
       0.42924803 4.6288943 0.049401704 -1.3075469
000080 f5 2c 0e 3f 0e 2b ae 3e b2 f0 e3 bc 25 16 04 3f
       0.5553735 0.34017223 -0.027824733 0.5159629
000090 e3 31 09 3e 96 43 bc 3c 57 3e cb 3e 1d f4 97 3f
       0.13397937 0.022981446 0.39696 1.1871372
0000a0 bf 39 89 bf 1e cf a0 3e 6c 14 fc 3e c4 fa b0 3e
       -1.0720748 0.31408018 0.4923433 0.3456632
0000b0 e5 f9 92 3e b3 5e be 3e 6b b1 00 3f 01 a7 9c 3e
       0.2870628 0.37181625 0.5027072 0.30596164
0000c0 00 26 2f c0 71 af 2b 3f 75 d2 b8 3e b7 7b 62 c0
       -2.7366943 0.6706458 0.36098066 -3.538801
0000d0 c3 96 43 3d 6e 81 59 3e 95 6f 47 3e 75 ff 99 3e
       0.0477512 0.2124078 0.19476159 0.3007771
0000e0 70 0b 3a 3c c9 5b 5e 3c f3 c9 c5 c0 57 cb 4d 3f
       0.011355266 0.013571688 -6.180902 0.80388397
0000f0 42 56 1b 3f d3 5f f7 3b ef ac 0a 3f 2d 27 50 c0
       0.60678494 0.007549265 0.54170126 -3.252391
000100 e0 83 09 3f 51 49 d3 3c 8e 45 06 3c 59 65 1c bc
       0.5371685 0.025791796 0.008195294 -0.009545648
000110 5f 59 06 3e 02 c3 c6 3b cd 04 12 bf 69 10 27 3f
       0.1312003 0.006065727 -0.57038575 0.65259415
000120 f0 a3 9a 3f c6 9c cc be c1 0a 50 c0 91 f8 0e 3f
       1.208128 -0.3996336 -3.2506564 0.5584803
000130 34 b1 10 bd bf 45 39 3e 11 9c 8c 3e 3b 01 22 3f
       -0.035325244 0.18093012 0.2746282 0.6328313
000140 38 53 a7 3c c6 6e b1 3e 50 e7 0f bf c0 cb 6e c0
       0.020425424 0.34654826 -0.5621233 -3.731186
000150 b1 8b 02 3f ec 09 3a 3d ff da c8 3e dd ac 63 be
       0.509944 0.04541962 0.3922958 -0.22233911
000160 3c 1d 48 bc 00 8d 9d bd e5 6f 93 be f6 2b 51 3d
       -0.012214001 -0.07692909 -0.28796306 0.051067315
000170 94 c5 00 3f 12 34 3f bd 9c ff ac 3c ac 7d 8e 3e
       0.5030148 -0.046680517 0.021117978 0.27830255
000180 a4 ea 81 3e dd 89 65 ba a9 1b 93 3f cc 2e 3c bd
       0.2537433 -0.00087562 1.1492816 -0.045943066
000190 3e 6f ed bc 69 4a 8f bd 5a f6 60 bf a2 92 06 3f
       -0.028983708 -0.069966145 -0.878759 0.52567494
0001a0 00 87 06 40 fb fa 82 bf 77 e3 87 bd 8e e8 f7 3e
       2.1019897 -1.0232843 -0.06635182 0.48419613
0001b0 72 3a 41 3d 6d 1d ab 3e 43 a4 d3 be 24 d1 9a 40
       0.04717488 0.33420888 -0.4133626 4.83803
0001c0 f7 a1 fb 3d 2b 5e 49 bd 03 e3 d4 3e c8 40 5d bc
       0.12286752 -0.04916207 0.41579446 -0.013504215
0001d0 8f 25 98 3c ae fb e1 3e d7 29 f9 3e 5c ae fd 3e
       0.018572597 0.4413733 0.48664734 0.49547088
0001e0 71 cb c6 be 36 f4 04 bd 9d 66 7a bd 1c c6 c6 3e
       -0.38827088 -0.03245946 -0.061133016 0.3882302
0001f0 b9 b5 db bc ea 24 ef 3e 15 3e 03 3f 56 b8 11 bd
       -0.02682005 0.4670785 0.51266605 -0.035576187
000200 af af 7f bc 24 3d a7 bf 50 bd da 3f 1b e8 02 3f
       -0.015605851 -1.3065534 1.7089024 0.51135415
000210 f4 1a 51 3c 54 71 ea 3e 32 c3 6c bf ec 31 25 bf
       0.012762774 0.45789587 -0.92485344 -0.645293
000220 6e 45 d7 3e 0e 3c 99 3c a2 5d ec 3a 31 58 a3 40
       0.42045158 0.018705394 0.0018033276 5.1045156
000230 fe 41 f7 3e 2b 61 66 3f 74 78 11 3f 67 e2 e4 3e
       0.48292536 0.89992017 0.5682442 0.4470398
000240 b1 3e 6e 40 32 f8 09 bd f8 8b 23 bd f2 9d a1 3e
       3.7225764 -0.033683963 -0.039928406 0.31565815
000250 f4 fe dc 3e 4a 70 36 3f f4 56 7f 3e cd 61 ec 3e
       0.43163264 0.7126509 0.24935514 0.46168366
000260 8a 9d a0 3e 37 06 34 c0 e1 f7 87 3f e2 4a a6 3e
       0.31370193 -2.8128793 1.0622522 0.32479006
000270 d0 34 ec 3e 44 06 5f 3f 24 b1 0a bf 7a 7a 5b bd
       0.46134043 0.87118936 -0.54176545 -0.0535836
000280 24 fe b0 3e 14 c6 bb 3c b0 80 fe 3e f7 45 ee 3e
       0.34568894 0.0229216 0.49707556 0.46537754
000290 01 d5 0c 3f 5a d8 7a 3f 2e 54 95 3e a9 4a 66 3e
       0.5501252 0.97986376 0.29165787 0.22489418
0002a0 f5 96 2e 3e b7 e4 4d 3d 85 92 b4 3d 7e 9a 77 3d
       0.17049773 0.050266948 0.08817009 0.06045007
0002b0 1b 3d f0 3e e9 d8 b5 bb 7b 7a a2 3e 3e 85 f1 3e
       0.4692162 -0.0055495393 0.3173407 0.47171968
0002c0 fe 3f 17 3e 23 29 a8 3e 27 09 95 3e 48 f6 74 3e
       0.14770505 0.32843885 0.29108545 0.23922074
0002d0 ed 63 87 bb 4e 32 39 bd 65 b5 bc 3d 10 b7 10 bc
       -0.004131785 -0.04521399 0.09214286 -0.008832708
0002e0 5a 93 ec 3e 3c 33 0b 3f 14 42 6e c1 53 07 4c 3d
       0.4620617 0.5437505 -14.891132 0.049811672
0002f0 da 10 44 3f d8 7e 70 c0 fa 48 e0 bf c0 92 9c 3a
       0.76588213 -3.757742 -1.7522271 0.001194559
000300 2c a7 ab 3f 89 44 31 3e 45 80 dc 3e e1 81 45 3d
       1.3410392 0.173113 0.43066612 0.048219565
000310 60 20 a4 3e 6a a0 ff 3b e2 be fa 3e c5 28 ad 3e
       0.3205595 0.0078011053 0.48973757 0.33820167
000320 d1 0c d2 3e 2a 01 f5 bf 2d c5 d2 3d 83 a4 b1 3e
       0.41025403 -1.914098 0.102915145 0.34695825
000330 d6 7d f9 3e 86 81 17 bd 71 fe af bc 91 ff 58 3c
       0.48728818 -0.036988758 -0.021483632 0.0132445255
000340 3f ac 0f 3f 78 b1 fe 3c aa 13 cb 3d 93 9b 63 bc
       0.561222 0.031090483 0.0991586 -0.013892072
000350 93 3c c6 3e db 39 ab 3e 3f 1e 8e 3f f5 bc ff 3e
       0.3871809 0.33442578 1.110298 0.4994885
000360 8c 9a ca bd b2 15 17 c0 ea 14 02 3f 32 f3 ab bd
       -0.09892759 -2.3606992 0.5081316 -0.08395995
000370 f3 0a e1 be 2c a3 93 c0 ee 07 a7 3c 73 65 6d 3e
       -0.43953666 -4.6136684 0.020389523 0.23183231
000380 50 8d d7 be 2c 01 a0 3b 5c ee 5b 3f 55 61 c0 3e
       -0.421 0.004882952 0.8591058 0.37574258
000390 94 e0 c7 3e 6d 0d ce bf c0 30 a1 3f 8b 21 0c 3f
       0.39038527 -1.6097847 1.2593002 0.5473868
0003a0 c3 7b dd 3e bd 39 88 bf 32 02 c3 bf 11 11 ee 3e
       0.43258485 -1.064262 -1.5235045 0.46497396
0003b0 43 f8 6f 3e dd 89 ec 3e 75 d2 38 bf 7c 02 2e 3e
       0.23434548 0.4619893 -0.7219613 0.16993135
0003c0 90 4e 6c bc 1a 35 7a 3f a6 a0 3b 3c e3 b2 8b b9
       -0.014423028 0.97737277 0.011451876 -0.00026645427
0003d0 88 ed 72 3d 50 52 db 3e 0e bb 56 3f 24 c2 cc 3e
       0.05930856 0.42836237 0.8387917 0.39991868
0003e0 e6 72 d0 3f 93 69 9c 3e 2a 6d ac 3e 67 b3 7f c0
       1.6285064 0.30549297 0.33677036 -3.9953249
0003f0 65 0a 15 3f 84 2e 8e 3d 54 3e bb 3c e8 52 db 3e
       0.58218986 0.06942466 0.022856869 0.4283669

fc1.bias f4 [256]
000000 02 3b c1 41 f4 c5 8b 3e ca 42 62 bd 1a 32 c1 41
       24.153812 0.27299464 -0.055239476 24.149464
000010 91 0b 00 41 c6 a6 c0 41 d7 19 b3 bb 37 2d c1 41
       8.002824 24.081432 -0.005465727 24.147078
000020 38 3c 49 3e a0 8d 8b 3c 2d b8 c0 41 14 cc c0 41
       0.19651878 0.017035306 24.08993 24.099648
000030 88 36 8b c0 ac 83 c0 41 53 7f 05 41 76 be 1d bd
       -4.3504066 24.064293 8.343585 -0.038511716
000040 f6 48 1d bd 16 6a c1 41 5a 39 78 41 4b 38 c1 41
       -0.03839966 24.1768 15.514002 24.152487
000050 be bb c0 41 4d 39 c1 41 10 31 c1 41 c6 35 c1 41
       24.091671 24.152979 24.148956 24.151257
000060 2b 38 4c bd f8 22 c1 41 a9 9a c2 41 4d 42 c1 41
       -0.049858253 24.142075 24.325518 24.157373
000070 d6 38 e6 40 b8 a4 c0 41 2d 9f c0 41 8a ff c2 41
       7.194438 24.08043 24.077723 24.374775
000080 da 1c 02 bd d6 a9 c1 41 00 00 00 00 e5 e6 37 bd
       -0.031765796 24.207928 0.0 -0.044897933
000090 f1 5b 02 41 39 c9 c0 41 08 9e c0 41 f1 c8 c0 41
       8.147447 24.098253 24.077164 24.098116
0000a0 cf e8 c0 41 cf 3b c1 41 0c 84 c9 41 8a 1a f0 bc
       24.113676 24.154203 25.189476 -0.02930953
0000b0 8e 82 4e bd 16 a5 c0 41 45 6f c0 41 c3 c8 c0 41
       -0.050417475 24.080608 24.05433 24.098028
0000c0 31 fc c0 41 2b d0 c0 41 c3 9e 3a bd 1d c8 c0 41
       24.12314 24.101645 -0.045561563 24.097712
0000d0 77 09 1c 41 de c2 c0 41 3b 2e 4b bd 78 b4 4c 41
       9.752311 24.09515 -0.049604636 12.79406
0000e0 26 cb c0 41 8b 2b c1 41 45 b3 c0 41 f2 bb c0 41
       24.099194 24.146261 24.087534 24.09177
0000f0 3b 95 c1 41 c2 bf c0 41 49 fb f7 40 5a 89 c0 41
       24.197866 24.093632 7.7494245 24.067066
000100 d9 60 82 bb 1e 26 c1 41 00 00 00 00 00 00 00 00
       -0.0039788303 24.143612 0.0 0.0
000110 55 36 c1 41 82 96 5a bd 2b ef c8 41 87 04 8f c0
       24.15153 -0.05336619 25.116781 -4.4693027
000120 1c 16 c1 41 44 25 c1 41 f0 de 0e 41 52 58 c1 41
       24.135796 24.143196 8.929428 24.168125
000130 1d d8 ea bc 52 bd 40 41 37 c4 c1 41 9c 39 53 bc
       -0.028667504 12.046221 24.220808 -0.012892153
000140 b4 c2 8c c0 56 98 c0 41 94 2c c1 41 f2 16 c1 41
       -4.3987675 24.074383 24.146767 24.136204
000150 b7 2c c1 41 2a 96 c0 41 da 1c 02 bd e2 c2 8f bc
       24.146833 24.073322 -0.031765796 -0.017548982
000160 cb 9a c8 41 2f e1 c0 41 21 f0 02 bd 02 51 d3 bc
       25.075583 24.109953 -0.031967286 -0.025795463
000170 bf b3 b2 bb c0 1b 98 bc f3 3a 97 bd 6d 22 c1 41
       -0.0054535563 -0.01856792 -0.073842905 24.14181
000180 b9 0d 90 c0 24 6f c0 41 f8 92 c1 41 43 1e c1 41
       -4.501675 24.054268 24.196762 24.139776
000190 43 1a c1 41 ac 25 c1 41 2d 8a 67 41 43 33 c1 41
       24.137823 24.143394 14.471234 24.15003
0001a0 fa 18 c1 41 fd aa c0 41 ab c0 c0 41 ef ca c0 41
       24.137196 24.08349 24.094076 24.099089
0001b0 4b e2 c1 41 7d b5 23 3d 45 c5 c0 41 8e 02 e8 40
       24.235495 0.039968003 24.096323 7.250312
0001c0 76 ab c0 41 c5 6a e8 c0 69 3b c1 41 ed d9 c0 41
       24.083721 -7.2630334 24.154009 24.10641
0001d0 00 00 00 00 75 68 d3 40 02 a6 c0 41 c6 4c c1 41
       0.0 6.606501 24.081059 24.162487
0001e0 e9 2a c1 41 86 81 91 c0 5f df ab 41 0b b8 28 bd
       24.145952 -4.547061 21.484068 -0.041191142
0001f0 c2 14 c1 41 69 27 14 bd 2f 33 c1 41 0c 88 f3 bd
       24.135136 -0.036170397 24.149992 -0.11891183
000200 08 4b c0 41 ff e4 d9 40 fa 79 c0 41 5c 1f c1 41
       24.036636 6.8092036 24.059559 24.140312
000210 d3 1c 02 bd 51 ca 0f bd f8 2a c1 41 7c 2f c0 41
       -0.03176577 -0.035105053 24.14598 24.023186
000220 0e c0 c0 41 98 7c 14 41 d2 15 c1 41 96 6c 1e bc
       24.093777 9.280418 24.135654 -0.009669444
000230 3d ac c0 41 22 c3 0e bc 47 70 cf 40 4f 5d c1 41
       24.0841 -0.0087135155 6.4824557 24.17056
000240 bb 8a c0 41 49 e5 c0 41 4d bd fb 40 aa a7 c0 41
       24.06774 24.111956 7.866858 24.081867
000250 47 4b c1 41 d0 4d c1 41 9b 99 5f 41 a1 9a c9 bd
       24.161757 24.162994 13.975001 -0.09843946
000260 2d 8d 8c bd 97 74 f1 40 4d 95 b5 bc 20 6c 01 41
       -0.06862865 7.545482 -0.022165919 8.088898
000270 af 06 db bb 5e 2f 0c bd 62 74 57 bc 23 9e 80 bc
       -0.0066841464 -0.03422486 -0.013150306 -0.015700405
000280 63 35 c1 41 02 24 30 bd 48 d5 f5 bc 42 b5 c0 41
       24.151068 -0.04300309 -0.030008927 24.088505
000290 03 2a c1 41 77 8b c0 41 a8 51 37 bd a2 e1 55 bc
       24.145514 24.068098 -0.044755608 -0.013054283
0002a0 a1 d2 c0 41 d4 53 c1 41 84 57 c0 41 a2 bc c0 41
       24.102846 24.165932 24.042732 24.092106
0002b0 31 41 c1 41 c3 0d c1 41 52 46 c0 bb 50 b7 c0 41
       24.156832 24.13172 -0.005867758 24.089508
0002c0 8c 3a c1 41 fb 79 45 bd fd 58 c0 41 8b 33 c1 41
       24.153587 -0.048212033 24.043451 24.150167
0002d0 b8 2c c1 41 7f dc 02 bc 30 d6 b0 c0 48 70 c0 41
       24.146835 -0.007987141 -5.526146 24.054825
0002e0 00 00 00 00 3d 92 c0 41 c6 ff 66 c0 0d c4 4d bc
       0.0 24.071405 -3.6093612 -0.012558949
0002f0 9f 4f ce 40 6e 56 9c bd 5f 33 c1 41 27 47 c1 41
       6.4472194 -0.07633673 24.150084 24.159742
000300 34 e3 04 41 0b 58 c3 41 d2 79 1b bd fd 29 c1 41
       8.3054695 24.41799 -0.037957974 24.145502
000310 5e 26 c1 41 83 c9 c0 41 62 5f 40 41 4f df c2 41
       24.143734 24.098394 12.023287 24.359037
000320 4a e1 87 bd 23 63 57 41 db 1c 02 bd ad 2a c1 41
       -0.06634767 13.461703 -0.0317658 24.145838
000330 44 cc c0 41 6b 55 c0 41 f9 27 1c 41 d2 d0 c0 41
       24.09974 24.041708 9.759759 24.101963
000340 dc 1c 02 bd 71 6d c0 41 72 4a ce 41 3a 9e e1 40
       -0.031765804 24.053438 25.78635 7.050565
000350 b4 10 15 41 2e fb 01 bd fb cb c0 41 03 31 02 41
       9.316578 -0.031733684 24.0996 8.136966
000360 f8 98 8f bc 00 65 c1 41 1b df c0 41 df c6 03 41
       -0.017528996 24.174316 24.108938 8.2360525
000370 00 bc 01 bd c1 0f c1 41 0b f9 c0 41 66 90 b2 41
       -0.03167343 24.132692 24.121603 22.320507
000380 bd 23 c1 41 91 ba d0 41 b0 2d c1 41 5d bd be 41
       24.14245 26.091097 24.147308 23.842463
000390 a1 d9 c0 41 f5 8a 90 c0 1a aa c0 41 4f 53 01 41
       24.106264 -4.5169625 24.083057 8.082839
0003a0 13 64 46 bd 4e 07 c1 41 f6 c4 c0 41 00 40 5b bc
       -0.048435282 24.128567 24.096172 -0.013381958
0003b0 25 3c c1 41 4c 25 c1 41 bd a2 1b bd dd 2a c1 41
       24.154367 24.143211 -0.037996996 24.14593
0003c0 50 5f c3 bb d7 d4 c0 41 dd d7 e0 bb b5 1c c0 41
       -0.00596229 24.103926 -0.0068616704 24.014017
0003d0 c3 c3 c0 41 86 c0 c0 41 12 26 c1 41 90 80 3a bd
       24.095587 24.094006 24.143589 -0.045532763
0003e0 6f 21 01 bd 12 0f 11 bd 9b c0 8b bd cf 08 e3 bc
       -0.031526025 -0.035414763 -0.06823846 -0.027714161
0003f0 eb 27 c1 41 1a bd c0 41 dd 3f c2 41 07 c1 c0 41
       24.144491 24.092335 24.281183 24.094252

last_fc.weight f4 [1, 256]
000000 1f d4 d3 bf 36 c3 06 bc c3 f2 f8 3c b4 2a 38 bf
       -1.6549109 -0.008225253 0.030389195 -0.7194016
000010 f5 58 db 3c 18 86 8d be a8 22 f2 3c d5 e2 d6 bf
       0.026775816 -0.27641368 0.029557541 -1.6787974
000020 b7 b0 02 ba 8b a8 63 bb e7 2a 24 bf 53 e4 48 bf
       -0.0004985439 -0.003473791 -0.64127964 -0.78473395
000030 ee d8 79 3a 1e 73 e9 be f7 33 23 3e aa 0e dc 3c
       0.0009530921 -0.4559564 0.15937792 0.026862461
000040 23 b6 d7 3c ec 10 db bf 93 11 35 bf f7 ac dd bf
       0.026331967 -1.7114539 -0.7072994 -1.731841
000050 4e 2f f8 be 1d df d3 bf 38 e4 47 bf d1 94 d8 bf
       -0.4847359 -1.6552464 -0.7808261 -1.6920415
000060 f4 e0 6d bc ab 30 d8 bf 63 15 e8 be ae 18 d6 bf
       -0.014518965 -1.6889852 -0.45328817 -1.6726282
000070 20 9f 5f 3e dc 83 70 be a9 b9 9a be 76 fa 37 c0
       0.21838045 -0.234878 -0.30219772 -2.874662
000080 83 cb f0 bc 80 ce d2 bf 41 49 43 bb c1 3e 00 bd
       -0.029393917 -1.6469269 -0.0029798301 -0.031309847
000090 e8 ef 82 3d 33 96 0d bf 09 11 e5 be 41 63 48 bf
       0.06393415 -0.5530731 -0.4473956 -0.7827645
0000a0 26 a4 92 be 48 0a d6 bf 19 b6 a5 bf b2 9b 5d 3c
       -0.2864086 -1.6721888 -1.2946197 0.01352589
0000b0 7d b4 d7 3c f9 03 2d bf 97 85 e0 be 3e f7 db be
       0.02633118 -0.67584187 -0.4385192 -0.42962068
0000c0 05 cf 71 bf fd 42 5a bf bf 90 9f bc 38 a2 bd bd
       -0.9445651 -0.85258466 -0.0194782 -0.092594564
0000d0 c8 5a 3e c0 75 11 45 bf 7d 5e be bc 1a 8f 10 40
       -2.9742908 -0.7697976 -0.023238415 2.2587342
0000e0 57 48 36 bf e6 94 ca bf a4 48 2e bf 8a b1 16 bf
       -0.7120413 -1.582669 -0.6807959 -0.58864653
0000f0 c4 07 de bf b4 93 2a bf 55 f9 69 3e 06 ed f8 bd
       -1.734612 -0.6663163 0.22849019 -0.12154584
000100 27 b2 61 3c a0 59 d3 bf 3f 8c 90 ba 52 24 15 bb
       0.013775385 -1.6511726 -0.0011028125 -0.0022757244
000110 43 6f da bf f9 08 ad bc 19 7f 82 c0 dd 83 a4 bb
       -1.7065204 -0.021122443 -4.078015 -0.005020602
000120 6d 64 cf bf 8c f9 d1 bf b0 88 3e bf f9 bf d9 bf
       -1.6202523 -1.6404281 -0.7442732 -1.701171
000130 0a 38 a8 bc 6e 92 d8 bf d7 dc 98 bf 13 20 37 bc
       -0.020534534 -1.6919687 -1.1942395 -0.011177081
000140 63 ba 59 3c 81 f8 bb be 56 bc dc bf 85 52 da bf
       0.013289067 -0.3671303 -1.7244976 -1.7056433
000150 c5 df d5 bf ae 30 e6 be da c1 f5 3c 23 02 7e 3c
       -1.6708914 -0.44959015 0.029999662 0.015503439
000160 79 25 d1 c0 c0 94 52 bf 9a 28 f8 bc 29 f7 74 3c
       -6.5358243 -0.82258224 -0.030292798 0.014951506
000170 8c 71 16 3c 88 84 76 3c 0a 51 5c bc 6d d1 ce bf
       0.009182345 0.015046246 -0.013447056 -1.6157662
000180 57 5e 7f bc e7 f4 bb be ec e5 80 be 74 aa cb bf
       -0.015586457 -0.36710283 -0.25175416 -1.5911393
000190 e5 3a d2 bf b2 c8 d2 bf b0 a4 0f 3f bd 7c d5 bf
       -1.6424223 -1.6467497 0.5611067 -1.6678692
0001a0 cd 69 d4 bf dc 65 fc bd a9 11 21 bf 19 c7 38 bf
       -1.6594788 -0.12324116 -0.6291757 -0.721788
0001b0 33 5d 05 bf 0a 36 8c 3c 88 3b c4 be 60 c3 72 3e
       -0.52095336 0.017115612 -0.3832667 0.23707342
0001c0 ae 7f 26 bf 70 14 c7 bc 71 51 d7 bf 90 93 3c bf
       -0.65038574 -0.024301738 -1.6821729 -0.7366266
0001d0 fa 12 33 bb b8 fb a1 3e df 7a f5 be b4 30 dd bf
       -0.0027324543 0.3163736 -0.47945306 -1.7280488
0001e0 e4 1c df bf 01 19 62 bc aa 41 bc 3f 55 72 c7 3c
       -1.7430692 -0.013799907 1.4707539 0.02434651
0001f0 26 c7 c5 bf 88 29 06 3d da 55 d7 bf 7e 4b 19 3e
       -1.54514 0.03275445 -1.6823075 0.14970204
000200 79 e3 22 c0 60 b2 b8 3f 22 94 c8 be 9b 9d d3 bf
       -2.5451338 1.4429436 -0.39175516 -1.6532472
000210 32 ad f1 3c 21 1b 02 3d d9 66 d0 bf 9f d9 8b 3e
       0.029501531 0.031764153 -1.6281387 0.2731447
000220 c7 b1 39 bf a1 ba b4 3f 3e 31 d2 bf ce cf e8 bc
       -0.7253689 1.4119455 -1.6421278 -0.028419401
000230 34 2a 11 bf 78 38 e9 3b 69 55 fc 3f c9 d2 d9 bf
       -0.5670502 0.0071173273 1.9713565 -1.7017452
000240 9c c5 05 bf e2 eb 77 bf 50 6a ee 3a 16 97 f1 3c
       -0.5225465 -0.96844304 0.0018189643 0.029490989
000250 98 88 da bf da 32 d4 bf 8a 2f 2d bf de fa fc bc
       -1.7072935 -1.6578019 -0.67650664 -0.030881342
000260 8c 82 ee bc ca 51 83 3f af 3a aa bc ab 44 72 3f
       -0.029114984 1.0259335 -0.020779936 0.9463603
000270 47 31 8c bb 12 ae 45 bc 03 c1 4d bc 20 d8 cd 3c
       -0.0042783353 -0.012065427 -0.012558225 0.02512747
000280 75 4e d8 bf 1f cc 87 3c a5 ed f9 bc 36 65 d7 be
       -1.6898943 0.016576825 -0.030508826 -0.42069405
000290 e6 c1 c9 bf c3 60 03 bf 4e 61 af 3c 75 40 52 bc
       -1.5762298 -0.5131952 0.021408703 -0.012832751
0002a0 95 b6 4c bf fc 54 d8 bf c9 e3 81 be 6f 24 13 bf
       -0.799661 -1.6900935 -0.253691 -0.5747747
0002b0 cd b6 db bf 33 93 7f bf e6 0e b8 bb 8e 0b 2c be
       -1.7165161 -0.99833983 -0.0056170104 -0.16801283
0002c0 76 dc d7 bf be b4 80 bc ed 61 ae be ef b8 d5 bf
       -1.6864154 -0.015711185 -0.34059086 -1.6697062
0002d0 27 de d3 bf 6b 74 95 bb 88 df e5 3b 44 53 e2 bd
       -1.655217 -0.0045609972 0.0070151724 -0.11051038
0002e0 8c 6c 31 ba 7c 47 0e bf 8e b0 f7 bc 7e 7f 27 3c
       -0.0006768189 -0.55577826 -0.030235555 0.010223268
0002f0 27 5b 6c 3c 9c 64 b0 bc 7d 64 d4 bf 46 ff 95 bf
       0.014426029 -0.02153235 -1.6593167 -1.1718528
000300 f8 6e 40 3e 67 07 1b c0 42 06 63 bc 05 34 d5 bf
       0.18792331 -2.4223268 -0.013856472 -1.66565
000310 da cd d5 bf 44 6c 55 bf 99 f2 f5 3d 5b 86 19 c0
       -1.6703446 -0.83368325 0.120091625 -2.3988254
000320 d0 7b ea bb 10 c6 29 c0 60 bf 00 bd 9c cb d4 bf
       -0.007155873 -2.6527138 -0.03143251 -1.6624637
000330 a2 cd 5c bf 42 6f 9c be 7e 3b 05 c0 21 97 e3 be
       -0.8625127 -0.30553633 -2.081756 -0.4445124
000340 22 a2 f8 bc 08 d8 97 be 49 c1 08 c1 a4 d1 50 3f
       -0.030350748 -0.29657006 -8.547189 0.81569886
000350 53 4c 81 c0 3b 02 02 3d 9c 05 8b be 23 ba bb be
       -4.040567 0.03174041 -0.27152717 -0.3666545
000360 37 5e 72 bc 93 81 82 be 8e 03 80 bf 87 30 45 bf
       -0.01479297 -0.25489482 -1.0001085 -0.7702717
000370 27 12 97 bc c2 57 cf bf 5a 35 8a bf 99 0a 1c 3f
       -0.018441273 -1.6198657 -1.0797532 0.6095367
000380 db 95 dd bf 07 7a 9b c0 69 3b bc be 2e 77 f3 bd
       -1.7311357 -4.858646 -0.36764076 -0.11887966
000390 d6 2e 33 bf dd 02 e0 3a 83 8f a9 be e8 44 be 3b
       -0.6999334 0.0017090697 -0.33117303 0.005806554
0003a0 4a ad 8c bc 36 c9 ed be 28 80 4e bf ad 79 da 3a
       -0.017172474 -0.46442574 -0.806643 0.0016668342
0003b0 79 2e da bf 09 90 c8 bf ef ad da bc 33 b6 de bf
       -1.7045432 -1.5668956 -0.026694266 -1.7399353
0003c0 71 0d b1 bb 5a 1c 85 bf 4f 38 c6 3c ff 27 82 3e
       -0.0054032137 -1.0399277 0.024196772 0.2542114
0003d0 53 51 50 bf 72 b0 40 bf 67 3f d4 bf 7f dc 1f 3c
       -0.8137409 -0.75269234 -1.6581849 0.00975716
0003e0 5f d3 f2 bc b2 9f bb 3c bd b4 f3 3c 8c 1b d8 bc
       -0.029641805 0.022903297 0.029749269 -0.026380323
0003f0 ea ae d6 bf 1f 2f c5 be 1c c8 03 c0 25 d8 33 bf
       -1.677213 -0.38512513 -2.0590887 -0.70251685
