save_mode/SAC_v_1000_qf1_network.pth (torch, 329559 bytes, 5 tensors)

fc0.weight f4 [256, 61]
00000000: 50e2 1d3d b051 a7bb 2045 67bd 7cfd 333d
00000010: 0251 16bd 4565 d8be fe53 533f 86d0 13bf
00000020: 4827 f33c e815 12bc 2445 01bd 6e50 1c3d
00000030: 20d2 9d3b a43f 8d3d 609c 003e 309c 00be
00000040: 7810 d1bc 6812 3d3d 08e2 39bd 40ed 60bb
00000050: 50db 733d 19b0 393e 83c4 f23e 9431 4a3c
00000060: 3483 25bd dc7d 033d c805 cf3c c0ca 99bc
00000070: 70d2 f4bc bf95 16be 5640 6bbe d98a 49be
00000080: 58e4 0c3d 8014 293c 447c 7f3d f4a2 d93c
00000090: a283 7b3d daa7 0abf 6434 05bf 83d0 fdbd
000000a0: 3092 62bd c0ee 74bd a497 6c3d 3802 b5bc
000000b0: a8f5 0c3d 1e52 2cbe c40e b1be b12f 80be
000000c0: 3823 b63f c0a2 f33f 455a 4440 8ff5 8ac0
000000d0: 3b99 11bf 4b0c 4d40 a141 553e 739f 76be
000000e0: 0ff1 113e b5ad 42bf 3b27 00bf f6bd 713f
000000f0: 3af4 8ebe 0841 5a3c 7031 2abc 2ca5 553d
00000100: c0cc d6bb b079 d1bc 0058 053f 25ee 773f
00000110: 14ba 4c3f 02ba 2d3d c001 61bc 5a2f 4bbd
00000120: 14c7 cfbc 86b2 0e3d 853f 133e d087 923d
00000130: 5015 c23e 80e1 703d 10a0 2bbc 6427 d33c
00000140: 28e4 3b3d 208e cc3b 7c09 133f 9636 2b3f
00000150: 7c45 233f 0840 bebc 0825 48bd 88a7 f13c
00000160: 62ec 6e3d a834 93bc 974b 593d 510a 823e
00000170: 5893 e13d fa0c 3f3d 86ce 133d 1ac5 14bd
00000180: d08a 363c 1078 ecbc 7226 6dbe 91b6 83be
00000190: fe68 d5be 008e ecba 2405 88bc 4029 ccbc
000001a0: 8c7b 0abd 30e6 793d 81ea 02bd dc4b 0a3e
000001b0: 129a 653d 2f65 39be 5d25 6a40 212b 7e40
000001c0: d6df c2c0 6639 a0bf 7765 0640 3738 f4be
000001d0: cdc3 cb3e 6659 313f 568b 8dbf f673 cabf
000001e0: c0a6 ee3f 7527 81bf c4e3 fd3c d0eb 0ebd
000001f0: 92e5 773d 6898 973c 5efa 0fbd dfb8 d33e
00000200: 398b 9f3f 055b b33e 6a76 2bbd fcb2 b63c
00000210: 3629 31bd a4f6 5ebd d6b1 243d 5546 973d
00000220: eeb8 bb3c a232 303e e0cd 17bd 5030 2b3d
00000230: 9c62 b7bc 102d 473c d4cc d0bc 98c8 1f3f
00000240: c0cf 653f 7d95 4d3f 4082 34bb dc3a 1ebd
00000250: 4216 0e3d 7c13 af3c 74be a0bc 19c4 fa3e
00000260: 6260 403f 0e7c bc3e 84b5 b43c 7801 75bc
00000270: a087 e3bb ec93 7c3d 9045 dbbb 9ea8 c53d
00000280: 7a75 c33d d478 0bbe b05c 1b3d 5070 1e3c
00000290: 7806 f83c 2899 ffbc c47d ffbc 354e c13e
000002a0: f9db 343f 3982 943e b1c2 05bf d9e8 6a40
000002b0: 21f4 7d40 3b67 c4c0 6760 89bf 3341 d53f
000002c0: 1909 27bf f07d f03e b351 cf3e e4ce 98bf
000002d0: 09d7 c7bf 920e cf3f bf54 69bf 74df 92bc
000002e0: 1c7b 753d 80dc d3bc da68 423d c070 67bb
000002f0: d483 4ec0 53a2 8b3e a619 0d3f 48ec 59bd
00000300: a86d c73c 203d 603d cefc 0bbd f86c 05bc
00000310: eba3 dd3d 81e6 14bf d13f 8fbf 8821 883c
00000320: 4c49 73bd 90e5 1d3d c090 d3bb 32d3 1abd
00000330: 3e6a 6b3f 2fae b93e ac1b 743f daaa 04bd
00000340: ccb4 20bd aca8 793d c8dc d33c 70b9 a33c
00000350: 6dc1 71be 0c81 eebe 2963 bdbe 8087 0dbb
00000360: d43d ae3c 16ef 223d 787b 1cbc 3246 3fbd
00000370: 0d5b 5ebc 3943 03bf 6a61 34bf 3ae4 42bd
00000380: 4e35 1ebd 84cf b23c 4ebb 473d b25e 6bbd
00000390: ead4 68be 49a5 99be 36e1 cebe 1605 2340
000003a0: 99f2 b5bf e5f5 26c0 4632 4d40 f697 24bf
000003b0: bb06 68bf 9472 53be 1483 183f a1c2 33be
000003c0: 0c08 e1bd 2def 1a3f 1103 503e db27 f8bd
000003d0: 56b0 22bd e85f 42bd 38a9 51bd f4f8 a6bc
000003e0: 1866 f2bc 2bbc d23e 9f1c 853f 497e 4e3f
000003f0: a64d 7a3d c242 6a3d dcdf ebbc 9c43 07bd
0.038545907 -0.0051061735 -0.056462407 0.043942913 -0.03669835 -0.42264763 0.82550037 -0.57740057
0.029681817 -0.008916356 -0.03156008 0.03816264 0.0048163086 0.06896904 0.12559652 -0.12559581
-0.025520548 0.04616013 -0.045381576 -0.00343211 0.059535325 0.18133582 0.47415552 0.012340922
-0.04040833 0.03210245 0.025271311 -0.018773437 -0.0298855 -0.14705561 -0.22973761 -0.19681872
0.034397453 0.010319829 0.06237437 0.02656696 0.06140483 -0.5416237 -0.52033067 -0.12393286
-0.055315197 -0.059798002 0.057761803 -0.022095785 0.034413964 -0.168282 -0.34581578 -0.25036386
1.4229498 1.9034042 3.0680096 -4.3424754 -0.56874436 3.2038753 0.20825817 -0.24084263
0.14252113 -0.76046306 -0.5005986 0.9443048 -0.27920705 0.013321169 -0.010387763 0.052159473
-0.00655517 -0.02557072 0.520874 0.96847755 0.7997143 0.04241372 -0.013733327 -0.049605705
-0.025363483 0.034838222 0.143797 0.071548104 0.37906885 0.058808804 -0.010475174 0.025775619
0.045871884 0.0062425286 0.57436347 0.66880167 0.637779 -0.023223892 -0.04886344 0.02949883
0.0583309 -0.017969444 0.053050604 0.25398496 0.11014432 0.046643235 0.036085628 -0.036320783
0.011141494 -0.028865844 -0.23159197 -0.25725225 -0.41681665 -0.001804769 -0.016604014 -0.024922013
-0.03380923 0.06101054 -0.03196192 0.135055 0.056055136 -0.18105005 3.6585305 3.9713824
-6.0898237 -1.2517517 2.099943 -0.4769914 0.39797822 0.69277036 -1.1058147 -1.5816638
1.8644638 -1.0090166 0.030992396 -0.034892857 0.06052167 0.01850529 -0.035150878 0.41351983
1.2464362 0.3503038 -0.041860975 0.022302143 -0.043252192 -0.054434434 0.04020866 0.07386462
0.02291533 0.17206815 -0.037061572 0.04179412 -0.022385888 0.01215674 -0.025488295 0.62415457
0.89770126 0.80306226 -0.0027543455 -0.03863035 0.034689195 0.021371596 -0.019622065 0.48977736
0.7514707 0.36813396 0.02205921 -0.014953963 -0.006943658 0.061664507 -0.006691642 0.09651302
0.09543891 -0.13620311 0.03793019 0.009670332 0.030276522 -0.03120096 -0.0311879 0.3775498
0.7064815 0.29005602 -0.522502 3.670462 3.9680254 -6.1376014 -1.0732545 1.6660522
-0.65248257 0.46971083 0.4049202 -1.1938138 -1.5612499 1.6176322 -0.9114494 -0.017928816
0.05993186 -0.025861979 0.047463275 -0.0035315007 -3.2267962 0.2727228 0.5511726 -0.05320385
0.02434428 0.054745793 -0.03417664 -0.008143656 0.108222805 -0.5816422 -1.119135 0.016617551
-0.059396073 0.038549006 -0.0064564645 -0.037799068 0.9195899 0.36265704 0.95354724 -0.0323895
-0.03923492 0.060951874 0.025862113 0.019985884 -0.23608942 -0.4658283 -0.36989716 -0.0021595657
0.021269716 0.03977879 -0.009550922 -0.046697803 -0.013571513 -0.5127445 -0.7046114 -0.047580935
-0.038625054 0.021827467 0.048762612 -0.057463355 -0.2273747 -0.30008915 -0.40406197 2.5471854
-1.421466 -2.6087582 3.2061934 -0.64294374 -0.9063527 -0.20649177 0.5957501 -0.17554714
-0.10987863 0.60521203 0.2031367 -0.12116977 -0.03971895 -0.047454745 -0.05118677 -0.020382382
-0.029589698 0.41159186 1.039936 0.80661446 0.061109208 0.05719257 -0.028793268 -0.03302346

fc0.bias f4 [256]
00000000: 793f 4741 8687 c641 a36b c741 71e9 fec0
00000010: e215 c841 45dd 9d41 0000 0000 5e41 c741
00000020: 15a6 c741 23f2 9f41 d56c c241 2fcb b141
00000030: 312e 8741 3c2b ac41 b520 c841 54d5 8b41
00000040: a0e5 c641 64ca 1cbd e7a6 30bc eedb 8441
00000050: 2f0c 40bd d865 c741 f9d4 c741 8758 8fbd
00000060: c5b8 8741 48e3 8041 db98 c641 e97c 8b41
00000070: 207f c841 d329 9d41 d1a9 c841 3c40 89be
00000080: 4f24 c541 b727 c841 30cf c841 7715 8b41
00000090: 8302 c341 125c 20bd bf0d b641 125e c741
000000a0: 3c29 c641 9a98 6541 6ccb c741 a427 b8c1
000000b0: 9e28 dcbe 0000 0000 a4c1 8841 6ba5 9641
000000c0: 3005 24bd ee44 8c41 4b19 c741 9dea c541
000000d0: 0599 7541 e528 8b41 4d3c a8c1 f2d2 4dbd
000000e0: bf1e c841 4d2b 8141 cf7d ecbc d58d 9741
000000f0: 8381 c641 5ef8 a241 9e4e 6e41 3b0f 81bd
00000100: 2646 ebbe 20e5 8b41 ad21 33bd 4d1b c841
00000110: 74c0 95c1 496b 6fbd afeb c341 86f4 06c1
00000120: 76fb 90bd 64a3 c241 737a c741 a989 c641
00000130: aab7 c741 d3e0 7b41 93df 6f41 14ab c841
00000140: e80d c841 f450 c741 2e68 9441 a290 8f41
00000150: 0dd7 35c1 d6a8 ad41 50be c641 6e89 a541
00000160: f508 b2be 740a c541 e0b2 8041 ff34 c741
00000170: df4b 23bd fdc1 5441 c562 8741 931e 8041
00000180: 0000 0000 a541 9a41 4333 ae41 b20a 98bd
00000190: 2a49 c741 c673 1fbd 0000 0000 bbf9 8341
000001a0: 801f c641 0f3a 24bd 83e4 c641 4ac6 a141
000001b0: 3fd6 b6c1 b003 c841 adc9 01bd 0000 0000
000001c0: d19c c741 0c0e 14bd e00c 0bbc 0000 0000
000001d0: 7527 7641 1a36 8841 ace2 67bd 16fc c641
000001e0: b4a6 c741 11e3 9141 85ef a241 0000 0000
000001f0: c4db 29bd 4830 6841 a5bb 48bf 3a42 a0c1
00000200: cae2 8341 6cc3 c5bc 28af c741 8245 8b41
00000210: b378 c641 954b 8041 465c 3441 bb30 c741
00000220: e76e c841 8136 9d41 bd6c c741 fe74 be41
00000230: ba00 8d41 2b34 23bd 695a 7e41 3327 c341
00000240: 185f c641 b83f 9d41 0fb8 c641 5e99 4ebf
00000250: ccd8 c641 c760 c641 0948 c941 1724 c341
00000260: bff1 a541 d546 c741 b691 c141 e406 c141
00000270: aac0 67bd a4e7 c641 d077 c641 16b2 ca41
00000280: 8943 8541 98b9 2ec1 73cb c641 0000 0000
00000290: 0a27 50be c7ea 8441 dfbc e4bb 4b85 95bc
000002a0: 0b7d 8e41 563c 1abc 9abc c541 89aa e1be
000002b0: 62f7 8641 bac2 c641 713e c841 9b79 7a41
000002c0: d271 1ebd 61ca c641 03e5 c641 b471 c741
000002d0: 948a 12bd 4591 9941 6656 d1bc e047 c641
000002e0: 1f24 3f40 aa6f b941 0000 0000 fbb7 c641
000002f0: d7e8 9641 74da 8341 4567 c741 cc65 c741
00000300: 6cba 01bd 7516 5ebf 5b2f 8241 5b4f 0abd
00000310: e712 41c1 c033 c741 b859 c841 00ed c541
00000320: 31f7 c541 00ab c441 b4e2 8ec1 8195 5bbd
00000330: 9b1a d441 0429 45bd 9516 c741 2e74 c641
00000340: b702 70c1 29b3 b041 6bc3 8941 250e c841
00000350: 63fb 69bd e135 81c1 02eb 9141 41cb edbc
00000360: c28d c641 7cca 2fc1 640a e8bb 17db 99c1
00000370: f197 e1c0 9213 7941 7e6d c641 9664 c741
00000380: fb63 ac41 c35a c741 868b c341 5be2 b0c1
00000390: 68d6 38bd d7fe 8341 d56d 3dc1 52ad 9541
000003a0: 1dcd 4e3f 04b1 ac41 a701 8341 b109 343e
000003b0: 3b41 c741 ffba ac41 8285 a5c1 26ee c841
000003c0: 075d c641 13b9 0fc0 6e5e 9341 7e3c c741
000003d0: 4329 6dbe b76a c741 71ee c541 c1f2 be41
000003e0: 3aef a941 7445 7241 9f69 cb41 d1ef 8341
000003f0: 2feb c341 c228 c841 fd13 8441 bdb1 c741
12.452996 24.816174 24.927557 -7.9659963 25.010685 19.733042 0.0 24.906918
24.956095 19.99323 24.30314 22.22421 16.897554 21.52111 25.01597 17.479164
24.862122 -0.038278952 -0.01078198 16.607388 -0.04688662 24.924728 24.97899 -0.06999307
16.96522 16.110977 24.824636 17.435991 25.062073 19.645422 25.082918 -0.2680682
24.642729 25.019392 25.101166 17.38548 24.376226 -0.039150305 22.756712 24.920933
24.770134 14.349756 24.974327 -23.019356 -0.42999738 0.0 17.094551 18.83077
-0.04004401 17.533657 24.88735 24.739557 15.349858 17.394968 -21.029444 -0.05025
25.015013 16.146143 -0.028868584 18.944254 24.813238 20.371273 14.894194 -0.06301733
-0.45951957 17.486877 -0.043733288 25.01333 -18.718971 -0.058451924 24.49008 -8.434698
-0.07079212 24.32978 24.93479 24.817217 24.96468 15.742389 14.992084 25.083534
25.00679 24.914528 18.550869 17.945621 -11.365003 21.70744 24.842926 20.692104
-0.3477246 24.630104 16.087341 24.900877 -0.03986728 13.29736 16.923227 16.014929
0.0 19.282053 21.77503 -0.07423915 24.910725 -0.03892877 0.0 16.496939
24.76538 -0.04009443 24.861578 20.22182 -22.854612 25.0018 -0.031686474 0.0
24.95157 -0.03614621 -0.008486956 0.0 15.384633 17.026417 -0.056612656 24.873089
24.956398 18.235872 20.366953 0.0 -0.04146935 14.511787 -0.7841132 -20.032337
16.485737 -0.024141036 24.960526 17.40894 24.808935 16.036905 11.272528 24.898794
25.054152 19.651613 24.928095 23.807125 17.625355 -0.039844673 15.897073 24.39414
24.796432 19.656113 24.839872 -0.8070277 24.855858 24.797255 25.160173 24.392622
20.74304 24.909586 24.196148 24.128365 -0.056580223 24.863106 24.808502 25.336956
16.657976 -10.920311 24.84934 0.0 -0.20327392 16.614637 -0.006980523 -0.018252036
17.811056 -0.009413799 24.71709 -0.4407542 16.870792 24.845081 25.030489 15.654689
-0.038682766 24.848818 24.861822 24.93052 -0.03577669 19.195932 -0.025553893 24.785095
2.9865797 23.179523 0.0 24.839834 18.863691 16.481667 24.925425 24.924706
-0.031671926 -0.86753017 16.273123 -0.033767086 -12.067115 24.900269 25.043808 24.740723
24.745699 24.583496 -17.860695 -0.053609375 26.51299 -0.04813482 24.886026 24.806728
-15.000663 22.08748 17.220419 25.006907 -0.057124507 -16.151308 18.23975 -0.029027583
24.819218 -10.986935 -0.007081317 -19.231977 -7.0497975 15.567278 24.803463 24.924114
21.548819 24.919317 24.443127 -22.110525 -0.04512635 16.499434 -11.839314 18.70963
0.8078173 21.586433 16.375807 0.17581822 24.90685 21.591307 -20.69019 25.116283
24.795424 -2.245671 18.421108 24.904537 -0.23160271 24.927107 24.741426 23.868532
21.24181 15.141956 25.426573 16.492098 24.489836 25.019901 16.50976 24.961786

fc1.weight f4 [256, 256]
00000000: c66c c2bd d12d 8c3e fb7d 1b3f 3d67 bcbe
00000010: f5fa d03e 32d3 bb3e 14aa 3d3d 732f 0f3e
00000020: 02b5 2e3e a42e a03d 32f1 073f 1562 3e3e
00000030: 8684 cc3e 57df b43e d7d7 e13e bba0 0e3e
00000040: 7f14 f93d 804d fe3c 4c21 7ebd 2c18 073f
00000050: 3686 96bd 80f5 aa3e 033d 053f 838a 0bbd
00000060: 8a1d 333e 3cb7 de3d 2508 b33e 6f3f e73e
00000070: b493 fa3e c847 453d 6ea6 df3e f747 7cbf
00000080: 3c21 a43d 360e ea3e 6bad 423f 5807 433e
00000090: ba0e 393e fbed 16bd f796 cc3e d6c8 cb3e
000000a0: e051 2e3e 1de2 7b3f 274b d93e 03af 7e3f
000000b0: f26e 88bf d671 60bd 6787 0f3f d8fb 03be
000000c0: 34f1 873d ee5f be3d 515a 3e3e 9524 843e
000000d0: 903a d63c fd6d 0f3e e961 52c0 ac0e d2bb
000000e0: d536 303f 920e 4f3e 1843 8fbd 5fef 0ebe
000000f0: 1f7f 8c3e c12b 2d3f e296 313e 3312 ddbd
00000100: 974b 87bf 9e2c 8c3d 94ca d3bb db07 ce3e
00000110: 23a3 4ac1 3065 143d cd02 63bd 152c c7be
00000120: ffc8 5bbc 85f1 fdbd 254a 243e d0b9 e83d
00000130: 153a 953e a2c0 a03f b897 cc3e 523b 923e
00000140: 4a25 a43e 9996 253f 1e91 893e 141c 113f
00000150: b2ba 84c0 97b2 953d 7ad4 7e3e b11d 90bd
00000160: f274 c1be 8268 923d 2580 313f ea8c a33e
00000170: 1867 46bd 109b d03e 3c0b 973e 5f20 9d3e
00000180: e4db 293d 92a8 ee3e 213d 8f3e fef1 aabd
00000190: 74f3 413e 74d6 0cbd 3aee 433d 1b51 ac3e
000001a0: be77 ea3d 4a63 4bbd f7c5 033f 7bc8 2c3d
000001b0: 6e02 74bf 2b01 693e 6438 acbd c06e c93b
000001c0: dc05 063f 9cc9 353d 545b fa3c 801f b13a
000001d0: 3b38 823e 8a89 433f 07d5 603a 163e d93e
000001e0: 2d00 b43e 518d 813e 8f65 8c3e b824 bd3c
000001f0: c85a 143d bf17 283e 0aee 2bbf 5b6e bfc0
00000200: 1abd 623e 6585 27bd 6e0b a83e 7f37 583f
00000210: 03bf 7e3e e31d 9d3f c214 78be 7375 d33e
00000220: ef97 3f3f dd21 003f 48f0 383f 13d7 5a3e
00000230: 3393 af3c 49eb 54bb 2e7b 1e3f 209b fb3e
00000240: 2c42 953e 1ce6 103f 8ca4 243e 8159 41bf
00000250: e863 c53d 9ef6 573e 9262 153f 4e98 ec3d
00000260: a776 a4bc 13fb 633e bdc8 923d 248d c93e
00000270: b07b e13c 96cf 863e ef6f fe3e 988c 1c3f
00000280: 2d76 633f 38a7 c2bf aeb1 703e 6826 e7bc
00000290: 98dc 88bf e4c7 013f 7c2a 19bd d827 943c
000002a0: 742d 593e 2c56 263d 12b8 5bbd b2d6 9fbf
000002b0: 33ae 743e 8a4d 773e 7fac 0a3f 4d91 6f3e
000002c0: 448e 9b3c 1d2a 653e f139 a53e 5bff b43e
000002d0: dd2b 493d 16a9 383e b67b 33bd caa0 8d3e
000002e0: ca5b 14be 8fc4 a73e 408a fabc 126c a53e
000002f0: fae9 5f3f b874 883e 5668 8c3e 19ab 943e
00000300: cabb 2fbd 6d7c 28c0 8cdb d53e c62b 81bc
00000310: 3aba 4d40 761b 7e3e e250 bb3e 0f85 273e
00000320: 9970 333e 9e22 3e3f cda2 90c1 d865 023d
00000330: 4024 d840 c196 833c 89fb a23e 13ca 1f3e
00000340: 2bc1 96be 0702 083f afe9 b33e 18f1 ee3e
00000350: 7a42 023c ce4b cdbf ea38 90bd 5637 bfbd
00000360: 9529 993d 2b09 66c0 9e47 293d 7535 adc0
00000370: 05f0 94bf f1cc e6be d76a 933e 72a6 b23e
00000380: 39d1 353f 3a01 ef3e 760e d63d cde4 07c0
00000390: d8ff 843d 0dc7 5a3e 6591 0dc1 3073 bd3d
000003a0: fd2a 1f40 252d 6d3e 1d58 663f 950c 4540
000003b0: 4a6e 273f c2e8 983e fa6d b23f 7fcd 153f
000003c0: db32 093e dafe 7e3e c915 a93c bd29 523e
000003d0: ff1c 4bbf a691 a73e 2793 dd3d 0167 b93e
000003e0: e0f1 373f b7ae 1b3c a818 b93f d1f2 a23e
000003f0: b0b0 33bd 3bbb 0f3f 0378 853e ac67 833e
-0.09493403 0.27378705 0.60739106 -0.36797515 0.40816465 0.36684567 0.046304777 0.13982944
0.17061237 0.07821396 0.5310241 0.18592103 0.39944857 0.35326645 0.44109985 0.13928501
0.121621124 0.031042814 -0.062043473 0.5277126 -0.073498175 0.33390427 0.5204622 -0.034067642
0.17491737 0.10874793 0.3496715 0.45165583 0.48940814 0.04816416 0.43681663 -0.9854731
0.080141515 0.45713967 0.76045865 0.1904577 0.18072024 -0.03684805 0.39958927 0.39801663
0.1702342 0.98391896 0.4244015 0.99485797 -1.0658858 -0.054796062 0.5606598 -0.1288904
0.06637803 0.09295641 0.1858914 0.2580916 0.026150972 0.14006801 -3.287226 -0.0064104404
0.6883367 0.20220402 -0.06995219 -0.139585 0.27440736 0.6764489 0.17342713 -0.10794487
-1.0569943 0.068444476 -0.006463358 0.40240368 -12.664828 0.036229312 -0.055422593 -0.3890082
-0.01341462 -0.12399582 0.16043909 0.11363566 0.29145876 1.2558787 0.39959502 0.28560883
0.320597 0.6468292 0.26868528 0.5668347 -4.14779 0.07309454 0.24885741 -0.07036913
-0.37784535 0.071488395 0.6933616 0.31943446 -0.04843816 0.40743303 0.2950076 0.3068876
0.04146947 0.46612984 0.27976325 -0.083469376 0.18940526 -0.034384206 0.047834612 0.3365563
0.1144862 -0.049655236 0.51473945 0.04218338 -0.9531621 0.22754352 -0.08409193 0.0061472356
0.5235269 0.044381723 0.030561127 0.0013513416 0.25433525 0.7638174 0.00085766654 0.4243018
0.35156384 0.25303128 0.27421233 0.023088798 0.03621939 0.16415308 -0.67160094 -5.982221
0.22142449 -0.0408987 0.3282122 0.8445968 0.24877553 1.2274746 -0.24226668 0.41300544
0.7484121 0.5005167 0.7224164 0.21371107 0.021432495 -0.0032488874 0.6190671 0.49141788
0.29152048 0.5660112 0.16078395 -0.755272 0.09638196 0.2109017 0.5835353 0.11552487
-0.02007611 0.22263746 0.07167194 0.39365494 0.0275248 0.2633025 0.49694774 0.6115203
0.88852197 -1.5207281 0.2350528 -0.028216556 -1.069232 0.50695634 -0.037394032 0.018085405
0.21208745 0.040609524 -0.05364234 -1.2487395 0.23894577 0.24150673 0.5416946 0.23395272
0.018988736 0.22379346 0.32270768 0.3535107 0.049114097 0.18033251 -0.04381915 0.27661735
-0.1448814 0.3276715 -0.0305835 0.32309014 0.87466395 0.2665155 0.27423352 0.29036787
-0.0429037 -2.6325943 0.41769063 -0.015767943 3.2144914 0.24815163 0.36585146 0.16359352
0.17523421 0.7427157 -18.079493 0.031835407 6.754425 0.016063096 0.3183253 0.15604429
-0.2944425 0.53128093 0.35139224 0.46668315 0.00795042 -1.6038759 -0.070421055 -0.09336726
0.07478634 -3.5943096 0.041328065 -5.4127755 -1.1635748 -0.45078233 0.2879245 0.34892613
0.71022373 0.46680623 0.10451977 -2.12334 0.06494111 0.21364994 -8.847997 0.09250486
2.4869988 0.23161753 0.899782 3.078893 0.6540266 0.2986508 1.3939812 0.5851669
0.13398306 0.24901906 0.02064027 0.20523734 -0.7934112 0.32728308 0.10819083 0.36211398
0.71853447 0.0095021045 1.446065 0.3182588 -0.043869674 0.56145066 0.26068124 0.25665033

fc1.bias f4 [256]
00000000: aee6 cc41 03f8 e8bb ac58 c941 2b82 0bbd
00000010: 495b e8bc 52d7 e5c0 5ece efbb 8858 c941
00000020: a17f cf41 fb3c c941 892f c941 d255 c941
00000030: 152b c941 4241 c941 1766 c941 925d 38bd
00000040: 7a41 c941 6859 c941 3b92 4341 8e41 5741
00000050: e12f cf41 dd6c c941 433b 43bd a0fa 9f41
00000060: 5526 c941 ec43 c941 9f1d 2e3c 4278 ce41
00000070: 8457 c941 3975 c941 5b38 c941 4a3d c941
00000080: 8049 c941 504d c941 4070 adbd fbf9 37bd
00000090: 8b15 7a41 b14a e7c0 5e98 92bd 93d0 19bd
000000a0: f0a8 7d41 5739 c941 fd58 c941 b2a5 1b41
000000b0: 1c47 c941 8b5d 38bd cd35 c941 0377 2441
000000c0: ba08 9dba 9e3e c941 455c c941 b050 c941
000000d0: 8656 c941 9182 a53b c03a c941 e163 c941
000000e0: a128 ce41 792f c941 c7bf cf41 6968 c941
000000f0: 36f6 6541 2c43 7ebc c35c c941 a06d c941
00000100: 5f36 c941 1320 01bc 514b c941 597a cc41
00000110: 6031 c941 295e c941 9e59 c941 2b68 03be
00000120: 7f40 c941 015f c941 ab2b c941 403d c941
00000130: 3a32 9741 1c9a 90bd 1948 c941 7627 9d40
00000140: 9236 c941 bec2 2541 c15f c941 21fa 25bd
00000150: d6c9 c4bb b27e 72bd b960 c941 dc61 cf3a
00000160: df48 c941 6f5f c941 3285 c9bc 4e31 d4bb
00000170: ea2d c941 4841 c941 9d51 c941 f739 c941
00000180: 6a39 c941 81d2 0e41 403e c941 21fa 0d41
00000190: ed2d 1cc1 ccd6 2441 946a 4cbd f6e7 11c1
000001a0: 31c7 fa3f 6250 c941 9743 c941 d5c8 c841
000001b0: 9644 cb41 2c85 50bc 6e20 a0be a5c7 98bd
000001c0: 6989 cc41 7c3d 77bd 2f24 c941 ce50 c941
000001d0: 5c64 c941 284b c941 4049 c941 db5b c941
000001e0: 05b5 d4be ba4f c941 883b c941 c165 c941
000001f0: d82a f9c0 155f c941 35a8 23bd fd53 d041
00000200: 0ed4 3ebd 8d6d ce41 3909 e7bc adff ca41
00000210: 4348 c941 1502 d541 a23b c941 c55c c941
00000220: 26be cc41 ad61 c941 cd3f c941 4a6d 00c1
00000230: 1e7e a6c0 8b54 cd41 483d c941 02f6 0ebd
00000240: 6042 c941 9149 c941 0261 c941 c501 a7c0
00000250: 983c c941 a262 c941 f6f9 c841 cd08 1bbd
00000260: 255f c941 ba4a c941 d967 c941 5e65 c941
00000270: 5046 c941 b592 2dbb 9abd 1bbd df67 43bc
00000280: 503d c941 a52b c941 ec3a c941 1947 4541
00000290: 5d03 cc41 3ea7 15c1 69fe 23bd 7892 ecc0
000002a0: d068 1abe a9f9 24c1 bb43 51bd 123e c941
000002b0: ac4a c941 3d48 2441 f395 c941 00e0 cb41
000002c0: 9689 c941 0000 0000 f852 c941 4021 bdbb
000002d0: 8f14 c841 a134 c941 d74d c941 3358 c941
000002e0: ae3a c941 0000 0000 070d ca41 234f c941
000002f0: 2446 c941 61fc 14bd 73e7 e2bc 5c4d c941
00000300: 7258 c941 3fd2 8bbc 217b 18bd fd59 1dbd
00000310: 5c0c b33c f8b5 c3bc 2960 c941 db0b ca41
00000320: c03d c941 caab 20bd a79e cd41 024b c941
00000330: 5db4 1abd 3b58 c941 ec47 c941 e5ff c941
00000340: 2c08 7fbd dd2e c941 7d86 22bc 45c8 39bd
00000350: 45d9 683c 273f ca41 83b6 65be fd43 c941
00000360: 633b c941 ce31 c941 c323 c941 0b17 fdbe
00000370: 1751 c941 30fb f6c0 87d0 3e41 78c1 8d3c
00000380: 2a5d c941 bf4a c941 374f 77bc 107c 0dc1
00000390: 43f5 1bbd 7448 c941 643e c941 664f c941
000003a0: 0770 0e3d 3d0f cb41 5059 c941 7abd 88c0
000003b0: 63e2 77bc b349 c941 9f4f c941 2952 c941
000003c0: d178 04c1 ef3f c941 f85f c941 ce42 c941
000003d0: 9c51 c941 036d c941 1b42 c941 25ec ca41
000003e0: 1d3e 21bd 8e44 c941 15ab 19c1 3160 c941
000003f0: a2bb c641 0485 50bc f3c8 c941 052e 54bd
25.612637 -0.0071096434 25.168297 -0.034059685 -0.02836384 -7.182534 -0.007318302 25.168228
25.937319 25.154776 25.14821 25.166904 25.146036 25.156864 25.174849 -0.04501111
25.156971 25.168655 12.223201 13.453505 25.898378 25.178156 -0.04766394 19.997375
25.143717 25.158165 0.010627179 25.80872 25.167732 25.182238 25.152517 25.154926
25.160889 25.16275 -0.084686756 -0.044916134 15.6302595 -7.2278676 -0.07157968 -0.037552428
15.8537445 25.152998 25.168451 9.727953 25.159721 -0.045011085 25.15127 10.279056
-0.001198075 25.155575 25.170053 25.164398 25.167248 0.005050965 25.153687 25.173769
25.769838 25.14818 25.968641 25.175982 14.37261 -0.015518945 25.170294 25.178528
25.151548 -0.007881182 25.161776 25.55974 25.149109 25.170977 25.168758 -0.12832706
25.156492 25.171389 25.146322 25.154907 18.899525 -0.07060644 25.160204 4.911067
25.151646 10.3600445 25.171755 -0.040521745 -0.006005506 -0.059202857 25.172228 0.0015822011
25.160582 25.171598 -0.024599645 -0.006475604 25.147419 25.156876 25.16485 25.153303
25.153034 8.926393 25.155396 8.873567 -9.761212 10.302441 -0.04990633 -9.119131
1.9592038 25.16425 25.158003 25.098063 25.40849 -0.012727063 -0.31274742 -0.07459954
25.567095 -0.06036137 25.142668 25.164455 25.174004 25.161697 25.160767 25.169851
-0.41544357 25.163929 25.154068 25.174685 -7.78648 25.171427 -0.039955337 26.04101
-0.04658895 25.803492 -0.02820264 25.374842 25.160284 26.626017 25.154118 25.170298
25.592846 25.172693 25.156153 -8.026682 -5.202895 25.66628 25.154922 -0.03490258
25.15741 25.160921 25.172367 -5.218966 25.154587 25.17316 25.122051 -0.03785019
25.171457 25.161488 25.175707 25.174496 25.159332 -0.002648515 -0.038022615 -0.01192662
25.154938 25.14631 25.15377 12.329858 25.501642 -9.353331 -0.040037546 -7.3928795
-0.15079045 -10.310952 -0.051089983 25.155308 25.16146 10.267636 25.198217 25.484375
25.19218 0.0 25.165512 -0.005771786 25.010038 25.150698 25.163008 25.168066
25.153652 0.0 25.256361 25.163641 25.159248 -0.0363735 -0.027698254 25.162773
25.168186 -0.017068027 -0.0372268 -0.038415898 0.02185648 -0.02389048 25.171953 25.255789
25.155151 -0.03922633 25.702467 25.161625 -0.037769664 25.168081 25.160118 25.249949
-0.062263653 25.147882 -0.00991976 -0.045357008 0.014211957 25.280836 -0.22432904 25.158197
25.153997 25.149319 25.142462 -0.49431643 25.164595 -7.7181625 11.92591 0.017304167
25.17049 25.161497 -0.01509457 -8.842789 -0.038075697 25.160378 25.155464 25.163769
0.034774806 25.38244 25.16861 -4.2731295 -0.015129658 25.160986 25.163877 25.165117
-8.279496 25.156218 25.17186 25.15762 25.164848 25.178228 25.157278 25.365305
-0.039365876 25.158474 -9.604268 25.171968 24.841618 -0.012727026 25.22312 -0.0518017

last_fc.weight f4 [1, 256]
00000000: 0c3d 2cc0 fbb4 1ebb 11ac aabf 1d8b c13c
00000010: 7911 993c 3d0a 833c f047 a2bb c4dd a8bf
00000020: 4270 57c0 ec07 a8bf 4827 a4bf 2def abbf
00000030: 7952 a3bf f3f7 acbf 2a5c abbf 8655 a03c
00000040: 9703 a7bf bd43 a3bf 8ce2 b3bd 76f7 04c0
00000050: 8947 26c0 6da1 a9bf 5835 f2bc 6f5d c93b
00000060: 1103 a3bf 1b29 a7bf b73c 95be 922b 5cc0
00000070: 84c2 a9bf f8ee abbf 46b0 a4bf da5e a9bf
00000080: 6b43 a4bf c1e7 adbf 84b9 03bc bf0a af3c
00000090: 8369 3cbe a039 763a bbd6 573b 0d7b 033b
000000a0: 3a21 67bf 3f48 abbf ca1c a8bf 734b adbf
000000b0: 807a a9bf f3f5 9b3c 1e7d a9bf 819b 14be
000000c0: 778d cabb f79b a5bf 89c8 8ebf 5a98 acbf
000000d0: d519 a9bf bf2e dcbc 0a02 9dbf 0af9 a4bf
000000e0: 8250 08c0 8ac6 9ebf 6fa3 d9bf 05ac aabf
000000f0: f2a2 e6bf b9ce 96bc 16a3 a9bf 05fd aabf
00000100: 9a3f a1bf 0661 7fbb 7a91 a8bf 42b0 a8bf
00000110: 2255 94bf 6f42 a9bf 29d9 a7bf 4d95 00bd
00000120: 9ff1 a6bf ee2b 94bf fdb0 a2bf a1db a3bf
00000130: 520f d0bf 870e cdbc adcd a0bf ca83 03c0
00000140: 020f a1bf 66f9 09bf 905d a9bf d718 fa3c
00000150: f436 a2bb a0d5 79bc 5055 94bf 9a07 c2bc
00000160: d788 a7bf 2894 a0bf 83f6 a93c 6c96 56bb
00000170: cbe8 a8bf 5c6a a4bf 8578 a9bf 4da8 a9bf
00000180: a401 a8bf 7954 39bf cc74 a8bf a590 0ebf
00000190: 7ac1 713c a913 dbbe a03f aabb dd1b 35bb
000001a0: 5bfa 86c1 428b abbf 7c13 a8bf 0337 1abe
000001b0: 3e5b 37c0 3733 2a3c b18b f73c f3d5 e33c
000001c0: e413 d5bf 134e a2bb 6ea9 9bbf 0efe a9bf
000001d0: bf0d 17bf 3149 adbf 90e6 a4bf 15e5 a4bf
000001e0: 9ad7 01bc b3c8 aabf a535 9fbf 8869 abbf
000001f0: 05a0 313c 94b2 a7bf a353 d43c e300 8dbf
00000200: d3e2 fb3c d6ce 65c0 8c99 a83c 42c0 49c0
00000210: 395c a5bf eb76 c7c0 2f0c a2bf 62dd abbf
00000220: eba9 5dc0 7ca3 a4bf 6975 a7bf 9bee d6bb
00000230: 80f5 383b 1f74 a0bf 4753 a7bf 346c b53c
00000240: 4da4 a7bf 2d65 a6bf 9cfb a8bf 35b0 9dbc
00000250: af64 a3bf 394b aabf 206f f1bf 9edb d93c
00000260: 0532 a5bf 0440 a7bf b665 a1bf 91d3 a7bf
00000270: 42a8 a9bf c49f 68bc d256 89bc e0ab 233c
00000280: 0d13 93bf 2369 e6bf ff3e a5bf 51df c0bf
00000290: 6e92 36c0 59de 0d3c 1493 fcbc a45d f8bb
000002a0: 9a2d e8bc a8c9 443c c805 afb9 eeaa acbf
000002b0: b3b2 a4bf 2d5e f8be cc2f f8bf b2fd c3bf
000002c0: 01f2 aebf b82d 1e3b 43ba a9bf 8eeb 6d3c
000002d0: 0b68 2fc0 305a a2bf af06 9bbf b883 9fbf
000002e0: b58b abbf 2ccc f5ba 9e31 f6bf 86c3 aabf
000002f0: 326d abbf 3460 e43c 5d8e 83bc 5e58 aebf
00000300: 82ab a2bf f763 01bd 93c2 903c 0319 25ba
00000310: 996f 9b3c 6476 99bc 213e aabf ebdc f8bf
00000320: 2567 abbf 0251 b7bc 43d6 b0bf a326 a9bf
00000330: ecdb da3c b228 a8bf 57a2 a6bf de4d 32c0
00000340: 3c48 48bb a434 a3bf ec49 563b e133 20bc
00000350: c1c0 64bc e4de a4bf a3d7 393b 0362 93bf
00000360: 04f6 a4bf 74b7 a5bf 3c57 94bf de27 f43c
00000370: 44dc a7bf 9066 813c 32eb 8fbf f347 acbb
00000380: a492 a8bf 1fab a3bf a925 febc 372f 1bbc
00000390: 1f9c de3c 08a4 abbf 6246 a6bf cbf0 a0bf
000003a0: a6f6 06ba 8ea3 2ac0 c7e8 9bbf 4e2b 863c
000003b0: 232c 673c d9f2 a6bf 1fef aabf 2114 a4bf
000003c0: 3fac 05bd 9ba8 a6bf faa5 a9bf a816 a1bf
000003d0: c1e1 9ebf ff21 acbf 1547 aebf 3bcc 0cc0
000003e0: 2c72 a2b9 8686 a4bf 7885 103d 9da3 aabf
000003f0: d53b dabe fa12 4c3c a041 e4bf 8e48 45bc
-2.691226 -0.002421676 -1.333376 0.023625905 0.01868509 0.015996093 -0.0049524233 -1.3192677
-3.3662267 -1.3127418 -1.2824488 -1.3432366 -1.2759544 -1.3513168 -1.3387501 0.01957203
-1.304797 -1.2755047 -0.08783445 -2.0776038 -2.5981162 -1.3252388 -0.029566452 0.0061451714
-1.2735311 -1.3059419 -0.29147884 -3.4401593 -1.3262486 -1.3432302 -1.2866294 -1.3232071
-1.2833074 -1.3586351 -0.008039836 0.021367429 -0.18399625 0.0009392742 0.0032934386 0.0020062358
-0.90285075 -1.3381423 -1.3133786 -1.353865 -1.3240509 0.019038176 -1.3241308 -0.14512445
-0.0061814147 -1.2938222 -1.1154948 -1.3483994 -1.3211008 -0.026877759 -1.2266247 -1.2888501
-2.1299138 -1.2404339 -1.7003001 -1.3333746 -1.8018477 -0.01840912 -1.3252895 -1.3358465
-1.2597535 -0.0038967743 -1.3169396 -1.317879 -1.158848 -1.3223399 -1.3113147 -0.031392384
-1.3042487 -1.1575906 -1.2710263 -1.28014 -1.6254675 -0.025031341 -1.2562767 -2.0549188
-1.2582705 -0.53896177 -1.3231678 0.030529423 -0.0049503986 -0.015248686 -1.1588535 -0.023685265
-1.3088635 -1.2545214 0.020747429 -0.0032743467 -1.3196043 -1.2844958 -1.3239905 -1.3254486
-1.3125501 -0.7239452 -1.3160644 -0.5568946 0.014755601 -0.42788437 -0.005195573 -0.0027635016
-16.872244 -1.3401873 -1.3130946 -0.15060048 -2.864944 0.010388187 0.030217977 0.02781198
-1.6646695 -0.004953155 -1.2161081 -1.3280656 -0.5900535 -1.3537961 -1.2882862 -1.288241
-0.007924939 -1.3342499 -1.2438246 -1.339158 0.010841374 -1.3101373 0.025918787 -1.1015896
0.030747807 -3.5907493 0.02058103 -3.1523595 -1.2918769 -6.2332664 -1.2659968 -1.3426936
-3.463496 -1.2862391 -1.3082706 -0.0065592057 0.0028222501 -1.2535437 -1.3072289 0.022146322
-1.3097016 -1.2999626 -1.3201785 -0.019249061 -1.2765101 -1.3304206 -1.8862038 0.02659398
-1.290589 -1.3066411 -1.2609165 -1.311144 -1.3254473 -0.014198247 -0.016765032 0.009989709
-1.1490189 -1.8000835 -1.290985 -1.5068151 -2.8526874 0.008658969 -0.030831851 -0.007579522
-0.028342057 0.012010969 -0.00033382908 -1.3489664 -1.2867035 -0.4850935 -1.9389586 -1.5311797
-1.3667604 0.0024136137 -1.3259968 0.014521493 -2.7407253 -1.2683773 -1.2111415 -1.2462072
-1.340201 -0.0018752865 -1.9233892 -1.3340919 -1.3392699 0.027877904 -0.016059095 -1.3620718
-1.270859 -0.031589475 0.017670905 -0.00062979775 0.018974112 -0.01873321 -1.330021 -1.9442419
-1.3390852 -0.022377495 -1.3815387 -1.3214916 0.026716195 -1.3137419 -1.3018292 -2.7860026
-0.0030560633 -1.275044 0.003269787 -0.009777994 -0.013961972 -1.2880521 0.002835729 -1.1514286
-1.2887578 -1.294661 -1.1589122 0.029804166 -1.3114095 0.015795976 -1.1243651 -0.0052576005
-1.3169751 -1.2786597 -0.031023817 -0.009471706 0.027174054 -1.3409433 -1.2990229 -1.2573484
-0.0005148448 -2.6662326 -1.2180413 0.016378071 0.014109644 -1.3042861 -1.3354224 -1.2818643
-0.03263497 -1.3020204 -1.3253777 -1.2585039 -1.2412645 -1.3447875 -1.3615443 -2.1999652
-0.00030984113 -1.2853553 0.035283536 -1.3331181 -0.42623773 0.012455696 -1.7832527 -0.012041224
