save_mode/SAC_v_200_qf1_network.pth (torch, 329559 bytes, 5 tensors)

fc0.weight f4 [256, 61]
000000 0e 7b 14 3d 98 a5 06 3c a0 be 1a 3d 00 89 80 bb
       0.036250167 0.008218192 0.03777945 -0.0039225817
000010 90 8f 1b 3c 55 ff a3 3f e1 1b 89 be a4 71 f0 3c
       0.009494677 1.2812296 -0.26779082 0.029351063
000020 f0 f6 ed bb 20 3d 77 bd 60 7e f3 3c 44 60 df bc
       -0.0072621033 -0.060361028 0.029723346 -0.027267583
000030 fc 26 b5 bc 25 f4 0d 3d 4e 97 74 be 83 c2 5d 3e
       -0.022113316 0.034656662 -0.23885843 0.21656232
000040 c2 9a 35 3d c4 fc 99 bc 1a 9d 18 3d 9a 87 3c 3d
       0.04433704 -0.018797286 0.0372592 0.046027757
000050 8e 67 60 bd cf 38 91 be 5d 0f 74 be 26 b3 5f be
       -0.054786257 -0.28363654 -0.23833986 -0.21845683
000060 c6 57 4b bd 46 71 1b bd 26 64 08 3d 80 3f 49 bc
       -0.049644254 -0.037949823 0.033298634 -0.012283206
000070 e8 af 07 bd 1b d6 4f be 37 ea 0c be d0 a4 76 be
       -0.03312674 -0.20296519 -0.13761221 -0.24086308
000080 c0 8f 69 3c 14 c7 10 bd 80 7b 27 ba 00 40 7e 3d
       0.014255464 -0.035346106 -0.00063889474 0.062072754
000090 0e 79 35 bd c2 24 18 be 05 f4 26 be 2e 25 50 be
       -0.0443049 -0.14857772 -0.16304024 -0.20326683
0000a0 34 15 d2 3c 9c d3 3e 3d 00 34 52 b9 ce 1c 09 bd
       0.025644876 0.046588525 -0.00020046532 -0.033474736
0000b0 64 56 a6 3c 7b 76 47 be 80 7e 2b be 47 b5 80 be
       0.020304866 -0.1947879 -0.16747475 -0.25138304
0000c0 75 01 ab bb 52 af 97 3e ae c4 a1 3e f4 fe 44 bf
       -0.0052186796 0.29625946 0.31595367 -0.7695153
0000d0 3c bb 1b 3e cc 0e b0 be 5b 37 c0 3e 16 15 33 be
       0.15208143 -0.3438629 0.37542233 -0.17488512
0000e0 42 8c 58 bd 51 ff 5a 3d 91 49 d8 bd 72 27 db be
       -0.052868135 0.053466145 -0.10560907 -0.42803532
0000f0 b3 c0 d8 3e 10 26 b4 bc 8c 6e 64 3d 80 d7 0e 3d
       0.42334518 -0.021990806 0.05576949 0.034873486
000100 4e 8a 65 3d 80 35 0c 3b de f3 2e bd b4 63 95 bc
       0.0560401 0.0021394193 -0.04271304 -0.018236019
000110 1d 2a 09 3c f0 a6 7c 3c 22 c5 7a 3d b0 a0 1c 3d
       0.008371857 0.01542066 0.061223157 0.03823918
000120 20 52 5d 3d 4c f1 df bc ad ca 9e ba b4 09 84 bd
       0.0540334 -0.027336739 -0.0012114845 -0.06447163
000130 7b 5e 9a ba c2 5e 09 bd 9c e4 71 bd 90 aa d4 3c
       -0.0011777425 -0.033537634 -0.05905591 0.025960237
000140 84 82 0b bd 08 b1 45 bd 09 2a 1a bd a3 7f d1 3b
       -0.034060016 -0.048264533 -0.037637744 0.0063933893
000150 a6 d7 0d 3d 60 be 9d 3c 7e c3 2f bd 90 60 d0 3c
       0.034629487 0.019255817 -0.042911045 0.02543667
000160 18 49 46 bc a8 91 61 3c 30 f1 c0 bc fe b9 64 bd
       -0.012102388 0.013767637 -0.023552507 -0.05584144
000170 51 6f ae bc 36 2f 37 3d 38 18 75 bd b0 2a a7 bc
       -0.021293314 0.04472276 -0.05983755 -0.020406097
000180 66 b9 4b 3d 90 a6 4d bc a6 78 e5 bc 53 85 cc bc
       0.049737357 -0.012551919 -0.028011631 -0.024965918
000190 8f c9 32 bd 90 26 62 bc 5e f8 61 bd aa eb 54 3d
       -0.043649253 -0.013803139 -0.055168502 0.05198256
0001a0 98 22 52 3c 04 b9 fc 3c 7a f8 54 bd c3 43 5a bd
       0.012825631 0.030849941 -0.05199478 -0.05328728
0001b0 8c 20 8f bd 74 cd ab bc bc 82 50 3c 12 9d 46 3c
       -0.0698863 -0.020971991 0.012726482 0.012122409
0001c0 6a 30 c7 bc 86 42 1c 3c 6e 2d c6 bb ca cf ae bc
       -0.024315078 0.009537345 -0.006047896 -0.021339316
0001d0 ed d8 38 3d 7e 97 d1 3c 43 1c d6 3b d0 d0 74 3d
       0.04512875 0.025584932 0.006534131 0.05976945
0001e0 bf f1 16 3d 62 82 a2 bd 58 aa 75 bc cc 62 14 bd
       0.03685164 -0.07935025 -0.014994226 -0.036227033
0001f0 e0 43 47 3c 10 5f cc 3b 70 ec 37 bc 1e d2 1a 3f
       0.012162179 0.0062369183 -0.011225805 0.60476863
000200 cf 62 df 3d 83 de b3 be 02 b3 0e 3d de 59 66 3d
       0.10907518 -0.351307 0.034838684 0.056238048
000210 68 15 e1 bc 84 d8 b2 3c 52 d5 24 bd 1a b3 cc 3e
       -0.027476028 0.021831758 -0.0402425 0.39980394
000220 8d c0 38 3f a3 a3 62 3f 78 b5 6c 3c de 54 0a 3d
       0.7216881 0.8853094 0.014447562 0.033772342
000230 50 e9 11 bd 70 fc 65 3c 88 99 20 bc d1 15 d7 3f
       -0.035622895 0.014037237 -0.00980223 1.6803533
000240 72 cf be 3f 0e f6 ab 3f dc 90 04 3d 68 92 08 3d
       1.4907057 1.3434465 0.03236471 0.03334275
000250 d8 53 19 3c 36 45 0a 3d 20 d7 29 bb f2 42 a2 3d
       0.009358369 0.03375741 -0.0025915578 0.07922925
000260 b5 c3 82 3e d3 fb e6 3d cc 4f 9f bc ce 2d 4a 3d
       0.25539938 0.112785004 -0.01944723 0.04936009
000270 d4 de cc 3c 40 c7 d5 3c 98 39 9a bc 54 df 90 be
       0.025008596 0.026095986 -0.018826291 -0.28295386
000280 f3 2d 97 be 9b 1b 6c be 40 aa 09 3c 90 3d 68 3c
       -0.29527244 -0.23057406 0.008402407 0.014174834
000290 60 b0 66 bd 24 a5 5c bd 74 0c f7 bc 0c f0 1e bb
       -0.056320548 -0.053868428 -0.030157305 -0.0024251966
0002a0 33 d5 df 3d 7f b0 c1 3d ec b3 d5 bd 57 66 47 40
       0.109293364 0.09457492 -0.10434708 3.1156213
0002b0 86 fb 3b 40 e6 3f a9 c0 74 ba 92 3e af ca 75 3d
       2.9372268 -5.28905 0.28657877 0.060007747
0002c0 d9 bd db 3e 54 f8 f9 3e 67 a0 86 bf ee 21 d2 3f
       0.4291828 0.48822272 -1.0517701 1.6416605
0002d0 fa 44 26 3f 73 38 6b c0 79 43 38 3f b8 f1 90 3c
       0.64949 -3.6753204 0.71977955 0.017693385
0002e0 88 3a 58 bc d4 63 44 bd f0 8d 4f bc f8 98 f2 3c
       -0.013197549 -0.047946766 -0.012668118 0.029613957
0002f0 92 66 69 bc e0 f5 ed bb 68 c1 6c bd ac 10 16 3d
       -0.014245646 -0.0072619766 -0.057801634 0.036636993
000300 1e 1a 54 3d a0 86 46 3b 86 88 7b 3d 82 60 04 3d
       0.05178272 0.0030292645 0.061409496 0.0323186
000310 f8 22 ad bd c8 36 80 bd db 0b 6b bb a8 f7 83 3c
       -0.084539354 -0.06260449 -0.003586522 0.016109303
000320 6e cd 0f bd c0 59 9b 3c 4c b5 be 3c 12 4b 59 bd
       -0.035108022 0.018963695 0.023279808 -0.05305011
000330 0b 23 9a bb 30 1e 98 bd 63 b0 af bd e4 d5 64 3d
       -0.0047038845 -0.07427633 -0.08578565 0.055868044
000340 d4 42 8f 3c 68 50 4c 3c c4 7a aa 3c c0 71 39 bd
       0.01748792 0.012470342 0.020810492 -0.045274496
000350 0c 10 c0 bc fc 96 02 3d 45 0b 2b bd 66 86 64 bd
       -0.023445152 0.03188227 -0.041758794 -0.055792235
000360 b0 3f 3d 3d 28 27 a9 3c f8 cc 69 3c 3c f7 16 bd
       0.046203315 0.020648554 0.01427006 -0.036856875
000370 64 ce 46 3d 94 2a 57 bd a6 e1 30 bd b4 7a 49 bd
       0.048536673 -0.05253084 -0.043183945 -0.049189284
000380 84 5e 36 bd f8 3d 58 3d 08 49 e6 bc 98 97 ad bc
       -0.04452373 0.052793473 -0.028110996 -0.02119045
000390 4b 92 b1 bc c1 5d 1c 3d b0 f0 ab 3c ea f7 4e bc
       -0.021676203 0.03817535 0.020988792 -0.0126323495
0003a0 c3 aa 1c bd 25 ac 17 3d ee 28 4f 3c b9 e0 05 3d
       -0.03824879 0.037029404 0.012644036 0.032685015
0003b0 58 15 8c bd 17 69 c2 3d 33 f2 fd b9 64 fe e9 3c
       -0.068400085 0.094927005 -0.00048436373 0.028563686
0003c0 8a 14 56 bb 21 e7 5c 3d 50 fe cf 3c d6 dd a2 bd
       -0.003266605 0.05393136 0.02538982 -0.07952468
0003d0 d0 95 3d 3d 84 d5 a4 bc 00 5a c5 3b 40 49 be 3b
       0.04628545 -0.020121343 0.0060226917 0.005807072
0003e0 a8 45 4f 3d 34 c5 8b 40 38 8e 37 40 1a 8a a9 3f
       0.05060354 4.3678226 2.8680553 1.324527
0003f0 ac fa bf 3c 08 cb 28 3d 40 42 1d 3b 1e 89 79 bd
       0.02343496 0.04120925 0.0023995787 -0.06092178

fc0.bias f4 [256]
000000 d9 36 7a 3d b6 b5 db bc 97 2a 00 42 47 7e 32 bd
       0.061087463 -0.026820045 32.04159 -0.04357746
000010 67 0a 16 c1 33 a7 01 42 b7 34 e4 c1 b0 ab 01 42
       -9.37754 32.41328 -28.52574 32.417664
000020 9e 4a 3e bd 43 03 cb bd 0a de cb 41 86 98 01 42
       -0.04645788 -0.099127315 25.483418 32.39895
000030 8f 2e 2d bd 4e 09 6d bd 99 fb 02 42 32 78 01 42
       -0.04228073 -0.0578702 32.7457 32.36738
000040 b9 83 94 bd 66 fe fd 41 e1 32 00 42 39 eb 00 42
       -0.072516866 31.749218 32.049686 32.22971
000050 8f 82 00 42 0f f9 ff 41 40 05 02 42 71 2c 00 42
       32.1275 31.99661 32.505127 32.0434
000060 35 c0 ff 41 9f 85 00 42 8e 19 ff 41 4a 07 01 42
       31.968851 32.13049 31.887478 32.25712
000070 0d c4 4d bc 02 67 00 42 6d be 00 42 c6 86 d7 bd
       -0.012558949 32.100594 32.185963 -0.10523753
000080 cc 1e 62 bc e3 e7 01 42 d7 c9 c4 bb 88 e9 00 42
       -0.013801288 32.47645 -0.0060055065 32.228058
000090 5a 89 27 bd 26 cc e3 41 91 3b 01 42 f7 b5 01 42
       -0.040902473 28.474682 32.30817 32.4277
0000a0 70 3a 00 42 5e 35 00 42 a0 0e e7 c1 4e 79 00 42
       32.057068 32.052116 -28.882141 32.11846
0000b0 07 57 00 42 ba 83 3b bd 27 18 01 42 35 a0 00 42
       32.084988 -0.04577992 32.273586 32.156452
0000c0 b0 27 ff 41 c2 fb fe 41 56 fd a1 bc 12 00 e6 c1
       31.894379 31.872929 -0.01977412 -28.750034
0000d0 6e 29 c5 c1 64 db ff 41 50 b6 a2 bd 3c 8f dd bc
       -24.64523 31.982124 -0.079449296 -0.027045839
0000e0 2b 79 ff 41 20 bf 00 42 1c 72 ff 41 0a e7 00 42
       31.934164 32.186646 31.930717 32.225624
0000f0 b7 31 00 42 16 0c 02 42 14 7f 39 bd 20 59 51 bd
       32.04855 32.511803 -0.045287207 -0.051110387
000100 e0 92 ff 41 82 69 00 42 5a 8d 00 42 7e 9f 0a bd
       31.946716 32.103035 32.13804 -0.03384351
000110 d3 5d 22 bd 0e 1c 86 bd dd b5 00 42 3e 6f ff 41
       -0.03964026 -0.0654832 32.1776 31.929317
000120 30 66 ff 41 63 2b 01 42 3c d0 c5 c1 e3 08 23 bd
       31.924896 32.29237 -24.726677 -0.039803397
000130 aa 46 01 42 6c df e3 bd 00 00 00 00 fd 3b 00 42
       32.319008 -0.11126599 0.0 32.058582
000140 9d b0 00 42 c1 36 00 42 b4 0c 01 42 6d af 41 bd
       32.172474 32.05347 32.262405 -0.04728644
000150 b5 e9 00 42 86 8a 01 42 f6 a6 01 42 0e 17 00 42
       32.22823 32.385277 32.413048 32.022514
000160 3e 5a fe 41 25 bc 00 42 ec 5d 8c bd c4 a8 f2 bc
       31.794064 32.183735 -0.06853852 -0.02962149
000170 31 54 00 42 ce d9 a4 c1 00 00 00 00 ab a4 00 42
       32.08222 -20.60635 0.0 32.16081
000180 94 8c ff 41 d2 34 00 42 d8 60 07 bd 5c 61 d0 41
       31.943642 32.051582 -0.03305134 26.047539
000190 09 3a 48 bd aa 3c 00 42 d0 bb 00 42 0a e3 00 42
       -0.04888347 32.059242 32.18341 32.221718
0001a0 08 11 e0 bd 34 db 12 bd 33 25 86 bd 6e ad 57 bc
       -0.109407485 -0.03585358 -0.06550064 -0.013163907
0001b0 2d 53 00 42 51 7f 02 42 83 17 00 42 f4 21 99 bd
       32.081226 32.624332 32.02296 -0.07477179
0001c0 8f f1 ff 41 d2 a5 fe 41 86 93 01 42 00 00 00 00
       31.992949 31.830967 32.394066 0.0
0001d0 41 56 00 42 00 00 00 00 ad 5b ff 41 79 30 ff 41
       32.084232 0.0 31.919764 31.898668
0001e0 4d c0 ff 41 48 c4 9c bd 23 8a 00 42 00 00 00 00
       31.968897 -0.07654625 32.1349 0.0
0001f0 00 00 00 00 ed 94 ff 41 8c 87 00 42 46 fa fe 41
       0.0 31.947718 32.13237 31.872204
000200 58 24 00 42 60 25 01 42 20 26 fb bc b8 3b 01 42
       32.035492 32.2865 -0.030657828 32.30832
000210 00 b6 01 42 ce e7 bb be dc 44 c4 c1 a2 62 01 bd
       32.427734 -0.3670029 -24.533623 -0.031588204
000220 45 e3 17 be 1a 86 00 42 82 1a 35 bd cd f4 76 bc
       -0.1483279 32.13096 -0.044214733 -0.0150730135
000230 8c 28 8a bc ef fc ff 41 46 34 01 42 ea 9a 0a bd
       -0.016865037 31.998503 32.30105 -0.033839144
000240 30 30 c6 c1 ad 9e 00 42 d3 ca 00 42 b6 8a 00 42
       -24.77353 32.154957 32.19807 32.13546
000250 7f 63 00 42 3f 1b 07 be 11 7e c9 c1 24 44 01 42
       32.097164 -0.13193987 -25.186556 32.316544
000260 f6 1d 00 42 99 04 00 42 28 4d 00 42 03 c9 00 42
       32.02926 32.00449 32.075348 32.1963
000270 00 00 00 00 be 32 01 42 33 14 20 bc 1d 92 ff 41
       0.0 32.299553 -0.009770441 31.946344
000280 de f3 00 42 2a 8a 00 42 a2 54 00 42 ee c9 07 c1
       32.23815 32.134926 32.08265 -8.486799
000290 0e 62 00 42 c3 60 00 42 70 35 00 42 e3 28 02 42
       32.095757 32.094494 32.052185 32.53993
0002a0 a6 38 ff 41 c8 08 64 bd c4 48 00 42 87 6d 53 bd
       31.90266 -0.055672437 32.07106 -0.051618125
0002b0 ea fd ff 41 71 cf 00 42 00 00 00 00 80 7d c7 c1
       31.998981 32.20258 0.0 -24.93628
0002c0 f7 36 01 42 ac ac ff 41 e8 ec 83 bd 07 d8 00 42
       32.303677 31.959312 -0.06441671 32.210964
0002d0 df c5 c6 c0 e5 e7 00 42 bd a0 1d bd 31 63 67 bd
       -6.211654 32.22646 -0.03848337 -0.05649108
0002e0 84 ed 0a 42 ca b4 fe 41 12 51 00 42 5a d8 54 bd
       34.73195 31.838276 32.07917 -0.05196414
0002f0 1a 3f 32 bd fd 23 79 bd 74 47 00 42 ec 47 ff 41
       -0.04351721 -0.060825337 32.06978 31.910118
000300 d3 f3 01 42 91 19 00 42 d5 dd 01 42 71 6c 00 42
       32.48811 32.024967 32.466633 32.1059
000310 95 13 00 42 b7 08 01 42 7d 8c ff 41 81 d6 01 42
       32.019123 32.25851 31.943598 32.459476
000320 0c 9b 67 bd 29 56 90 bd a4 55 1e c1 3b 23 c7 bd
       -0.05654435 -0.07047684 -9.895908 -0.097235166
000330 67 25 00 42 1d 6e 00 42 86 94 fb bb 45 25 01 42
       32.036526 32.107533 -0.0076776175 32.286396
000340 6e 79 01 42 46 1b 37 bd d6 0c 30 bd 96 6e b9 bc
       32.368584 -0.044703744 -0.04298099 -0.02263574
000350 64 6c 01 42 d4 4c 01 42 98 11 9d bd 41 af c7 c1
       32.35585 32.325027 -0.07669371 -24.960573
000360 86 39 00 42 a3 d0 e7 bc 6e 87 34 bc c6 ea 4e bd
       32.056175 -0.028297728 -0.011018617 -0.050516866
000370 ba f6 00 42 d2 f1 2f bd 6a 53 01 42 50 1d 01 42
       32.240944 -0.042955227 32.33146 32.278625
000380 41 79 ff 41 ce d8 ff 41 d4 7e 00 42 cd 1e 02 42
       31.934206 31.980862 32.123856 32.53008
000390 42 4b 00 42 c8 a9 ff 41 83 a8 29 bc 26 71 00 42
       32.073494 31.957901 -0.010355118 32.110497
0003a0 48 72 00 42 ef 05 01 42 27 43 00 42 00 00 00 00
       32.111603 32.255795 32.06558 0.0
0003b0 9f 27 21 bd ec 79 ff 41 73 42 c6 c1 fd 68 00 42
       -0.039344426 31.934532 -24.782446 32.102528
0003c0 f9 a1 00 42 af a0 00 42 69 fb 89 bc be 38 ff 41
       32.158176 32.156918 -0.016843515 31.902706
0003d0 a9 d7 d7 41 d0 30 00 42 cd 4c ff 41 3a a3 fe 41
       26.980303 32.04767 31.9125 31.8297
0003e0 12 1a 00 42 81 a1 64 bd e4 e7 ff 41 36 cf 1f bd
       32.02546 -0.055818085 31.988228 -0.03901597
0003f0 4e a9 ff 41 eb 22 c6 c1 5e c3 00 42 aa 13 ff 41
       31.957668 -24.76705 32.19079 31.884602

fc1.weight f4 [256, 256]
000000 bb 03 65 3d 68 6b eb 3c 80 ff d5 be 84 b1 bb 3c
       0.05591176 0.028737739 -0.41796494 0.022911794
000010 49 6e 25 3f 6e d9 ab bf 52 7d f5 3d c8 99 95 bf
       0.64621407 -1.3425729 0.119867936 -1.1687555
000020 d6 f7 44 bd b0 f8 a8 3b b8 56 76 be 54 ce 68 bf
       -0.048087917 0.005156599 -0.24056518 -0.9093983
000030 c4 5f 75 bd ec 76 5e 3d a7 5c b1 bf a7 8b 91 bf
       -0.059905782 0.05431263 -1.38564 -1.1370744
000040 7d c5 a9 3c 70 2d 27 bf d3 3a 91 bf 33 7a b4 bf
       0.020724053 -0.6530371 -1.1346077 -1.4099792
000050 cb e4 6c bf 2a 8b 4a bf df 3e bf bf 38 ea 88 bf
       -0.9253661 -0.791186 -1.4941062 -1.0696478
000060 37 40 7b bf 06 1b cf be 13 e8 b4 bf c4 6d 94 bf
       -0.9814486 -0.40450305 -1.4133323 -1.1595998
000070 bc b1 38 3d 1c 40 65 bf 61 f8 8e bf f6 15 01 bd
       0.045091376 -0.8955095 -1.1169549 -0.031515084
000080 00 38 21 bc dd 80 a5 bf 8a 82 7d bd 45 f3 7b bf
       -0.009840012 -1.2929951 -0.06189207 -0.98418075
000090 c0 65 55 3d 89 cb 93 bf 72 2a 85 bf 6d 25 67 bf
       0.05209899 -1.1546489 -1.0403578 -0.9029148
0000a0 d3 92 95 bf 98 2f 84 bf 76 38 42 3d 0d 07 aa bf
       -1.1685432 -1.0327024 0.047417127 -1.3283402
0000b0 bb 4a 82 bf ce f4 40 bd 58 35 9f bf 3f b9 c3 bf
       -1.0179056 -0.047108464 -1.2438154 -1.5290908
0000c0 77 15 96 bf ec ac e3 be 34 7b 09 3d 29 56 db 3d
       -1.17253 -0.44467866 0.03356476 0.10709793
0000d0 08 82 aa 3c 8a cb b9 bf b8 8c 7c 3c fe e4 3e 3d
       0.020813957 -1.451524 0.015414409 0.046605103
0000e0 68 6f 25 bf a7 66 09 c0 6b 36 a8 bf 73 f4 90 bf
       -0.6462312 -2.1468904 -1.3141607 -1.13246
0000f0 55 ef 79 bf 9a c2 b5 bf e0 d8 f3 3b 10 39 87 3b
       -0.97630817 -1.4200013 0.007441625 0.0041266754
000100 1a 86 a1 be fd e8 96 be e8 be 9b bf b8 36 2e bd
       -0.31547624 -0.2947463 -1.2167635 -0.042532653
000110 e0 e6 48 bc 00 b0 63 ba 51 a3 b4 bf 83 7f cc bf
       -0.012262076 -0.0008685589 -1.411234 -1.5976413
000120 cc ac 14 bf 07 22 b2 bf 46 77 9f 3d 68 d5 5b bd
       -0.5807617 -1.3916634 0.077864215 -0.053670317
000130 34 8d 6e bf 32 4d 1d bd 90 dd c9 3b 31 fa 5a bf
       -0.9318421 -0.038403697 0.0061604455 -0.8553801
000140 cf a0 94 bf a1 62 4a bf e6 53 a2 bf ea dd 3a bd
       -1.1611575 -0.79056746 -1.2681854 -0.04562179
000150 48 e7 96 bf 72 ec 9e bf 4e 7c a2 bf c2 c5 a3 bf
       -1.1789331 -1.2415907 -1.2694185 -1.2794726
000160 79 de 5a bf 8d b5 db bf b4 8a 8a bc 51 53 c1 3d
       -0.85495716 -1.716478 -0.016911842 0.094397195
000170 aa 2d bd bf 2f 18 2f 3d 82 78 58 3d 63 48 05 bf
       -1.477956 0.042747673 0.0528493 -0.5206358
000180 d8 e6 6e bf ad 3a 86 bf ae f7 45 bd 25 0a dc be
       -0.9332099 -1.0486656 -0.04833191 -0.4297649
000190 aa 8d ee 3d 7d a6 75 bf 27 74 94 bf ea e5 77 bf
       0.11648114 -0.95957166 -1.1597947 -0.96835196
0001a0 aa 81 92 3d 40 3f 42 3c c0 43 fc ba 60 a2 08 bb
       0.07153638 0.0118559 -0.0019246265 -0.0020848736
0001b0 56 05 8b bf f7 b5 e3 bf 79 d9 e5 be dc 2d 55 bd
       -1.0861003 -1.7789906 -0.4489248 -0.052045688
0001c0 8c 64 5f bf 44 51 9a bf 8f 23 16 c0 4e 22 5c bd
       -0.872628 -1.205605 -2.3459203 -0.053743653
0001d0 11 f0 8d bf 6e f5 3f 3d b1 c9 04 bf 7d 3b be be
       -1.1088887 0.04686492 -0.51870257 -0.3715476
0001e0 a8 4c 4f bf d8 c4 30 3d 6c cd 9c bf 8c cd 07 3d
       -0.80976343 0.043156475 -1.225019 0.03315501
0001f0 6a a6 6d 3d 49 b5 5f be 66 1b 93 bf c7 c4 dd bf
       0.058020033 -0.21846499 -1.1492736 -1.7325677
000200 86 7a cc bf fb b9 e6 bf cc f7 f7 bc 03 8f 8d bf
       -1.5974891 -1.8025507 -0.030269526 -1.1059269
000210 03 3b d3 bf 6a 51 3e 3c 4a c2 48 3d 6c 27 76 bd
       -1.6502384 0.01161609 0.049013413 -0.06009619
000220 3a a4 25 3d c3 bb 9b bf 18 53 47 3c 4c d5 ee 3c
       0.04043982 -1.2166675 0.012165807 0.029154442
000230 a2 32 6f 3d 26 68 3f bf d0 89 ae bf c0 01 16 3c
       0.058397897 -0.7476829 -1.3635807 0.009155691
000240 c2 bb 6a 3d 16 da 32 bf 61 3b 9b bf f2 4f 8b bf
       0.057307966 -0.6986402 -1.2127496 -1.0883772
000250 b3 0b 6b bf 40 1d 33 bc 99 3a d4 3d a0 0f 8a bf
       -0.91814727 -0.010932267 0.10362739 -1.0786018
000260 3b 42 af bf f8 ef 65 bf df 80 78 bf f1 fb 84 bf
       -1.3692087 -0.8981929 -0.9707164 -1.0389386
000270 da 86 63 3d 1b 0e af bf fa 01 1a bd 1a 06 f5 be
       0.055548526 -1.367618 -0.03759954 -0.47856218
000280 99 83 95 bf 07 8f ac bf e5 bf cc bf 2d 2f 70 3f
       -1.1680785 -1.3481148 -1.5996062 0.93821985
000290 25 0a b5 bf f2 4e 03 bf 20 26 95 bf f8 13 b4 bf
       -1.4143721 -0.51292336 -1.165226 -1.4068594
0002a0 18 5c 86 bf 60 c4 23 3d 8b 84 52 bf e0 b6 03 3c
       -1.0496855 0.0399822 -0.82233495 0.008039206
0002b0 d8 ae ce bf 5f 3f a4 bf 18 e9 a4 bc 5f c3 cc 3d
       -1.6147108 -1.2831839 -0.020130679 0.099982016
0002c0 ed 99 cf bf 9d c0 58 bf 00 fa 43 3a 48 40 97 bf
       -1.621885 -0.84668905 0.00074759126 -1.1816492
0002d0 9d 0c aa 3e 4c b2 b0 bf 7b fe cc ba 00 d6 a1 bb
       0.33212748 -1.3804412 -0.0015639806 -0.004938841
0002e0 9a c2 60 3e d3 06 62 bf c2 6e 68 bf f5 80 fb 3b
       0.21949235 -0.8829166 -0.90794003 0.007675285
0002f0 19 aa 99 3b c2 ca 11 3d d5 09 92 bf 8a 5a 85 bf
       0.0046894667 0.035593756 -1.140925 -1.0418255
000300 2b 28 a4 bf fc a5 6e bf 3d 85 b2 bf 15 6e 5d bf
       -1.2824758 -0.9322202 -1.3946911 -0.86496097
000310 4b c8 9e bf ce c5 84 bf af 76 a3 be 79 c6 f7 bf
       -1.2404875 -1.0372865 -0.31926486 -1.9357444
000320 92 3f d1 3d f6 2f 76 bd b5 09 85 3f d0 69 2b 3d
       0.10217203 -0.060104333 1.0393587 0.041848958
000330 95 72 af bf e7 36 ad bf 78 27 0b 3c d4 dc 5a bf
       -1.3706843 -1.353238 0.008493297 -0.85493207
000340 2a a5 a3 bf 40 ee e9 bb f0 0d a1 bb a0 0d 7c 3c
       -1.2784779 -0.0071389973 -0.0049149916 0.015384108
000350 94 a1 a3 bf 78 14 84 bf 80 df 3e 3a 41 93 d2 bb
       -1.2783685 -1.0318747 0.0007281229 -0.0064262454
000360 e2 81 98 bf 32 fa 58 3d c0 74 76 bb 0b b7 03 3d
       -1.1914637 0.05297298 -0.003760621 0.032156985
000370 00 7e bd bf ec f3 07 bd e5 9f aa bf b1 08 9b bf
       -1.4804077 -0.033191606 -1.3330046 -1.2112027
000380 39 f4 ab be 71 57 79 bf 80 8b 82 bf 17 a1 b9 bf
       -0.33584765 -0.9739905 -1.0198822 -1.4502286
000390 4e ef 95 bf 1f 6c 2c bf 10 d6 15 bc 65 7b 88 bf
       -1.1713655 -0.6735248 -0.009145275 -1.0662657
0003a0 65 22 86 bf 75 2a 9a bf 3c dd 0f bf f8 ca dc bc
       -1.0479246 -1.2044207 -0.5619695 -0.026952252
0003b0 58 1b 3b bd 8a f3 35 bf d9 a7 b5 3c 0a 76 e7 bf
       -0.045680374 -0.71074736 0.022174763 -1.8082898
0003c0 14 f3 2c bf 50 b4 8d bf 00 26 b8 ba d5 05 6a bf
       -0.6755841 -1.1070652 -0.0014049411 -0.9141515
0003d0 a4 4a ee bb d6 b9 6b bf 61 28 85 bf c3 88 c8 bf
       -0.0072720814 -0.9208044 -1.0402948 -1.5666736
0003e0 9f b6 ca bf 60 78 b6 bb 10 e0 57 bf 40 21 4a 3d
       -1.5836982 -0.005568549 -0.8432627 0.049348116
0003f0 ea d3 0e bd 9f e5 14 3d cd 28 14 bf 2e c0 40 bf
       -0.034870066 0.036351796 -0.5787476 -0.7529324

fc1.bias f4 [256]
000000 68 df 22 40 63 48 91 3f c8 e0 17 40 3c d4 fe 41
       2.5448856 1.1350216 2.3730946 31.85363
000010 aa c2 a1 bd 8f d6 fe 41 84 e2 fe 41 bd 1c 02 bd
       -0.07898457 31.854765 31.860603 -0.03176569
000020 e7 58 04 42 6b be fe 41 a3 ee fe 41 8a 32 79 3e
       33.08682 31.842978 31.866522 0.24335685
000030 81 09 33 bc 7e d1 06 40 b2 2d fe 41 ca d1 fe 41
       -0.010927559 2.1065364 31.772312 31.852436
000040 93 39 04 42 00 00 00 00 80 ff 1a bd 60 e1 03 42
       33.056225 0.0 -0.03784132 32.970093
000050 a4 d8 fe 41 30 d0 fe 41 f2 d4 fe 41 38 70 fe 41
       31.855782 31.851654 31.853977 31.804794
000060 63 58 29 bd e3 1b 04 42 db ec fe 41 8d 1d fe 41
       -0.041344058 33.027233 31.865652 31.76443
000070 19 c1 18 3f 0e ea fe 41 ef 32 04 42 4c 49 5c bd
       0.59669644 31.864285 33.04974 -0.05378084
000080 93 3b fe 41 a7 cd fe 41 36 b3 9f bd 0b 95 87 3f
       31.779089 31.850416 -0.07797854 1.0592359
000090 ac d6 fe 41 ba d7 fe 41 a7 57 42 3c d4 de 9b c0
       31.85482 31.855335 0.011861718 -4.8709507
0000a0 00 00 00 00 e0 fd b1 bd 77 58 fe 41 df d2 fe 41
       0.0 -0.08691001 31.793196 31.852964
0000b0 cf 4e fe 41 3b 4b 08 40 a4 56 fe 41 8c dd 9c 3e
       31.78848 2.1295917 31.792305 0.30637777
0000c0 d7 c0 fe 41 b2 d8 fe 41 5c c9 03 42 98 d9 fe 41
       31.84416 31.855808 32.94664 31.856247
0000d0 e0 7b 04 42 0e e7 fe 41 50 ff bc 3f 94 25 fe 41
       33.12097 31.86282 1.4765415 31.768349
0000e0 89 57 fe 41 04 14 52 bd 76 65 04 42 84 cf b5 bc
       31.792742 -0.05128862 33.099083 -0.022193678
0000f0 a8 2e 04 42 db 3f 04 42 2b 45 01 42 9b 30 fe 41
       33.045563 33.06236 32.317547 31.773733
000100 47 dc 58 3f da 4d b8 bc 5f 94 8a c1 d5 08 04 42
       0.84711117 -0.02249806 -17.322447 33.008625
000110 f1 c5 01 c1 40 80 96 3f ed 10 04 42 f0 5f 04 42
       -8.110826 1.1757889 33.01653 33.09369
000120 4e 34 fe 41 2f 4e 4b bd 1a e9 fe 41 53 fb fe 41
       31.77554 -0.04963511 31.86382 31.872717
000130 af ad fd 41 38 06 e3 3f b1 e3 db 3f e7 24 04 42
       31.709806 1.7736273 1.7178861 33.036037
000140 4d 81 bb 3f 0c e4 fe 41 0f 58 01 42 57 de fe 41
       1.4648834 31.861351 32.335995 31.858564
000150 1b c2 9f bd 35 d7 fe 41 b8 e3 fe 41 f2 b7 de 3f
       -0.078006946 31.855082 31.86119 1.7399886
000160 e4 2a 01 42 0d e7 fe 41 d0 68 fe 41 62 e4 fe 41
       32.291885 31.862818 31.801178 31.861515
000170 29 d7 fe 41 cb 78 5a 3f 0b ea fe 41 76 01 ff 41
       31.855059 0.85340565 31.864279 31.875713
000180 17 f1 fe 41 54 f9 fe 41 9a de 32 bd 99 0c 01 42
       31.86772 31.871742 -0.04366932 32.262302
000190 a6 eb 83 bd 20 50 1a bd 30 dd 03 42 7b b2 fe 41
       -0.06441431 -0.03767407 32.966003 31.837149
0001a0 45 c9 fe 41 1a ea fe 41 d3 a6 5e 3f 9c e5 fe 41
       31.848276 31.864307 0.86973304 31.862114
0001b0 58 0c 9b bd b8 25 fe 41 8f e8 fe 41 54 00 9b 3f
       -0.07570714 31.768417 31.863554 1.2109475
0001c0 47 94 52 bd 37 73 fe 41 8f 52 13 bc 1e 28 04 42
       -0.05141094 31.806257 -0.0089918515 33.039177
0001d0 cf f0 fe 41 70 e5 9e bd 2c de 53 bd e1 df fe 41
       31.867582 -0.077586055 -0.05172555 31.859316
0001e0 ea eb fe 41 2a 2f fe 41 78 d8 fe 41 11 8e f8 c0
       31.865192 31.77303 31.855698 -7.767342
0001f0 91 ec fe 41 8f a8 ee bb 93 f2 03 42 c8 37 fe 41
       31.86551 -0.0072832773 32.98689 31.777237
000200 73 08 ff 41 52 98 91 3f d1 3c ef c0 18 d8 8c 3f
       31.879126 1.137461 -7.476174 1.1003447
000210 07 61 fe 41 d1 28 81 40 af d1 fe 41 bc b8 fe 41
       31.797377 4.0362325 31.852385 31.840202
000220 d9 1c 82 bd 64 f4 03 42 4c d2 fe 41 24 fe 9e bd
       -0.063531585 32.988663 31.852684 -0.07763317
000230 d6 c9 b1 bd 15 e3 81 bd df 17 65 bd 40 cf fe 41
       -0.08681075 -0.063421406 -0.05593097 31.851196
000240 48 4f 2a bc cf e6 fe 41 a6 2c fe 41 96 23 5e bd
       -0.010394879 31.8627 31.771801 -0.054233156
000250 a5 7c 01 42 09 67 64 3f de 50 0a 40 22 db fe 41
       32.371723 0.8921972 2.1611857 31.856998
000260 03 bb fe 41 00 00 00 00 95 1e fe 41 78 47 c9 3f
       31.841314 0.0 31.764933 1.5724936
000270 07 37 01 42 89 d5 fe 41 62 05 69 bd 91 d4 fe 41
       32.303738 31.854265 -0.0568899 31.853792
000280 89 00 ff 41 9c a8 75 bc d5 f4 fe 41 9e 0d ff 41
       31.875261 -0.014993813 31.869547 31.881649
000290 12 49 01 42 17 b6 1a bd b8 7a fe 41 11 b8 eb 3b
       32.321358 -0.03777131 31.809921 0.0071935733
0002a0 fe 62 fe 41 b7 12 fe 41 1b db fe 41 a7 d7 fe 41
       31.798336 31.759138 31.856985 31.855299
0002b0 ca c0 fe 41 dc be cf 3e b9 50 84 3f ab 27 04 42
       31.844135 0.40575302 1.0337135 33.03874
0002c0 61 a3 3d be 04 65 e8 3f fa c5 82 bc c5 d5 fe 41
       -0.18519355 1.8155828 -0.015963543 31.85438
0002d0 b4 f3 c4 3f c9 46 04 42 03 2e fe 41 c8 55 fe 41
       1.5386872 33.069126 31.772467 31.791885
0002e0 f6 a9 98 3d e0 0d b7 bc c7 01 a3 bc e5 0d e4 41
       0.074542925 -0.022345483 -0.019898308 28.506784
0002f0 98 07 dc bd 81 d8 fe 41 0c ca 00 42 1f e9 fe 41
       -0.10743636 31.855715 32.19731 31.863829
000300 93 39 fe 41 f5 4b fe 41 ef da fe 41 ee df fe 41
       31.778112 31.787088 31.856901 31.85934
000310 0c a8 2d bd d6 08 ff 41 81 26 04 42 dd f2 fe 41
       -0.04239659 31.879314 33.0376 31.868586
000320 e1 a6 aa 3f cf d9 fe 41 c2 db fe 41 28 da fe 41
       1.3332177 31.856352 31.857304 31.856522
000330 45 e4 d2 bd b9 e1 fe 41 08 5c 40 be d9 c7 fe 41
       -0.10297445 31.860216 -0.18785107 31.847582
000340 78 34 04 42 78 12 ff 41 33 2d dd 3f d8 ea fe 41
       33.05124 31.884018 1.7279419 31.86467
000350 86 e4 fe 41 56 dc fe 41 90 9c 9f 3c 61 26 fe 41
       31.861584 31.857586 0.019483835 31.76874
000360 84 4e 87 3f 19 60 fe 41 79 d1 b3 ba b0 cc 03 42
       1.0570836 31.796923 -0.0013719044 32.94989
000370 7c 29 fe 41 8d c0 b8 bd 6e 08 a2 bc 66 fa b8 3d
       31.770256 -0.09021101 -0.01977941 0.09032135
000380 1f 6e 04 42 1d e0 fe 41 eb e6 fe 41 44 68 fe 41
       33.10754 31.85943 31.862753 31.80091
000390 58 e0 fe 41 15 ea fe 41 24 28 fe 41 83 6d 01 42
       31.859543 31.864298 31.7696 32.356945
0003a0 50 0b b6 bd 0f eb fe 41 1e a1 00 42 c4 c4 03 42
       -0.088888764 31.864775 32.15734 32.942154
0003b0 a9 0b ff 3f c8 7d fc bc a7 a5 fe 41 82 18 ff 41
       1.9925433 -0.030821696 31.830885 31.886967
0003c0 01 d8 fe 41 09 ff 2b 3f 22 e9 fe 41 00 00 00 00
       31.85547 0.6718603 31.863834 0.0
0003d0 dd 1c 02 bd 04 0e 01 42 0f ed 8e bd 2a ef 9c bd
       -0.031765807 32.263687 -0.06978809 -0.076628044
0003e0 01 79 64 bd 96 cb fe 41 af 33 fe 41 67 6c fe 41
       -0.05577946 31.849407 31.775236 31.80293
0003f0 18 de fe 41 bd 30 0c bc f2 aa bf bd 1a 70 02 bc
       31.858444 -0.008556542 -0.09358777 -0.007961297

last_fc.weight f4 [1, 256]
000000 8d c3 e9 bb b5 b4 b8 bc 9d 91 60 bc 19 ef fb be
       -0.007133907 -0.022547105 -0.013706592 -0.49205855
000010 e2 36 c9 bc 87 51 f6 be cc 50 fa be 6e 5f f8 3c
       -0.024562303 -0.48109075 -0.48889768 0.030318942
000020 fa 28 50 bf 59 4d e8 be 30 24 ef be 59 ff b5 3b
       -0.81312525 -0.45371512 -0.46707296 0.0055541215
000030 65 20 e4 bb 83 66 b4 be 05 f5 4f bf 18 da f6 be
       -0.0069618695 -0.3523446 -0.81233245 -0.48213267
000040 17 98 03 bf 7b a5 e7 ba c4 09 d4 3c 22 44 02 bf
       -0.51403946 -0.0017673218 0.025883563 -0.5088521
000050 35 e7 e5 be 28 08 e5 be 0e e6 e7 be 4d 15 3f bf
       -0.4490296 -0.44732785 -0.45292705 -0.7464188
000060 5c 9c 7e bc c1 44 04 bf 9f 65 f1 be d3 b3 50 bf
       -0.015540209 -0.5166741 -0.47147843 -0.8152439
000070 f5 65 03 bb 4b ab 04 bf 36 3d 02 bf b3 72 85 bc
       -0.0020049785 -0.5182387 -0.5087465 -0.016290044
000080 95 db 54 bf c0 50 f2 be de 7c f5 3c e7 15 71 3b
       -0.83147556 -0.47327232 0.029966768 0.0036786736
000090 be 20 fa be 6b f7 f7 be 89 b6 8b bf f4 56 6f 3b
       -0.48853105 -0.48430952 -1.091508 0.0036520334
0000a0 cc c4 ac 3a 5c 5d b7 3c 75 7d 4a bf 89 4b f8 be
       0.0013181209 0.022383384 -0.7909768 -0.4849513
0000b0 a8 3e 55 bf a0 9b aa be 36 5a 49 bf e9 a4 d2 bc
       -0.8329873 -0.33321857 -0.78653276 -0.0257134
0000c0 b4 2e e2 be 9d d8 fb be cc 5c 7e bf 98 58 ee be
       -0.44176257 -0.491887 -0.99360347 -0.46551967
0000d0 7a 9a 78 bf 09 06 ed be 6d dd 14 bd c2 7e 41 bf
       -0.9711071 -0.46293667 -0.03634398 -0.7558404
0000e0 49 0b 3f bf c7 03 ac 3a 07 16 0a bf 87 7c a7 bc
       -0.74626595 0.0013123684 -0.5393986 -0.020445121
0000f0 ac 9e 0c bf 8c ca 63 bf b5 fb cb bf 20 ea 4c bf
       -0.54929614 -0.88980937 -1.593619 -0.80044746
000100 57 5b 42 3c fe a0 61 bc 21 ef fa 3f c6 7a 04 bf
       0.011862597 -0.013771294 1.9604226 -0.5174984
000110 62 37 c2 3f d5 03 53 bc 7b f7 d1 be 37 bf 78 bf
       1.5173151 -0.012879332 -0.41009125 -0.9716677
000120 db a7 4e bf 34 04 30 3c 9f 45 02 bf 0c 73 02 bf
       -0.8072488 0.01074319 -0.50887483 -0.509568
000130 13 be 0f bf ff ec 13 bd 2b d7 e4 bd 71 7a 03 bf
       -0.56149405 -0.03611469 -0.111738525 -0.51358706
000140 44 fe 08 bc f8 eb 06 bf 9f e7 da bf f2 a8 f9 be
       -0.008361403 -0.5270381 -1.7101935 -0.48761708
000150 9f 14 40 3c 53 f9 01 bf 19 5d f5 be ad b4 8f bd
       0.011723666 -0.50771064 -0.4792259 -0.07016883
000160 0c 2b cc bf 03 0f 03 bf c3 90 39 bf 75 61 fa be
       -1.5950637 -0.5119478 -0.72486514 -0.4890248
000170 70 3b f5 be a9 10 fe bc e2 2a 08 bf ca 28 0e bf
       -0.4789691 -0.031013804 -0.53190434 -0.5553099
000180 13 a2 06 bf 70 5f 0d bf b9 52 f3 bc 29 c2 cc bf
       -0.52591056 -0.5522375 -0.029702531 -1.5996753
000190 31 e3 b1 3c 45 cb e8 bc 05 a1 7a bf e6 b1 e4 be
       0.021714779 -0.028417239 -0.97901946 -0.44666976
0001a0 e1 6a fe be 0a a4 fc be 24 6c c3 bc f7 1f ff be
       -0.49690917 -0.49343902 -0.023855276 -0.49829075
0001b0 52 8d ef bb 02 b8 53 bf cc 31 01 bf e6 22 81 bb
       -0.007310548 -0.8270265 -0.5046661 -0.003940928
0001c0 8b 0d 90 bc 5a 2e 46 bf ad 60 49 bc 75 3f 05 bf
       -0.017584583 -0.77414477 -0.012291116 -0.5204995
0001d0 75 63 05 bf f9 00 d2 3b fa 49 65 3c 8a 0f fe be
       -0.52104884 0.0064088074 0.013994688 -0.4962123
0001e0 26 53 07 bf bc b0 4c bf af 09 f7 be 36 dc b9 3f
       -0.5286125 -0.79957175 -0.48249575 1.4520328
0001f0 60 28 56 bf ef 0c aa bb 6e 88 09 bf 54 2a 56 bf
       -0.8365536 -0.00518953 -0.537238 -0.8365834
000200 66 c4 f5 be 0b 15 b9 bb 0f 7b 02 40 33 c7 51 3c
       -0.48001403 -0.0056482605 2.038761 0.01280384
000210 70 ca 39 bf 94 42 be c0 7c a2 f4 be f5 8b e6 be
       -0.7257452 -5.945627 -0.47780216 -0.45028654
000220 ec f2 ad 3a 22 de 01 bf 44 10 00 bf cc 99 30 3c
       0.0013271249 -0.5072957 -0.5002482 0.0107788555
000230 47 48 da 3c 98 ea 25 bb 6b 62 fa 3c e2 80 e5 be
       0.026645793 -0.002531683 0.030564507 -0.44824892
000240 18 e6 0e bd ca 3b f2 be c4 a2 4d bf da e9 50 bc
       -0.034887403 -0.4731124 -0.80326486 -0.012751067
000250 1e df e2 bf 1a 6b 08 bd f3 66 98 bd bb ad f9 be
       -1.772434 -0.033305265 -0.07441511 -0.48765358
000260 c1 93 e9 be 80 16 27 39 5a f3 49 bf 5d f5 67 bc
       -0.4562054 0.00015934743 -0.7888695 -0.01415762
000270 3a 00 cb bf 38 36 ec be 03 0d e3 3b 51 19 f6 be
       -1.5859444 -0.46135116 0.0069290414 -0.4806619
000280 98 ee 00 bf e5 de 56 3c 8f 84 06 bf 80 89 11 bf
       -0.50364065 0.013114666 -0.5254602 -0.56850433
000290 d5 39 e5 bf 33 b3 e3 3c 39 78 3e bf 9c 21 82 bb
       -1.7908274 0.02779541 -0.74402195 -0.0039712917
0002a0 fe fe 37 bf 56 d9 48 bf f4 03 e9 be 5a ba eb be
       -0.7187346 -0.7845663 -0.45510828 -0.46040612
0002b0 c1 76 e7 be b3 69 f6 3b 73 7a 10 3b 26 41 02 bf
       -0.4520779 0.0075199245 0.0022045642 -0.5088066
0002c0 47 72 b9 3e 8e e6 29 bd bc fe 60 3c ae 1d fb be
       0.3622 -0.04147964 0.013732608 -0.4904608
0002d0 ee 5d c9 bb f1 8c 6c bf e8 e5 4e bf 6b 37 57 bf
       -0.0061452305 -0.9240256 -0.8081956 -0.84068936
0002e0 3a 5b d3 bc d1 89 4f 3b 1b 2a 9d bc 8c a9 ac bf
       -0.025800336 0.0031667838 -0.019185117 -1.3489242
0002f0 29 4e 0e 3b a5 2a 00 bf d5 fd 74 bf 67 6b f4 be
       0.0021714068 -0.5006507 -0.95699817 -0.4773819
000300 d3 ee 52 bf 6e b6 2c bf e4 d9 eb be 41 aa fb be
       -0.82395667 -0.67465866 -0.46064675 -0.4915333
000310 ad a5 35 bb 71 c1 0d bf ac ce 08 bf fa 91 fa be
       -0.0027717159 -0.55373293 -0.53440356 -0.48939496
000320 dd 49 55 bd 72 a5 ee be ab 5a f5 be 3e 1e fc be
       -0.052072395 -0.466106 -0.47920737 -0.49241823
000330 ee 25 1e 3c b2 76 f2 be 32 67 01 3d 16 e2 e3 be
       0.009652598 -0.47356182 0.031592555 -0.44508427
000340 a9 25 56 bf c8 cb fd be b9 46 8c bc f2 97 05 bf
       -0.83651215 -0.49569535 -0.017123567 -0.52184975
000350 c0 57 05 bf 73 94 01 bf 39 a3 ba bc 14 9f 51 bf
       -0.5208702 -0.5061714 -0.022782909 -0.8188336
000360 ff 21 97 bc 33 ae 5b bf c0 ae 24 3c e7 bb fc be
       -0.018448828 -0.8581268 0.010051429 -0.49362108
000370 7e 9b 4a bf dc 72 b4 ba bc de 45 bc 39 ca bf 3b
       -0.7914351 -0.0013767141 -0.01207703 0.0058529642
000380 c8 d8 07 bf 42 74 f9 be 2c 99 fe be 79 8d 3e bf
       -0.53065157 -0.4872151 -0.49726236 -0.7443462
000390 a3 40 09 bf db 0a 06 bf 85 f8 48 bf ae 89 ea bf
       -0.5361425 -0.52360314 -0.7850421 -1.8323267
0003a0 2f 34 64 3c 19 e4 ef be 3a e9 3a c0 67 14 00 bf
       0.013928457 -0.46853712 -2.920485 -0.5003113
0003b0 f0 a2 a5 bd a9 b1 74 3a ec cd a9 be 51 73 fa be
       -0.080877185 0.0009334335 -0.33164918 -0.48916104
0003c0 26 4e f9 be a2 f0 ad ba 27 c5 04 bf 90 75 c5 b9
       -0.48692435 -0.0013270567 -0.5186333 -0.0003766236
0003d0 92 86 f4 3c bd 20 35 c0 82 9e 91 bb c8 73 fd bc
       0.029849324 -2.8301232 -0.0044439444 -0.030938998
0003e0 ff 9f 29 bc e9 14 f4 be 9f db 51 bf 74 74 4a bf
       -0.010353087 -0.47672203 -0.8197574 -0.79083943
0003f0 4b 41 f7 be a3 a6 4f bb bc 01 36 bc 4b ae b7 bb
       -0.48292002 -0.0031685017 -0.011108812 -0.005605494
