save_mode/SAC_v_100_qf1_network.pth (torch, 329559 bytes, 5 tensors)

fc0.weight f4 [256, 61]
000000 d2 6b 44 bd 92 c2 5f bd 42 ce 76 3d c0 14 45 3d
       -0.047954388 -0.054628916 0.060255297 0.048115492
000010 3c d4 31 bd 90 a4 03 3f 27 80 85 bd c0 04 94 bd
       -0.043415293 0.5142298 -0.06518584 -0.072274685
000020 28 bd f4 bc 2c 81 dc 3c 6a eb 4d 3d 40 5d fe 3c
       -0.029875353 0.026917063 0.050273336 0.031050324
000030 54 81 0c bd 2d e7 97 3e 39 9d 17 3f b5 3a 42 3f
       -0.034303024 0.2966856 0.5922428 0.7587083
000040 f4 35 c0 3c ec 1c 70 bd ee 99 10 bd ca ed 2f 3d
       0.023463227 -0.058621332 -0.03530305 0.042951383
000050 78 0d 0f bd 97 09 fc 3f 2a e4 fe 3f fc 12 07 40
       -0.034924954 1.9690427 1.991338 2.1105337
000060 58 e3 18 3c a4 e0 99 bc f0 47 d4 bb a4 d9 04 bd
       0.009331547 -0.018783875 -0.006478302 -0.03243412
000070 72 3b 09 bd 1a 91 f2 3d f0 fa 25 3e 32 41 fe 3d
       -0.033503957 0.11844082 0.16209006 0.12414779
000080 ec 7e 8c 3c 80 3c 91 3a 40 fb 27 3d 80 68 6a bc
       0.017150365 0.0011080652 0.041011095 -0.014307141
000090 e8 4c 19 bd 7e 3c 59 be d0 f4 b4 be 74 37 b7 be
       -0.03742686 -0.21214482 -0.35343027 -0.35784495
0000a0 4a 44 55 bd 26 14 6b 3d 64 d2 71 bd 88 1b 6f bc
       -0.05206708 0.057392262 -0.059038535 -0.014593966
0000b0 92 44 34 3d 6d 12 76 3d 76 20 d2 3d 92 d3 06 3e
       0.044010706 0.060076166 0.10260098 0.13166645
0000c0 82 39 bd 3e 40 fa bd 3f 65 78 12 40 32 bd 4b c0
       0.36957937 1.4841995 2.2885983 -3.1834226
0000d0 59 83 b6 bf 68 55 6b 3d 69 8c 40 bf d7 12 78 3f
       -1.4258834 0.057454497 -0.7521425 0.9690375
0000e0 a4 14 2b 3d 8a 8b 5a bf 50 ed 81 3f e6 7a 60 3e
       0.04176773 -0.8536917 1.0150547 0.21921882
0000f0 71 4c 3b bf 08 8d 37 bd 0c 80 c8 3c 6c 3d 43 bd
       -0.73163515 -0.044812232 0.02447512 -0.047666
000100 30 ad e2 3c 5a ab 3d 3d 21 25 97 bf cb 20 56 bf
       0.027670473 0.04630599 -1.1808206 -0.8364379
000110 e7 32 5d bf 56 5f 02 bd 04 5d 0f bd 46 a5 7a bd
       -0.86405796 -0.0318292 -0.035000816 -0.061192773
000120 ec 6b 0a 3d f8 95 60 3d e4 48 77 bd d5 55 6c 3f
       0.03379433 0.05483052 -0.06037225 0.9231847
000130 de 29 85 3f 40 55 06 bb 68 99 14 3c ce c8 27 bd
       1.0403402 -0.002049759 0.009069778 -0.040962987
000140 44 88 b6 bc 12 be 3f 3d cd 68 06 40 1c 9f d7 3f
       -0.022281773 0.046812125 2.1001465 1.6845431
000150 2f ca f8 3f dc e8 9f 3c 36 0c 0a 3d 28 0f 20 bd
       1.9436702 0.019520216 0.03370305 -0.039076954
000160 f8 bc 27 bc 80 0a 42 3a 93 31 85 3c 03 46 8f 3e
       -0.010237925 0.00074020773 0.01625899 0.27983102
000170 9d 8c 5b be 7c 5c ac 3c 80 cf 77 bd f0 d4 5e 3c
       -0.21440358 0.021040194 -0.06050062 0.013600573
000180 b0 23 15 bd 98 2e 06 3c 57 bb ad bd 58 9e 99 bd
       -0.036410987 0.00818982 -0.08482998 -0.07500905
000190 68 01 2a bf b6 35 1c 3d da 57 61 3d b0 34 73 bd
       -0.66408396 0.03813716 0.055015422 -0.05937642
0001a0 8c fe 19 bd ec a5 cc bc c8 13 80 bc 22 83 55 3e
       -0.03759627 -0.024981461 -0.015634432 0.20850804
0001b0 d0 4f 83 be fa 69 b3 40 61 81 92 3f 9a dc cd 3f
       -0.2564683 5.6066866 1.1445733 1.6082947
0001c0 5e ed 1e c0 6c 5b 86 be a3 40 73 3f 4a 76 60 3e
       -2.4832377 -0.26241624 0.950205 0.21920124
0001d0 ef 6a 82 bd 33 b2 8e 3d f6 f3 8f 3e 09 e1 ad 3d
       -0.06368052 0.069675826 0.28115815 0.08490188
0001e0 5f b3 3a 3f a9 ac 7b 3f 00 03 17 bc 60 16 74 bb
       0.7292995 0.98310333 -0.009217024 -0.0037244782
0001f0 10 da b8 bc b0 8e fe 3b 00 e9 ff 3c 2f ac b8 3e
       -0.022564918 0.0077684745 0.031239033 0.36068866
000200 b8 8c 8b bd d9 4d 49 be be 04 3d bd b4 ea 46 3d
       -0.06813949 -0.19658603 -0.0461471 0.048563674
000210 d4 08 fc 3c 64 d7 47 bd 9a 5a 68 bd 05 84 81 3e
       0.030765928 -0.048789397 -0.05672703 0.25296035
000220 b2 1f 26 3f 4e b6 63 3f f8 f4 2a bd 68 15 18 3c
       0.64892113 0.8895005 -0.041737527 0.009282447
000230 ce 65 5e 3d 3a 12 55 bd 40 f5 7d bd 62 54 ef 3f
       0.054296307 -0.052019335 -0.062001467 1.8697627
000240 51 cc d9 3f 1b da f6 3f fc 49 3c bd 9c 03 d9 3c
       1.7015477 1.928531 -0.045968994 0.026490979
000250 66 20 5f 3d 40 ea 06 3d c0 5c df 3c fc 31 45 3d
       0.054474257 0.032938242 0.027265906 0.048143372
000260 9d c2 39 3e 0f c8 38 3e 4c 17 f5 bc 60 e2 c4 3b
       0.18140645 0.18045066 -0.029918335 0.0060084313
000270 9c f4 4e 3d 0c ac 57 bd 04 2c 38 bd e9 c6 5e be
       0.050526246 -0.05265431 -0.04496385 -0.21755566
000280 8b 44 90 be 6d b9 dd be cc b0 f7 bc 4e d3 35 3d
       -0.28177294 -0.4330553 -0.03023567 0.04439097
000290 0c 82 c7 3c 60 10 18 3c 1c 61 4e bd 6c 80 94 bd
       0.024354003 0.009281248 -0.05038558 -0.07251057
0002a0 ce 6e 01 bc 3d b0 ab 3d 88 f1 0b 3f 7c 47 d8 3f
       -0.007899953 0.08383224 0.5466542 1.6896815
0002b0 f2 9e 0c 40 40 8d 44 c0 c0 1c ae bf 80 7e c3 3d
       2.1972013 -3.0711212 -1.3602524 0.09545612
0002c0 12 4c 08 bf 28 bd 0f 3f 7b ba 59 3c f9 a1 2d bf
       -0.53241074 0.56148005 0.013289089 -0.67825276
0002d0 a5 9e 5d 3f 9e a7 9a 3e 0f 8a 1d bf 28 5b 43 bc
       0.865702 0.30206007 -0.61538786 -0.011923589
0002e0 d8 f4 21 3d 14 62 4d bd 40 cb b5 ba c4 99 27 bd
       0.03954014 -0.050142363 -0.0013869777 -0.040918127
0002f0 43 e4 13 3f 8c 06 ff bd b4 31 26 be 3c d4 c8 bc
       0.57770175 -0.124524206 -0.16229898 -0.024515264
000300 72 43 4d 3d 40 43 7d bb 5e 46 21 bd 46 88 08 3d
       0.05011315 -0.003864482 -0.039373748 0.033333085
000310 23 23 9c 3e c7 78 13 3f 42 3c 47 3f 0a 2a 50 3d
       0.30495557 0.57606167 0.7782632 0.05082134
000320 44 2f c3 bc 40 2a b5 bc f4 51 a1 3c ec 7d 09 3d
       -0.023826249 -0.022114873 0.019692399 0.033567354
000330 9f c1 ed 3f bb 6b e3 3f c9 47 00 40 14 6e 2c bd
       1.8574713 1.7767252 2.0043814 -0.042097166
000340 fa 0b 60 3d dc 9c 39 bd 58 cc f8 3c 0c 98 c5 bc
       0.05469892 -0.04531561 0.030370876 -0.024120353
000350 1a 33 08 3e 52 6d 32 3e 84 f9 62 3e 20 bb 42 bd
       0.13300744 0.17424515 0.22165495 -0.047541738
000360 94 ee 58 bd 00 4f d3 3a ce 62 09 3d 72 62 5a bd
       -0.0529619 0.0016121566 0.033541493 -0.05331654
000370 c1 7c 6e be 92 4e 9e be 75 46 bf be d0 17 cd 3b
       -0.23289777 -0.3091932 -0.37358442 0.006258942
000380 10 5f 43 bd f0 99 64 bc 60 c1 10 bb f4 61 f7 bc
       -0.04769808 -0.013952717 -0.0022087917 -0.030198075
000390 5f 7f b8 3d 80 35 8b 3d e0 ea 95 3d 61 27 4a 3e
       0.09008669 0.06797314 0.073201895 0.19741584
0003a0 c2 66 d3 3f 23 c3 0f 40 47 ac 47 c0 07 17 c2 bf
       1.6515734 2.2462852 -3.11989 -1.5163277
0003b0 c4 67 c0 bd 41 0d 15 bf 53 c2 43 3f d6 48 9e bc
       -0.09394792 -0.5822335 0.7646839 -0.01932184
0003c0 09 f9 48 bf 17 66 73 3f c6 38 5b 3e 29 a9 4d bf
       -0.78505 0.9507765 0.21408376 -0.8033624
0003d0 c0 9d 5e bc e8 fd e6 bc 30 b6 dc 3c 0c 28 5a 3d
       -0.013587415 -0.028197244 0.026942343 0.053260848
0003e0 10 6d 41 3d 9f bf f1 bc 7b b1 48 bd 66 8a e3 bd
       0.04722315 -0.029510317 -0.048997384 -0.11110382
0003f0 c0 3d d1 bc 40 4a 14 bd d8 8e 02 3d 0c 31 3e bd
       -0.02554214 -0.036203623 0.031874508 -0.046433493

fc0.bias f4 [256]
000000 01 ca b8 41 44 98 bf 41 37 10 b8 41 08 ba b7 41
       23.098635 23.949348 23.007917 22.965836
000010 aa 47 97 bd 0e f7 ba 41 69 95 87 c1 4a 03 b8 41
       -0.07386716 23.370632 -16.947954 23.001606
000020 00 00 00 00 1a c2 b7 41 ad ec 87 c1 f4 21 b7 41
       0.0 22.969776 -16.990564 22.891579
000030 30 15 cd bc 0c a4 43 bd e4 71 b8 41 9b 59 b8 41
       -0.025034517 -0.04776387 23.05561 23.043753
000040 d5 ed 69 bd a8 48 b8 41 1d 0a 4d bd 16 7d b8 41
       -0.05711158 23.035477 -0.050058473 23.061077
000050 c6 28 b8 41 f5 29 8f c1 ed 73 b8 41 c1 04 b8 41
       23.019909 -17.895487 23.056604 23.002321
000060 af 57 b8 41 95 25 2c bd 73 7b 93 c1 2c 32 a2 41
       23.042814 -0.04202803 -18.435278 20.274498
000070 7c cf b8 41 5f e9 b7 41 24 2c b9 41 3d 17 8a c1
       23.10131 22.98895 23.146553 -17.261347
000080 9a 1d f3 bc 80 37 96 c1 fb cc b9 41 9e ef b9 41
       -0.029677201 -18.7771 23.225088 23.242
000090 00 00 00 00 00 00 00 00 a6 c1 b7 41 d4 1c 02 bd
       0.0 0.0 22.969555 -0.031765774
0000a0 d2 b2 8a c1 d8 c3 88 c1 ab e5 b9 41 94 bc bd 41
       -17.337315 -17.095627 23.237143 23.71708
0000b0 18 d1 b7 41 5f 9b b7 41 2d 6f b7 41 9c 25 b9 41
       22.977097 22.950865 22.929285 23.143364
0000c0 70 61 b7 41 86 5c 04 bd bf bd 6a bd 8e 1e b8 41
       22.922577 -0.0323148 -0.057309862 23.01492
0000d0 0d c4 4d bc 0f 5a 96 41 a2 86 b7 41 fd 12 b9 41
       -0.012558949 18.793974 22.940739 23.134272
0000e0 a8 50 b8 41 fe a1 08 bc cb 6d b8 41 e7 d8 90 c1
       23.039383 -0.008339403 23.05361 -18.10591
0000f0 06 1b 90 c1 71 bf 90 c1 0c c4 4d bc 00 00 00 00
       -18.013195 -18.093477 -0.012558948 0.0
000100 cf c5 b7 41 2c a6 b9 41 b2 78 1b bd 3c e9 91 c1
       22.971586 23.206139 -0.0379569 -18.238884
000110 0f 57 bd 41 00 00 00 00 8c f4 b9 41 31 e7 b8 41
       23.66751 0.0 23.244408 23.112886
000120 6f 84 b8 41 12 9e b9 41 90 32 b8 41 00 00 00 00
       23.064665 23.202183 23.024689 0.0
000130 d1 03 0e c1 12 92 33 bd e7 f5 b7 41 41 13 f7 c0
       -8.875932 -0.043840475 22.99507 -7.7211003
000140 30 d2 b7 41 2c 9f 1d bd c9 3c 12 bd 74 d3 9d 40
       22.97763 -0.038481876 -0.0357025 4.932062
000150 e3 75 ba 41 bd ad ba 41 4f 5a b8 41 b6 59 b8 41
       23.307562 23.334833 23.044096 23.043804
000160 00 d3 94 c1 64 d8 b7 41 61 77 78 c1 70 d7 b7 41
       -18.603027 22.98066 -15.529145 22.980194
000170 b1 0b b8 41 5e ad 91 c1 e5 22 b9 41 b4 1f b9 41
       23.005709 -18.209652 23.142038 23.14048
000180 df 3c b9 41 a4 84 b8 41 69 22 b8 41 60 e8 b7 41
       23.154722 23.064766 23.016802 22.988464
000190 dd bd 33 41 2c 58 b8 41 a0 b8 b7 41 d1 cb c1 41
       11.233853 23.043053 22.965149 24.22452
0001a0 ac 46 ba 41 79 dd 94 c1 f1 ca b7 41 24 a7 86 c1
       23.284508 -18.60814 22.974092 -16.831612
0001b0 77 8e b8 41 7d 42 b7 41 ba bf 8f c1 d3 39 33 bd
       23.069563 22.907465 -17.968616 -0.043756317
0001c0 9f c6 b7 41 67 a6 b8 41 0a 50 95 c1 22 b9 8b c1
       22.971983 23.081251 -18.664082 -17.465397
0001d0 93 a6 b8 41 09 38 95 c1 a3 08 c9 41 d7 82 b9 41
       23.081335 -18.65236 25.129217 23.188887
0001e0 49 ee b8 41 7d 1d 95 c1 32 5d bf 41 2f 43 0d bc
       23.11635 -18.639399 23.920506 -0.008621975
0001f0 64 7d b9 41 7a 96 b8 41 c1 f7 94 c1 d2 9e 69 c1
       23.186226 23.073475 -18.620974 -14.6012745
000200 32 41 b8 41 34 5f b8 41 30 15 cd bc c8 d2 b6 41
       23.031834 23.046486 -0.025034517 22.85292
000210 25 a3 88 c1 a7 fd bb 41 73 76 ba 41 ee 62 b9 41
       -17.07966 23.498854 23.307837 23.173306
000220 00 00 00 00 6d ff b8 41 0d c4 4d bc 65 30 2a bd
       0.0 23.12472 -0.012558949 -0.04155006
000230 4a b1 93 c1 89 c6 ba 41 b9 63 b8 41 64 0c b9 41
       -18.461567 23.346941 23.048693 23.13105
000240 14 0b b9 41 00 00 00 00 a4 65 7f bd 4f bd b7 41
       23.13041 0.0 -0.06235279 22.967436
000250 44 69 b9 41 b2 96 b7 41 fb 4b 82 c1 fb f5 b8 41
       23.1764 22.948582 -16.2871 23.120108
000260 79 5b ba 41 00 00 00 00 1a a0 86 c1 30 ca 56 c1
       23.294664 0.0 -16.828175 -13.424362
000270 b4 12 bb 41 5c 77 b8 41 19 b3 b9 41 21 98 b7 41
       23.384132 23.05828 23.21245 22.949282
000280 08 07 b8 41 8b c6 89 c1 30 41 b7 41 fc 79 95 c1
       23.003433 -17.221945 22.90683 -18.684563
000290 1c 5e 13 bc 0f 7e df bc 00 c6 b7 41 c5 10 b8 41
       -0.008994605 -0.02728179 22.97168 23.008188
0002a0 22 e6 b8 41 c1 2a ba 41 ea ff b7 41 bb de b7 41
       23.11237 23.270876 22.999958 22.983755
0002b0 a6 a7 b7 41 af 30 94 c1 10 64 b8 41 25 ed ba 41
       22.95686 -18.523771 23.048859 23.365793
0002c0 0c 1d 8e c1 ed 23 3d bd 28 2c b9 41 9c 42 b8 41
       -17.764183 -0.04617684 23.14656 23.032524
0002d0 ad 97 b7 41 aa 3b b9 41 64 4f b8 41 b5 f2 b8 41
       22.94906 23.154133 23.038765 23.11851
0002e0 47 98 bb 41 9b 5e b7 41 29 5d b9 41 53 f0 3d bd
       23.449354 22.921194 23.170488 -0.04637177
0002f0 c0 99 b6 41 0e ab b8 41 01 db 2c bc 72 06 88 c1
       22.825073 23.083523 -0.0105502615 -17.003147
000300 f8 3e b8 41 4a 42 ba 41 fe 8f 6b bd 9d 18 b8 41
       23.030746 23.282368 -0.05751037 23.012018
000310 87 3f b8 41 35 21 b8 41 46 3b b8 41 0a c7 b7 41
       23.03102 23.016214 23.028942 22.972187
000320 fe d3 ba 41 7e e2 b7 41 a0 c3 b8 41 79 c1 b7 41
       23.353512 22.985592 23.09552 22.96947
000330 50 ec 8c c1 47 23 8d c1 09 16 94 bd 44 b5 b7 41
       -17.615387 -17.642225 -0.07230765 22.963509
000340 00 00 00 00 17 6d b8 41 00 00 00 00 55 66 1b bd
       0.0 23.053267 0.0 -0.03793939
000350 0e 78 ba 41 2a 04 25 bd b4 c7 b8 41 c2 f5 b7 41
       23.30862 -0.040287174 23.097511 22.994999
000360 30 dd b9 41 9d c3 b7 41 0c 99 b7 41 e9 54 b8 41
       23.233002 22.970514 22.94973 23.04146
000370 c3 cd b7 41 25 ab 34 bd 57 5d 00 bd af c7 b8 41
       22.97547 -0.04410853 -0.031339016 23.097502
000380 ab 8b b8 41 a2 4e 88 c1 e5 9f b7 41 98 ec b9 41
       23.068197 -17.038395 22.953074 23.240524
000390 38 0a b9 41 97 67 27 bd eb 28 b8 41 48 52 4d bd
       23.12999 -0.040870275 23.01998 -0.050127298
0003a0 bb 07 b9 41 92 8e 2c bd ef 2b b9 41 fb 5b b9 41
       23.128775 -0.042128153 23.146452 23.169912
0003b0 5c dd b8 41 f8 48 b9 41 7d 93 b8 41 d0 3d 95 c1
       23.108086 23.16063 23.072016 -18.655182
0003c0 d5 a4 b8 41 ba fd e8 bc 00 00 00 00 a8 51 b8 41
       23.080484 -0.028441299 0.0 23.039871
0003d0 cb 00 95 c1 38 45 11 bd 75 16 b8 41 00 00 00 00
       -18.625387 -0.035466403 23.010965 0.0
0003e0 6a 1e b9 41 4b 82 a4 41 ba c6 b8 41 1d 38 88 bd
       23.13985 20.56362 23.097034 -0.06651328
0003f0 41 23 95 41 00 f5 b7 41 96 09 b8 41 3a 96 b9 41
       18.642214 22.994629 23.00468 23.198353

fc1.weight f4 [256, 256]
000000 78 a1 c1 3c 17 37 47 b9 06 9e 54 3d 0e b7 ba 3c
       0.023636565 -0.00018998641 0.051908515 0.022792365
000010 ee 50 1c 3c 0c 48 af bb a3 c8 52 bd 6a 31 0b bd
       0.0095407795 -0.005349165 -0.051460873 -0.03398267
000020 b0 ab bf bc 5b 3f 07 3d 56 83 13 3d b0 70 68 bd
       -0.023397297 0.033019405 0.036013924 -0.056748092
000030 34 bd 41 3d 34 23 fb 3c dc c4 d4 3c 50 a0 fd bc
       0.04729958 0.030656435 0.025972776 -0.030960232
000040 a6 be 38 bd 15 af cd bc 11 44 04 3b 97 f4 7c bd
       -0.04510369 -0.0251079 0.0020182172 -0.061756697
000050 3f eb 56 bd 72 5c 58 3d da ac 56 bb 8b 60 76 3c
       -0.052470442 0.052822538 -0.0032756836 0.015037666
000060 ab fd 13 3a 84 8e a9 3c 76 aa 63 bd 68 84 5f bd
       0.00056454045 0.02069784 -0.055582486 -0.05456963
000070 7d b5 8e 3c 91 2e 80 bb a9 11 4f bd 48 1b 3f 3d
       0.017420525 -0.003911801 -0.05055395 0.046656877
000080 e7 1c 05 bb 08 48 93 3c f0 c7 1c 3d 1b 07 1d 3c
       -0.0020311417 0.017978683 0.038276613 0.009584214
000090 18 a7 36 3d 50 69 21 bc 1f 8b ce bc 80 c5 4a 3d
       0.044592947 -0.009851769 -0.025212822 0.049504757
0000a0 9d d8 76 bd da c0 2f bc f6 20 60 3c 43 ae bc be
       -0.060265172 -0.010727132 0.0136797335 -0.368517
0000b0 dc a5 85 bd db 8f fa 3c 06 cc 7f bc 64 a6 4c 3c
       -0.06525776 0.030586174 -0.015612608 0.0124908425
0000c0 85 e2 ab bc 60 8e 7f bd fc e0 d9 3c bc e5 ff 3c
       -0.020982036 -0.06239164 0.026596539 0.031237476
0000d0 ba 68 57 3d ab 2b b1 bb 69 4f 29 bd 09 e1 12 3d
       0.05259011 -0.005406817 -0.041335497 0.03585914
0000e0 35 0d 04 3c 95 36 36 bc 80 d9 2e bb 3c 2c 5e bd
       0.008059789 -0.011121412 -0.0026679933 -0.054241404
0000f0 d0 89 e5 3c ac f3 f3 3a b4 87 bc bc a2 62 2e bd
       0.028019816 0.0018612049 -0.023013927 -0.042574532
000100 13 b3 88 bc 62 96 ba bc 04 a6 ee bc d8 5d b9 bc
       -0.016686952 -0.022776786 -0.029131897 -0.022627756
000110 4c 62 1b 3c 78 41 05 bd 59 f0 9c bb 57 87 b0 bc
       0.009483885 -0.03253314 -0.004789394 -0.02154891
000120 2f 7f 47 bd cf 6c 23 bc 83 ea 5a bd 5e 87 57 3d
       -0.048705276 -0.009974672 -0.053446304 0.05261933
000130 2e c2 4c 3d 0d bc 5e 3c f1 d8 9a bc e6 71 cf be
       0.04998987 0.0135946395 -0.018902274 -0.40516585
000140 8d 84 37 bd 9a 66 62 bd d8 cc 36 bd 59 bb 1b bf
       -0.044804145 -0.05527363 -0.044628948 -0.60832745
000150 0e 40 af 39 84 e4 8e bc eb f0 1b bd 9b 8d 06 3d
       0.00033426326 -0.01744295 -0.038071554 0.03284989
000160 eb bd 80 3b 0a 82 3b bd 00 72 4d 3d 51 86 a0 bc
       0.00392889 -0.04577831 0.050157547 -0.019595297
000170 ea 2a 75 3c 39 cb f3 bb 68 81 8b bc 30 0e 87 bd
       0.014963845 -0.0074399975 -0.01702948 -0.06594503
000180 8a aa 8c bc e8 c3 01 3d 5a 47 5f 3c 6d 3c 0f 3c
       -0.017171163 0.03168097 0.013627851 0.008742434
000190 ac 7b 52 bc ed 9c 8f 3c b2 11 5b bd 69 f3 5f 3d
       -0.0128468685 0.017530883 -0.053483672 0.054675493
0001a0 0d 67 ce 3b e7 74 08 3d e0 1c 4c bd 5c 8f d5 3c
       0.0062989057 0.03331461 -0.049832225 0.026069336
0001b0 73 ae a6 3c 77 50 0c 3d da bd 5b bd 7b 58 d9 3b
       0.020346856 0.034256425 -0.053647853 0.006632862
0001c0 e3 59 88 3b c6 a1 94 bd a4 96 1a 3d 8b 7b 12 bd
       0.004161106 -0.07257418 0.03774132 -0.03576235
0001d0 7c a9 6a 3c 19 e5 28 3c 48 69 6e 3b 48 51 30 bd
       0.014322635 0.010308527 0.003637867 -0.043046266
0001e0 41 4e d3 bc 99 27 d5 3c 0d 14 9c bc 48 84 7f 3c
       -0.02579415 0.026019858 -0.01905253 0.015595503
0001f0 0b 14 52 bd 1d 12 ff 3c 4d fb 5d bd 3a 78 74 3d
       -0.051288646 0.031136567 -0.054194737 0.05968497
000200 fa 44 11 bd 98 d4 fc bb 14 74 a0 3c e6 71 32 bb
       -0.03546617 -0.007715773 0.0195866 -0.0027228533
000210 02 8a 09 3d a8 f1 08 3d 3f ea 15 bc 1f f5 3a 3c
       0.03357888 0.033433586 -0.009150087 0.0114109805
000220 5a 04 05 3d 0c 8f 1c bc 1c 3d 3f 3d 18 34 5c 3c
       0.032474853 -0.009555589 0.046689138 0.0134401545
000230 c7 6e 17 bc 3d 41 fc bc b1 f4 7c 3b 74 2d 71 3b
       -0.00924272 -0.030792827 0.0038597996 0.0036800774
000240 28 7d 5a bd ec ee c8 bc 3e af 31 3d 19 c5 e7 3b
       -0.053342015 -0.02452799 0.043380015 0.0070730564
000250 16 ad 81 3c 81 7a 27 bd 88 69 2b 3c b8 b8 7b 3c
       0.015829604 -0.040888313 0.010462172 0.015363865
000260 ea f9 47 bd a8 0d 38 bd f7 c5 ab 3c 5e 84 20 3d
       -0.04882232 -0.0449349 0.02096842 0.039188735
000270 75 01 73 bd 7a 7a 29 bd 9b 85 35 bd a3 32 fa 3b
       -0.05932756 -0.04137657 -0.04431687 0.007635431
000280 e1 25 71 bd a4 81 ec 3c 2d 2e 0f 3d 80 18 f8 3a
       -0.058874015 0.028870411 0.034956146 0.00189282
000290 42 6f 7f 3d 2e ca 3a 3d e8 1c 09 bc e5 97 44 3d
       0.062361963 0.04560297 -0.008368708 0.04799642
0002a0 79 d7 85 bc 39 b1 f0 3c d5 27 4a bd 9f 2e 3d 3d
       -0.016338097 0.029381381 -0.049354393 0.04618704
0002b0 d6 79 87 bd 20 4a b0 3c 74 0c 07 3c a0 e8 3f bd
       -0.06615035 0.02151972 0.008242715 -0.046852708
0002c0 01 57 4b 3d 13 d7 c1 3c 06 bd ed bb 5d b4 a0 bc
       0.04964352 0.023662126 -0.0072551994 -0.019617254
0002d0 a9 c2 6d bd 1d cd 14 3c 44 2b 22 3d 14 2c 89 ba
       -0.05804697 0.009082106 0.039592043 -0.0010465407
0002e0 23 fe 5b 3d 8f 89 c2 bc f6 db d6 bb 10 19 aa bc
       0.05370916 -0.023747234 -0.006556983 -0.020763904
0002f0 af 54 82 bd 83 3b 60 bd d7 c2 21 bd de 19 1e bd
       -0.06363808 -0.054744255 -0.039492454 -0.038598888
000300 7d 5b 17 bd 41 26 57 bd 0c 70 0e bd b5 9a 65 bd
       -0.036952484 -0.052526716 -0.034774825 -0.056055743
000310 2f a9 35 3d 16 fa 62 bd eb 9b e4 3c 09 22 1e bd
       0.0443508 -0.05541428 0.027906379 -0.038606677
000320 c0 1b ae bd 91 0c 2d ba 3d a3 39 bd bc 87 ba bb
       -0.08501387 -0.0006601299 -0.04532169 -0.0056924503
000330 78 d1 25 3c c9 aa 6a bd c9 44 a6 bb 28 9d 19 3d
       0.010120742 -0.05729178 -0.005074118 0.03750339
000340 98 71 2a bd fa 25 fc bc a8 c1 8c 3c 1c f2 d1 3c
       -0.041612238 -0.030779827 0.017182186 0.025628142
000350 1c 8e 77 bb 58 b0 34 3c 1c b1 24 3b 35 c7 a1 bc
       -0.0037773913 0.011028372 0.002512998 -0.01974831
000360 2e 5b 3b 3d 8e bd 3b 3d 8e 03 23 bd e2 f4 a9 bb
       0.045741253 0.04583507 -0.039798312 -0.005186663
000370 85 3e 96 bb 62 9e 6b 3c b0 32 e1 bb 24 96 fe bc
       -0.0045850896 0.014381023 -0.0068724975 -0.031077452
000380 84 c6 12 bd f2 d2 85 bd d7 bf 34 3a c0 a9 34 bd
       -0.03583385 -0.06534375 0.00068950414 -0.0441072
000390 45 8d b2 3c 93 f0 a5 ba a3 81 ec bc a8 16 a0 3c
       0.021795878 -0.0012660198 -0.02887041 0.019542053
0003a0 08 1e f1 3a 78 e1 3d 3c 8e 4b 33 bd 9b 92 49 bd
       0.0018395791 0.0115894005 -0.043773226 -0.04921208
0003b0 d1 e5 2e 3d f2 2c 06 3d e6 f2 94 3c 2c d4 1a 3d
       0.04269964 0.032757707 0.01818223 0.0378
0003c0 5d c2 35 bd a8 37 cf bc 20 66 3b bb 05 d6 51 3c
       -0.044374812 -0.025295094 -0.0028594807 0.012807374
0003d0 b4 24 98 bc 0e 3d 04 3d 91 24 3d 3d 10 67 b1 3b
       -0.018572189 0.03228479 0.04617745 0.0054138973
0003e0 9a f4 60 bd f2 f0 30 bc 38 8c b1 bc ad 87 c4 39
       -0.05492077 -0.010799633 -0.021673307 0.0003748512
0003f0 fe a0 26 3c fe 36 e3 3c 10 b7 05 bd e1 ba f3 bc
       0.0101702195 0.027736183 -0.032645285 -0.029752197

fc1.bias f4 [256]
000000 27 98 b3 3d 74 54 b7 41 c6 32 b7 41 66 08 b7 41
       0.08769255 22.916237 22.899792 22.8791
000010 b5 a4 bd 41 47 29 b7 41 3c 36 b7 41 68 d4 06 bd
       23.705423 22.895155 22.901482 -0.03291741
000020 14 e3 bb 41 dd f6 9c c0 88 e1 b8 41 c1 59 13 40
       23.485878 -4.9051347 23.110123 2.3023531
000030 bd 23 96 c0 d1 63 9b 41 49 1d 64 bd a2 d6 b6 41
       -4.6918626 19.423738 -0.05569199 22.854801
000040 6c fb b6 41 48 fb b6 41 a3 a8 98 41 d7 75 bd 41
       22.872765 22.872696 19.082342 23.682539
000050 50 ed b6 41 b2 2c b7 41 e8 1c 33 bd a2 97 60 41
       22.865875 22.896824 -0.04372874 14.03702
000060 06 d0 b6 41 67 37 70 41 be f8 b6 41 0a f4 0f 40
       22.851574 15.013526 22.871456 2.24927
000070 93 bd 15 40 bc 05 97 bc b1 c0 b6 41 91 7c 83 41
       2.3396957 -0.018435352 22.844088 16.435823
000080 23 0a 37 41 7f b4 b9 41 3b 99 80 bd 48 e7 b6 41
       11.439975 23.213133 -0.062792264 22.86293
000090 b6 9e b7 bd c7 72 b7 41 df 7b f3 bc 11 01 b7 41
       -0.089658186 22.931044 -0.029722152 22.87552
0000a0 f3 03 b7 41 10 69 71 bd e3 f1 b6 41 9d 9c b9 41
       22.876928 -0.058938086 22.868109 23.201471
0000b0 0e 8f f2 3f ed 24 b7 41 24 f4 54 41 e3 99 4d 41
       1.8949907 22.89303 13.309605 12.85007
0000c0 18 33 c5 41 01 62 bc 41 88 a3 60 bd af 20 b7 41
       24.649948 23.547853 -0.054843456 22.890959
0000d0 b8 7e 18 40 41 3b 65 bd 94 1c ff bd 0f 36 9f bc
       2.3827343 -0.055964712 -0.12456623 -0.019434957
0000e0 71 8c 77 41 0c 11 b7 41 13 85 50 bc 44 2b c3 bd
       15.471787 22.883324 -0.01272704 -0.09529737
0000f0 3e d9 71 bd 5a c2 71 bd 06 9b b6 41 74 9e b6 41
       -0.05904507 -0.05902324 22.825695 22.82737
000100 b2 bc ba 41 cc f9 b6 41 c3 1b b8 41 91 86 8d 41
       23.342136 22.871971 23.013556 17.690706
000110 c2 2c dc bd 4e 6c bd 41 71 01 b7 41 4a ee 10 40
       -0.107507244 23.677883 22.875704 2.264544
000120 ca a0 81 41 5d 0a 62 41 54 37 b7 41 a4 84 14 3d
       16.20351 14.12753 22.902016 0.03625931
000130 9b 69 bd 41 38 41 10 40 62 0d b7 41 58 6f bd 41
       23.676565 2.2539806 22.881535 23.679367
000140 03 fb b6 41 6e 6b 98 bd e6 a0 b9 41 c0 47 30 bd
       22.872564 -0.074423656 23.203564 -0.043037176
000150 0e 04 b7 41 3d 69 ba 41 34 fd b9 41 b9 ce b6 41
       22.87698 23.301386 23.248634 22.850939
000160 18 8e ba 41 e5 93 80 bd ef f4 b9 41 25 28 b7 41
       23.319382 -0.06278209 23.244596 22.894602
000170 7d 04 ba 41 49 22 57 41 c7 b0 4e 41 b5 82 e4 bc
       23.252192 13.44587 12.918159 -0.027894357
000180 79 a1 9d bd 9f 18 13 bd b3 91 ba 41 ad 0d b7 41
       -0.07696814 -0.035912152 23.321142 22.881678
000190 74 ce b6 41 42 75 9d c0 96 2a c8 41 01 67 1c be
       22.850807 -4.9205637 25.020794 -0.15273668
0001a0 c5 fb b6 41 b1 1a b7 41 51 e8 92 bd 4f 45 40 bd
       22.872934 22.888033 -0.07173217 -0.046941098
0001b0 19 d7 45 41 b5 2f b7 41 41 02 b7 41 a6 0c b7 41
       12.365014 22.898294 22.8761 22.881176
0001c0 63 32 b7 41 dc f1 62 41 36 93 a9 41 d4 dc b6 41
       22.899603 14.184048 21.19688 22.857826
0001d0 55 fb b6 41 09 11 53 41 de 58 ba 41 60 f3 b9 41
       22.87272 13.191659 23.293392 23.243835
0001e0 5c ec b6 41 d4 8a b7 bd ca f9 b6 41 08 cd a7 bd
       22.86541 -0.08962026 22.871967 -0.081934035
0001f0 87 2e a5 bd 09 a2 ba 41 c7 ea 11 40 2e 1f 51 bd
       -0.08065515 23.329119 2.2799547 -0.051055126
000200 d9 02 b7 41 7d 55 ba 41 43 bc b6 41 af ec b6 41
       22.87639 23.291742 22.841925 22.865568
000210 47 c0 36 bd 2d 82 9e 41 93 62 b7 41 0b 60 a3 bd
       -0.044616964 19.813562 22.923132 -0.07977303
000220 77 69 8e bd ca e1 b6 41 33 99 ba 41 b5 fc 14 40
       -0.069537096 22.860249 23.324804 2.327924
000230 87 d9 b6 41 24 8f bd 41 ff c1 3b 3f f6 18 b7 41
       22.856215 23.694893 0.7334289 22.887188
000240 86 22 ba 41 77 07 b7 41 b5 15 be 41 d5 3d 3f bd
       23.266857 22.878645 23.7606 -0.046689827
000250 a9 70 3b be dc 1c 02 bd 0f cd 5c 41 33 a9 81 bd
       -0.18304695 -0.031765804 13.800063 -0.063311
000260 77 0d b7 41 62 1e b7 41 db 75 e6 bc 61 ed b6 41
       22.881575 22.889835 -0.02813237 22.865908
000270 23 3c ba 41 19 7e 69 bd f0 9a de 3e c3 56 97 bd
       23.279364 -0.05700502 0.43477583 -0.07389595
000280 28 c3 69 bd a5 f3 b6 41 03 e5 b6 41 13 1c 02 bd
       -0.05707088 22.868967 22.861822 -0.031765055
000290 a5 f7 be bd c8 0e c2 41 c4 44 b7 41 b2 16 b7 41
       -0.09324578 24.257217 22.908577 22.886082
0002a0 48 2b c3 bd 75 e3 b6 41 1d 53 62 41 4f a0 41 be
       -0.095297396 22.861063 14.145291 -0.18908809
0002b0 0a 6e ba 41 bd c2 b6 41 55 ed 45 41 b7 17 b7 41
       23.30373 22.845087 12.370442 22.88658
0002c0 ab c5 b6 41 2b 65 d7 bd 10 b5 b6 41 ec b2 8b bc
       22.846518 -0.10517343 22.83841 -0.01705309
0002d0 31 98 71 41 7d 5e ba 41 f7 0a a5 bd 13 ad b6 41
       15.099656 23.296137 -0.08058732 22.834509
0002e0 21 6d a0 41 d0 ee bd 41 43 5f bd 41 2e 47 b9 41
       20.053286 23.741608 23.671515 23.159756
0002f0 97 cb f5 bd c1 46 ba 41 65 38 b7 41 b0 0a b7 41
       -0.12001722 23.284548 22.902536 22.880219
000300 67 14 b7 41 69 85 b6 41 c3 13 b7 41 5f 60 ba 41
       22.884962 22.815142 22.88465 23.297056
000310 1e bf f0 bc d1 32 ba 41 67 04 b7 41 31 da b6 41
       -0.029388007 23.274813 22.87715 22.856539
000320 ad 5c b7 41 ad fc b6 41 51 bf bd 41 f3 af 32 3f
       22.920252 22.873377 23.718416 0.6979973
000330 b4 06 b7 41 78 69 8e bd 61 62 ad bc dc 6d 5c 41
       22.878273 -0.0695371 -0.021165075 13.776821
000340 cb 09 b7 41 ca de b6 41 ee 52 10 bd 35 10 ba 41
       22.879782 22.858784 -0.035235338 23.257914
000350 08 15 b7 41 e7 05 b7 41 5f 7c b9 41 f8 5b 15 40
       22.88527 22.877882 23.185728 2.3337383
000360 4d e6 b6 41 8b 37 b7 41 22 11 b7 41 29 c3 b6 41
       22.862452 22.90212 22.883366 22.845293
000370 49 01 b7 41 f6 d0 b6 41 0e b6 b6 41 6e 8a ba 41
       22.875628 22.852032 22.838894 23.317593
000380 f4 1d b7 41 8e 0e b7 41 8c a5 8a bd 7d 32 b5 bd
       22.889626 22.882107 -0.06769857 -0.088475205
000390 64 a5 15 40 15 52 9f 41 86 05 b7 41 6d f0 b6 41
       2.3382196 19.91508 22.877697 22.867395
0003a0 1c fc b6 41 56 12 b7 41 93 e5 b6 41 bb 0b b7 41
       22.8731 22.883953 22.862097 22.880728
0003b0 06 5d bd 41 28 68 bd 41 12 d3 b9 41 c3 23 b7 41
       23.670422 23.675858 23.228062 22.892462
0003c0 d3 a2 b9 41 7b 0c 91 41 aa c9 b6 41 36 f7 5d 41
       23.204504 18.131094 22.848469 13.872854
0003d0 fa 76 03 be 8b b8 4e 41 f2 8d 0b be ac 51 37 bd
       -0.12838355 12.920054 -0.13628367 -0.044755623
0003e0 79 a6 ba 41 dc 08 05 be 55 03 b7 41 6e de b6 41
       23.331285 -0.12991661 22.876627 22.858608
0003f0 51 41 7f 41 02 f9 b6 41 19 52 4e bc e0 82 1e bb
       15.953446 22.871586 -0.012592816 -0.0024186894

last_fc.weight f4 [1, 256]
000000 a5 6d 13 3c 1c 29 ea be e7 b1 d7 be d2 a7 e2 be
       0.008998309 -0.4573449 -0.42127916 -0.44268662
000010 53 05 71 bf eb 4a e7 be 74 b4 cf be 12 92 f8 3c
       -0.9414875 -0.45174345 -0.40567362 0.03034309
000020 89 4d d6 bf ce df 2c bf 0b ac 3d bf 89 2b cf bf
       -1.6742412 -0.67529 -0.7409064 -1.6185161
000030 36 6a 34 3f 7f 38 69 bf e4 1e 90 3c bf 6a c5 be
       0.70474565 -0.9110183 0.017592855 -0.38558003
000040 46 1a c9 be 0d 36 db be 81 4d 84 bd ac 98 67 bf
       -0.39277858 -0.42814675 -0.06460095 -0.90467334
000050 0f 5e d7 be 51 08 df be b1 e4 b5 bc 1d 25 9c 3c
       -0.4206395 -0.43561032 -0.022203775 0.019060666
000060 e0 dd d0 be 69 17 ea be 64 99 d7 be 0f 0c 97 bf
       -0.40794277 -0.45720986 -0.42109215 -1.1800555
000070 85 8b d9 bf 97 81 b2 3c 2e 85 b3 be 38 11 f2 be
       -1.6995703 0.021790309 -0.35062546 -0.47278762
000080 0b 29 96 3d 7e 4f 30 bf 0f 7f 1d 3c 60 ef c1 be
       0.07332047 -0.68871295 0.009612813 -0.3787794
000090 38 18 5a bc b3 9f eb be 3f f4 12 3c 86 e8 df be
       -0.013311438 -0.46020278 0.008969366 -0.4373209
0000a0 b6 70 c0 be 9e 9f a5 bb 70 83 c1 be 1f b8 2c bf
       -0.37585992 -0.0050544282 -0.3779559 -0.67468446
0000b0 83 93 5f bf 35 07 d1 be 3b b5 21 3e 67 e4 08 3e
       -0.8733446 -0.4082581 0.1579179 0.13368379
0000c0 af b6 a6 bf 21 b8 ed be 84 4d 0f bc 44 83 e8 be
       -1.3024501 -0.46429542 -0.0087465085 -0.45412648
0000d0 2b 91 9b bf 55 25 19 bc 3f 42 02 b8 b3 61 f0 3b
       -1.2153677 -0.00934728 -3.105611e-05 0.0073358654
0000e0 2d ef ac be e2 05 d7 be 89 37 44 bc b8 a9 ed 3c
       -0.33776227 -0.41996676 -0.011976131 0.029011592
0000f0 12 d3 33 bc 4c dd e7 bc 0c 41 7b be a1 c2 ab be
       -0.010975616 -0.028303765 -0.24536532 -0.33546928
000100 27 17 88 bf 38 d9 d8 be 4e e0 fe be 74 c0 29 be
       -1.0632066 -0.42353225 -0.49780506 -0.16577321
000110 d6 3a b2 3c 76 5e 65 bf 98 3a cf be 55 60 cc bf
       0.02175657 -0.8959726 -0.4047439 -1.5966898
000120 8e c3 d8 bd ff d0 bd be 49 8c db be be e8 82 b9
       -0.10584174 -0.37073514 -0.42880467 -0.0002496894
000130 4f d5 62 bf 2d f7 c5 bf b0 9d c8 be 3f dd 61 bf
       -0.88606733 -1.5466057 -0.39182806 -0.8822822
000140 07 60 d4 be 90 04 86 3b 79 4e 28 bf ad 8a 39 3c
       -0.41479513 0.0040898994 -0.6574474 0.011324567
000150 cc 94 da be 56 53 52 bf 96 89 40 bf 46 1e 98 be
       -0.42691648 -0.8215841 -0.7520994 -0.29710597
000160 e6 dd 94 bf 4c 5d 22 bd cd ab 30 bf c7 f4 d8 be
       -1.1630218 -0.039639756 -0.6901215 -0.4237425
000170 fb 4c 30 bf a4 e1 98 3f f1 d6 8a bd a4 fd 8d 3a
       -0.6886746 1.194386 -0.06779278 0.0010833037
000180 fd d0 56 bc fc 10 da 3c 43 98 90 bf 48 5b c7 be
       -0.01311135 0.026619427 -1.1296467 -0.3893683
000190 48 22 d7 be a6 d9 6c 3f b3 fa 71 c1 98 eb ff 3c
       -0.42018342 0.92519605 -15.123706 0.03124027
0001a0 0d d4 d1 be 5d 54 cc be a9 66 ee 3c 67 3f 92 3c
       -0.40982094 -0.39908114 0.029101687 0.017852498
0001b0 d0 ee 4d 3d 4f 05 c1 be b7 98 d3 be ed b1 e3 be
       0.050276577 -0.37699363 -0.4132745 -0.44471684
0001c0 a0 3b e4 be 35 48 43 bf 2f e6 cd be 7d dd c2 be
       -0.4457674 -0.76282054 -0.4021468 -0.38059607
0001d0 51 74 de be bb dd e9 3c ba 97 45 bf 6b 89 39 bf
       -0.43448117 0.028548112 -0.7718464 -0.7247531
0001e0 89 dd a8 be e8 7b e3 bb 23 91 d4 be 59 6a ca bc
       -0.32981518 -0.006942261 -0.4151698 -0.024708914
0001f0 8e 10 9e 3c c2 e2 8e bf e9 ce 90 bf 41 2e e0 3c
       0.019295003 -1.1162951 -1.1313144 0.027365806
000200 bb 0f e5 be 2b 95 95 bf 95 f8 a7 be 2a df d4 be
       -0.44738564 -1.1686147 -0.3280684 -0.4157651
000210 8c 12 92 b8 dd 60 f2 be b1 85 ec be 8c 98 53 3c
       -6.965277e-05 -0.47339526 -0.46195748 0.012914788
000220 01 c1 6f bb 27 63 d2 be 33 69 93 bf b3 33 a4 bf
       -0.0036583545 -0.41091272 -1.1516479 -1.2828277
000230 fb c2 cc be e5 eb 69 bf 84 51 1f 3a 25 4a cc be
       -0.39992508 -0.9137557 0.00060775154 -0.39900318
000240 c6 86 42 bf c5 e6 dc be f5 6a 79 bf cf 95 f4 bc
       -0.759869 -0.43144813 -0.9742883 -0.02985659
000250 29 aa 00 3d df 6a f9 bc c7 6c 5b 3c fb a1 4b 3b
       0.031412277 -0.030446468 0.013392634 0.003107189
000260 a5 60 cf be bb 2b d9 be 41 f4 27 bc 31 fd c7 be
       -0.4050342 -0.42416176 -0.010251106 -0.39060357
000270 93 38 3f bf 01 57 e1 3c 08 42 b1 3c c1 c0 fc 3c
       -0.746957 0.027507307 0.021637931 0.030853631
000280 2e 0a c4 3c 89 67 d9 be d7 93 a5 be 8c 65 00 3d
       0.023930635 -0.42461804 -0.32339355 0.031346843
000290 94 e5 f2 bc af c6 b0 bf 87 c8 df be fb 50 cf be
       -0.029650487 -1.3810633 -0.43707678 -0.4049147
0002a0 67 6f f4 bc 2e cc bd be af 72 33 c0 3e a4 94 bc
       -0.029838277 -0.3706984 -2.8038747 -0.018144723
0002b0 84 92 9b bf 1f 2c a5 be 8e 88 ac 3f 05 19 d4 be
       -1.2154088 -0.32260224 1.3479173 -0.41425338
0002c0 a5 d2 b6 be 84 a6 2f bc 66 b5 a5 be 2f 7a ab 3c
       -0.35707584 -0.010720853 -0.3236496 0.020932285
0002d0 80 27 f1 bb 48 03 8e bf 0b 63 79 3b fe c4 a9 be
       -0.007359445 -1.1094751 0.003805342 -0.33158106
0002e0 9d 28 a2 bf 4e 1d 70 bf d3 05 6a bf 4b 14 1d bf
       -1.2668644 -0.93794715 -0.9141514 -0.6135909
0002f0 67 a7 5e 3c ca 43 8d bf da 39 e8 be a9 3c c9 be
       0.0135897165 -1.1036313 -0.45356637 -0.39304093
000300 9a da d6 be 37 08 95 be bc 0e df be 5f 2b 93 bf
       -0.41963655 -0.2910783 -0.4356593 -1.1497611
000310 7a 26 07 3c 2c d8 93 bf c1 86 da be 9e 09 c6 be
       0.00824892 -1.1550345 -0.42680934 -0.38679212
000320 48 87 e3 be 6d 31 c7 be c5 df 69 bf ac fd 99 3c
       -0.4443915 -0.38904896 -0.9135707 0.018797718
000330 b8 48 da be 99 bf 6b bb 16 0e 00 bb c6 bc 58 3e
       -0.42633605 -0.0035972355 -0.0019539646 0.21165761
000340 18 b1 e6 be cc 71 c3 be b2 1b b6 bc 75 dd 36 bf
       -0.45056987 -0.38172758 -0.022230003 -0.71431667
000350 bc 79 da be d2 ee d0 be 97 08 1c bf 96 1b 9b bf
       -0.42671 -0.40807205 -0.6095061 -1.2117794
000360 14 f4 be be a5 09 e1 be da 6f d2 be ef 1f b2 be
       -0.37295592 -0.4395267 -0.4110096 -0.34789988
000370 ad 93 d1 be cc 2c c0 be 7a 00 97 be 28 c6 8b bf
       -0.4093298 -0.37534177 -0.2949255 -1.0919847
000380 7c ee cb be 24 7f d9 be 50 1e 0b 3c 7a 2f c0 3c
       -0.39830387 -0.42479813 0.008491114 0.023460139
000390 49 c3 96 bf b7 9e fc be 09 31 cd be c6 5f b1 be
       -1.1778346 -0.4933984 -0.40076473 -0.34643382
0003a0 65 b8 c1 be 77 68 d4 be 6e e6 c9 be 1f df d9 be
       -0.37835994 -0.4148595 -0.39433616 -0.4255304
0003b0 98 65 6c bf dd 42 63 bf 03 aa 30 bf af 8c db be
       -0.9234252 -0.887739 -0.6900942 -0.4288077
0003c0 9f ec 29 bf 2a d6 0e bf 9e 47 a8 be 35 3c 71 3b
       -0.6637668 -0.5579554 -0.3286714 0.0036809568
0003d0 ed 2f 1f 3c ab e3 d1 3f 28 0f 02 3d ea 50 a2 3c
       0.009716016 1.6397604 0.031752735 0.019813973
0003e0 95 31 88 bf a8 34 b1 3c 38 5c d8 be 5d 6a db be
       -1.0640131 0.021631554 -0.42257857 -0.42854586
0003f0 38 6e cb be d3 56 c2 be e1 a1 23 3c a2 d1 ab 3c
       -0.39732528 -0.37956867 0.009987325 0.020973984
