save_mode/SAC_v_200_target_qf2_network.pth (torch, 329559 bytes, 5 tensors)

fc0.weight f4 [256, 61]
0	0x3d76c83c	0.060249552
1	0x3c07ec85	0.008296137
2	0xba9ab905	-0.0011804408
3	0x3d46c340	0.04852605
4	0x3d6d8523	0.057988297
5	0x3e9760ca	0.29566032
6	0xbdc7afe3	-0.097503446
7	0xbf3593b9	-0.7092853
8	0x3b481589	0.0030530414
9	0xbd4890f9	-0.04896638
10	0x3d00d035	0.03144856
11	0x3c8d848d	0.01727512
12	0x3c90b815	0.017665902
13	0x3ee352fe	0.44399256
14	0x3f790157	0.9726767
15	0x3fb5eacb	1.4212278
16	0x3d5fa7ea	0.054603495
17	0xbd699f7b	-0.057036858
18	0xbc6ab7f3	-0.0143260835
19	0x3d379ac8	0.044825345
20	0xbb6012f3	-0.0034190982
21	0x408213d7	4.064922
22	0x40584cc2	3.379685
23	0x4020d5c4	2.5130472
24	0x3d3d8be0	0.046275973
25	0xbd551352	-0.05202038
26	0x3c37d6ef	0.011220678
27	0x3d334ec8	0.043776304
28	0xbd3d7218	-0.046251386
29	0x3d9e1328	0.077184975
30	0x3e49c616	0.1970447
31	0x3e6d3b70	0.23167205
32	0xbceb8182	-0.028748278
33	0xbd1b65ae	-0.037938766
34	0x3d2f1faf	0.042754825
35	0xbd15002e	-0.036377124
36	0xbd1ed0ae	-0.03877323
37	0xbee4a742	-0.44658858
38	0xbf05f9ba	-0.5233418
39	0xbec5539a	-0.38540345
40	0x3c77ed34	0.015132237
41	0xbd7cb4a4	-0.06169571
42	0x3c87b05c	0.016563587
43	0xbccb9b19	-0.02485423
44	0x3d19364e	0.037405305
45	0x3d0d075b	0.034430843
46	0xbd1c15df	-0.038106795
47	0x3d5ba4b3	0.053623866
48	0xc00585ec	-2.086299
49	0x3fe92cf4	1.8216844
50	0x40041b61	2.064171
51	0xc0c794c5	-6.2369103
52	0x3ed0fb22	0.408166
53	0xbea930ff	-0.33045194
54	0xbd434674	-0.04767461
55	0x3ec5b163	0.38611898
56	0x3f47fd4f	0.78120893
57	0xbfa43498	-1.282855
58	0x3f4e2472	0.8052436
59	0x400cec1d	2.2019112
60	0xbf2260a8	-0.63428736
61	0x3ccbdf11	0.02488664
62	0x3ba83df7	0.00513434
63	0x3c480c29	0.01220993
64	0x3d200867	0.039070513
65	0xb9fe550c	-0.0004851002
66	0xbed3fa07	-0.41401693
67	0xbece5b81	-0.40304187
68	0xbf2adb48	-0.66740847
69	0xbce17caa	-0.027525265
70	0x3afd8ab4	0.0019343705
71	0x3c1b6bee	0.009486182
72	0x3d273457	0.0408214
73	0xbc60c8fb	-0.0137197925
74	0x3efabbb0	0.4897132
75	0x3eff05da	0.49809152
76	0x3f44153b	0.76594895
77	0x3c8de634	0.017321683
78	0x3c135026	0.008991277
79	0x3cff554c	0.031168602
80	0x3d7968e4	0.060891047
81	0xbcb445a7	-0.02200587
82	0x403b6eb5	2.928632
83	0x40406d47	3.0066698
84	0x4080127f	4.002258
85	0xbc2c42de	-0.010513989
86	0x3bafad16	0.0053612096
87	0x3d579711	0.052634303
88	0x3b67a53a	0.0035346285
89	0x3d4770b1	0.048691455
90	0xbe853397	-0.26015922
91	0xbf39bd66	-0.72554624
92	0xbe96c66e	-0.29448265
93	0x3bd54d21	0.0065094386
94	0xbc0f8a85	-0.008761053
95	0xbc6f5532	-0.0146077145
96	0x3c07be6c	0.008285146
97	0xbd2eb957	-0.042657223
98	0xbe9d9f94	-0.3078581
99	0xbe2bb5d9	-0.16768588
100	0x3eb4f3d6	0.35342282
101	0x3b2e5c5f	0.002660535
102	0xbb87d2bc	-0.0041449945
103	0x3cad44af	0.021150915
104	0x3cbb4060	0.022857845
105	0x3ca09ff6	0.019607525
106	0xbdbc4803	-0.09193423
107	0xbf6bf03d	-0.9216345
108	0xbeb2f912	-0.3495565
109	0xbfa65d57	-1.2997235
110	0xc0fde839	-7.9345975
111	0xc0f81ffa	-7.7539034
112	0x41121686	9.130499
113	0x3f81ef04	1.0151067
114	0xbf12cdb2	-0.57345116
115	0xbe2601cf	-0.16211627
116	0x3f4bad06	0.7956089
117	0xbe8d9381	-0.276516
118	0x3f0d15ca	0.5511137
119	0x3f900eb8	1.1254492
120	0xc04b5761	-3.1772082
121	0xbfe12efa	-1.7592461
122	0x3d7d2e84	0.06181194
123	0x3d1b33ae	0.037891082
124	0xbd35eb88	-0.044414073
125	0xbd182e3e	-0.037153475
126	0x3d2f69e7	0.042825606
127	0xbddf4fa2	-0.10903861
128	0x3b926c05	0.0044684433
129	0xbc693473	-0.014233696
130	0xbc84ae0c	-0.016196273
131	0x3c6bbe72	0.014388667
132	0xbd05d624	-0.032674924
133	0x3c913dae	0.017729606
134	0x3d1b0d65	0.03785457
135	0xbc6c04c3	-0.014405432
136	0xbc0b3525	-0.008496557
137	0xbdd0097a	-0.101580575
138	0xbd75833c	-0.059939608
139	0x3d16439e	0.03668558
140	0x3d029b95	0.031886656
141	0x3ca597d7	0.020214004
142	0x3bc60f91	0.006044336
143	0xbb6ba253	-0.0035954907
144	0xbd9521c6	-0.072818324
145	0xbd65cfb3	-0.05610628
146	0x3b103986	0.0022006943
147	0x3d07e195	0.033174116
148	0x3d69d30b	0.057086032
149	0xbd73bc8c	-0.059505984
150	0x3b2ba447	0.0026190446
151	0xba91a726	-0.0011112436
152	0xbdc56b81	-0.09639645
153	0xbbf66ff4	-0.00752067
154	0x3d7c147c	0.061542973
155	0x3d3e1178	0.04640338
156	0xbbdf9782	-0.006823481
157	0x3d144a26	0.036203526
158	0xbaea3eda	-0.0017871514
159	0xbd1c564e	-0.038168244
160	0xbd0b665d	-0.034033168
161	0xbdcb06a9	-0.0991338
162	0x3c5cbf61	0.013473363
163	0xbd5fc982	-0.054635532
164	0xbd43aa49	-0.04776982
165	0xbd28e6b7	-0.04123565
166	0x3d59f7aa	0.053214706
167	0xbdd9efda	-0.10641451
168	0xbd4f67c1	-0.050636057
169	0xbda8bc87	-0.08239084
170	0xbc9b7c56	-0.018980186
171	0x3c3278b8	0.010893039
172	0x3c3ca94f	0.011514976
173	0xbd8455c5	-0.06461672
174	0x3d82fa1d	0.063953616
175	0xbd040f75	-0.032241303
176	0x3c075815	0.0082607465
177	0x3c9a6ece	0.018851664
178	0xbd233bef	-0.03985208
179	0xbb47b3e0	-0.0030472204
180	0xbdbcad38	-0.09212726
181	0xbda366e7	-0.079786114
182	0x3c09162d	0.0083671035
183	0x3d65f14b	0.056138318
184	0x3cba53a7	0.022744967
185	0xbd477df9	-0.04870412
186	0x3d397c08	0.0452843
187	0xbd6ed833	-0.058311652
188	0xc0236f34	-2.5536623
189	0x3ef1f163	0.47254476
190	0x3d0a056b	0.033696573
191	0x3bd9f872	0.0066519314
192	0xbcd93459	-0.02651422
193	0xbd27e28f	-0.040987547
194	0xbd21b7a7	-0.039481785
195	0xbac97db0	-0.0015372541
196	0xbe7ade31	-0.24498822
197	0x3e2747e8	0.16336024
198	0x3f693efa	0.9111172
199	0xbc976895	-0.018482486
200	0xbd66d313	-0.05635364
201	0xbc6d29bb	-0.014475281
202	0x3bd7e46a	0.0065885084
203	0xbd2e76ef	-0.042593893
204	0x40660481	3.594025
205	0x4042352d	3.0344956
206	0x4005c114	2.0899096
207	0x3c8fecf4	0.017569043
208	0xbd2b5d2f	-0.041836914
209	0xbc9d1cbe	-0.019178744
210	0xbbd6659a	-0.0065428736
211	0xbc83082d	-0.01599511
212	0x3e4ae4d5	0.19813855
213	0x3e295010	0.16534448
214	0x3e8785b3	0.26469192
215	0x3bacb1ce	0.0052702194
216	0x3d63e383	0.055636894
217	0xbd4fd5e9	-0.05074111
218	0xbd5320e2	-0.05154503
219	0xba7ae304	-0.0009570571
220	0xbe5dc77c	-0.21658128
221	0xbf00dcea	-0.5033709
222	0xbedf143c	-0.43570125
223	0xbc8302b5	-0.015992502
224	0xbc1bcd96	-0.009509465
225	0xbd7fea84	-0.06247951
226	0xbd1c645e	-0.038181655
227	0x3d7255f4	0.059164003
228	0x3d44bf62	0.04803408
229	0x3d989e81	0.07452107
230	0x3e2bd7ce	0.16781542
231	0xbe340a91	-0.17582156
232	0x40210b89	2.516329
233	0x40272595	2.6116688
234	0xc0b682f0	-5.7034836
235	0x3f98ace7	1.1927766
236	0xbeaf9634	-0.34294283
237	0xbfaa1dd7	-1.3290356
238	0x3eef7d6b	0.46775374
239	0x3faf3a7c	1.3689723
240	0xc039e085	-2.9043286
241	0x3f89a460	1.0753288
242	0x4016a31a	2.353705
243	0xbfb16c7b	-1.3861231
244	0xbd57aa9a	-0.052652933
245	0x3c1a2d2d	0.009410185
246	0xbd6036e3	-0.054739844
247	0x3cda268a	0.026629705
248	0xbc0e1b54	-0.008673508
249	0x3e0f406f	0.13989423
250	0xbe26f910	-0.16305947
251	0xbf331a48	-0.69961977
252	0x3cf726c4	0.030169852
253	0x3d6d9d5b	0.058011394
254	0x3ca3d82f	0.020000545
255	0xbb60d3eb	-0.0034306

fc0.bias f4 [256]
0	0x4207f5e5	33.99013
1	0xc1ccb2d5	-25.58732
2	0xbd4cf9e1	-0.05004299
3	0x4203f58b	32.989788
4	0x42076625	33.84975
5	0xbd6ead3b	-0.058270674
6	0x42038915	32.88387
7	0xc1cc10b5	-25.508158
8	0x42025ddd	32.591663
9	0x42089d24	34.153458
10	0x4207078c	33.75737
11	0x4209ab65	34.417377
12	0xc15f94a2	-13.973787
13	0x00000000	0.0
14	0xc142e7c4	-12.181583
15	0x4202bc65	32.68398
16	0x4207ed4d	33.98174
17	0x4208226d	34.03362
18	0xbd505d12	-0.05087001
19	0x42038145	32.87624
20	0xbd1bff96	-0.038085543
21	0x42082b05	34.04201
22	0xc1cd1d7c	-25.639397
23	0x4208cd85	34.200703
24	0x42084275	34.0649
25	0xbd839e2d	-0.06426654
26	0xc1cc6a98	-25.552048
27	0x42091c6d	34.27776
28	0x42071cb5	33.778034
29	0x42092e65	34.295307
30	0xbd0ae255	-0.033907253
31	0x420863f1	34.0976
32	0x42087c48	34.12137
33	0xc1cc940b	-25.572287
34	0x4207fdb5	33.99776
35	0xbcea7653	-0.028620875
36	0x42039ef5	32.90523
37	0xc1cbfcae	-25.498379
38	0xbcfb7cec	-0.030699216
39	0x4207687d	33.85204
40	0xbcb94eb8	-0.022620544
41	0x00000000	0.0
42	0x42061f0b	33.530315
43	0x42098a95	34.385334
44	0xbd629b63	-0.05532397
45	0xbcec6413	-0.028856313
46	0x4208898d	34.134327
47	0xbcee3b2b	-0.029080948
48	0x4206bfbd	33.687244
49	0x42089663	34.146862
50	0x42090e5d	34.264027
51	0x42073425	33.800922
52	0x3e17ebd5	0.14836057
53	0x4202722d	32.6115
54	0xbc490a11	-0.012270466
55	0x420800d5	34.000813
56	0xbd1cb8be	-0.03826212
57	0x4202fe05	32.748066
58	0x4207825c	33.877304
59	0x00000000	0.0
60	0x4208271d	34.038197
61	0x42043b35	33.05782
62	0xbccb6211	-0.024827035
63	0xbd347938	-0.044060916
64	0x42074235	33.814655
65	0x42023605	32.552753
66	0xbd3af240	-0.045641184
67	0xbcdd8f32	-0.02704582
68	0xbd82b175	-0.063815035
69	0x4203e15d	32.97008
70	0x4208fc65	34.24648
71	0xbd0e4d55	-0.03474172
72	0xbd01d6b5	-0.0316989
73	0x41cee306	25.860851
74	0xc1cd49e4	-25.66108
75	0x42097311	34.36237
76	0xc1cc706a	-25.55489
77	0x42088b1d	34.135853
78	0x4208898d	34.134327
79	0x42079e65	33.904682
80	0xbcf847d4	-0.030307688
81	0x4208213d	34.03246
82	0x4207ba85	33.932148
83	0xbd32fa68	-0.043695837
84	0x42085da4	34.091446
85	0x4202ec17	32.730556
86	0xc1aeb741	-21.83948
87	0xc13e1c5a	-11.881922
88	0x4209806d	34.375416
89	0x42025c4d	32.590137
90	0x4207c575	33.94283
91	0x4203c232	32.939644
92	0xc1cc9c09	-25.576189
93	0x420832d5	34.04964
94	0xc1db0aa4	-27.380196
95	0x42080e4c	34.01396
96	0x4203807d	32.875477
97	0x4207f6ad	33.990894
98	0x42028bf5	32.636677
99	0xc1db029b	-27.376272
100	0x42062762	33.53846
101	0x42088be5	34.136616
102	0xbd1ecbfe	-0.03876876
103	0x4204a5c6	33.16189
104	0x4208785d	34.117542
105	0x4208dd25	34.21596
106	0xbd3809b8	-0.044931144
107	0x4206a9dd	33.665882
108	0xbc4dc371	-0.012558804
109	0x420763b1	33.847355
110	0xc1c4e02a	-24.609455
111	0xc181dc2d	-16.232508
112	0x00000000	0.0
113	0x420799b5	33.900105
114	0x4208dd25	34.21596
115	0xc1cbecf5	-25.490702
116	0xc1cc7c53	-25.560705
117	0x42028121	32.626102
118	0x42034e7d	32.82665
119	0xbd19ef76	-0.037581883
120	0x4207bffd	33.93749
121	0x420350e2	32.828987
122	0x4207683d	33.851795
123	0xc17f4b24	-15.955845
124	0x42072485	33.785664
125	0x420329c5	32.79079
126	0xbc8c1ebd	-0.0171045
127	0x42099fad	34.405933
128	0x4203b72d	32.928883
129	0x4202dae1	32.71375
130	0x41ea5f3a	29.296497
131	0xc1cbf128	-25.492752
132	0xc0a87848	-5.264683
133	0x42022025	32.53139
134	0x4207cc2a	33.94938
135	0x42068bb3	33.636425
136	0x4203c385	32.940937
137	0x420948f5	34.321247
138	0x00000000	0.0
139	0xbc98c826	-0.018650126
140	0x4202b87d	32.680164
141	0x42071fd5	33.781086
142	0x42078f71	33.89008
143	0xc1c6ad60	-24.834656
144	0x42032385	32.784687
145	0x42038c35	32.88692
146	0x4203adcd	32.919727
147	0x42081845	34.0237
148	0x4209d97d	34.46239
149	0x42036244	32.845963
150	0xbd60daf3	-0.054896306
151	0xbd18699e	-0.0372101
152	0xbe2fd1cf	-0.1716988
153	0xc18fdbc5	-17.98231
154	0xbb7945bc	-0.003803595
155	0x42054d6d	33.32561
156	0xbcdd8f32	-0.02704582
157	0x41cfae8a	25.960224
158	0x4208311c	34.04796
159	0x42084ef5	34.077106
160	0x4206f8c5	33.74294
161	0x4209dd65	34.466206
162	0x42081dbd	34.02904
163	0xc1cc94f9	-25.57274
164	0xc1db078a	-27.378681
165	0x420985e5	34.380756
166	0xc1cc7704	-25.558113
167	0x42070226	33.752098
168	0x420288d5	32.633625
169	0xbd67f8d3	-0.05663378
170	0x42080715	34.006916
171	0x420876be	34.11596
172	0x4203dbe5	32.96474
173	0x420791e5	33.892475
174	0x4208e74d	34.22588
175	0x42032a99	32.7916
176	0x42030cdd	32.76256
177	0x42038145	32.87624
178	0x4209838d	34.378468
179	0xbd58454a	-0.052800454
180	0x00000000	0.0
181	0x420314a4	32.770157
182	0x420a5cf0	34.59076
183	0x42036075	32.844196
184	0x00000000	0.0
185	0x42074791	33.81989
186	0x41a89ed6	21.077557
187	0xc1cd2096	-25.640911
188	0x4208bde5	34.185444
189	0xbc21721f	-0.009853869
190	0xbd00ba55	-0.0314277
191	0xbd01fc35	-0.031734664
192	0x00000000	0.0
193	0x4208b2f5	34.174763
194	0x42046dfd	33.10741
195	0x420859ba	34.087624
196	0x41e43bea	28.529255
197	0x4208a355	34.159504
198	0xc1cc1bd7	-25.513594
199	0xc1bfbe3d	-23.96789
200	0xc1da9dc8	-27.327042
201	0xbe2e386f	-0.17013715
202	0xbc5015fa	-0.012700552
203	0x3e0ebc44	0.13939005
204	0x4202259c	32.536728
205	0x42071d81	33.778812
206	0x4203564d	32.83428
207	0x4209851d	34.379993
208	0x4202f0f1	32.735294
209	0xbcd7789a	-0.026302624
210	0x42038e8d	32.88921
211	0xbd0a31c5	-0.03373887
212	0xc1cc950b	-25.572775
213	0x42096c24	34.355606
214	0xc1cc24dd	-25.518
215	0x42084ecc	34.07695
216	0xc0e6507a	-7.197324
217	0x42035c8d	32.84038
218	0xbc7a491c	-0.01527622
219	0xbcd69862	-0.026195709
220	0x4208258d	34.03667
221	0x4202835d	32.628284
222	0x420818b1	34.024113
223	0x42090ccd	34.2625
224	0x42033ee0	32.8114
225	0x42071cb5	33.778034
226	0x3e09405c	0.13403457
227	0x3e137fcd	0.14404221
228	0xc1cc2580	-25.51831
229	0x42075685	33.83449
230	0x4202c4fd	32.69237
231	0x00000000	0.0
232	0x4208947d	34.145008
233	0x4202e055	32.719074
234	0x42081e85	34.029804
235	0xbd86525d	-0.06558678
236	0x42070307	33.752956
237	0x42097fac	34.37468
238	0x4209037e	34.25341
239	0xc1dad00c	-27.351585
240	0x00000000	0.0
241	0xbd0e67e5	-0.03476705
242	0x4206e53d	33.723866
243	0x4208c235	34.189655
244	0x420a4ac5	34.573017
245	0x4204a850	33.164368
246	0xbd007b3f	-0.031367537
247	0x00000000	0.0
248	0xbcb3eef0	-0.02196452
249	0x4208d32e	34.20623
250	0xbcdbbb3a	-0.026822675
251	0x42078245	33.877216
252	0xbd425b21	-0.04745019
253	0x420884dd	34.12975
254	0x42086fc5	34.10915
255	0x00000000	0.0

fc1.weight f4 [256, 256]
0	0xbbe8543b	-0.007090119
1	0xc02a871f	-2.6644971
2	0x3c9cd8c5	0.019146333
3	0x3ec82078	0.39087272
4	0xbe13e176	-0.14441475
5	0xbda8643f	-0.082222454
6	0xbe95dbb6	-0.2926919
7	0xc01c3e16	-2.4412894
8	0xbda0b82f	-0.0784763
9	0xbc4620c1	-0.01209277
10	0x3d429bf8	0.047512025
11	0x3cc4a1f0	0.024002999
12	0xc1a38497	-20.439741
13	0xbceb3362	-0.028711025
14	0xc00d366d	-2.206447
15	0xbd7486e4	-0.059698954
16	0xbdb14740	-0.08656168
17	0xbeabe06f	-0.33569667
18	0x3cebf9d2	0.028805647
19	0xbe8c7895	-0.27435747
20	0xbbbd1b60	-0.0057710856
21	0xbe02dd35	-0.12779696
22	0xc0339518	-2.805975
23	0xbd1ef246	-0.03880527
24	0xbe177f3e	-0.14794633
25	0xbd0e5b64	-0.034755126
26	0xc02d5ce7	-2.7087953
27	0x3d6fef1a	0.058577634
28	0xbeccfdc9	-0.40037373
29	0x3d8b1454	0.06790987
30	0x39ddef4a	0.0004233069
31	0xbe74df2c	-0.23913258
32	0xbccf0939	-0.025272952
33	0xc03312a0	-2.7980118
34	0xbc90aace	-0.017659571
35	0x3c41a450	0.01181896
36	0xbe846885	-0.25860992
37	0xc0313930	-2.7691154
38	0xbb9630dd	-0.0045834617
39	0xbe680553	-0.22658281
40	0x3cfd9a53	0.030957377
41	0x3d2ec69f	0.04266989
42	0xbe9dbc1e	-0.30807585
43	0x3bd4d021	0.0064945375
44	0xbd6c152b	-0.057637375
45	0xbd7494f4	-0.059712365
46	0xbdcc4ba9	-0.099753685
47	0xbcc24f69	-0.023719506
48	0xbe8b665d	-0.27226534
49	0xbe55be6a	-0.20873418
50	0x3cc482b0	0.023988098
51	0xbda51df7	-0.08062356
52	0x3eb476df	0.3524694
53	0xbd266ac7	-0.040629175
54	0x3c37b170	0.011211738
55	0xbe494571	-0.19655396
56	0x3c04b1f4	0.008099068
57	0xbd84f13d	-0.06491325
58	0xbe471549	-0.19441713
59	0xbc9b0c9e	-0.018926915
60	0xbd4df18a	-0.050279178
61	0x3f7db1c3	0.9909937
62	0xbb62e40b	-0.0034620787
63	0xbd11d156	-0.03560003
64	0xbe164dc6	-0.14678106
65	0xbca4d167	-0.020119382
66	0xbc7bf53c	-0.015378293
67	0xbdb40980	-0.087908745
68	0x3f024414	0.5088513
69	0xbe16e61e	-0.1473622
70	0x3c92dc85	0.017927418
71	0xbd744ea4	-0.05964531
72	0xbc92ada6	-0.017905068
73	0x3dba0d58	0.09084576
74	0xc032b670	-2.792385
75	0x3dbca6f7	0.092115335
76	0xc00c4055	-2.1914265
77	0xbcf43284	-0.029809244
78	0xbd6f84db	-0.05847631
79	0x3bb8b277	0.005636509
80	0x3d265676	0.0406098
81	0xbdd42762	-0.10359074
82	0xbe607c6b	-0.21922462
83	0xbd0c8515	-0.034306604
84	0x3d6d2da2	0.057904847
85	0xbc8855fd	-0.016642565
86	0xbe532c9a	-0.20622483
87	0xc161a482	-14.102663
88	0xbce34a63	-0.027745431
89	0xbce17f03	-0.027526384
90	0xbe2f2847	-0.17105208
91	0xbdbde108	-0.09271437
92	0xc033c588	-2.8089314
93	0xbe97bcf6	-0.29636353
94	0xbfce2451	-1.6104833
95	0xbde7cd13	-0.11318412
96	0xbdf79e4c	-0.120907396
97	0xbe96b676	-0.29436082
98	0xbd22c2d7	-0.039736595
99	0xbfc59b29	-1.5437976
100	0xbe7f8f1c	-0.24956936
101	0xbe3ec848	-0.18631089
102	0x3ca4b3b6	0.020105224
103	0xbea509a7	-0.32233927
104	0xbbb90160	-0.005645916
105	0xbc6f2d5b	-0.014598216
106	0xbcc9e4d1	-0.024645241
107	0xbeb40b10	-0.3516469
108	0xbb49b140	-0.0030775815
109	0xbe31d4a8	-0.17366278
110	0xbe843045	-0.25818077
111	0xc1ad8ee7	-21.694777
112	0xbb0d83c4	-0.002159343
113	0xbe4d7231	-0.20063092
114	0xbdc10361	-0.094244726
115	0xc027ebef	-2.6237752
116	0xc0345228	-2.8175144
117	0xbbaa3a8f	-0.005194969
118	0xbd99cea6	-0.07510118
119	0x3c195d5d	0.009360638
120	0xbe952b26	-0.29134482
121	0xbdd8c56a	-0.10584529
122	0xbe5bbf22	-0.2145963
123	0xbe620d33	-0.22075348
124	0xbeae2677	-0.3401372
125	0xbda403ef	-0.08008563
126	0xbb81ed5c	-0.003965063
127	0xbdabdbbf	-0.083915226
128	0xbe593202	-0.21210483
129	0xbe4da9a9	-0.20084251
130	0xbf1e39e6	-0.61807096
131	0xc04307c9	-3.0473502
132	0xbfdf2ed2	-1.7436163
133	0xbdb22b60	-0.086996794
134	0xbebca950	-0.36847925
135	0xbe9d342e	-0.30703872
136	0x3e1062ed	0.14100237
137	0x3d38a917	0.04508313
138	0xbd26af87	-0.04069474
139	0xbc0060af	-0.007835551
140	0xbda4f93f	-0.080553524
141	0xbe3128c8	-0.17300713
142	0xbeaac27f	-0.33351514
143	0xbfc4b259	-1.5366927
144	0x3d9b96e5	0.0759714
145	0xbd23a0b7	-0.03994819
146	0x3d801ac2	0.06255104
147	0xbe2fb037	-0.17157064
148	0x3e8d9d8c	0.2765926
149	0xbe8be99d	-0.2732667
150	0xbc7a30e4	-0.0152704455
151	0xbd0b296d	-0.033975054
152	0xbd9a6f95	-0.07540814
153	0xbd523362	-0.051318534
154	0x3d872c55	0.066002525
155	0xbe661f63	-0.2247291
156	0xbb190516	-0.0023348979
157	0x407b5e73	3.9276397
158	0xbe1b0bd6	-0.15141234
159	0xbe08177d	-0.1329021
160	0xbe89789d	-0.26849833
161	0xbd662b1b	-0.056193452
162	0xbe1aec96	-0.15129313
163	0xc034b880	-2.823761
164	0xbfd24172	-1.6426222
165	0x3db4f24f	0.08835279
166	0xc030d530	-2.763012
167	0xbe4b7d69	-0.19872059
168	0xbd7ed2d4	-0.06221278
169	0xbd553039	-0.05204794
170	0xbd0dcc6d	-0.034618784
171	0xbd45a0a1	-0.04824889
172	0xbe4d9621	-0.20076801
173	0xbe95c446	-0.29251307
174	0xbda2130f	-0.079137914
175	0xbe641713	-0.22274427
176	0xbd56497a	-0.052316166
177	0xbc1e0016	-0.009643575
178	0x3d858034	0.065185934
179	0xbd80c47d	-0.06287477
180	0xb9609f93	-0.0002142175
181	0xbeae08c7	-0.33991072
182	0x3dcb45f0	0.09925449
183	0xbe89cf55	-0.26915994
184	0xbd74ac64	-0.059734717
185	0xbec108d9	-0.37702063
186	0x3fa9cd2e	1.3265741
187	0xc036e268	-2.8575687
188	0xbbcee6d9	-0.0063141403
189	0x3c4f6631	0.012658642
190	0xbdbe3d38	-0.0928902
191	0xbbf552cc	-0.007486677
192	0x3d18a1de	0.037263744
193	0x3da41e7e	0.080136284
194	0x3eb1eda7	0.34751627
195	0xbdfc89ac	-0.12330946
196	0x3f361a67	0.71134037
197	0xbd21708f	-0.039413985
198	0xc033e978	-2.8111248
199	0xbfe03deb	-1.7518896
200	0xbfc9dd01	-1.577057
201	0x3bb521f8	0.005527731
202	0x3c9651ad	0.018349493
203	0x3eb8331f	0.35976502
204	0xbd6d8f4b	-0.057997983
205	0xbea02487	-0.31277868
206	0x3f3fb4ff	0.74885553
207	0x3e07b764	0.13253552
208	0xbee15343	-0.44008836
209	0xbb4f9381	-0.0031673613
210	0x3dbbfbdf	0.091789
211	0xbba01cb7	-0.0048862356
212	0xc04e5a39	-3.2242568
213	0x3d8661fc	0.06561658
214	0xc04a2e41	-3.159073
215	0xbd9b21b6	-0.07574789
216	0xbf6d14a3	-0.92609614
217	0xbd9767ce	-0.07392846
218	0x3caa9aa6	0.020825695
219	0xbc6c61bb	-0.014427598
220	0xbe719fec	-0.23596162
221	0xbc32ad10	-0.010905519
222	0xbe927ade	-0.28609365
223	0xbd5cfd1a	-0.053952314
224	0xbeaff10f	-0.343636
225	0xbe1030ee	-0.14081165
226	0x3e95a375	0.2922627
227	0x3eb9f2c7	0.36318037
228	0xc01d91ee	-2.4620318
229	0xbdcee229	-0.101017304
230	0x3a37184f	0.0006984518
231	0xb9ad20bf	-0.0003302153
232	0xbe141ff6	-0.14465317
233	0xbdd0fd3a	-0.10204549
234	0xbcf05bb4	-0.029340602
235	0xbbc9b2d1	-0.00615535
236	0xbed43aea	-0.41451198
237	0x3e306577	0.17226206
238	0xbd95c126	-0.07312231
239	0xbfc8b359	-1.5679733
240	0x3d6a26a3	0.057165753
241	0x3d0e9084	0.03480579
242	0xbe63b3db	-0.22236578
243	0xbe0138e5	-0.1261936
244	0x3e4b6e90	0.19866395
245	0xbe87caed	-0.26522008
246	0xbd80ab7d	-0.06282709
247	0x3c095a25	0.008383309
248	0x3ba94157	0.00516526
249	0xbd2ef4b7	-0.042713847
250	0xbd01fcfd	-0.03173541
251	0xbcb8aaa8	-0.022542313
252	0x3ca249be	0.019810554
253	0x3cf91163	0.030403798
254	0xbb6859b3	-0.0035453856
255	0x3cf37e0c	0.02972319

fc1.bias f4 [256]
0	0x41fcbbab	31.591635
1	0x4204e265	33.22109
2	0x4204c9d1	33.197086
3	0x42054bfb	33.3242
4	0xbd19eeae	-0.03758114
5	0x42046f09	33.108433
6	0xc07616e3	-3.845147
7	0x4209c06c	34.437912
8	0x42095705	34.33498
9	0x4204fbdf	33.245968
10	0x4205521d	33.33019
11	0x42054bdd	33.324085
12	0xc1715f14	-15.085712
13	0xc19e7096	-19.804974
14	0x41df75e9	27.932573
15	0x4205602d	33.34392
16	0x4209fbdd	34.49596
17	0xbd1b240e	-0.03787618
18	0x4209c9dd	34.447132
19	0x4209d33d	34.456287
20	0x4209c39d	34.44103
21	0xbdbcbe68	-0.092160046
22	0x4204ea35	33.228718
23	0xbd2c2147	-0.042023923
24	0x4200445c	32.066757
25	0x420a3f0d	34.561573
26	0xbcad5837	-0.021160228
27	0xc0cb5d61	-6.355149
28	0x4205fdfc	33.49803
29	0xbc1cb346	-0.0095642265
30	0x4205529e	33.33068
31	0x420a008d	34.500538
32	0x420a0795	34.507404
33	0x42097645	34.365498
34	0xc1766c0c	-15.401379
35	0x4204ce00	33.20117
36	0x420bd3ef	34.956966
37	0xc15df7e2	-13.873018
38	0x420a03f7	34.503872
39	0x4204a705	33.163105
40	0xbd6be8a3	-0.057594907
41	0x42050bcd	33.261524
42	0x41b3142f	22.384855
43	0xbbcabf91	-0.0061873873
44	0xbd821c3d	-0.06353042
45	0xbdbdce48	-0.09267861
46	0x41e6ae5a	28.835133
47	0x42055795	33.33553
48	0x4206c9e5	33.697163
49	0x41c2e4a0	24.361633
50	0xc16ef6ab	-14.935222
51	0xbd8aad35	-0.06771318
52	0xbd936e9e	-0.07198833
53	0x4204d06d	33.20354
54	0x41fb19b3	31.387548
55	0x41df1cd9	27.889086
56	0xbd285adf	-0.041102286
57	0xbe977ce6	-0.29587477
58	0x4204d776	33.21041
59	0x4209c39d	34.44103
60	0x4204d2d1	33.205875
61	0x41ed7a32	29.684666
62	0x4204fa9d	33.24474
63	0xc0cb6f59	-6.3573422
64	0xbd5e71c2	-0.054307707
65	0x42055925	33.337055
66	0x420478ed	33.11809
67	0x42054d6d	33.32561
68	0x4204d2c5	33.20583
69	0xbd18e126	-0.037324093
70	0x4204fb0f	33.245174
71	0x42048781	33.132328
72	0x4205a03c	33.40648
73	0x420a8df5	34.63863
74	0x42020fce	32.515434
75	0xc1807c07	-16.06056
76	0x420ad5d5	34.70882
77	0xbd021c3d	-0.03176521
78	0xc0cf0de9	-6.470448
79	0xc0cd9239	-6.4240994
80	0x4204937d	33.14403
81	0xbd7f52f4	-0.06233497
82	0x4206332e	33.54998
83	0xbd478821	-0.048713807
84	0x4204fb65	33.245502
85	0x420552e5	33.33095
86	0xbc9204e6	-0.017824601
87	0xc0df376a	-6.9755144
88	0x4209f59d	34.489857
89	0x3f4fcd50	0.81172657
90	0x4204f3df	33.238155
91	0x42054ca5	33.32485
92	0x4209996d	34.39983
93	0x42048f95	33.140217
94	0xbe99477d	-0.29937354
95	0xbc3be858	-0.011468969
96	0x4205265d	33.287464
97	0x4204edf3	33.232372
98	0xbc217477	-0.009854428
99	0xbda88b4f	-0.08229696
100	0x4204c588	33.1929
101	0xbd388aa0	-0.045054078
102	0x4204e64d	33.224903
103	0x4205bded	33.435474
104	0x42055605	33.334003
105	0xbbd5b1ea	-0.006521453
106	0x41ecb7aa	29.58968
107	0x4209caa5	34.447895
108	0x420ab8ed	34.68059
109	0x4204df8b	33.218304
110	0x420a341d	34.55089
111	0x4205201d	33.28136
112	0x420a0605	34.50588
113	0xbd54813a	-0.051881053
114	0x42044c65	33.074604
115	0xbd2af47f	-0.041737076
116	0x4204824d	33.127247
117	0x42054efd	33.327137
118	0x41a7ca56	20.973797
119	0x42054665	33.318745
120	0x41fce513	31.611853
121	0x4209a90d	34.41509
122	0xbc397118	-0.011318468
123	0x41fd1afb	31.638174
124	0x41e10c2a	28.13094
125	0x42054efd	33.327137
126	0x4204e8f2	33.227486
127	0x420492b5	33.14327
128	0x4209c9dd	34.447132
129	0xbd3b57d0	-0.04573804
130	0x41fcbf93	31.593542
131	0x4205521d	33.33019
132	0xc1c3991a	-24.449757
133	0xbdab8c0f	-0.083763234
134	0xc0841fdd	-4.1288896
135	0xbd53abf2	-0.05167765
136	0x420bbf98	34.937103
137	0x3f33f20f	0.7029123
138	0x41fc1543	31.510382
139	0xc16a91ab	-14.660563
140	0xbd6ca03b	-0.057769995
141	0x4209cf55	34.452473
142	0xbd3b6e78	-0.045759648
143	0xbd9d2ace	-0.0767418
144	0x4204ca2d	33.197437
145	0x41f8231b	31.017141
146	0xbd9241d6	-0.071414635
147	0x4204ffa7	33.24966
148	0x4204f205	33.236347
149	0x4204e00d	33.2188
150	0x42051549	33.270786
151	0x420495d5	33.14632
152	0x4209d97d	34.46239
153	0x4204d2c5	33.20583
154	0x42047a7d	33.119617
155	0xbd4cf919	-0.050042246
156	0x4209b335	34.425007
157	0x41e2990a	28.324726
158	0xbd4b01f9	-0.04956243
159	0x42054efd	33.327137
160	0x4204e32d	33.22185
161	0x4204e265	33.22109
162	0xbd1cc796	-0.038276277
163	0x42049f35	33.155476
164	0x4209f72d	34.491383
165	0x420a08bb	34.508526
166	0x00000000	0.0
167	0x42055ab5	33.33858
168	0x41b40407	22.501966
169	0x42049e6d	33.154713
170	0x3f809f92	1.0048697
171	0xbd49b9d9	-0.049249504
172	0x42048185	33.126484
173	0x4209da45	34.463154
174	0x420552e5	33.33095
175	0x4205440d	33.316456
176	0xbd5aa38a	-0.05337862
177	0x4204fd24	33.247208
178	0x4208cfdd	34.20299
179	0xc170f664	-15.060154
180	0x4205792d	33.368336
181	0x4209595d	34.33727
182	0x4204e587	33.224148
183	0x41df99d9	27.95012
184	0x420acbad	34.698902
185	0xbd67283b	-0.05643485
186	0xbcdd4fea	-0.027015645
187	0x41fcce6b	31.60079
188	0xbd942f96	-0.07235639
189	0x42096520	34.348755
190	0x41f0068b	30.003195
191	0xbd26d11f	-0.040726777
192	0x3fa2117e	1.2661588
193	0x420c77cd	35.116993
194	0xbd53ddf2	-0.051725335
195	0x4204df51	33.218082
196	0x4205486f	33.320736
197	0xbcb58dc8	-0.022162333
198	0x4204f45d	33.238636
199	0x4205314d	33.298145
200	0x41e0d25a	28.10271
201	0x41cdd180	25.727295
202	0x42052595	33.2867
203	0x4204ead9	33.229343
204	0x4209ccfd	34.450184
205	0xbc3e7bb8	-0.011626177
206	0xbcbeacf0	-0.023275822
207	0x42099e1f	34.404415
208	0x4204c325	33.19057
209	0x4204e0d5	33.219563
210	0x4205553d	33.33324
211	0x42050adb	33.2606
212	0x420484a5	33.129536
213	0xbdd5529a	-0.104161456
214	0xc0cdeda1	-6.4352574
215	0x42048ecd	33.139454
216	0x4204d775	33.210407
217	0x4205387b	33.305157
218	0x4204f768	33.241608
219	0x41fa05eb	31.25289
220	0x4204fc2c	33.24626
221	0xbcc6e989	-0.02428128
222	0xbdc18769	-0.094496556
223	0xc1c7b701	-24.964357
224	0x41f50bb3	30.630713
225	0x4209ccfd	34.450184
226	0x4208e9a5	34.22817
227	0x4204cfa5	33.202778
228	0xbd983b86	-0.07433228
229	0xbda90467	-0.08252793
230	0x4209c642	34.44361
231	0x41fca823	31.582098
232	0xbd021c3d	-0.03176521
233	0x420a10fa	34.51658
234	0xbc023d0d	-0.007949126
235	0xbd638d93	-0.055554938
236	0x4204b12d	33.173023
237	0x42061a1d	33.5255
238	0xbd021c3d	-0.03176521
239	0x4208e29d	34.221302
240	0x4204caf6	33.198204
241	0x42054b28	33.323395
242	0x42054a4d	33.32256
243	0xbd1bd246	-0.03804233
244	0x42047375	33.11275
245	0xbbc4c9c9	-0.0060055
246	0x420ac0ef	34.68841
247	0x4204f081	33.234867
248	0x4209bb05	34.432636
249	0xbd195016	-0.03742989
250	0xbc7c9ec4	-0.015418712
251	0x4209149d	34.27013
252	0xbd35f808	-0.044425994
253	0x420500dd	33.250843
254	0xbd3c1b20	-0.045924306
255	0x42056b1d	33.354603

last_fc.weight f4 [1, 256]
0	0xbf60361a	-0.8758255
1	0xbed3f78e	-0.41399807
2	0xbecae940	-0.3963108
3	0xbedf7309	-0.43642452
4	0x3cc5b429	0.024133759
5	0x3e93d779	0.2887533
6	0xbf319df7	-0.6938166
7	0xbe410ab9	-0.18851747
8	0xbf86a8b4	-1.0520234
9	0xbedd86b3	-0.4326683
10	0xbef895b0	-0.48551702
11	0xbefd9481	-0.49527362
12	0xbcea758b	-0.028620502
13	0x3c971c05	0.018445978
14	0xbf55c251	-0.8349963
15	0xbf0430c2	-0.516369
16	0xbe39fb84	-0.18162352
17	0xbc4d1089	-0.012516149
18	0xbe67f8ad	-0.22653456
19	0xbdec0e79	-0.11526198
20	0xbdc3e8e8	-0.09565908
21	0x3c4aeb51	0.012385205
22	0xbed802fb	-0.42189774
23	0x3c830765	0.015994737
24	0x3fcd9290	1.6060352
25	0xbe5e72da	-0.217235
26	0x3bc741d1	0.006080844
27	0x3d03db1c	0.03219138
28	0x3e157414	0.14595062
29	0xbc00bf05	-0.007858043
30	0xbf082199	-0.53176266
31	0xbe59184d	-0.21200676
32	0xbe4e5110	-0.2014811
33	0xbf940f17	-1.1567105
34	0x3e46f6d0	0.19430089
35	0xbea8d726	-0.32976645
36	0xbf24a7fd	-0.6431883
37	0x3dc17d40	0.09447718
38	0xbe390b81	-0.18070795
39	0xbe909c1d	-0.28244105
40	0x3999c545	0.0002932941
41	0xbeb57283	-0.35438928
42	0xbfa9598e	-1.3230455
43	0xbb6b3d8b	-0.0035894837
44	0xbad5b122	-0.00163034
45	0x3bfc994c	0.007708704
46	0xbf216666	-0.6304687
47	0xbef95cf5	-0.48703733
48	0xbf154825	-0.5831321
49	0xc0e7e6da	-7.24693
50	0x3d8599fc	0.06523511
51	0x3cd66342	0.026170377
52	0xbcd3b872	-0.025844786
53	0xbf2d494b	-0.6768996
54	0xbf25795e	-0.64638317
55	0xbf34ce5f	-0.706274
56	0x3cdfd3aa	0.027322609
57	0x3e818f9c	0.25304878
58	0xbeca3e4d	-0.39500657
59	0xbe539350	-0.20661664
60	0xbecb0c21	-0.3965769
61	0xbf86ce94	-1.0531793
62	0xbec468a0	-0.38361073
63	0x3d25d7e6	0.0404891
64	0xbc52cd4a	-0.012866328
65	0xbefddf2f	-0.49584338
66	0xbe45462b	-0.19265048
67	0xbf05c255	-0.5224965
68	0xbeab7902	-0.3349076
69	0x3cd91db2	0.026503418
70	0xbed960bb	-0.42456612
71	0xbe5bc058	-0.21460092
72	0x3e4081b0	0.18799472
73	0xbf1b92a3	-0.60770625
74	0xbfa20f4b	-1.2660917
75	0x3e1495ed	0.14510317
76	0xbf298424	-0.66217256
77	0xbcfd2e84	-0.03090597
78	0x3b97087d	0.004609166
79	0xbb48f818	-0.0030665454
80	0xbe86f4a8	-0.26358533
81	0x3cd87bfa	0.026426304
82	0xbf2ec009	-0.6826177
83	0x3c1aca36	0.009447625
84	0xbee71d40	-0.45139503
85	0xbefd9c64	-0.4953338
86	0x3c867a35	0.016415695
87	0x3cfc6bfc	0.03081321
88	0xbe5af071	-0.21380784
89	0xbee8fdc2	-0.45506102
90	0xbed1ec4b	-0.4100059
91	0xbf021973	-0.5082008
92	0xbfc7e408	-1.5616465
93	0xbe79eeff	-0.24407576
94	0xbb456d11	-0.0030124823
95	0x3cab1617	0.020884557
96	0xbefdfb02	-0.49605566
97	0xbecd4a1e	-0.4009561
98	0x3c18586e	0.009298427
99	0xbc5a123a	-0.01331001
100	0xbd55eb6c	-0.05222647
101	0xbcb47168	-0.022026733
102	0xbec0ae51	-0.37632993
103	0xbf088b5e	-0.5333766
104	0xbef563da	-0.47927743
105	0xbb76ec2c	-0.003767739
106	0xbef4b2a3	-0.4779254
107	0xbe5d7100	-0.21625137
108	0xbf0f4239	-0.5596042
109	0xbec8303a	-0.39099294
110	0xbfa72d96	-1.3060787
111	0xbee61b45	-0.4494268
112	0xbe4f31c7	-0.20233832
113	0x3d01f785	0.031730194
114	0xbe96b976	-0.2943837
115	0xbc96eb96	-0.018422883
116	0xbe97618f	-0.2956662
117	0xbf0265aa	-0.5093638
118	0xc00d91d4	-2.2120256
119	0xbf023d07	-0.5087437
120	0xbf3edc97	-0.74555343
121	0xbf97ed03	-1.1869205
122	0x39bff6a0	0.0003661411
123	0xbf1d7695	-0.61509067
124	0xbf8628f4	-1.0481248
125	0xbf01fb84	-0.5077441
126	0xbee43b5b	-0.44576535
127	0xbe6e85a5	-0.23293169
128	0xbf9acdbf	-1.2094039
129	0xbc98a81e	-0.018634852
130	0xbf37bdef	-0.7177419
131	0xbf059208	-0.5217595
132	0x3ed004c9	0.4062865
133	0x3b52b382	0.0032150452
134	0xbf8cfef4	-1.1015306
135	0x3c8cf0e5	0.017204711
136	0xbf5a0583	-0.8516466
137	0xbe408fc0	-0.18804836
138	0xbf3b2057	-0.7309622
139	0x3e5e4d09	0.21709074
140	0x3ce3674b	0.027759215
141	0xbe430119	-0.19043387
142	0x3cb692b8	0.022286758
143	0xbcb6afa0	-0.022300541
144	0xbec348cc	-0.38141477
145	0xbf8a5424	-1.0806928
146	0x3d00849f	0.031376477
147	0xbeda5588	-0.4264338
148	0xbee20f14	-0.4415213
149	0xbecddfd2	-0.40209824
150	0xbee5b513	-0.4486471
151	0xbe958e48	-0.29210114
152	0xbe3edea0	-0.18639612
153	0xbecd72e3	-0.40126714
154	0xbe60fa2b	-0.21970432
155	0xbce01163	-0.02735204
156	0xbdde69fa	-0.10860057
157	0xc0f9a1eb	-7.8010154
158	0xbcb3e1a8	-0.021958187
159	0xbf07b940	-0.53017044
160	0xbed80e7e	-0.42198557
161	0xbec33ae4	-0.38130867
162	0x3cd571da	0.026055265
163	0xbe8db3ce	-0.27676243
164	0xbe400c0d	-0.18754597
165	0xbdf16188	-0.11786181
166	0xbb431129	-0.0029764867
167	0xbf034eff	-0.51292413
168	0xbf0d6614	-0.55233884
169	0xbe99955d	-0.29996768
170	0xbff2db8b	-1.8973249
171	0xbc8fe13d	-0.017563457
172	0xbe98b3d0	-0.29824686
173	0xbe50ff7b	-0.20409958
174	0xbefed467	-0.49771425
175	0xbf017433	-0.5056793
176	0xbd00aab5	-0.0314128
177	0xbedf4bd3	-0.43612537
178	0xbf9f4e79	-1.2445823
179	0x3e182f05	0.14861687
180	0xbf169944	-0.58827615
181	0xbf8ef95e	-1.1169851
182	0xbec914d8	-0.39273715
183	0xbf5960e1	-0.8491345
184	0xbf284b8c	-0.65740275
185	0xbc87b5d5	-0.016566196
186	0x3c4a0ca9	0.01233212
187	0xbf62224a	-0.8833357
188	0xbbb7a360	-0.0056041926
189	0xbdd275e0	-0.10276389
190	0xbe3f0f5f	-0.18658207
191	0x3cf43414	0.029809989
192	0xc056ff81	-3.3593447
193	0xc007ada7	-2.119974
194	0x3c6953b3	0.014241147
195	0xbed3c47d	-0.41360846
196	0xbef67271	-0.48134187
197	0xbc18923e	-0.009312211
198	0xbedb6b3b	-0.42855248
199	0xbf0c4efe	-0.5480803
200	0xbf5e1721	-0.8675404
201	0xbeaca2f6	-0.3371808
202	0xbeeb3da6	-0.45945472
203	0xbedab294	-0.4271437
204	0xbe42ed73	-0.19035892
205	0x3be3f3eb	0.0069565675
206	0xba790bec	-0.00095003727
207	0xbe17fa5d	-0.148416
208	0xbebde9e5	-0.3709251
209	0xbedb0519	-0.42777327
210	0xbed2b20e	-0.4115147
211	0xbedf9cb5	-0.43674245
212	0xbe878009	-0.2646487
213	0x3b843cc5	0.0040355646
214	0xbbec026a	-0.007202436
215	0xbe850d04	-0.25986493
216	0xbed217c8	-0.4103377
217	0xbdddc306	-0.108282134
218	0xbed9876d	-0.42486134
219	0xbf7e0b9b	-0.9923646
220	0xbf09e0a3	-0.53858393
221	0x3cef6983	0.029225117
222	0xbcc44819	-0.02396016
223	0xbe93333d	-0.2875003
224	0xbdd162c9	-0.1022392
225	0xbe0caa88	-0.13736928
226	0xbf6ef423	-0.93341273
227	0xbed618ba	-0.4181574
228	0x3b239fef	0.0024967154
229	0xbcde052a	-0.027102072
230	0xbfca5634	-1.5807557
231	0xbd1183fd	-0.035526264
232	0xbcf001dc	-0.029297762
233	0xbe6708d5	-0.22561963
234	0xbb970d2e	-0.0046097254
235	0x3bca7879	0.0061789122
236	0xbe8d4f76	-0.27599686
237	0xbe8ab4ef	-0.27091166
238	0xbcfef14c	-0.031120919
239	0xbf2ae58f	-0.6675653
240	0xbecb359b	-0.39689335
241	0xbf037ca7	-0.5136208
242	0xbf0357dd	-0.51305944
243	0x3a59b091	0.00083042035
244	0xbe88fbd0	-0.26754618
245	0xbbae836f	-0.0053257267
246	0xbf19667a	-0.5992199
247	0xbed9b449	-0.4252036
248	0xbde5f96b	-0.11229213
249	0x3ccca261	0.024979772
250	0x3c74ebac	0.014948767
251	0xbf80a034	-1.004889
252	0xbca5b0d7	-0.020225925
253	0xbee0ea4d	-0.43928757
254	0x3ce0a82b	0.027423939
255	0xbf082777	-0.5318522
