save_mode/SAC_v_500_target_qf2_network.pth (torch, 329559 bytes, 5 tensors)

fc0.weight f4 [256, 61]
000000 7d c3 95 bc a1 62 47 3d 86 14 12 bd 7f ce 28 bd
       -0.018281693 0.048678044 -0.035664104 -0.041212555
000010 7a 7e 62 bc c4 dd fe 3e 82 9e e2 3c 76 62 a4 bd
       -0.0138241 0.4977857 0.027663473 -0.080265924
000020 33 af 60 3d c0 7b bb 3c 2c dc 01 3c c4 91 7a 3d
       0.054854583 0.022886157 0.007926028 0.06117417
000030 61 08 d5 ba 89 68 4f 3e 09 7f 45 be a5 69 95 bc
       -0.0016253107 0.20254721 -0.19286741 -0.018238852
000040 e7 cb 27 3d bc d4 76 bd f5 9f 07 bd 37 5d 28 3d
       0.04096594 -0.060261473 -0.03311153 0.04110452
000050 6e aa 1b 3d 8c 32 f1 3b f2 b2 d6 3e e5 40 08 3f
       0.03800433 0.007360762 0.419334 0.5322402
000060 00 1c 33 bd f9 09 52 3b d6 48 15 bd 98 00 39 bd
       -0.043727875 0.0032049401 -0.036446415 -0.045166582
000070 7c 8b 7d bd 99 4d 41 3d 12 67 5f 3e 15 dd 8e 3b
       -0.0619006 0.047193144 0.21816662 0.004359851
000080 ae 7e 1b 3d fe 0f 1c bd b8 22 38 bd 9f 09 28 bd
       0.037962608 -0.03810119 -0.044954985 -0.0410248
000090 59 98 40 bc 47 19 be be 94 c1 04 bf c9 75 52 bf
       -0.0117550725 -0.3712866 -0.51857877 -0.82210976
0000a0 8e e9 2a 3d 98 f3 b6 3c da 09 5e bc 4a e6 d2 bc
       0.04172664 0.022332951 -0.0135521535 -0.025744576
0000b0 7c 32 f7 bb e9 b3 dd bd 6e 85 1d 3e 19 6d db bd
       -0.00754386 -0.10825331 0.1538293 -0.10714168
0000c0 92 59 db be 04 3c 81 40 46 1a a9 40 81 7b d3 c0
       -0.42841774 4.038576 5.284457 -6.608826
0000d0 67 03 25 3f 5e 83 1b bf 65 b0 1d 3f 37 3d 25 3e
       0.64458317 -0.60747325 0.6159728 0.16136633
0000e0 5f fb a0 be 2d c3 81 be f3 41 6d 3f 4e f9 1e 3c
       -0.3144178 -0.2534422 0.92678756 0.009702994
0000f0 00 ad 38 bf b8 e5 3d bc 4a bd 5d bd 0d a7 01 3d
       -0.7213898 -0.011590414 -0.0541356 0.031653453
000100 37 df bc bc fc 3c 08 bd 0b 83 9c be 78 c3 b4 3d
       -0.023055656 -0.033261284 -0.30568728 0.08826345
000110 64 c0 58 bd 54 95 02 3d 9c fa 04 bd 5b d2 e0 bb
       -0.052917853 0.03188069 -0.032465562 -0.006861014
000120 b6 00 94 3c f3 df 74 3b 62 e0 2d 3e a1 4f 4f 3e
       0.018066745 0.003736493 0.16980127 0.2024522
000130 72 ab 92 3e 27 ee 33 39 59 ed cf 3b 62 3f d0 3b
       0.28646427 0.00017159489 0.0063454327 0.006355212
000140 ae dc 1c bd 5b 6f 64 bc b5 89 71 3e 2a ac f7 3e
       -0.038296394 -0.013942565 0.23587687 0.48373538
000150 1a 7d 19 3f 17 a9 38 3b b6 ac a1 3c e3 81 e0 3c
       0.59956515 0.0028176957 0.019735675 0.027405685
000160 e6 d3 ae 3b 56 b3 16 3d f4 3c 3b 3e e1 c8 d6 3e
       0.005335319 0.03679212 0.1828497 0.41950133
000170 9d 96 9b 3e 6b ee 66 3d 50 90 bc 3b 81 e7 41 3d
       0.30388346 0.056379717 0.005754508 0.04733992
000180 d4 31 04 3d c7 65 2b bd 34 21 9f be 78 de b5 be
       0.032274082 -0.04184511 -0.3108002 -0.35521293
000190 6f cd 29 bf b1 95 45 3a 3e 0e 15 3c f7 b3 25 bd
       -0.6632909 0.00075372594 0.009097634 -0.04045483
0001a0 60 dc 3a bd c7 f5 2c bc bf ff 68 3d c9 a7 68 3e
       -0.045620322 -0.010556645 0.056884523 0.22720255
0001b0 62 b6 e5 3d 16 29 94 3f b1 e4 83 40 07 64 bd 40
       0.112164274 1.1575038 4.1216664 5.9184604
0001c0 7f 3b e8 c0 e0 41 ea 3d 90 fb d8 3d 36 8d 4d bd
       -7.2572627 0.11438346 0.10594857 -0.050183497
0001d0 db b0 c6 3e dd 17 2f bc 9f 45 34 bd fd 2e 64 3e
       0.38806805 -0.010686842 -0.04401171 0.2228355
0001e0 bf 53 6f bc 97 66 cf be 91 31 d1 bc 4f 9e a9 3c
       -0.014607369 -0.40507957 -0.02553633 0.02070537
0001f0 d9 09 5e bb 41 45 db 3b 08 68 34 bd f7 0b 28 bd
       -0.0033880381 0.0066916053 -0.044044524 -0.041027036
000200 73 29 ef bc ee a1 12 3d 29 43 5c 3d cb 6c 60 bd
       -0.02919457 0.03579896 0.053774986 -0.054791253
000210 5e 67 28 3d 07 92 ad bc 17 cd b2 3c 2e ae 11 bd
       0.041114204 -0.021187795 0.02182631 -0.0355665
000220 4b 9d f3 bc ad 5a 08 3b a8 2c b4 bb ce a3 26 3c
       -0.02973809 0.0020806 -0.0054984875 0.01017089
000230 2e 5e 96 3c e9 a3 cf bc ed 57 16 bd 21 1c c0 bc
       0.018355455 -0.025346713 -0.036704946 -0.023450913
000240 b8 32 c6 3c fe cf 15 3d f0 8f 47 3c 1e 1b 23 3d
       0.024194106 0.03657531 0.0121803135 0.039820783
000250 db ad e4 bc 1a 68 00 bb e7 ac 28 bd 54 37 01 bd
       -0.027914932 -0.00195933 -0.041180518 -0.031546906
000260 23 31 62 3d c5 d4 8c bc 9f d1 28 3d 7c 38 76 bb
       0.05522264 -0.0171913 0.041215535 -0.0037570288
000270 e0 2c 38 3b e8 92 bd bc 08 fe b4 bc d0 82 b8 3b
       0.002810292 -0.02314134 -0.022093788 0.0056308284
000280 0c 41 60 bc 4f aa 27 bd b4 d3 0e 3d 3f 88 22 3d
       -0.013687383 -0.040933903 0.034869865 0.039680716
000290 26 a6 a6 3c b8 88 40 3d 9b 2a 7d 3c d3 1e ea bc
       0.020342898 0.047005385 0.0154520525 -0.028579151
0002a0 48 fd 31 3b cd 0b 85 bd fb c8 60 3d 11 0f 44 3d
       0.0027159024 -0.064963914 0.05487917 0.04786593
0002b0 fd 80 05 3d 1f d7 25 bc 3f b4 a3 bc bd 4f 88 3d
       0.032593716 -0.01012209 -0.019983409 0.06655834
0002c0 df c3 3c 3d 9d bc 86 b9 ae a8 14 bc e1 8c 41 bc
       0.046085235 -0.00025699 -0.0090734195 -0.011813373
0002d0 59 4b 51 3d 0f 78 26 3c 07 21 ab 3c 28 c4 ba 3c
       0.051097248 0.01016046 0.020889772 0.022798613
0002e0 9b ad e3 3c 96 9c 1f 3d 02 9f e4 3c a3 ee ea 3c
       0.027792742 0.03896769 0.027907852 0.028678244
0002f0 52 a5 5e 3d ef 04 28 3d 79 38 44 bd 6b 45 65 3d
       0.05435688 0.04102033 -0.04790542 0.055974405
000300 be d6 17 bd f2 b9 59 3d e4 44 7f 3d be f0 1b 3d
       -0.03707003 0.053155847 0.06232156 0.038071387
000310 ad e6 92 bc 39 38 c3 ba 7e c9 14 bc 24 eb 75 3d
       -0.01793226 -0.0014894075 -0.009081243 0.0600387
000320 56 86 91 3a c6 91 13 bd ac 3c 74 bd 9d 91 09 3d
       0.0011102657 -0.036027692 -0.059628174 0.033586133
000330 18 e6 32 bc 5b 06 69 3d cf d4 a2 3c 11 96 53 3b
       -0.010919116 0.056890827 0.019876866 0.0032285491
000340 47 08 2c 3b 87 c1 23 bd 6a 3a 52 bd 30 3f 30 bd
       0.002625005 -0.039979484 -0.05132524 -0.04302901
000350 bc 58 7a bc 24 87 75 3d a1 e5 46 bd 74 30 0b 3d
       -0.015279945 0.059943333 -0.048558835 0.033981755
000360 bc 72 fe bc 93 9c ed bb 9a 85 d9 bb f9 13 c8 bb
       -0.031060569 -0.007251331 -0.006638241 -0.0061058966
000370 9f a8 33 bc 09 0f c7 3c d1 6e 4c bd f6 90 16 3d
       -0.010965495 0.024299162 -0.04991037 0.03675934
000380 9e 85 24 3d 52 1e e8 bc b6 57 12 3d a5 69 95 bc
       0.04016649 -0.02833477 0.03572818 -0.018238852
000390 70 cf b2 3b 41 5a 4b bd 4a 90 58 bc 73 7d e1 bb
       0.0054568574 -0.04964662 -0.013217995 -0.00688141
0003a0 08 62 b5 bc 71 75 41 bd f2 b2 d6 3c ec f2 f8 bc
       -0.022141472 -0.04723114 0.026208375 -0.030389272
0003b0 ae 6f 91 3c 6a bd 51 3d bd bf 06 3d e8 f9 30 3d
       0.017753448 0.05120603 0.0328977 0.04320708
0003c0 35 d1 04 bd e1 65 d4 bc c9 81 50 ba fd d8 07 bd
       -0.032426078 -0.025927486 -0.000795391 -0.03316592
0003d0 53 19 6d bd 1c b1 f1 bc 26 c0 2a 3c ae 1f 16 3d
       -0.05788548 -0.029503398 0.010421788 0.036651306
0003e0 c8 2a 39 3d 76 8f 10 be 35 bc 14 3e e1 c4 59 3d
       0.045206815 -0.14117226 0.1452492 0.053166274
0003f0 03 93 66 3d 0b e5 66 bd 6a 5b 59 3d fd 0a 88 bc
       0.056292545 -0.056370776 0.053065695 -0.016606802

fc0.bias f4 [256]
000000 e7 ba ae 41 b2 61 d5 41 0b 93 e3 bb 00 00 00 00
       21.84126 26.672703 -0.006945019 0.0
000010 78 60 ce 41 c6 b7 15 bd 85 9b 08 c1 00 00 00 00
       25.797104 -0.036552213 -8.537969 0.0
000020 64 a1 d6 41 c4 51 d5 41 3a 09 d5 41 11 62 b8 c1
       26.828804 26.664925 26.629505 -23.047884
000030 5a 4e d4 41 55 e6 81 bd 8f 89 d6 41 76 0b d7 41
       26.538258 -0.063427605 26.817167 26.880596
000040 06 4e 17 bd fa ac 54 bd 47 42 b3 41 10 dd c3 41
       -0.036939643 -0.051922776 22.407362 24.48294
000050 61 af d6 41 55 20 45 c1 56 1f d6 41 54 0b d6 41
       26.835634 -12.320394 26.7653 26.755531
000060 41 2a d6 41 98 5e 3a bd 0c d6 d4 41 1d d5 d6 41
       26.770632 -0.045500368 26.604515 26.85406
000070 b6 cd d6 41 1f 1e 2f bd e2 91 d3 41 e1 ac 4a c1
       26.850445 -0.042753335 26.446232 -12.667207
000080 11 6c 41 3f d8 49 b2 bc de 61 d8 41 14 b0 f0 c0
       0.7555552 -0.021763727 27.047787 -7.521494
000090 0e 64 d4 41 1a ad d5 41 c4 6d d4 41 ec 63 d7 41
       26.548855 26.709522 26.553596 26.92379
0000a0 dc a4 5d c1 80 fe b7 c1 86 45 d7 41 e5 5a 0c c1
       -13.852749 -22.999268 26.908947 -8.772191
0000b0 18 7b c8 41 0b f9 6b bd c4 eb d5 41 25 6b 02 c1
       25.060104 -0.057610553 26.74012 -8.151158
0000c0 00 00 00 00 07 f8 b5 41 27 63 ad 41 d6 b4 1c c1
       0.0 22.746107 21.673414 -9.794149
0000d0 0f 3a d6 41 a8 39 36 bd 75 31 0f bd 00 00 00 00
       26.778349 -0.04448858 -0.034959275 0.0
0000e0 c5 82 09 bd 67 1a b6 41 09 0d d5 41 21 71 cf bc
       -0.033571977 22.762892 26.631365 -0.025322499
0000f0 e6 a0 d3 41 7a f6 d4 41 e6 9d d6 41 a2 22 d5 41
       26.453564 26.62035 26.827099 26.64191
000100 36 b2 9e bc 8d ff d4 41 f7 df a6 41 1c 40 d6 41
       -0.019372087 26.62478 20.859358 26.781303
000110 20 ec d4 41 45 ac 80 bd 9f d4 b4 41 ae 79 66 c1
       26.615295 -0.06282858 22.603819 -14.404707
000120 3f 55 4b c1 91 3b 47 bd df c4 d6 41 35 91 d5 41
       -12.708312 -0.04864079 26.846128 26.695902
000130 00 00 00 00 12 f0 dd c0 1c 45 d6 41 53 0a 63 bc
       0.0 -6.9355555 26.783745 -0.013857442
000140 18 c8 b7 41 99 94 4a bd 44 8a 0e 41 79 6e d6 41
       22.972702 -0.04945812 8.908756 26.803942
000150 4c 2c ab c1 e4 34 f1 bc c4 96 d7 41 1f 89 d6 41
       -21.39663 -0.029444166 26.948616 26.816954
000160 4e b4 57 c1 fd cc d6 41 70 f4 b0 41 8a 88 d5 41
       -13.48152 26.850092 22.119354 26.69167
000170 bc 2f d6 41 b7 95 29 bd 14 cc d5 41 9e 57 d6 41
       26.773308 -0.041402545 26.724648 26.792782
000180 30 ae c3 41 43 3d d6 41 4d 11 82 bd ef 9c 51 c1
       24.460052 26.779913 -0.06350956 -13.100814
000190 34 17 c4 41 03 3a d4 41 25 48 0c bd 2c 18 78 bd
       24.51133 26.528326 -0.03424849 -0.060569927
0001a0 81 61 4f bc 7c d3 71 bd b7 88 27 c1 f8 57 c5 41
       -0.012657524 -0.059039578 -10.470878 24.667953
0001b0 46 16 d8 41 1e 82 96 41 1a a9 6d c1 b1 60 d2 41
       27.010876 18.813534 -14.853785 26.297213
0001c0 58 89 d6 41 da 57 d7 41 c7 b6 d6 41 0d 59 8e bd
       26.817062 26.917896 26.839247 -0.06950579
0001d0 fe 2f 1f bd ad d6 d6 41 b1 47 d2 41 f4 cc d2 41
       -0.03886413 26.854822 26.285006 26.350075
0001e0 00 00 00 00 9c e2 88 41 88 76 d3 41 c8 06 d5 41
       0.0 17.11065 26.432877 26.628311
0001f0 98 33 d6 41 0e ed b8 41 6d b0 81 c1 1b c8 ca 41
       26.775192 23.11575 -16.211145 25.347708
000200 00 00 00 00 a4 df f9 bc 26 d7 22 41 00 00 00 00
       0.0 -0.030502148 10.177526 0.0
000210 d6 6c d3 41 f3 71 e5 c0 cf fa bd 41 1f ec d4 41
       26.428143 -7.17016 23.747465 26.615294
000220 48 0c d7 41 6a 8e d6 41 0f 87 d5 41 1c 45 83 41
       26.880997 26.819538 26.690947 16.408745
000230 cf b5 bc 41 c6 42 d6 41 0c 8f 85 41 74 24 f4 c0
       23.588774 26.782604 16.694847 -7.62945
000240 44 20 d6 41 c6 5e d6 41 ac 29 76 c1 98 7a d5 41
       26.765755 26.796276 -15.385174 26.68486
000250 2e 41 1f 41 af e3 b8 41 df 43 b0 41 61 4b 71 c1
       9.953413 23.111174 22.03314 -15.080903
000260 e8 26 b6 bb 30 db c8 41 0b 5e d6 41 b8 da d7 41
       -0.005558837 25.107025 26.79592 26.981796
000270 00 00 00 00 46 c7 d4 41 e1 25 ce bc 00 00 00 00
       0.0 26.597301 -0.025164546 0.0
000280 d2 40 b8 c1 f6 af d6 41 7b 1c 6a bd f4 60 85 41
       -23.03165 26.835918 -0.057156067 16.67234
000290 26 4e d9 41 5e 0e d7 41 c6 17 d6 41 89 85 46 bd
       27.163158 26.882015 26.761608 -0.048467193
0002a0 84 15 b2 c1 a4 c6 d6 41 7d 79 6b c1 45 78 d6 41
       -22.260506 26.846992 -14.71716 26.808725
0002b0 6b d3 d4 41 bf 77 d3 41 f1 3b d7 41 e1 ea af c1
       26.603231 26.43347 26.904268 -21.989687
0002c0 7c 11 70 bd bf 1e 25 c1 44 df d4 41 c9 b2 4c c1
       -0.058610424 -10.320006 26.609016 -12.793649
0002d0 e2 b2 dc c0 f0 0b d5 41 00 00 00 00 bc 3f d6 41
       -6.8968363 26.630829 0.0 26.78112
0002e0 9d 7d 04 bd 2a ff 5e bc 66 b9 a8 41 64 9b fb bc
       -0.032346357 -0.013610641 21.090527 -0.030713744
0002f0 dc ec d6 41 01 59 c6 c0 00 00 00 00 fc 4b d6 41
       26.865654 -6.1983647 0.0 26.787102
000300 e7 34 bc 41 94 1f d3 41 8f 34 2b bd ab 7d 65 bd
       23.525831 26.390419 -0.04179817 -0.05602805
000310 b8 07 30 bd ff be b5 41 f8 61 3b bd 8f 95 d6 41
       -0.04297611 22.71826 -0.045747727 26.823027
000320 d4 2f d7 41 ca 96 d5 41 83 53 d5 41 bf d2 b9 41
       26.898354 26.698627 26.665777 23.227903
000330 00 00 00 00 b1 12 b8 c1 f8 5d d6 41 7f 7b a1 41
       0.0 -23.009127 26.795883 20.1853
000340 00 00 00 00 15 fb 89 bc 0e ca d4 41 5e f7 10 bd
       0.0 -0.016843358 26.59866 -0.035392158
000350 b4 ea d4 41 fb 48 d7 41 90 4f d8 41 44 62 d6 41
       26.614601 26.910635 27.038849 26.797981
000360 e7 f6 24 bd 7a 74 d6 41 e6 d3 15 bd 5b 6e 79 41
       -0.040274527 26.806873 -0.036579035 15.589442
000370 f6 6b 18 bd 00 00 00 00 78 23 3b bd c7 44 24 c1
       -0.037212335 0.0 -0.045688123 -10.266791
000380 7b 4f d2 41 8e 73 d6 41 36 a6 d6 41 b6 83 d6 41
       26.288809 26.806423 26.831158 26.814312
000390 06 a3 d6 41 57 c7 cf c1 58 94 d6 41 4c 14 8e 41
       26.829601 -25.972334 26.822433 17.75991
0003a0 b8 87 d6 41 66 d8 a7 41 df c4 27 c1 ee 79 d5 41
       26.816269 20.980663 -10.485564 26.684536
0003b0 34 f2 8b 41 ed cf d7 41 00 00 00 00 51 f5 d5 41
       17.493263 26.976526 0.0 26.744783
0003c0 af 28 ba 41 9a df d4 41 8f 7a b0 41 d3 5c e8 bc
       23.269865 26.60918 22.059843 -0.028364575
0003d0 a0 53 3d bd 7a 9f d6 41 a0 20 39 bd 02 86 d5 41
       -0.04622233 26.82787 -0.04519713 26.690434
0003e0 7b d4 a1 c1 95 b6 d7 41 47 ee a7 41 ca 49 51 bd
       -20.22875 26.964151 20.991346 -0.05109576
0003f0 42 53 d6 41 b0 2a c2 41 3d a0 d5 41 6e 13 97 bd
       26.790653 24.270844 26.703241 -0.07376753

fc1.weight f4 [256, 256]
000000 31 44 c4 3e 8d fe 51 3e 3e 90 10 3d 0c aa 74 bd
       0.38333276 0.2050726 0.03529381 -0.05973248
000010 7d f7 1d 3e 37 9a 22 3c c3 3e f3 bf 8c 53 78 3d
       0.1542644 0.009924463 -1.9003528 0.06062655
000020 77 be d3 3e 17 4c 70 3e f7 32 f5 3e bf 64 04 c0
       0.4135625 0.23466526 0.47890446 -2.068649
000030 01 5c d8 3e ac f3 7b 3b 42 d5 ae 3e e8 80 e0 3e
       0.42257693 0.00384448 0.34147078 0.43848348
000040 3d 1d 86 bd 8b cd 6c bd bd 16 1e 3f 07 31 39 3f
       -0.065485455 -0.05781321 0.61753446 0.72340435
000050 0f 5e 02 3f 5e dd 27 3f d0 95 d4 3e 69 1e 9d 3e
       0.5092477 0.65572155 0.41520548 0.30687264
000060 b4 4c 04 3e b3 7a 6f 3c 69 e8 6f 3f 2c b4 e7 3e
       0.12919885 0.014616656 0.93714005 0.45254648
000070 4d fc e2 3e ec 2a 78 3d 4a a1 41 3e d1 2e 2e 3f
       0.44333115 0.06058781 0.18909183 0.68040186
000080 2c cc f3 3e 9b 1a 6f bd 6e 03 35 3f 24 d4 7d be
       0.47616708 -0.058374982 0.7070836 -0.24787956
000090 ca 29 82 3e 22 29 a0 3d 43 34 83 3e d8 a5 d7 3e
       0.25422508 0.078203455 0.2562581 0.42118716
0000a0 93 61 88 be d6 e9 f6 bf ed 00 27 3f 84 f7 01 c0
       -0.26636943 -1.9290111 0.6523579 -2.0307322
0000b0 67 db 33 3f e8 73 be 3c f5 11 2a 3f 83 3a 7b 3e
       0.70256656 0.023248628 0.6643365 0.24534039
0000c0 1b bf f7 3b 97 11 32 3e b0 42 be 3d e5 bf 10 bf
       0.0075606233 0.17389522 0.092900634 -0.5654281
0000d0 32 aa fb 3e 3f 63 a4 bc 0d 11 81 3c fb 3f e2 bb
       0.49153286 -0.020066855 0.0157552 -0.0069045997
0000e0 7c 95 0c bd b6 3c a3 3e 20 f1 74 3f 60 cd 30 bd
       -0.034322247 0.31882256 0.9568043 -0.04316461
0000f0 e4 d0 75 3e af 80 6e 3e 73 e9 a3 3e 30 49 91 3e
       0.24005467 0.23291276 0.32014045 0.2837615
000100 84 2e 7d ba af a9 52 3e b9 50 c1 3e f1 2f 88 3f
       -0.00096581155 0.20572542 0.377569 1.063963
000110 bf a6 fb 3d 62 cf 51 bd cd a5 95 3e 23 2e 24 bf
       0.12287664 -0.051223166 0.29228058 -0.641329
000120 fb 10 55 bf 0c a1 82 b8 0a 74 cf 3e be b9 53 3e
       -0.83229035 -6.2288804e-05 0.40518218 0.20676324
000130 f4 af fc bb 34 02 01 c0 93 b4 b3 3e 45 5c 05 3d
       -0.007711405 -2.0157595 0.35098705 0.0325587
000140 ef c5 25 3f d2 c2 57 3d 4d f9 9e 3e 97 0c 01 3f
       0.6475515 0.05267603 0.31049576 0.50409836
000150 56 df 04 c1 c7 59 2d 3d 0a c2 fb 3e ec 67 87 3e
       -8.304525 0.042321946 0.49171478 0.26446474
000160 96 e9 d8 be e3 8f c6 3e c5 49 86 3f d6 de 4c 3e
       -0.42365712 0.38781652 1.0491263 0.2000688
000170 21 ca 02 3f 1d e0 17 bc 6e 0a 71 3e 7d f7 4d 3e
       0.51089674 -0.009269741 0.23539135 0.2011394
000180 47 42 33 3e a2 a4 c8 3e fa 8c 6a 3c 9f ce 0f 3f
       0.17505752 0.39188105 0.014315838 0.56174654
000190 50 cb 22 3f 3a 61 a9 3d 4e 11 1b 3c 6a 5d 61 bd
       0.6359148 0.082704976 0.009464575 -0.055020727
0001a0 7c 33 fb bc 97 6e af 3c fe 22 9d 3d b1 a2 47 3e
       -0.030664198 0.021415038 0.0767269 0.19495656
0001b0 13 06 fb 3e 78 ab 35 3f 5d 16 69 3e 7a 7b 6f 3e
       0.49028072 0.70964766 0.22762437 0.23386946
0001c0 d5 49 5b 3e 3f 03 c8 3e 6d 93 e9 3e 9c 40 71 bd
       0.21414883 0.39064977 0.4562029 -0.058899507
0001d0 6a 92 54 3d ac 1e c1 3e f2 c5 d7 3c 0d 57 8b 3f
       0.051897444 0.37718713 0.026339505 1.0885941
0001e0 c7 90 a8 3c e4 f5 87 3f c5 f4 21 3e e7 10 2a 3e
       0.020576848 1.0621915 0.15816028 0.1660801
0001f0 76 6b ef 3e 64 9f 8b 3f 39 c1 5a c0 00 34 e0 3e
       0.46761674 1.0908017 -3.4180434 0.43789673
000200 62 1b ef bc 0c 33 8c bc 4e 00 a2 3f ce e4 97 3c
       -0.029187862 -0.017114185 1.2656343 0.01854172
000210 50 ab 5d 3e d1 9e 5d bf b7 36 3d 3f 2d b8 13 3f
       0.21647382 -0.8657046 0.73911613 0.57702905
000220 c8 f7 d3 3e 7f ce 00 3f cc e2 91 3e ec 59 85 3f
       0.4139998 0.5031509 0.28493345 1.0418067
000230 37 ab 34 3f 8e a1 53 3f 9d 4a 19 3f ad 58 19 c0
       0.70573753 0.8266839 0.59879476 -2.3960373
000240 69 03 a7 3e e8 e4 a3 3e c0 25 77 bf 15 ce 7d 3f
       0.3261979 0.3201058 -0.96541977 0.9914258
000250 8a 2b 55 3f aa d5 e7 3e e1 2e 59 3f 5b f6 74 be
       0.8326956 0.452802 0.84837157 -0.23922102
000260 54 be 77 3d 59 6e 51 3f 48 c5 d7 3e 83 11 02 3f
       0.060484245 0.81809 0.421427 0.5080797
000270 62 26 e9 3c 29 7f 70 3a 56 8d 94 3d 2d 66 04 3d
       0.028460685 0.0009174222 0.0725352 0.032324005
000280 a9 7b e5 bf db ee f9 3e 5e 1d 93 bd 6f 3b 3a 3f
       -1.7928363 0.48815045 -0.07183336 0.7274694
000290 b5 d5 4c 3f 98 c3 e2 3e 30 ce b8 3e d6 17 19 bd
       0.8001359 0.4428985 0.3609481 -0.037376247
0002a0 3a 15 44 c0 ff 38 be 3e 62 c7 bb be fb 6a 3b 3e
       -3.0637956 0.3715286 -0.36675555 0.18302529
0002b0 83 06 11 3e 3f c2 86 3e 86 63 bb 3e e5 57 1f c0
       0.1416264 0.26320073 0.36599368 -2.4897397
0002c0 05 06 8a bd b0 3e 47 3f 7d 72 5e 3f ee 1e 93 3d
       -0.067394294 0.7783003 0.86893445 0.07183634
0002d0 b2 5f 67 bf 5d 3e 5a 3e bc 60 81 bc 7e 44 f1 3d
       -0.90380394 0.21312852 -0.015793197 0.11780642
0002e0 2b 1a 67 3d 79 fd d1 bc 15 38 1d 3f 2c 77 fd bc
       0.05642144 -0.02563356 0.614137 -0.030940615
0002f0 72 11 90 3e ee ac 25 3f c1 fa 5c 3c 34 a5 1e 3e
       0.2813831 0.64716995 0.013487519 0.15492707
000300 49 c1 54 3f ca 47 94 3e 03 21 f9 bb 0e 9a 98 bb
       0.8310743 0.2896102 -0.0076028123 -0.0046570366
000310 52 1a 58 bd 08 21 44 3f 12 db d4 3a 87 03 d3 3e
       -0.052759476 0.766129 0.0016239604 0.4121363
000320 c3 a0 99 3e 41 20 77 3e 15 eb 59 3e 67 73 bc 3e
       0.30005464 0.24133398 0.21281083 0.36806795
000330 7d 94 08 bc e2 42 04 c0 90 be 87 3e 8a 9b 53 3f
       -0.008336184 -2.0665822 0.26512575 0.8265921
000340 33 ee 62 bc d5 6c 0f 3b d1 fe 70 3d 3b ee 78 3c
       -0.013850736 0.0021884937 0.05883676 0.015193517
000350 a4 e0 e8 3d 8a 0f cd 3e d3 38 99 3f 7d ec a0 3e
       0.11370972 0.40050918 1.1970466 0.31430426
000360 3d 6a 8e bd 68 5a eb 3e 0e 86 2c bd 6d 7e 1a 3f
       -0.06953857 0.45967412 -0.042120032 0.6034916
000370 c4 f2 87 bc 87 76 3c 3d 6f 1e aa bd 7d 48 9d c0
       -0.016595252 0.046011474 -0.08306586 -4.9150987
000380 21 e3 d0 3e af d6 1a 3f 9a 4b 05 3f 05 b5 de 3e
       0.40798286 0.6048383 0.52068484 0.43497482
000390 ec d6 23 3f 9c 50 0c bf f2 41 06 3f 9e 87 ac 3f
       0.6399982 -0.548105 0.52444375 1.3478887
0003a0 c6 a0 e5 3e bd f6 e6 3e c6 d5 10 3e 57 dd 5f 3f
       0.44849223 0.4511012 0.14144048 0.8744711
0003b0 b1 45 85 40 45 92 1e 3f a6 df 92 bb 44 1a fc 3e
       4.1647573 0.6194194 -0.0044822274 0.4923879
0003c0 c7 06 3f 3f a3 70 7b 3e 62 27 ed 3e 27 aa 36 bd
       0.74619716 0.24554686 0.4631911 -0.044595864
0003d0 10 e5 b1 bd 2a 0f fa 3e 70 86 ba bd 1b e8 4d 3e
       -0.08686268 0.48839694 -0.09107673 0.20108072
0003e0 35 7c eb c0 3a ba ec 3e 7f d4 27 3f b6 72 1a bd
       -7.358912 0.4623583 0.6555862 -0.037707053
0003f0 79 19 bd 3e 27 5f 36 3f 28 ce 14 3e b4 b0 7f bd
       0.36933497 0.7123894 0.14531767 -0.062424377

fc1.bias f4 [256]
000000 5c 0c d7 41 6c f6 d6 41 17 f0 a8 bc dc 08 d7 41
       26.881035 26.870323 -0.020622296 26.879326
000010 dd b5 04 bd 32 17 d7 41 15 1f 04 bc d9 0b d7 41
       -0.0324 26.886326 -0.008064051 26.880785
000020 05 62 03 bd 9f e7 d6 41 00 00 00 00 0a bf d6 41
       -0.0320759 26.863096 0.0 26.84328
000030 97 ef a6 bc 00 76 d7 41 95 26 89 3d e4 ec d6 41
       -0.020377917 26.932617 0.06696812 26.86567
000040 94 04 d7 41 43 bb d6 41 67 f2 d6 41 71 11 d7 41
       26.877235 26.841436 26.86836 26.883516
000050 41 50 d4 41 66 fd d6 41 7f da d6 41 25 1b 07 c1
       26.539186 26.87373 26.856688 -8.444127
000060 ea 18 d7 41 50 10 d7 41 d6 14 d7 41 b4 e1 d6 41
       26.887165 26.882965 26.885174 26.860207
000070 0b e1 d6 41 7f ee d6 41 8d f5 0f bd a4 35 0d 3c
       26.859884 26.866453 -0.035146285 0.008618746
000080 24 e2 d6 41 57 2f d7 41 1e 94 d7 41 32 db d6 41
       26.86042 26.898115 26.947323 26.857029
000090 81 10 d7 41 98 3e d3 41 e4 08 d7 41 44 ae d6 41
       26.883059 26.405563 26.879341 26.83509
0000a0 c6 65 12 bd c9 c9 c4 bb fd 5d 0f bc 2c 5b d5 41
       -0.03574159 -0.0060055 -0.008750436 26.669518
0000b0 3c 6f f0 bc 00 00 00 00 7b fe d6 41 3e f4 a9 3d
       -0.029349916 0.0 26.874258 0.082985386
0000c0 75 9f 85 bc 15 3f 07 bc 92 4b d7 41 52 e2 d6 41
       -0.016311387 -0.008254786 26.9119 26.860508
0000d0 de c7 d6 41 00 00 00 00 0f 5e d7 41 a8 19 d7 41
       26.847591 0.0 26.920927 26.887527
0000e0 0a 19 d7 41 00 00 00 00 35 f0 1c 41 97 e9 a7 bc
       26.887226 0.0 9.808644 -0.020497127
0000f0 8e 0a d7 41 47 40 2b bd f5 3d 0f bc fc ed f7 c0
       26.880154 -0.041809347 -0.008742799 -7.747801
000100 1c 61 76 bd 00 00 00 00 ea 73 57 bc ef 87 a7 bc
       -0.060151204 0.0 -0.013150195 -0.02045056
000110 32 7e d7 41 26 71 9a 3c ba 19 d7 41 ba 28 d4 41
       26.936619 0.018852782 26.887562 26.519886
000120 ef 87 a7 bc cc a3 d6 41 86 ff d6 41 4e a8 9f 3c
       -0.02045056 26.829979 26.874767 0.019489434
000130 0b b8 7a bc b8 06 d7 41 8c 04 d7 41 17 7f d7 41
       -0.015302668 26.87828 26.87722 26.937056
000140 dd 12 02 bc 12 58 55 bd 58 05 d7 41 c9 c9 c4 bb
       -0.007939068 -0.052085944 26.87761 -0.0060055
000150 33 f1 6e bd 0a e5 d6 41 84 f6 d7 41 a8 67 bf bb
       -0.058335494 26.861835 26.995369 -0.005841214
000160 ad 0e 04 c1 75 d8 d5 41 0a 80 d7 41 12 26 d7 41
       -8.253583 26.730692 26.93752 26.893589
000170 93 2b d7 41 8d 8e e0 41 1e 03 d7 41 fd ba 0c bd
       26.896276 28.069605 26.876522 -0.034358013
000180 48 bc d5 41 95 c3 d6 41 a8 36 d7 41 84 01 d7 41
       26.716934 26.845499 26.901688 26.87574
000190 df 3d 31 3e 1f d1 a6 bc d3 d4 e8 41 00 00 00 00
       0.17308758 -0.020363389 29.103918 0.0
0001a0 bc 15 d7 41 f0 39 b4 bc f2 ef d6 41 bd 05 0c bc
       26.885612 -0.022000283 26.86716 -0.00854629
0001b0 8f ec d6 41 07 fe d6 41 b2 77 d5 41 aa 14 d7 41
       26.865507 26.874037 26.683445 26.88509
0001c0 c4 b3 df 41 7c 20 d7 41 72 e1 d6 41 5a 13 d7 41
       27.962776 26.890862 26.86008 26.884449
0001d0 28 06 d6 41 7e 4a a5 3d 96 b9 16 bc f9 a3 e3 41
       26.753006 0.08070849 -0.009199521 28.455065
0001e0 f0 52 b4 bc 61 0c d7 41 db ce d6 41 f6 d1 d6 41
       -0.022012204 26.881044 26.851004 26.85252
0001f0 e4 ca f1 c0 a4 f6 d6 41 5d bc d6 41 88 2a d7 41
       -7.556017 26.87043 26.841974 26.895767
000200 59 ea c3 bb a2 14 d4 bb 89 fa d6 41 92 fd d6 41
       -0.005978864 -0.006472186 26.872332 26.873814
000210 be 6c 18 bc 52 05 d7 41 50 ee d6 41 5f f3 d6 41
       -0.00930327 26.877598 26.866364 26.868834
000220 45 0b d7 41 1a 50 d7 41 d1 16 ca 3b 5b 85 d5 41
       26.880503 26.914112 0.0061672707 26.690115
000230 6a 94 5c bc 85 6d 18 3d b6 bc 16 bc e2 a9 d1 3c
       -0.013463119 0.03721382 -0.009200266 0.025593702
000240 24 0d d7 41 2e 6c df 41 ad f8 0f bd 3d 1c 02 bd
       26.881416 27.927822 -0.035149265 -0.03176521
000250 26 06 d7 41 00 4f b7 bb ae 43 10 bc 2d d6 e0 41
       26.878002 -0.0055941343 -0.008805199 28.104578
000260 af 61 a4 bc bd f3 d6 41 28 e8 b4 bc 40 05 d7 41
       -0.02006611 26.869013 -0.022083357 26.877563
000270 73 7e e5 bb bf fc d6 41 3a de d1 bb 17 f0 a8 bc
       -0.0070035993 26.873411 -0.0064046653 -0.020622296
000280 a0 06 35 bc c9 ed d6 41 00 00 00 00 85 39 d7 41
       -0.011048943 26.866106 0.0 26.903086
000290 8d a8 d4 41 29 c1 e2 41 84 e4 d6 41 e2 ed d6 41
       26.5823 28.344316 26.86158 26.866154
0002a0 38 f3 d6 41 04 9d e1 41 c9 c9 c4 bb ec bd d3 41
       26.86876 28.201668 -0.0060055 26.467735
0002b0 cd 63 d6 41 a6 55 d7 41 3d 1c 02 bd fc c2 7a 3d
       26.79873 26.91682 -0.03176521 0.061221108
0002c0 74 73 d5 41 1f 9d d7 41 51 ed d6 41 89 8a b9 41
       26.681374 26.95172 26.865877 23.192644
0002d0 00 00 00 00 c9 c9 c4 bb 00 00 00 00 ca 05 d7 41
       0.0 -0.0060055 0.0 26.877827
0002e0 af 61 a4 bc 92 db d6 bb fb 91 65 bc 0c b4 d3 41
       -0.02006611 -0.0065569365 -0.014011855 26.462914
0002f0 00 00 00 00 34 fc d6 41 5a 53 d5 41 d2 12 6c 3d
       0.0 26.873146 26.665699 0.057635136
000300 fc cb d6 41 84 d0 d6 41 0f fd 2d bd 82 92 de 41
       26.849602 26.851814 -0.042477664 27.821537
000310 bb 0d 61 bc 00 00 00 00 7f 6f 23 be e8 26 b6 bb
       -0.013736184 0.0 -0.15960501 -0.005558837
000320 ea 68 5d bd f6 e7 94 bc fb 4b e0 bb 1f fe d6 41
       -0.054055132 -0.018177014 -0.006844995 26.874083
000330 c9 c9 c4 bb 8b 8d e6 bb 38 36 bb bb a4 e4 8d 41
       -0.0060055 -0.007035916 -0.0057132505 17.73664
000340 7d 2a 09 bd 41 09 d7 41 d8 29 d7 41 3e 59 d4 41
       -0.033487786 26.879519 26.895432 26.543575
000350 d0 e7 d6 41 ce 0d d7 41 a5 dc d6 41 fd 68 d5 41
       26.86319 26.88174 26.857737 26.676264
000360 88 f6 d6 41 21 e0 d6 41 b8 10 d7 41 00 00 00 00
       26.870377 26.859438 26.883163 0.0
000370 3d ec d6 41 9e e5 d6 41 7c 70 75 bc 2d 7b 0d c1
       26.86535 26.862118 -0.014980432 -8.842572
000380 c4 52 d7 41 ed de d6 41 34 e4 d6 41 e8 0a d7 41
       26.915413 26.85885 26.861427 26.880325
000390 45 b4 07 bd 3d 1c 02 bd b2 5b d7 41 e6 c3 d5 41
       -0.033130903 -0.03176521 26.919773 26.720654
0003a0 d6 18 d7 41 88 cd 26 c1 99 85 d7 41 cd fd d6 41
       26.887127 -10.425179 26.940233 26.873926
0003b0 ad f6 d6 41 b2 d8 d6 41 64 56 d6 41 a2 bf d6 41
       26.870447 26.855808 26.792183 26.84357
0003c0 6d 4d 05 c1 7a 0a d7 41 01 59 c6 bd dc b0 d6 41
       -8.331403 26.880116 -0.09684945 26.836357
0003d0 ea 73 57 bc 20 08 d7 41 66 19 d7 41 00 00 00 00
       -0.013150195 26.878967 26.887402 0.0
0003e0 a4 04 d7 41 5f 55 ab bb 68 16 d7 41 91 fc c4 bb
       26.877266 -0.005228683 26.88594 -0.0060115536
0003f0 a0 3c 45 3c a6 90 1b bd db ff e7 bb 5d 71 d7 41
       0.01203838 -0.037979744 -0.007080061 26.930353

last_fc.weight f4 [1, 256]
000000 5e f0 fb be 45 cd ff be e6 af 9b bc 3d 2f 02 bf
       -0.49206823 -0.49961296 -0.019004773 -0.5085333
000010 a7 ec ad b6 41 5e 0c bf 48 89 bc bb 0f d4 09 bf
       -5.1833517e-06 -0.5483132 -0.00575367 -0.538392
000020 ab 39 e8 3c 0c c9 02 bf 75 48 87 3a 23 da d1 be
       0.02834781 -0.51088023 0.0010321276 -0.40986738
000030 3e f5 94 bc 06 fa 3d bf b7 7b a5 bd 3f b3 f7 be
       -0.018183347 -0.7420963 -0.08080237 -0.4837894
000040 f5 c8 09 bf a8 5b d8 be 70 43 f6 be 28 9f fd be
       -0.5382226 -0.42257428 -0.48098326 -0.4953549
000050 b9 0b 99 be 38 2d 01 bf cf 5b f7 be 06 5e 25 3c
       -0.29891756 -0.50459623 -0.48312232 0.010093218
000060 ef e5 08 bf f5 e7 0d bf e8 12 0b bf a6 ae ea be
       -0.5347585 -0.55432063 -0.54325724 -0.4583637
000070 ce 23 fc be 42 0e e1 be 5e e7 1b bc 33 3b 6b bc
       -0.49246067 -0.4395619 -0.009515611 -0.014357376
000080 bc 39 f5 be ef 7d 0c bf 3a c1 3c bf dd 9a f9 be
       -0.4789561 -0.5487966 -0.7373234 -0.48750964
000090 9d 4d 0d bf 25 4c 39 be 16 ac 07 bf b3 13 e5 be
       -0.55196553 -0.18095453 -0.5299696 -0.44741592
0000a0 2b 32 63 bc 0a fb 5a bb d7 77 a2 bb c8 44 2a bf
       -0.013866941 -0.003341379 -0.0049581337 -0.665112
0000b0 46 9a 1c bb 9d 9d 07 39 70 2e 01 bf 80 9f 4d bc
       -0.0023895665 0.00012933319 -0.50461483 -0.012550235
0000c0 1b ad 61 3c 2b 4b e3 bb b6 04 2b bf b5 51 f7 be
       0.013774182 -0.006936451 -0.66804063 -0.48304525
0000d0 d0 a0 df be 60 b6 38 bb 94 32 2e bf a6 4b 11 bf
       -0.43677378 -0.0028184876 -0.68045926 -0.56756055
0000e0 0a 71 09 bf 8d 38 09 3a 67 35 3e c0 94 1a 72 3c
       -0.5368811 0.0005234562 -2.9720094 0.0147768445
0000f0 53 95 07 bf 13 32 6c bc 19 c5 c4 bb 3d ab 18 3e
       -0.52962226 -0.0144162355 -0.006004941 0.14909072
000100 eb 07 e9 3c 18 6a 4f b9 10 0b 34 3c 7e ca 98 bc
       0.028446158 -0.00019780581 0.010988966 -0.018651243
000110 ae 95 35 bf 39 e7 43 3c f3 04 0e bf ba 07 91 be
       -0.7093152 0.011956983 -0.554763 -0.28326207
000120 8e 6f 9d bc e1 4c c5 be 93 1e fd be 36 19 12 3c
       -0.019218232 -0.38535216 -0.4943739 0.008917144
000130 47 4b 25 3c 85 f9 fd be d2 59 06 bf bb d3 3b bf
       0.010088748 -0.4960443 -0.52480805 -0.7336995
000140 f7 ae aa bb 0e 4f 98 bd ec 1b 08 bf 80 8c b3 bb
       -0.0052088457 -0.074369535 -0.53167605 -0.0054793954
000150 9f fc a5 bd 6e 54 f6 be a4 ee 2a bf 45 7c 08 bc
       -0.08104824 -0.4811129 -0.66770387 -0.008330409
000160 98 1d 49 be 32 6d d0 be 26 66 3e bf 05 58 08 bf
       -0.19640195 -0.4070831 -0.74374616 -0.5325931
000170 fd f7 18 bf 16 b8 45 c0 4c dc 04 bf bb fc e7 bb
       -0.597534 -3.0893607 -0.51898646 -0.0070796884
000180 fb 4f 7d be 01 42 e0 be ce 7e 20 bf f4 e5 04 bf
       -0.24737541 -0.43800357 -0.6269349 -0.5191338
000190 84 a3 f6 3c 6e bd 9c bc b6 7e 9a c0 0a 5a 00 bb
       0.030107267 -0.019133296 -4.8279676 -0.0019584917
0001a0 a8 7f 06 bf 58 24 b2 bc 21 93 e9 be 18 5f bc bb
       -0.5253854 -0.021745846 -0.45620063 -0.0057486407
0001b0 2e 30 ef be 4d bd fc be 60 14 ba be e9 84 10 bf
       -0.46716446 -0.49363175 -0.3634367 -0.56452805
0001c0 c7 22 3c c0 7a 6b 06 bf c8 9e f3 be ea df 08 bf
       -2.9396226 -0.52507746 -0.47582078 -0.53466666
0001d0 d6 34 f8 be 33 65 7d 3b a4 ef 87 bc 81 94 27 bf
       -0.4847781 0.0038665056 -0.016593762 -0.65460974
0001e0 5f 03 a8 bc c8 aa 07 bf 6e 33 e1 be 28 7b de be
       -0.02050942 -0.52994967 -0.4398455 -0.43453336
0001f0 59 09 5c be e2 fc f9 be 90 92 e1 be 4a 3b 18 bf
       -0.21487941 -0.48825747 -0.4405713 -0.5946547
000200 90 71 be bb f3 9c e2 bb f3 20 08 bf e9 59 fd be
       -0.0058118775 -0.0069156825 -0.53175277 -0.49482659
000210 46 4a a1 bb c8 56 04 bf 37 6d f5 be 3a 3a fa be
       -0.004922184 -0.5169492 -0.47934887 -0.48872548
000220 37 20 0b bf 52 ba 27 bf dd e1 05 3c a6 ed cf be
       -0.5434603 -0.6551868 0.008171526 -0.40611
000230 39 be 4e 3c 38 10 b9 3c 02 ed d7 bb 10 30 b2 bd
       0.012618595 0.022590742 -0.006589533 -0.087005734
000240 87 36 00 bf 68 f8 42 c0 5e ff 17 bc 94 a5 f8 bc
       -0.500832 -3.0464115 -0.009277193 -0.030352391
000250 92 07 db be 48 d2 b4 bb 41 db c2 bb 0c 0e 1d c0
       -0.42779213 -0.0055182315 -0.0059465473 -2.4539824
000260 3e 6e 9e bc 85 50 07 bf df 10 ac bc 93 a6 09 bf
       -0.019339677 -0.5285724 -0.021004139 -0.537698
000270 76 03 9f bb 0b e4 ff be 2b 33 67 3a f6 d6 9b bc
       -0.0048527075 -0.4997867 0.00088195753 -0.0190234
000280 77 7a 20 3c fc 1a fa be 70 4d 37 3b ff 81 12 bf
       0.009794823 -0.48848712 0.002796974 -0.5722961
000290 48 dc e3 be f4 11 65 c0 9a 15 fd be 1d fa f7 be
       -0.44504 -3.5792208 -0.49430543 -0.4843301
0002a0 b8 ef fa be 3b b9 25 c0 3a 74 52 bb e4 dc d0 be
       -0.49011016 -2.5894306 -0.0032112733 -0.40793526
0002b0 c2 f4 b0 be fa 76 2b bf f4 cf ff 3c c7 ec a1 bd
       -0.34561735 -0.6697842 0.03122709 -0.0790649
0002c0 d5 8b f8 be 76 37 40 bf 06 7e 01 bf 51 fe 22 c0
       -0.48544183 -0.75084627 -0.5058292 -2.5467722
0002d0 16 58 20 bb 7e ea 9b bb ec f4 00 3b e1 66 03 bf
       -0.0024466566 -0.0047581783 0.0019677235 -0.51328856
0002e0 7d e0 8c bc ac 5b f3 bb 4b 55 66 3c a4 f8 6b be
       -0.017196888 -0.0074266996 0.014058421 -0.23044068
0002f0 e5 64 82 3a 5b f8 04 bf f8 03 18 bf 3a 29 52 bc
       0.0009948282 -0.5194146 -0.59381056 -0.012827212
000300 73 99 de be 15 93 f5 be 37 b0 2f ba 0c d0 ce c0
       -0.43476447 -0.47963777 -0.0006701978 -6.4628963
000310 88 a0 35 3c 19 47 40 3b 6a f5 e9 bd 5c 6c 71 bb
       0.011085637 0.0029339253 -0.11423762 -0.003683827
000320 36 47 9b bd 8e f3 a0 bc 8c 6a 70 bb ed 46 f3 be
       -0.07581942 -0.019647386 -0.00366846 -0.4751505
000330 30 98 b6 bb 56 42 94 bb 8d 05 05 bc 04 7c 07 3f
       -0.0055723414 -0.0045245094 -0.008118999 0.5292361
000340 75 93 07 3c ef 00 05 bf 6c 25 14 bf b9 b8 a3 be
       0.008274903 -0.5195455 -0.578696 -0.3197687
000350 e3 75 fc be b3 7f 0f bf 4b 88 f8 be e7 6f 1a bf
       -0.4930869 -0.5605423 -0.48541483 -0.60327
000360 ab 80 fe be e8 00 e9 be 3c 43 fe be c8 b4 bb 3a
       -0.4970754 -0.45508504 -0.4966067 0.0014320845
000370 eb 7f f5 be 07 4c fc be 8c 8a f3 bb da ed ea 3f
       -0.47949156 -0.49276754 -0.0074322876 1.8353837
000380 da aa 0d bf fb e8 e6 be a8 d3 ef be b3 42 0a bf
       -0.55338824 -0.45099625 -0.46841168 -0.54008025
000390 84 70 f2 bc dc 65 f0 3c 19 92 2e bf 10 aa 8e be
       -0.029594667 0.029345445 -0.6819168 -0.27864122
0003a0 53 d0 0e bf 63 6b c6 3f 35 c4 0f bf 71 5a 01 bf
       -0.5578663 1.5501522 -0.56158763 -0.5052863
0003b0 97 1f fd be c2 7d e6 be 62 3d ab be 0c e5 d2 be
       -0.49438164 -0.4501782 -0.3344527 -0.41190374
0003c0 7c 7b 08 bf 95 9f 07 bf d7 7e be 3a 6c b9 d2 be
       -0.5331342 -0.5297788 0.0014533651 -0.4115709
0003d0 18 56 31 3c 7d d1 f8 be 02 45 04 bf 15 fd 11 3a
       0.010823749 -0.48597327 -0.516678 0.0005569023
0003e0 78 e2 03 bf 6a 55 5a bb 2e e0 0d bf 27 6d a3 bb
       -0.5151744 -0.003331507 -0.55420196 -0.004987377
0003f0 1e 77 9c bd 1b d3 e3 3c ce 2c 25 bd 65 a9 3d bf
       -0.07639907 0.027810624 -0.040325932 -0.740866
