save_mode/SAC_v_1000_policy_network.pth (torch, 342351 bytes, 8 tensors)

hidden1.weight f4 [256, 48]
00000000: 3634 0dbd d66f 163e 080d 00bd 4e2a 14bd
00000010: bc21 83bc db37 6a3d 384f c1bc 8c85 9cbc
00000020: 8ae1 5abd 764f 3a3e 6a45 0bbe 186c 6fbd
00000030: f078 643c 7a29 20bd 346a 2d3d cc56 86bc
00000040: f8c4 19bd 8015 a2bc 358d adbd 0c01 42bd
00000050: 6e08 603d 5075 a53c e209 c63d 14b6 ef3c
00000060: ac10 b2bc 0438 d2bc 1694 d9bd 4ea4 d6be
00000070: c027 63bd 58a5 923c 71ae fdbc b93e b4ba
00000080: 56bb 653d 1c0e 273d dcc9 cc3c 4aeb 6bbe
00000090: a48b eb3c 4ce5 0abd 00f4 2b3c 2610 ab3d
000000a0: 8c3f fa3d a05b 43bb 80f4 203d 8344 65be
000000b0: c9a5 613c 5e2a 5ebd 343a 72bd 912a 5bbd
000000c0: 90b9 5f3c aa7a 9d3d 848d 4d3d ee3f 733d
000000d0: f09b 6fbc b919 2abd 2623 233d b67b 673d
000000e0: 4c68 4e3d f7c7 9abc d092 0fbe cc32 f9bc
000000f0: b40a 5f3d 64a7 8abb f1a5 80bc 4eba 073d
00000100: f2aa 53bd 3ade 4e3d 91c5 e8bd 8641 0abd
00000110: b66b 763d 3c40 323d 4fe8 a7bc 40be 20bc
00000120: 00d7 10bd 1009 90bb 046c a2bd f74a 2ebe
00000130: 604a 2f3b fc62 10bd 1973 463d 622d 323d
00000140: a8da 79bc 8891 f13c 08f3 31bd d359 00be
00000150: 8090 53bd 04c3 363d 8847 acbc ea2f 69bd
00000160: b83d 333e 7292 153d f6f9 083d e3ee 67bd
00000170: 0bd1 4abd 008b a6bc 0009 a33c ce66 0b3d
00000180: f09c d4bb c36f af3d f09b 463c 00e0 b938
00000190: ae5c 0f3d d050 993c ae16 01bd 80f3 44bc
000001a0: 70f4 b6bc f401 4a3d 356d 2dbd 662d 073d
000001b0: 004b b4ba 3f12 853c ecab 80bd 088f 503d
000001c0: 40be 933a b83d c03c c2e7 cdbc 5eeb 543d
000001d0: 20db 8bbc 1417 33bd fc9d 2f3c d62d 523d
000001e0: c89a fbbc 1077 0cbc c65f ddbc 3b84 dcbc
000001f0: d020 4fbc 08ef efbc 39b1 963c a48b a0bd
00000200: 54f3 7e3d c0a5 4a3c 9223 30bd 3caa 3b3d
00000210: 942c 113d 081c cc3c 3c1f b1bc a98a 92bc
00000220: b1da 0f3e f017 db3b 8e35 553d ea85 65bc
00000230: 949a 9fbd 0062 e73b c02d ccba 5d3d 46bc
00000240: 0811 553c 2acd 9f3d e011 313d cc8e 083d
00000250: 2e7f 7d3d cc34 aabc a0f7 ddbc 88b2 40bd
00000260: d84e c43c 3120 d4bb 1827 deb8 7007 2ebd
00000270: 7858 02bc 7933 9bbd 57db b8bd 785e 31bd
00000280: 84a1 823c 0cd6 c1bc b8f7 413d 88b7 68bd
00000290: d418 f0bc f8dc 1abc 4962 a3bd b885 0fbc
000002a0: d8c5 b93c 70cc 3b3d 77b9 87bd f983 a1bd
000002b0: 98ee 153d 7ca7 a13c a5c6 7ebd ee86 62bd
000002c0: 244a 0b3d 9cbd 573d ecd6 a53c 31e5 29bd
000002d0: b0c3 853c c0b0 49bc 80fd 0bbd 0035 20bd
000002e0: 89bb bb3d 74cb 2c3d 5842 7a3c ee6f c8bd
000002f0: 40ef 9ebc 806c 1d3c ec5f 41bd 2d61 47bd
00000300: 905a 9bbb 4205 debc 6c33 863c 4039 feba
00000310: 901b 353c 9ad6 983d 4022 6cbb 4efe 113d
00000320: b452 dd3c c205 873c ea84 a0bc b8a1 e9bc
00000330: 24f2 7c3d d49e c2bd 6da3 97bd 3ed8 5bbd
00000340: b006 7dbd 5017 87bb 5e20 f3bc c80d d43c
00000350: 4c24 3cbd 6015 a2bc 26c7 7f3d 8071 6d3a
00000360: d024 05bd 7882 14bc d0dd 7d3b 4ec3 17bc
00000370: 6ea5 5fbd 7e6f 1dbd 1d13 c5bd ba90 1abd
00000380: 005c 27ba 1640 01bd aa95 4b3d 38fe 1e3e
00000390: da64 56bd 048a ae3c ceb2 7dbd 390f b3bb
000003a0: 6c51 283e 00ed 4e3d ac3c 9fbc 4d65 b2bc
000003b0: 20a8 873c 6c34 0bbd 1ed5 57bd 9ec8 d5bd
000003c0: f063 4a3d 1518 c23d 8c16 b6bc d8eb 043c
000003d0: 403a a9bb 83fc 63bd 5048 ae3b ac1b 803c
000003e0: 3054 bf3c 54f8 e2bc 8133 8fbb 2055 223b
000003f0: a8b0 653d 4b05 4e3d 7e27 0fbc d226 73bd
-0.03447362 0.146911 -0.031262428 -0.036173157 -0.016007297 0.057182174 -0.023597345 -0.019106649
-0.053437747 0.18194374 -0.13600698 -0.058452696 0.013944849 -0.039102055 0.04233761 -0.01639881
-0.03754136 -0.019785643 -0.08474199 -0.04736428 0.05469554 0.02019754 0.09669854 0.029261626
-0.021736465 -0.025661476 -0.10623948 -0.4192223 -0.05545783 0.017901108 -0.03096697 -0.0013751603
0.05608686 0.04078494 0.024998598 -0.23038974 0.02875311 -0.03391008 0.010495186 0.083526894
0.12219152 -0.0029809251 0.039295673 -0.22389416 0.013772436 -0.054239623 -0.059137538 -0.05350739
0.013655081 0.07689412 0.050183788 0.05938714 -0.014624581 -0.041528437 0.039828442 0.056514464
0.050392434 -0.018894179 -0.14020848 -0.03041973 0.054453567 -0.0042313803 -0.015704127 0.03313666
-0.051676698 0.0505049 -0.11365808 -0.033753894 0.060161315 0.04351829 -0.020496516 -0.009810984
-0.03536129 -0.0043956116 -0.079307586 -0.17020784 0.0026747212 -0.03525065 0.04844961 0.04350031
-0.015249886 0.02948834 -0.043444663 -0.12534265 -0.051651478 0.044619575 -0.021030203 -0.05693046
0.17504013 0.036516614 0.033441506 -0.056624305 -0.049515765 -0.020329952 0.019901752 0.03403359
-0.006488435 0.08566239 0.012122139 8.863211e-05 0.035000496 0.018715292 -0.03151577 -0.012020946
-0.022333354 0.04931827 -0.042340476 0.03300228 -0.0013755262 0.016244052 -0.062827915 0.050917655
0.0011271909 0.02346693 -0.025134925 0.051982276 -0.01707226 -0.04372318 0.010718819 0.051313244
-0.030713454 -0.008573309 -0.027023207 -0.026918521 -0.0126421 -0.029288784 0.018395053 -0.07839134
0.062243775 0.012368619 -0.043002672 0.045816645 0.035442904 0.02491571 -0.021621339 -0.017888384
0.14048268 0.006686203 0.052053027 -0.014008978 -0.07793155 0.007061243 -0.0015577599 -0.012099591
0.013004549 0.07802804 0.043229938 0.033339307 0.061888866 -0.020777129 -0.027095616 -0.04704526
0.023963377 -0.006473564 -0.00010593067 -0.04248756 -0.007955663 -0.07578177 -0.09026211 -0.043302983
0.015946157 -0.023661636 0.047355384 -0.056815654 -0.029308714 -0.009452097 -0.07977731 -0.008759908
0.022677347 0.045849264 -0.066271715 -0.078865 0.036604494 0.019733183 -0.06220116 -0.05530446
0.034006253 0.05267106 0.020244084 -0.04147834 0.016328663 -0.012310207 -0.034177303 -0.039113045
0.09166629 0.042186216 0.015274607 -0.09786974 -0.019401193 0.009608388 -0.04721062 -0.04867666
-0.0047410205 -0.027102116 0.016381942 -0.0019395724 0.011053935 0.07462807 -0.0036031157 0.035642914
0.027016975 0.016482238 -0.019594628 -0.028519496 0.06175436 -0.0950295 -0.07404218 -0.05367302
-0.061773956 -0.004122652 -0.02967852 0.025885478 -0.045933053 -0.019785583 0.062445782 0.00090577453
-0.03250581 -0.009064309 0.0038736947 -0.009262873 -0.054601125 -0.038436405 -0.09622786 -0.03773568
-0.00063842535 -0.031555258 0.049703278 0.15526664 -0.052342273 0.021306045 -0.0619381 -0.005464461
0.1643731 0.05051899 -0.01943811 -0.02177682 0.01655966 -0.03398554 -0.05269348 -0.10438655
0.049411714 0.094772495 -0.022227548 0.00811287 -0.0051644146 -0.055660736 0.005318679 0.015638195
0.023355573 -0.027706303 -0.0043701534 0.0024769977 0.056076676 0.050298017 -0.008737443 -0.059363194

hidden1.bias f4 [256]
00000000: 2984 53bc 5e29 5bbd 8c28 a23b bf68 29bd
00000010: 07d2 343d 9541 e2bc 249f 66bc 2c42 163d
00000020: 3893 03bb c7c7 bfbc 3c11 ea3a 3e63 2d3e
00000030: 5543 82bc 1cd6 bdbb aa44 15bd 7daf e3bc
00000040: 805c 55bd 78c3 56bd 0000 0000 0cbf 163b
00000050: 5b23 0cbd a61f 1ebe aca1 77bc 2a84 92bb
00000060: 569f 523c 964c 0d3d a102 06bd 83aa 9cbc
00000070: ca8a 03bd f9b5 9e3b 0f18 41bd 0f45 0dbd
00000080: 2bb1 30bd 96e7 25bd e40a f03a 5caa f23c
00000090: a8f8 00bc c31e b4be fa75 f5bd 8ce5 4fbd
000000a0: 63ac dcbc e74d 9cbc a373 7bbc 3e2a 33bd
000000b0: 1506 82bd 2961 10bc efca 51bd da37 e4bc
000000c0: 1758 0ebd 0ef2 54bc 193b 03bd 1fc2 6d3d
000000d0: 0f0f 73bc eb08 863c fb6a a9ba 3d25 f3bc
000000e0: 4332 2bbd 0ef6 17bd dd8d 4ebc 34d1 90bb
000000f0: 1c27 8abe 0b99 59bd 5534 08bd 0000 0000
00000100: 1ac7 05bd 5e66 04bd dc04 403a f752 eebe
00000110: ca2a 2c3d 12b1 64bd 264e fabc 0000 0000
00000120: 1530 38bd 5322 21bd 0000 0000 abca d5bc
00000130: 4cd5 cbbe 9225 62bb e6a9 b4bc eb2f 3c3c
00000140: 066f 32bd 8414 92bc 7f47 29bd 32fb d3bc
00000150: 6c00 13bd 0c49 7fbc 3a95 8cbc 8f57 27bd
00000160: eb26 a73c 45a0 31bc 6188 4abd 5a59 a7bc
00000170: d497 d33c 8dc9 17bd f51b 343c a8ed 823c
00000180: 1f4b 5bbd 8e97 c4bc 833b 4e3b 7e9e 193e
00000190: 61a4 533c c892 293e 6b64 65bd ca09 80bc
000001a0: c70b 40bd cf88 91bc a40d 49bd ecaf 11bc
000001b0: 8e1d 34be 8d6b a4bc 3a0e bfbd 09c6 c9bc
000001c0: a95e 483c a56a 28bd 42d3 d8bc bbb9 16bf
000001d0: 9b87 a7bb cc7b 2bbd fe22 0cbc 750c 60bc
000001e0: 995a 64bb 214a ce3a 0138 6ebd d20b 14bd
000001f0: 7f5a 43bd aa5a 34bc 861e ddbd e363 d7be
00000200: 382a e3bc ac48 fbbc c79f cdbc 55ca 60bc
00000210: 7d68 78bd a647 f8bc fde3 dbbc bfb6 233e
00000220: a13a a8bc 10c7 34bd 8e7e 67bc 1630 d4bd
00000230: 52d0 b7be c342 9bbc c29f e4bc ef09 10bd
00000240: 6c10 2cbc 2051 cbbc 1a1a cfbc 9887 acbc
00000250: b3b0 bdbc d530 01bd 0000 0000 5a72 54bc
00000260: bcd6 03bc 8a5d 88be 78b6 ccbc 5fe7 22bd
00000270: 095f 0abe 4d3c 0c3d 8791 b53b f553 53bc
00000280: 438e a4bb fb95 10bd 50dc febb 8eff b03a
00000290: 66f8 33bc 3cb4 2b3c 9c3b 03bd 5d38 86bc
000002a0: 181b bdbc 0042 453c a782 42bd e83a 1e3d
000002b0: 0610 7f3c adf1 aeba d371 b6be d9d8 c9bc
000002c0: a4b8 823c 7684 cebd aa4e 003d 15bb 64bd
000002d0: cbf3 c2bc 51b0 4fbc 6bad 03bd 0fcd 5f3c
000002e0: 3f81 3e3b 258a be3c 7d51 2ebd 5f3d 153d
000002f0: dd26 d53b c894 07bf b8c5 2cbd db93 dcbd
00000300: 880d c73c 4607 e73c 8afa f83a 9e57 13be
00000310: 5313 13bc 8e18 6dbd 3757 cfbc d748 0bbd
00000320: e6aa 8dbc 81fa 89bc 5a54 26bd 19fb f3bc
00000330: 30bc d0bb d6e4 4c3d 5c3a e9bc 93db 41bc
00000340: 11c9 86bc 24b3 b8bc 6353 6abd aa46 49bc
00000350: d9eb 64bc 0000 0000 774a 5fbd 7a75 603c
00000360: 6621 cb3c 62ad 853b 61a6 5fbe f1fc c03b
00000370: 3b85 643c 005f 9fbc 85dc 16bc 4127 1dbd
00000380: dc7b 27bd 5129 44bd ead6 55bd 82ad a2bc
00000390: dadb 0ebe 59fb 0fbf bcd6 8cbd f598 5abc
000003a0: 09dc 2ebc 5e56 97bc bcf8 bbbb b94c 17bd
000003b0: 0000 0000 4fdd 343c faa3 96bb 996c 7fbc
000003c0: 0000 0000 ee09 dfbc 3837 78bd 15f0 31bd
000003d0: d804 d3bb 11aa ba3b 75c8 1e3c 0000 0000
000003e0: 1a75 8dbe fbac 27bd 1d62 24bd 11ac b6bd
000003f0: 82d7 2cbc 26df e93d 1777 543c be03 393d
-0.012909927 -0.053506248 0.004948681 -0.04135966 0.04414561 -0.027619163 -0.014076028 0.0366842
-0.0020076763 -0.023410691 0.001785792 0.16932389 -0.015901247 -0.005793346 -0.036442436 -0.02779364
-0.052090168 -0.052432507 0.0 0.0023002056 -0.034213405 -0.1544176 -0.015114229 -0.0044713216
0.012855371 0.034496866 -0.03271735 -0.019124275 -0.03211478 0.00484347 -0.047142085 -0.034489688
-0.04313771 -0.04050406 0.0018313793 0.02962225 -0.007871784 -0.3517972 -0.11985393 -0.050756022
-0.02693767 -0.019080115 -0.015347394 -0.043741457 -0.06348816 -0.008812227 -0.051218923 -0.027858663
-0.034751978 -0.012997163 -0.03203878 0.058046456 -0.014835133 0.016361674 -0.001292556 -0.029680843
-0.04179598 -0.03709989 -0.012607065 -0.00441947 -0.26982963 -0.05312447 -0.033253033 0.0
-0.03266058 -0.032324187 0.0007324943 -0.46547672 0.042032994 -0.05583293 -0.030554842 0.0
-0.04496773 -0.039339375 0.0 -0.026097616 -0.3981117 -0.0034507257 -0.02205367 0.011486034
-0.04356291 -0.017832048 -0.04132795 -0.025876615 -0.035889074 -0.015581381 -0.017161 -0.040854987
0.0204043 -0.010841434 -0.049446467 -0.020428348 0.025829233 -0.03705745 0.010992994 0.015982464
-0.053538438 -0.023998048 0.0031468577 0.15001866 0.012917609 0.16559899 -0.05600397 -0.015629668
-0.04688623 -0.01776543 -0.049085274 -0.008892041 -0.17589399 -0.020070815 -0.093288854 -0.024630563
0.0122296 -0.04111733 -0.026467923 -0.5887715 -0.005112601 -0.04186611 -0.008553265 -0.013674845
-0.003484404 0.0015738645 -0.05815888 -0.036144085 -0.047693726 -0.011007944 -0.107968375 -0.42068395
-0.027730092 -0.030674301 -0.025100602 -0.013720115 -0.060646523 -0.030307602 -0.026842112 0.15987681
-0.020535769 -0.044135153 -0.014129294 -0.10360734 -0.35901123 -0.018952733 -0.02790821 -0.035165723
-0.010501962 -0.024818957 -0.025281 -0.02106075 -0.023155546 -0.03154071 0.0 -0.012966717
-0.008046802 -0.26633865 -0.024989352 -0.039771434 -0.13512816 0.034237195 0.00554103 -0.012898435
-0.0050218417 -0.035299283 -0.007777728 0.0013503896 -0.010984516 0.010479983 -0.03203927 -0.016384298
-0.023084208 0.012039661 -0.04748788 0.038630396 0.015567785 -0.0013347171 -0.35633716 -0.024639534
0.015957184 -0.10083859 0.03132502 -0.055842478 -0.02379789 -0.012676314 -0.032147806 0.01365973
0.0029068736 0.023259232 -0.042558182 0.03643548 0.006504877 -0.529614 -0.042180747 -0.10770389
0.024298444 0.02820171 0.0018995565 -0.14388892 -0.008976775 -0.057884745 -0.025310142 -0.034005012
-0.017293405 -0.016843082 -0.040607788 -0.029782819 -0.00637009 0.050022922 -0.02847021 -0.011832136
-0.016453298 -0.022546358 -0.05720843 -0.012284914 -0.013972246 0.0 -0.054514375 0.013699884
0.024796199 0.0040795067 -0.21840812 0.005889528 0.01394778 -0.01945448 -0.009207849 -0.038367514
-0.040889606 -0.047890965 -0.05220691 -0.019858126 -0.13951054 -0.562429 -0.06876895 -0.013342132
-0.010672578 -0.0184738 -0.0057364386 -0.036938403 0.0 0.011039092 -0.0045971842 -0.015589857
0.0 -0.027226415 -0.060599536 -0.04344185 -0.0064397864 0.005696543 0.009691347 0.0
-0.27628404 -0.04093645 -0.04013263 -0.08919538 -0.010549428 0.11419515 0.012967846 0.045169584

hidden2.weight f4 [256, 256]
00000000: 1cd7 7b3b e408 f3bc 6bd9 abbc 1881 1f3b
00000010: 0a6a 6b3d df77 1d3b cbf1 c83c 40ff 3a3b
00000020: 2ae8 12bd cd71 63bd 279f 1ebd 995d 62bc
00000030: e8d4 debc 563c 65bd cc3d 17ba b860 ab3c
00000040: 0c35 d03c 7cf5 b7bb 9066 1fbc 4b9a a2bd
00000050: 08e0 c4bc d52b 11bd ab8d 2b3d 0f74 cc3b
00000060: 2016 333c eb48 d1bc a135 82bd 2693 573d
00000070: d399 bd3c 7749 2ebd 4fbb 59bd 59f7 043d
00000080: a58b 753c 965e 043b 5ee0 f13c b0d3 b23c
00000090: 7037 86bb 4ecf 44bd 01da 2bbd 752a 77bd
000000a0: 2184 4a3d 3088 2d3c 5abd 12bd e0d4 a2bd
000000b0: 0215 a93d faee 2cbd f95b 43bd a5f7 893d
000000c0: f6e6 ee3c 5405 6abc 938a 86bd df51 293d
000000d0: d51b b43c 503c f5bc 91f2 833d 7acc afbd
000000e0: f32e 79bd 5f04 e5bd 4838 c13c 1337 49bd
000000f0: dad7 cf3c ba31 db3c f37d 9d3c f0e2 28bc
00000100: 5296 6cbd 8c62 393d 9706 393d b38b 5a3d
00000110: 5de0 2abd e42b 043c 4f1a d33b 12f5 113d
00000120: a580 103d 3c2a d53c 98cf 413c 53e6 a2bc
00000130: 0af2 023d cc94 69bd 49d7 05bd db8c c53c
00000140: d809 39bd a4da 113d 1736 edbc e56b 50bc
00000150: ce77 3ebd 17af 3abc 050c 463c 58a4 11bd
00000160: 6ffa 743c 426f 60bd 47ae 86bd af00 48bd
00000170: b725 b7bd 1eb0 c9bd 471b 6ebc f6ea 4fbd
00000180: 3a9d df3b e39b eb3c e999 6b3c f8b0 dabb
00000190: ea13 62bd 518f 30be 7c30 913d f9ff 20bd
000001a0: 392b 35bc 0f2f cb3c 328d 7a3c 3376 16bd
000001b0: d25d 153d f8a2 313c 83cf a63b fbe8 0dbd
000001c0: 22f1 acbb 326b 38bd 9bb2 f23c 9d55 ec3b
000001d0: 7f41 163d 9c12 2c3d c04d e6bc e1ca 153d
000001e0: e582 3a3c dab4 903c 7f02 b83c a0d0 3abd
000001f0: 684a 823c fbbf 393d fc38 51bc 4df3 72bc
00000200: 5339 a23c ba5f 8f3c 9549 2d3c f4a6 b73c
00000210: 0c8a 8d3c e436 91bc 8923 71bc 62f5 25bd
00000220: 7ace 1a3d 7351 74bd 9832 233d 0ef4 fd3b
00000230: fd1b b3bc 6854 bf3d d28b 74bd f3e6 e33c
00000240: 4cb3 eabc 90a0 c8bd a445 0b3c b19d 2f3d
00000250: 2453 193d 18d8 14bd a410 83bc 8b25 62bb
00000260: a8d9 403d 5867 d1bd 166d 5cbd 154b 013d
00000270: 4bbd 543c a741 923d b55a 563d f59a babc
00000280: a421 3fbd 26c7 74bd 023c e0ba 981f c5bc
00000290: 3636 973c a430 0e3d 7511 12ba a314 83bb
000002a0: 68c7 debc e954 c13c ee27 3d3c 57fa 053b
000002b0: 3cb0 aa3c 3c0e 08bd 297b fabc a2e2 53bc
000002c0: cc22 34bd 0bf6 3b3d 2d46 c2bd 7c5d 2dbc
000002d0: 6d32 6fbd cfd1 4bbc 7993 7d3c a38d 92bc
000002e0: d48d 9abc 75ae 4ebc 6939 26bc 6e56 4b3b
000002f0: 2a5b b33c ce40 67bd 1a09 47bc 53b2 3bbd
00000300: 9919 6b3d 1f2a 10bd c50d 3f3d 20fd 95be
00000310: 18ef 61bc d9ea d7ba 3b19 a93c 8d38 64bd
00000320: f823 6fbc d1a3 76bd c587 b33c d3f7 a3b9
00000330: 7b25 453d d3ab 73bd 175b fe3c 7410 183d
00000340: bac0 353d 08f5 9b3a a88a 65bc 40cb e93c
00000350: 2b87 56bd c286 033d 8740 0abd 8c38 11bd
00000360: 9049 ebbd ccd1 c3bb 5a39 a8bd 5a15 81bd
00000370: 02d2 a9bc db7f 86bd 266d 74bd d749 12bd
00000380: cf76 70bd 8991 0a3c df16 56bc 694c e7bd
00000390: e305 b9bc a576 88bd 348f 3cbd 2b27 ee3c
000003a0: 1c5f 4fbd 0d89 2a3d e723 c23c 8e00 38bb
000003b0: ac00 8f3c 5b81 7a3d 3504 c0bd 3e96 89bd
000003c0: 9046 2f3c b1a2 66bd 1299 163d 1b6f 22bd
000003d0: 7479 95bd d2e6 47bc c365 14bd c467 a1bc
000003e0: 88d9 67bc 4c3a e0bc eddd 07bd 8b88 0ebe
000003f0: d45c 0c3d a7f1 f4bc 1c2c 09bd 566b 78bb
0.0038427776 -0.029667325 -0.020977696 0.002433842 0.057474174 0.0024027748 0.024529358 0.0028533489
-0.03586594 -0.05552845 -0.038726 -0.013816261 -0.027201131 -0.055965744 -0.00057694013 0.020920143
0.02541592 -0.005613981 -0.009729043 -0.07939585 -0.024032608 -0.035442192 0.041883152 0.006239421
0.010930568 -0.025547465 -0.06357885 0.052630566 0.023144638 -0.04255053 -0.053157147 0.03246245
0.014986907 0.002019798 0.029525932 0.021829456 -0.004095964 -0.048049264 -0.04195595 -0.060343225
0.049442414 0.010591552 -0.03582511 -0.07950759 0.0825596 -0.042220093 -0.047695134 0.067366876
0.029162865 -0.014283497 -0.065694 0.041337844 0.021985928 -0.029935986 0.0644275 -0.08583923
-0.06083579 -0.11182474 0.023586407 -0.04912479 0.02537148 0.02675711 0.019225096 -0.010308012
-0.057760544 0.045259997 0.0451723 0.053355884 -0.041717876 0.008067105 0.006442345 0.035634108
0.035278935 0.026021115 0.011829279 -0.019885218 0.031969108 -0.05702667 -0.032676015 0.024115017
-0.045175403 0.035608903 -0.028956456 -0.012721037 -0.046500973 -0.011394284 0.012087827 -0.03555712
0.014952286 -0.054793604 -0.065762095 -0.048828777 -0.089427404 -0.09848045 -0.014532871 -0.050761186
0.006824163 0.028760856 0.014379957 -0.0066739284 -0.055194773 -0.17242171 0.07089326 -0.039306615
-0.011057668 0.024802713 0.015292453 -0.036733817 0.036466427 0.010842077 0.0050906553 -0.034646016
-0.0052777687 -0.045024104 0.029626181 0.0072123543 0.036683556 0.042009935 -0.028113246 0.036570434
0.011383747 0.017664362 0.022462128 -0.045609117 0.01590462 0.045349102 -0.012769934 -0.014828515
0.019802725 0.0175017 0.010576625 0.022418477 0.01727774 -0.01772637 -0.014717945 -0.04051722
0.037794568 -0.05964799 0.03984317 0.007750041 -0.021863932 0.09342271 -0.059703656 0.027820086
-0.028649949 -0.0979625 0.00850049 0.042874996 0.037432805 -0.036338896 -0.015999146 -0.003450724
0.047082573 -0.102247894 -0.05381497 0.031565744 0.012984584 0.071414284 0.0523326 -0.022778967
-0.04666294 -0.059760235 -0.0017107727 -0.024062917 0.018458467 0.034714356 -0.00055720593 -0.004000263
-0.027194694 0.023600059 0.0115451645 0.0020443404 0.020835988 -0.0332167 -0.030576305 -0.012932451
-0.043978497 0.04588894 -0.09486041 -0.01058137 -0.0583977 -0.012440159 0.015477055 -0.017889803
-0.018866457 -0.012614836 -0.010145524 0.0031026858 0.021894056 -0.056458287 -0.012148166 -0.04582436
0.05739746 -0.03519642 0.04664399 -0.29294682 -0.013789915 -0.0016473188 0.020641914 -0.055717994
-0.014595978 -0.06021482 0.021915326 -0.00031274426 0.048131447 -0.059490036 0.031049294 0.037125066
0.04437325 0.0011898587 -0.014010109 0.0285393 -0.052375 0.032110937 -0.033752944 -0.035454318
-0.1148864 -0.0059759375 -0.08214064 -0.063029006 -0.020730022 -0.06567355 -0.059674405 -0.03571495
-0.058707055 0.00845755 -0.013066976 -0.11293871 -0.022585815 -0.06663255 -0.046035007 0.029071411
-0.050627813 0.041634608 0.02369876 -0.0028076502 0.017456375 0.06115852 -0.093758024 -0.067181095
0.010697976 -0.0563075 0.036767073 -0.03965674 -0.07298556 -0.012201028 -0.03622986 -0.0197028
-0.014150985 -0.027371548 -0.03317063 -0.13919275 0.034268215 -0.029900385 -0.03348933 -0.0037905774

hidden2.bias f4 [256]
00000000: 5ef2 40bd 6d1c 4abd 9702 16bd b5f0 74be
00000010: ff29 cd3d b79e 4f3d 3ed9 123d bb73 5dbd
00000020: 2588 b43d ae88 f4bd 00fc afbc dbe7 793c
00000030: 08ed 9ebc 1094 95bd 557e cabd 9502 2a3d
00000040: 08c1 ffbc bd30 563b 94e2 333f 7617 1ebc
00000050: d1ce f2bd 2345 74bc 5bcb e4bd e9b8 22bd
00000060: bba5 a6bc c501 e5bd 7665 b8bb c876 c5bd
00000070: ab45 323d 9dc8 96bd 696a 943c 9a21 80bc
00000080: 3fa0 35be 7f06 6ebd 1f62 49bd a078 363c
00000090: ad1f a33c 86f1 683b a71e b1bc 0173 92bc
000000a0: d834 19bd 9b2f 92bd 3998 63bd 34fc 4fbd
000000b0: 4441 f6bd 28b4 3bbe 632c 18bd 781e bf3f
000000c0: 2448 663d 8604 9dbd 2cfb edbd 4a1c 343e
000000d0: 6a0f 59bd 7157 e3bc 5362 57bd 29c7 36bd
000000e0: d472 dcbd e3db 7cbd 189f 053d 263b 88bd
000000f0: 50d3 61bd ee9b 87bc 09a8 edbd b0e9 cfbc
00000100: 50d9 b0bd ebd9 9bbe 8a18 0dbe 30ba 22be
00000110: e6b9 14be d112 72bd 6115 34be a329 963c
00000120: b695 42be d168 af3c 6c37 e6bd b716 073d
00000130: 6a68 9dbd 149b 93bd 84d6 1cbc c828 3dbe
00000140: 0845 9dbc bd38 48bd 57dc 9bbd c6f6 3c3d
00000150: 90b3 92bc b041 86bd bb69 02bd 134d d0bd
00000160: fe3d 9abd 98b7 a3bc 5545 983c c9a4 dabd
00000170: 4c7e 0b3e 99c5 fc3e d835 f83c 2468 b73c
00000180: 5811 cabd 7127 00be 10a1 00bd ed2f 84bd
00000190: ea3e c5bc d117 8abc b104 4c3c e8cb 5ebd
000001a0: fe0f 2bbd 54b6 70bd 320a 77bd f6af 86bc
000001b0: 0e68 b2bc 0317 983d 025d 77bd b646 36be
000001c0: e78f 81bd 5413 c23b 8952 093c 61df 5abd
000001d0: f87f a53c eaaf 83bd 651a 25bd a64e 0abe
000001e0: 19c9 e4bc 6346 153c 4afb cfbd c665 a4bd
000001f0: 7f01 dbbc 45ed 8ebd 4d31 debc bfc8 1d3c
00000200: 4d04 95bd eebe d03c b798 0ebe 55bd ccbd
00000210: 8c6c 5a3e 648b 8dbe b1e0 a6bd a57a 4abe
00000220: a26c 25be 232b 70bd 87aa b7bc 67ff 1fbd
00000230: 2f96 2ebd 6b25 ebbd 2ff5 b63d 8e7b 00be
00000240: c8e9 bebd f8ed 2dbd 40eb ef3a a466 3abd
00000250: cb3d a5bd 351c c7bd f114 acbc 3db5 863d
00000260: 14a3 81bd 2bb9 403c 3e65 d63d 1a50 35bc
00000270: 480a e63b 3832 b8bd a82a 273e 5826 613c
00000280: 6b03 b73c 9c49 a8bc b278 f5bc 9d65 85bd
00000290: 84eb 0bbc 4159 d43d ac1b 32bd ecd6 18bd
000002a0: 4055 e5bc 5893 c3bc f85e 08bd f49f e5bd
000002b0: 5338 01be ca57 c8bd c79f e8bd 73f6 74bd
000002c0: e65e 8ebd cbee af3b 469b 78bd a77b 4c3d
000002d0: 4384 bc3e 7958 83bd fa9f 95bd f004 d1bc
000002e0: 363a 22bd 3db6 ddbc 0244 22be 2cc2 cbbb
000002f0: 013e 37bd c152 08bd 5d8f e3ba e4f9 05bd
00000300: ad4b 333c 7858 1fbd 8b8e 903c 2b23 5bbd
00000310: 9076 adbd 6dbb adbd 74aa 433d b34a 42ba
00000320: 9ad2 debc 1af5 07bd c66b e3bc d657 14be
00000330: abbf ddbc f8a8 bbbd 3a4c 0fbd d9b5 d5bd
00000340: 6c35 773e faae 6abd ca9c 92bd 9a00 05be
00000350: 5775 d3bd 58f6 703a 1538 c53c a0f6 58bd
00000360: 31be 81be c008 07bd 8cd7 af3b e77a ffbc
00000370: 9dd9 913d 1c3a 42be a312 ac3d 7100 213e
00000380: 3ec8 98bd b56a a5bd fd6e 90bd bafc 19bd
00000390: b7a2 91bd a7a2 c5bd 31e6 e0bd 2218 c33e
000003a0: f0d6 61bd c1d3 e8bb ac6e a7bd 882c e63a
000003b0: 57b9 2fba e1ed 9cbc 3a30 14bd d3a9 583f
000003c0: 5885 f43e f8b7 e8bd 9653 743c 301a efbc
000003d0: 5874 693d 8ce4 b3bb 3734 66bd bcdd 073d
000003e0: b9a0 91bd 9eec 583d ef81 833e a453 2b3c
000003f0: 22a8 9d3b 84cb d7bd 2807 313d 869f 7ebd
-0.04710614 -0.049343515 -0.036623564 -0.23919947 0.10017776 0.05068847 0.03585171 -0.054065447
0.0881503 -0.11940132 -0.021482468 0.015253033 -0.019400135 -0.07303631 -0.09887377 0.04150637
-0.031219974 0.003268286 0.70267606 -0.009649148 -0.11855853 -0.014909062 -0.111715995 -0.039727125
-0.020342698 -0.11181978 -0.0056273295 -0.09641796 0.04352347 -0.07362483 0.018117147 -0.015641022
-0.1773691 -0.058111664 -0.04916584 0.011137158 0.019912565 0.003554435 -0.021621061 -0.017877104
-0.03740391 -0.07137986 -0.055565093 -0.05077763 -0.12024167 -0.18330443 -0.037151705 1.4931173
0.056221142 -0.076668784 -0.11620173 0.17588916 -0.052993216 -0.027751656 -0.052584004 -0.044623528
-0.10764089 -0.061733138 0.032622427 -0.06651907 -0.055133164 -0.016553845 -0.11604316 -0.025379986
-0.08635199 -0.30439696 -0.13778892 -0.15891337 -0.1452404 -0.059099976 -0.1758628 0.0183304
-0.19002423 0.021412285 -0.1124104 0.032980647 -0.07685931 -0.07207313 -0.009572629 -0.18472588
-0.019197956 -0.048882235 -0.07610386 0.04613378 -0.017907888 -0.06555498 -0.031839114 -0.10170951
-0.07531355 -0.019985005 0.018587748 -0.106759615 0.13622397 0.49369505 0.030299112 0.022388525
-0.09866589 -0.12515046 -0.0314036 -0.064544536 -0.024077851 -0.01685706 0.01245229 -0.05439368
-0.0417633 -0.05876763 -0.060312457 -0.016441327 -0.021778133 0.07426264 -0.060391434 -0.17800412
-0.06326275 0.0059227142 0.008381494 -0.053435687 0.020202622 -0.06430037 -0.040308375 -0.13506564
-0.027927922 0.00911102 -0.101553515 -0.08027224 -0.026734112 -0.06978849 -0.027123118 0.009630381
-0.07276211 0.025481667 -0.13925444 -0.0999705 0.2133047 -0.2764541 -0.08148325 -0.19773348
-0.16154721 -0.05863489 -0.022420181 -0.03906193 -0.042623695 -0.11481746 0.08933484 -0.12547132
-0.09321934 -0.042463273 0.0018304363 -0.045508042 -0.08068427 -0.09722177 -0.02100608 0.06577537
-0.06329933 0.0117628975 0.10468529 -0.011066461 0.0070202686 -0.089939535 0.16324866 0.013742052
0.022340497 -0.020542912 -0.029964779 -0.06513522 -0.008540038 0.10368586 -0.04348342 -0.03731434
-0.027994752 -0.02387397 -0.033293694 -0.11212149 -0.12619142 -0.097823694 -0.113586 -0.059805345
-0.06951694 0.0053690425 -0.060694955 0.04992261 0.36819658 -0.06413359 -0.07305904 -0.02551505
-0.039606296 -0.027064437 -0.15846255 -0.0062182155 -0.044736866 -0.033282045 -0.0017361451 -0.032709017
0.0109433355 -0.03890273 0.017646095 -0.053500336 -0.084698796 -0.08483014 0.04776998 -0.0007411644
-0.027200032 -0.03319273 -0.027761351 -0.14486632 -0.027068933 -0.091630876 -0.034984805 -0.10435075
0.24141473 -0.057295777 -0.071588114 -0.1298851 -0.10325115 0.00091919815 0.024074594 -0.052969575
-0.25340417 -0.03296733 0.0053662714 -0.031186534 0.071215846 -0.1896748 0.08401992 0.15722825
-0.07460068 -0.080769934 -0.07052419 -0.037594534 -0.071111135 -0.09650164 -0.109814055 0.3810435
-0.05513662 -0.007105321 -0.08175406 0.0017560879 -0.0006703338 -0.019156398 -0.036178805 0.8463413
0.47757983 -0.11363214 0.014912507 -0.029187292 0.05699572 -0.0054898914 -0.05620214 0.033170447
-0.071107335 0.05296003 0.2568507 0.010456953 0.0048113028 -0.105368644 0.043219715 -0.062163852

last_mean.weight f4 [13, 256]
00000000: f0bd e13d 626b 2d3e b759 82bd 81e6 c1bd
00000010: 5c82 93be ad15 51bd 1582 41bf bd06 343c
00000020: bc90 1abf 7e7c a83e 9f13 923e e308 553e
00000030: 81c1 443e d0c4 e43b e22b 8a3d e7ab 323d
00000040: da53 7abd 5925 523d a662 25bf 2837 20be
00000050: c7a1 8b3e 3f17 fc3e c520 eebc 80be 263f
00000060: 0b7b 07bd 6008 1b3e d4c9 683c eb3c a53e
00000070: a843 903d 0897 f63d 325a 043e 21ce 03bf
00000080: a81c 713e 1b5c 00bd 8eca b03d cde3 433c
00000090: c712 623d 3fbd aabd 9786 a1bd 9772 333f
000000a0: ace2 3dbd 4d2a a8bc 38d7 9dbd 9e34 45bd
000000b0: 6bf5 81bd 9dbc a23d 2100 86bc 2a23 e83c
000000c0: 9783 9e3e 304a 8dbe f851 c03d e4e4 29be
000000d0: 846e 24bb 3747 ecbc d498 7d38 86c3 963e
000000e0: f68f 863e 9e16 683d e0eb 9f3b a4bf 87bc
000000f0: 840c a53e 07e7 8e3e 3f5f 7d3e fccb 2f3d
00000100: fcd2 653d 2c0f 353e fa74 353e 008a f23d
00000110: ddc1 953f 64a7 8a3e f4a6 fd3c c5c7 aebc
00000120: 0ea6 ea3d e8fa dcbd 18be be3d fd4c eb3d
00000130: a9b3 033d 7112 47bd 1c9f 69bb 39ee 45be
00000140: cd80 8e3b 70e7 32bd cc9d 143d 79ef 35bf
00000150: 6192 943e 17fa fb3e eed8 143e 4f3e 8e3d
00000160: 71a6 663d d9d6 583d a2d6 8c3c f1bf 44bf
00000170: 0130 8bbe 0e3f 8c3e 0498 863e c72a 223e
00000180: fb3e fc3d 8bbe d73d 5cdf 0d3d 5dec 303c
00000190: af37 01bf 49d5 d13c b983 883d ca0d a53d
000001a0: c901 91be ca7f b3be 283b ce3c 66de 113c
000001b0: 02e9 e73a 1038 813e 9b39 333d 6cf3 9a3e
000001c0: 39a6 62bb 07c3 ec3d 16c1 2b3e 4cec b03e
000001d0: 0848 4c3e 5591 8bbe 6330 6f3d afb7 8c3d
000001e0: 2754 97be 7a9b b53d fb92 b8bd 6234 c43d
000001f0: 31fc 53be b427 113e 4c9c ccbd f49e c13d
00000200: 3dfe c03e 81fe e5bd 83d8 723d 7944 f43d
00000210: fe61 133e 931e 1ebf dda8 80be ad91 d83c
00000220: 8fbf 31bd bf7e 8e3d 3998 54bd 5189 053f
00000230: f6b7 b63d a4c6 9d3d 7627 c23d e221 073e
00000240: 1436 70bd 4795 23bb 32ab b2bb 96ba aabd
00000250: ad18 30bd 8864 3d3d 4c44 ff3c b5ae bebd
00000260: e80a f43e 9b50 71bd ee92 5cbf dc9a e3be
00000270: 40cd 4c3e 68b6 143c f3f1 1d3e 42fe b23d
00000280: cdd8 2b3f ff44 1c3c 466c 1c3d 5e53 253e
00000290: 6feb 5c3c 92e6 05bd 8900 573c 3fc0 f73d
000002a0: 9304 f03c 2d8b c4bd d600 82bc 5341 4d3c
000002b0: c587 413e a218 99bd f096 b1bc 86de a63e
000002c0: 7f7e 9f3d 0de9 873e 9742 d3bc 9cc4 223e
000002d0: 6079 693d 4fad e23b f53e f73c 65b2 003c
000002e0: ba70 0c3f 994f 1a3e 46af a73d 4325 d93e
000002f0: c24f 0f3f 7b02 cfbd e666 693d b1f7 a43e
00000300: 440b a1bd 855b 7e3d 1a73 ac3c f4e4 803e
00000310: b33c b9bd b9ab 3a3d d6f4 043f a6c1 34be
00000320: c642 cebe f163 3d3e c55a 3c3e 84e6 00bd
00000330: 3a46 d83c 9f36 483e 0e18 833d 9760 ecbb
00000340: fc60 c43d 6d1f 033f dc40 823e 85d8 673d
00000350: 03d8 b83e 6e0d 13bd 5d34 f33d 2976 cf3d
00000360: ac05 42be 6ec5 81bb 4357 bd3e 2912 ccbb
00000370: 6d53 1e3f d780 e73e f23f ccbd 6da5 d43d
00000380: 48c4 0dbd d281 fd3b b3b1 7d3d 782e 0c3d
00000390: 1488 553e 428a 813c 73b6 8d3e 5c1e 99bd
000003a0: 748b d53e ea49 9d3d d5a1 d63b 905f 5b3c
000003b0: 43c7 05be 3f6f c33d c306 353f b4d1 4d3f
000003c0: f539 2bbe 2491 b43c 0f9a 3f3d b393 203d
000003d0: 3a83 093f 09f3 beba a658 50be e70c 1e3e
000003e0: 5948 583e 6e94 203f 46c3 333e 0020 5b3d
000003f0: d3eb 293e bc6d 973e 0c7c 883e 1a3f b13e
0.11022556 0.16935495 -0.06364768 -0.09467793 -0.28810394 -0.051046062 -0.75589114 0.010987935
-0.603771 0.3290748 0.28530595 0.20804171 0.19214441 0.0069814697 0.06746651 0.04362097
-0.061115123 0.05130515 -0.6460365 -0.1564604 0.27271864 0.49236485 -0.02906836 0.6513443
-0.033076327 0.15139914 0.014208276 0.3227304 0.070441544 0.12040526 0.12925032 -0.514864
0.23546088 -0.03133784 0.08632384 0.011956167 0.05519369 -0.08336877 -0.07886999 0.70096725
-0.04635875 -0.020527983 -0.07707065 -0.048145883 -0.06345638 0.079461314 -0.016357483 0.02833708
0.3095977 -0.27595663 0.09390634 -0.16591221 -0.0025090287 -0.028842552 6.0462233e-05 0.29446048
0.26281708 0.056662194 0.0048804134 -0.016570874 0.3223611 0.27910635 0.24743365 0.042919144
0.056109414 0.17681569 0.17720404 0.11842728 1.1699787 0.27080834 0.030963399 -0.021335492
0.11457454 -0.10790044 0.09313601 0.11489294 0.03215376 -0.04860157 -0.0035647815 -0.19329156
0.0043488503 -0.043677747 0.0362833 -0.7106853 0.29017928 0.4921424 0.14535877 0.06945478
0.056311075 0.05293927 0.017192189 -0.7685538 -0.27185062 0.27391857 0.26287854 0.15836631
0.123167 0.1053439 0.03463684 0.010798541 -0.5047559 0.025614398 0.06665749 0.08059271
-0.28321674 -0.35058433 0.025174692 0.008903122 0.0017693343 0.25238085 0.04375611 0.3026384
-0.003458394 0.11560636 0.16772875 0.3455528 0.19949353 -0.27259317 0.058395755 0.06870972
-0.2955639 0.088675454 -0.09012409 0.09580304 -0.20701672 0.14175302 -0.09990749 0.09454146
0.37693968 -0.112301834 0.059288513 0.119271226 0.1439285 -0.617654 -0.25128832 0.026436651
-0.043395575 0.06957769 -0.051902983 0.52162653 0.089218065 0.07703903 0.09480183 0.13196519
-0.058645323 -0.0024960802 -0.005452537 -0.0833637 -0.042992283 0.046238452 0.031160496 -0.093106665
0.4766457 -0.058914762 -0.86161697 -0.44454086 0.20000172 0.009076692 0.15424328 0.08739902
0.67127687 0.009537934 0.038189195 0.16145083 0.013483866 -0.032690592 0.013122686 0.12097215
0.029299056 -0.09596858 -0.01586954 0.012527782 0.18899448 -0.074754015 -0.021678418 0.32591647
0.07787799 0.2654499 -0.025788588 0.15895313 0.057000518 0.0069176327 0.030181387 0.007855033
0.5485951 0.15069427 0.08187728 0.4241124 0.55981076 -0.10107895 0.056982897 0.32220224
-0.07863477 0.062099 0.021050978 0.25174677 -0.090447806 0.045573924 0.5193609 -0.17651996
-0.4028532 0.18495156 0.18394001 -0.031469837 0.026400674 0.19552086 0.064010724 -0.007213663
0.09588811 0.51219827 0.2544011 0.056602973 0.36102304 -0.03590148 0.11875222 0.10129959
-0.18947476 -0.003960303 0.36980638 -0.006227751 0.6184605 0.45215484 -0.09973134 0.10383115
-0.034611017 0.007736423 0.061937045 0.034224004 0.20852691 0.015812997 0.2767826 -0.07476494
0.41707957 0.076801136 0.0065500536 0.013389483 -0.13064294 0.09542703 0.7071344 0.80398107
-0.16721328 0.022041865 0.04677778 0.039203357 0.5371586 -0.001456828 -0.20346317 0.1543461
0.21121348 0.62726486 0.1755496 0.053497314 0.16593866 0.29575908 0.2665714 0.34618455

last_mean.bias f4 [13]
00000000: 95a4 5dbd fee0 6cbf e790 76bf f54f 8f3f
00000010: 0781 963c 79cd df3c 93cf 1f3d 9790 12be
00000020: f8fe e83d b894 a13d 1337 743d 0d78 3939
00000030: d960 633d
-0.054112036 -0.9253081 -0.96314853 1.1196276 0.018372072 0.027319657 0.039016318 -0.14312969
0.113767564 0.07889694 0.059622835 0.00017687697 0.055512283

last_fc_log_std.weight f4 [13, 256]
00000000: 8a4d 793d 6af8 193a 7dca 743d c32f c0bb
00000010: 49a2 0dbe b400 1bbd e689 0e3e 4da5 edba
00000020: d295 e7bd 0bfd f83d b4da 013e 5a2e bf3c
00000030: 02d5 923d 7de3 78bc 9d98 7c3d 1c71 e43d
00000040: dd80 283e 822c 023d 93f8 5c3d ccbd 90bb
00000050: ed37 dc3d 955f 243e a7c1 ef3d 8547 a6bc
00000060: 914f 1dbd 9af0 92bc 3c6f 2fbc 644d 843d
00000070: f992 2bbc a866 d3ba f925 3d3d ae75 8e3e
00000080: fc19 39bc 8b42 b63c def4 ef3c 92d7 823c
00000090: 29c3 4b3c 8abf 113d 49d3 943d c2b7 c53d
000000a0: 5162 6e3d 9195 653d 7955 80bc 1ef2 d53c
000000b0: 584b 2e3e eb30 85bc 1b07 873b 8fbb 5abc
000000c0: 3e8d 40bb 1ee2 633e 9f9b 7bbc 5655 3ebd
000000d0: 7dda 3c3d 2268 66ba 79cc d93d a4df 3c38
000000e0: 0603 653e 0de0 663d 165a f93c 8de4 123c
000000f0: 79f5 043e a5eb 5e3e 8c3f b63c 5709 2c3e
00000100: 8f5a 033e d068 683d 4277 583e a610 9e3d
00000110: c4e9 9dbd 098f f83c 2f2a 393e 3094 01bd
00000120: 4958 6e3d dc58 343c d1b9 193e 26fc 2f3e
00000130: 8428 4bbd f0a9 a93d faae 623d 1ee8 693c
00000140: 7521 663a 8a2e 4ebb 0796 1f3c fd41 663e
00000150: 1078 af3d eb68 083d a50e ab3d 195c 66bd
00000160: d06d 0f3e 32d5 11bb 0884 213c 655f 06be
00000170: c2e5 47bc 0611 973c 7c1a 39bc fa24 b53d
00000180: d421 f63d 17f3 3dbc fa45 863c 20a4 f23c
00000190: 377b dbbb bedf 713d 9f1f 92ba 922d 1ebd
000001a0: 7413 ab3d 1153 afbc aeae 053d 9828 783c
000001b0: c61c 303d 3291 5dbb 0814 7e3d 700e e13d
000001c0: d6ff 06bd ea41 c53d 2be3 c93d fb8f 15bd
000001d0: dc73 b73d 7c16 21bd ef29 9e3b 9d97 9e3c
000001e0: ce66 583e a55a 943c 2640 1f3c cc93 2e3d
000001f0: ade1 b53d 4c87 89bb 290e 103e 534a cabb
00000200: ed41 a83d f6f1 bbbc 1a32 923d 21b2 0c3e
00000210: f55d 75b9 3d99 14bf 39a8 213e 07a7 5a3c
00000220: 3590 d0bb 2c0e 053d a895 f43c 432c 7d3e
00000230: de87 ea3d 9608 943c c421 873d a455 813d
00000240: fc87 6ebd 0b48 243d f372 cc3c 1214 4f3e
00000250: 10ae 1e3d 9a81 a73d e953 e93b 92d1 203d
00000260: 537e e13c 9dd4 183d e9f4 e33d f5d2 29be
00000270: 1485 363d d1e8 083e 3c8d 713d 8eb4 2c3d
00000280: 061e 9c3c 0aed 393c 4f78 a73b 1ccf 533e
00000290: 5d2a 343d 7af9 d83c 5b71 403d 7d0b bdbc
000002a0: 30c7 19bd 249c fe3c 2e4d 6e3d ecdd 343d
000002b0: d01d 253e 4fd3 d93d b31a d7bd 352a d73b
000002c0: 58da 71bd a7f7 ed3d 6009 123d 72ca e43d
000002d0: 6575 513d 787d 7f3d 8c0b 9d3d 3e76 c63b
000002e0: df73 bc3d 5078 78bd 3bc3 703c d2c8 1bbe
000002f0: 8206 323c 0faa 203d b868 a33c 0a82 993d
00000300: fba4 413d ccb0 653d b3a9 e13c f983 cbbc
00000310: 6cfe 6f3e 0dc4 aa3d b4ff 81bd 977f f83b
00000320: 86b1 963e eb47 863d 797a ab3d e62b 1e3e
00000330: bbb4 873c 2726 aa3d f854 9b3c 5fbc c63d
00000340: 53e8 6b3d afed 8c3d 945f c63d f07a 3c3e
00000350: 956d 9e3e 88bc b83c 28fb 6a3d 2241 0b3d
00000360: 2fc0 083e 58c4 b83d daef 013e 98f9 9a3c
00000370: 761e 5a3e d1ce 40bd cb4c 0b3d d875 7a3b
00000380: 2fd6 ad3d a4e2 043e ba02 8abc 5cdb b03c
00000390: 781f 3b3d 37fb a03d 01ee 4c3e 73e6 653d
000003a0: 7bc3 fcbc 679f b63c c951 303d 090e f93c
000003b0: 45bb cebc 4c27 f3ba 32a9 55be f50d dc3e
000003c0: dc7b 4cbd 768a 893d b3ae f93c e831 0b3c
000003d0: 4148 86be 7240 e4ba 475a 633c 98a9 cc3d
000003e0: 04f1 983c cd12 983e 0955 8d3d ad9e 313c
000003f0: 29de 6e3d a5fb 813e 136e a1bd 3726 913e
0.060864963 0.00058735034 0.05976342 -0.0058650686 -0.13831438 -0.037842467 0.13919792 -0.0018130929
-0.11307873 0.12157639 0.12681085 0.023337532 0.07169534 -0.015190956 0.06166898 0.111543864
0.16455407 0.031780727 0.053947996 -0.004417157 0.107528545 0.16052087 0.11706858 -0.020297775
-0.03840596 -0.017936993 -0.010707673 0.064600736 -0.010472053 -0.0016128616 0.04617879 0.27824157
-0.011297699 0.022248527 0.029291566 0.015971933 0.0124366665 0.035583057 0.07266862 0.0965419
0.05819923 0.05605084 -0.015665757 0.026116427 0.17020929 -0.016258677 0.00412072 -0.0133503815
-0.0029381062 0.22254226 -0.015356927 -0.0464681 0.046106804 -0.0008789321 0.10634703 4.5030974e-05
0.22364435 0.056366015 0.030438464 0.008965624 0.12984265 0.21769579 0.022247098 0.16800438
0.12827514 0.056740582 0.21139243 0.07718019 -0.07710603 0.030341642 0.18082498 -0.031635463
0.058189664 0.011007514 0.1501229 0.17186031 -0.049599186 0.08284366 0.055342652 0.014276532
0.0008778789 -0.0031460845 0.009740359 0.2248611 0.08567822 0.033303183 0.083524026 -0.056240175
0.14006734 -0.0022252318 0.009858139 -0.13122328 -0.012200775 0.018440735 -0.011297818 0.08844943
0.12018171 -0.011593602 0.01639079 0.029619277 -0.006698038 0.059051268 -0.001114834 -0.038617678
0.0835332 -0.021401914 0.03263729 0.015146397 0.04299619 -0.0033808467 0.062030822 0.10989082
-0.032958828 0.09631713 0.09857782 -0.036514264 0.08957645 -0.039328083 0.004826776 0.019359404
0.21132967 0.018109629 0.009719884 0.04262142 0.08880935 -0.004197037 0.14067902 -0.006173411
0.08215699 -0.022942524 0.07138462 0.13739826 -0.00023400022 -0.58046323 0.15786828 0.0133454865
-0.006364847 0.03248422 0.029856518 0.24723916 0.11451696 0.0180705 0.06598237 0.06315163
-0.058235154 0.040107768 0.024957156 0.202225 0.038740218 0.081790164 0.0071205986 0.03926236
0.027526056 0.03731214 0.11130697 -0.1658438 0.044560507 0.13370062 0.058972582 0.042164378
0.019057285 0.011348018 0.0051107774 0.20684475 0.043985713 0.026486147 0.046983104 -0.023076767
-0.037543476 0.031080313 0.058179073 0.044156954 0.16124654 0.10636007 -0.10503139 0.0065663108
-0.05904612 0.116195016 0.035653472 0.11171426 0.051137347 0.062375516 0.07668218 0.006056576
0.09201788 -0.060661614 0.014694984 -0.15213326 0.010865809 0.03922468 0.019947395 0.07495506
0.04727648 0.05607681 0.02754674 -0.024843203 0.23436898 0.08338175 -0.063475996 0.0075835693
0.29432315 0.06556686 0.08372969 0.15446433 0.016565671 0.08308058 0.018961415 0.09703898
0.05759461 0.06881272 0.09686199 0.18406272 0.3094298 0.022550836 0.057368428 0.033997662
0.13354562 0.090218246 0.12689152 0.018917844 0.21300682 -0.047072235 0.034008782 0.0038217213
0.08488118 0.12977082 -0.016847003 0.021588974 0.045684308 0.078604154 0.20012666 0.056127977
-0.030854931 0.022292806 0.043046746 0.0304022 -0.025235781 -0.001855114 -0.20865324 0.42979398
-0.04992281 0.067158625 0.03047881 0.008495785 -0.26227 -0.0017414226 0.013876504 0.09993285
0.018669613 0.29701844 0.06900985 0.010841054 0.058317337 0.25387302 -0.07882323 0.28349468

last_fc_log_std.bias f4 [13]
00000000: d316 0ebe 35dc d1be 4132 d8be 183d e7be
00000010: aa32 12be dfc4 1abe ddce 2ebe 8556 18be
00000020: 4bb4 0fbe 4a74 36be 12b2 1bbe 7459 31be
00000030: 6274 4cbe
-0.13875894 -0.40988317 -0.4222584 -0.45163798 -0.1427714 -0.15114163 -0.170711 -0.14876755
-0.1403362 -0.17817798 -0.15204647 -0.1731928 -0.19966272
