save_mode/SAC_v_10_qf2_network.pth (torch, 329559 bytes, 5 tensors)

fc0.weight f4 [256, 61]
0	0xbd674cd4	-0.056469753
1	0xbd4524b6	-0.048130713
2	0x3c67c668	0.014146425
3	0x3d7184c0	0.05896449
4	0x3d3553a2	0.04426921
5	0xbda8faf9	-0.08250994
6	0xbd8071d2	-0.062717095
7	0x3f022229	0.50833374
8	0xbcbea810	-0.023273498
9	0x3d206d38	0.03916666
10	0x3d51a7c0	0.05118537
11	0x3d4c5440	0.049885035
12	0xbd0fe4dc	-0.035130367
13	0xbe4b0b0b	-0.19828431
14	0xbe0b3fec	-0.13598603
15	0x3f4df7b1	0.8045607
16	0xbd125bc2	-0.03573204
17	0x38e37800	0.00010846555
18	0x3d3edcb6	0.046597205
19	0x3d7703e2	0.060306437
20	0x3cb35840	0.021892667
21	0x3f410976	0.7540506
22	0x3f6188ad	0.88099176
23	0x3eadc62c	0.33940256
24	0xbd529a52	-0.051416703
25	0xbc952d28	-0.018210009
26	0xbc94b568	-0.018152907
27	0xbd1f92cc	-0.038958356
28	0x3cbad5f8	0.022807106
29	0xbe729f7b	-0.2369365
30	0x3be0bc4e	0.006858385
31	0x3e5a4596	0.21315607
32	0xbc45f8b8	-0.012083225
33	0xba2fc080	-0.0006704405
34	0xbc366ae8	-0.011133887
35	0x3c59df70	0.013297901
36	0xbd066c3a	-0.032818057
37	0xbf04212f	-0.51613134
38	0xbeff36c4	-0.4984647
39	0xbec2ea69	-0.38069466
40	0xbd79d95a	-0.0609983
41	0x3d61d4f4	0.05513473
42	0xbc30f738	-0.010801129
43	0x3d603102	0.054734237
44	0xbd5cdc74	-0.053921178
45	0xbe6164c1	-0.22011091
46	0xbde8d4e0	-0.11368728
47	0x3d9f706d	0.077851154
48	0x4022614c	2.5371885
49	0x409b7158	4.857586
50	0x40c68582	6.2037973
51	0xc104b7d6	-8.294882
52	0xbe09fe2b	-0.13475864
53	0x3ea1b8d6	0.3158633
54	0x3dfc6896	0.12324636
55	0xbf768dc9	-0.96310097
56	0x3eb3d218	0.35121226
57	0xbf282fc2	-0.6569787
58	0x3e4d55d4	0.20052272
59	0x3d850fb5	0.064971365
60	0x3ee32c67	0.44369814
61	0x3bfacfb0	0.007654153
62	0x3d63786c	0.055534765
63	0x3c7ff328	0.015621938
64	0x3bd07db0	0.0063626394
65	0xbd029c2c	-0.03188722
66	0xbf27de3a	-0.65573466
67	0xbf9d06e3	-1.2267727
68	0xbf74fab0	-0.9569502
69	0xbc6b0c80	-0.014346242
70	0x3d3c4238	0.04596159
71	0x3d313f2c	0.043273136
72	0xbb1a4e60	-0.002354525
73	0xbc94276c	-0.018085204
74	0x3c5e5d14	0.013571996
75	0xbc52247c	-0.012826081
76	0xbe97db6c	-0.29659593
77	0xbd24bde6	-0.040220164
78	0xbd3b8330	-0.045779407
79	0xbc7a24f8	-0.015267603
80	0xbc55bd00	-0.013045549
81	0xbd3ad6de	-0.04561507
82	0x3f1ff49b	0.62482613
83	0x3f682b48	0.9069104
84	0x3ed415fd	0.41423026
85	0xbd19ab26	-0.037516735
86	0xbcf24118	-0.029572055
87	0x3d4dd778	0.050254315
88	0x3c993010	0.018699676
89	0xbcbebd20	-0.023283541
90	0xbbedf23b	-0.007261542
91	0x3e647f19	0.22314109
92	0x3efeee04	0.49790967
93	0x3cf5a108	0.029984012
94	0x3b2a6e60	0.002600573
95	0x3d0c5d6a	0.034268774
96	0x3c097810	0.008390442
97	0x3d74ff2e	0.05981367
98	0xbe54a300	-0.20765305
99	0xbef45ab1	-0.47725442
100	0xbea8cc11	-0.3296819
101	0xbc365750	-0.011129215
102	0x3c9a4060	0.018829525
103	0xbcc1cd30	-0.023657411
104	0x3b5d1d60	0.0033739433
105	0x3d614c5a	0.055004455
106	0xbd001a81	-0.031275276
107	0x3c78f600	0.01519537
108	0x3eae6a23	0.3406535
109	0x3f0075c8	0.5017972
110	0x40b1ede0	5.5602875
111	0x40f37c1e	7.608901
112	0xc119cf24	-9.613071
113	0xbe9de36e	-0.30837578
114	0xbfd73001	-1.6811525
115	0x3fa4f8e4	1.2888455
116	0x401193a0	2.2746353
117	0xbff0ee6e	-1.8822763
118	0x3f83c865	1.029553
119	0x3f69d779	0.9134441
120	0xbf501a11	-0.81289774
121	0x3fb49bae	1.411001
122	0xbd0fff68	-0.035155684
123	0xbbf7fd60	-0.0075680465
124	0xbb967730	-0.004591845
125	0xbd60ba12	-0.05486495
126	0x3d37a818	0.04483804
127	0x3f177a77	0.5917124
128	0x3eebb8b4	0.46039355
129	0x3e879662	0.2648192
130	0xbcf961d0	-0.030442148
131	0x3b9b7b50	0.0047449246
132	0xbd3e9d94	-0.046536997
133	0x3d61e69a	0.05515156
134	0xbd6d38aa	-0.057915367
135	0xbbf3bfda	-0.007438642
136	0x3e44cb35	0.19218142
137	0x3f55ecb5	0.8356431
138	0xbb58c1a0	-0.0033074394
139	0x3d73d3c2	0.05952812
140	0xbb5c83e0	-0.003364794
141	0x3d4c7a36	0.049921237
142	0xbc5a3760	-0.0133188665
143	0x3f2721c8	0.6528592
144	0x3f701389	0.9377981
145	0x3eb869f1	0.36018327
146	0x3d6c1756	0.057639442
147	0x3d5cba6c	0.053888723
148	0xbcf54408	-0.029939666
149	0x3d65a2a2	0.0560633
150	0x3b9095f0	0.004412405
151	0xbdd6aff1	-0.10482777
152	0x3e84c2d3	0.2592989
153	0x3f0b43ca	0.5440031
154	0x3cd8c05c	0.026458912
155	0xbc48c178	-0.012253158
156	0x3d54c8fa	0.05194948
157	0x3cde6060	0.027145565
158	0xbca2dd7c	-0.019881003
159	0xbea43867	-0.32074282
160	0xbe84d21d	-0.25941554
161	0xbeb5a7d1	-0.35479596
162	0xbc622bd0	-0.013804391
163	0xbccfcb58	-0.025365517
164	0xbc06f288	-0.008236535
165	0x3c0127b8	0.007883005
166	0x3bcdbbb0	0.0062784776
167	0xbdefae4b	-0.117031656
168	0x3d620f91	0.055190627
169	0x3ee378cb	0.44428095
170	0x3ece72d9	0.40321997
171	0x40aab795	5.33491
172	0x40ecf646	7.4050627
173	0xc115cd67	-9.362647
174	0xbed7248d	-0.42020074
175	0x3f1ef8da	0.6209847
176	0xbeac0a1b	-0.3360146
177	0xbf6d699a	-0.9273926
178	0x3f711482	0.9417192
179	0xbf1a67bf	-0.60314554
180	0xbf810284	-1.0078893
181	0x3f419683	0.7562029
182	0x3ece9735	0.40349737
183	0x3d3e3254	0.046434715
184	0x3a7d3c00	0.0009660125
185	0xbcddca88	-0.027074113
186	0x3d10cd3a	0.03535197
187	0xbd5c8106	-0.053833984
188	0x3ebfb233	0.37440643
189	0x3e917ca0	0.28415394
190	0xbcda103e	-0.026619073
191	0x3d01d046	0.031692766
192	0x3d48725c	0.048937187
193	0xbcda2ab4	-0.02663169
194	0xbb9ca030	-0.004779838
195	0x3ced957c	0.029001944
196	0x3dd66b86	0.10469727
197	0x3d6a48ca	0.057198323
198	0x3f0ac240	0.5420265
199	0xbab960c0	-0.0014143214
200	0xbd6d343e	-0.05791115
201	0x3b77ccc0	0.003781125
202	0x3ccc7868	0.024959758
203	0x3be36500	0.0069395304
204	0x3ed5a858	0.4173
205	0x3f4cfb16	0.80070627
206	0x3e393e81	0.1809025
207	0x3d6a5818	0.05721292
208	0x3cee6220	0.029099524
209	0x3cca2f9c	0.024680905
210	0x3cef2efc	0.029197209
211	0xbcce8320	-0.02520901
212	0xbc129a9e	-0.008947996
213	0x3e73c3c9	0.23805155
214	0x3efdc74b	0.4956611
215	0xbce75268	-0.028237537
216	0xbc291e10	-0.010322109
217	0xbd2ad45a	-0.04170642
218	0x3d42f752	0.047599144
219	0xbc95134c	-0.018197678
220	0xbe95b24c	-0.29237592
221	0xbeb66a80	-0.35628128
222	0xbe948a51	-0.29011777
223	0x3c2e3160	0.010631889
224	0x3cd17134	0.025566675
225	0xbb534aa0	-0.0032240525
226	0xbcaa7120	-0.020805895
227	0xbd198f70	-0.03749031
228	0xbdc686d7	-0.096936874
229	0x3d4a74ad	0.049427677
230	0x3ee1bc21	0.44088843
231	0x3ecb7ddf	0.3974447
232	0x40ac71a6	5.388873
233	0x40efbf73	7.4921203
234	0xc11933de	-9.575163
235	0xbd4bfd90	-0.049802363
236	0xbdd0ab1e	-0.10188888
237	0x3e19042c	0.14942998
238	0xbf12b78c	-0.5731132
239	0x3ee733f1	0.45156816
240	0xbe591c40	-0.21202183
241	0xbf7cf1c9	-0.98806435
242	0x3ec68778	0.3877523
243	0x3f566636	0.8374971
244	0x3be9f020	0.007139221
245	0x3d3aee28	0.04563728
246	0xbd680ca0	-0.056652665
247	0x3b7bc4a0	0.0038416758
248	0x3d72a9ac	0.059243843
249	0x40844634	4.1335697
250	0x40619265	3.5245602
251	0x409744fb	4.7271705
252	0xbcbb2394	-0.022844113
253	0xbc8abbb0	-0.0169352
254	0x3d56da86	0.052454494
255	0x3cbc2f34	0.022971727

fc0.bias f4 [256]
0	0x41c290d6	24.32072
1	0x42007751	32.11652
2	0x420121e6	32.283104
3	0x42004774	32.06978
4	0xc14d13a7	-12.817298
5	0x41b6618a	22.797626
6	0xc1423d86	-12.14002
7	0x41ffaf0e	31.960476
8	0xc03e974b	-2.9779842
9	0x41fed4a0	31.85382
10	0x4203f656	32.990562
11	0xc1ea15db	-29.260672
12	0xc03dcda8	-2.9656773
13	0x41eaa6d1	29.331453
14	0xbbc4c9d6	-0.006005506
15	0x40b344cf	5.6021495
16	0xc14711e5	-12.441869
17	0x42000b04	32.010757
18	0xbd0f1dac	-0.034940407
19	0x42055346	33.33132
20	0x41aaf1ea	21.368122
21	0x42015374	32.331497
22	0x42014cff	32.32519
23	0xc0c57b1a	-6.171277
24	0x41b7bc5e	22.966976
25	0x42047fa0	33.124634
26	0xc116c45a	-9.422937
27	0x4200b6b0	32.178406
28	0xc0f17d1a	-7.546521
29	0x41c9810e	25.188015
30	0xbbbce3f1	-0.0057644774
31	0x41ffe3b8	31.98619
32	0x4200bfca	32.187294
33	0x41c15419	24.166063
34	0x420366f3	32.850536
35	0xbf81e412	-1.0147727
36	0x42021486	32.520042
37	0x4200acb2	32.168648
38	0x00000000	0.0
39	0x42005a9e	32.088493
40	0x41f5aca0	30.70929
41	0x00000000	0.0
42	0xc1bc2e03	-23.522467
43	0x41b39d24	22.451729
44	0xc15255ec	-13.145977
45	0x42004319	32.065525
46	0x41fff365	31.993845
47	0xbd60ef60	-0.054915786
48	0x4200ae15	32.170002
49	0x00000000	0.0
50	0x420002dc	32.002792
51	0x4200aa3a	32.166237
52	0xbbe279ad	-0.0069114775
53	0xc13b2adc	-11.697964
54	0x41ffdeda	31.983814
55	0xbbff875c	-0.0077981185
56	0x42059606	33.396507
57	0x41fded15	31.740763
58	0x40d69310	6.705452
59	0xc03449c3	-2.817002
60	0xbd24053a	-0.040044047
61	0x41fda030	31.703217
62	0x00000000	0.0
63	0xc01460e4	-2.3184137
64	0x42009883	32.148937
65	0x41ffb122	31.96149
66	0x41ea0274	29.251198
67	0x41aa3203	21.27442
68	0x42004ad7	32.073086
69	0x41c5b75e	24.714535
70	0x41c1c276	24.219952
71	0x41c844b5	25.033548
72	0xc185279e	-16.644344
73	0x41a39ae5	20.450632
74	0x4204eda8	33.232086
75	0x420090a5	32.141254
76	0x418f5fea	17.921833
77	0xbc6e23ec	-0.014534932
78	0x41a9dd95	21.233194
79	0x42008955	32.134113
80	0x00000000	0.0
81	0x41ff4d12	31.912632
82	0x41f08725	30.065989
83	0x41bff048	23.992325
84	0x41c80ba5	25.005686
85	0x41a8410d	21.031763
86	0x41c1cfdf	24.2265
87	0x42021c88	32.527863
88	0x41f288ff	30.316893
89	0x41a77971	20.934298
90	0x41b7feb5	22.999369
91	0x413f4711	11.95485
92	0x41e8b77f	29.089598
93	0x41b3af32	22.460545
94	0xbc12eb3a	-0.008967215
95	0x420061f3	32.095654
96	0xc1e73fba	-28.906116
97	0x42007f2f	32.124203
98	0x4200012d	32.00115
99	0x41c87825	25.058664
100	0xc1a74325	-20.907785
101	0x41fb14a8	31.385086
102	0x41ff2057	31.89079
103	0x00000000	0.0
104	0x41ccb5ae	25.58871
105	0x41ff8486	31.939709
106	0x4200021c	32.00206
107	0x41bb354f	23.40103
108	0xbd11f6ae	-0.035635643
109	0x41b4fe57	22.62419
110	0x4200d203	32.20509
111	0x41f0af3d	30.085566
112	0x41dfc421	27.970766
113	0x42046505	33.09865
114	0xbc19f6a0	-0.009397179
115	0x41a77e4a	20.936665
116	0x41ab44c8	21.408585
117	0x41c79444	24.947395
118	0x3e5ffb3a	0.21873179
119	0xc1c50f54	-24.632484
120	0xc1eae350	-29.360992
121	0x4200a474	32.1606
122	0x41ff565b	31.917166
123	0xc1e9f4f7	-29.244612
124	0xc1f11327	-30.134352
125	0x42009944	32.149673
126	0x4200f9fa	32.244118
127	0xbca1fd87	-0.019774212
128	0x419dfa92	19.747349
129	0x41b6da0a	22.856464
130	0x42019296	32.39315
131	0xc03392b0	-2.805828
132	0x4206deb4	33.717484
133	0x4200771d	32.11632
134	0x42005d58	32.091156
135	0xc1e9966c	-29.198448
136	0x4038504a	2.8799005
137	0x420087b2	32.132515
138	0x41dfb038	27.961044
139	0x41ff3214	31.899452
140	0x00000000	0.0
141	0xbd244457	-0.040104236
142	0x4200b37b	32.175274
143	0xbcca97ac	-0.024730526
144	0x42077f68	33.87442
145	0x41ab2b85	21.39625
146	0x4015f464	2.3430414
147	0xbd1615ab	-0.036641758
148	0x41cc1206	25.5088
149	0x41c16a27	24.176832
150	0xc1512d24	-13.073521
151	0x00000000	0.0
152	0xc12f98b7	-10.974784
153	0x4200c683	32.19386
154	0x41d7596a	26.91866
155	0x41fb3749	31.401995
156	0xbd69cfb2	-0.05708284
157	0x41b55029	22.66414
158	0x00000000	0.0
159	0xc0f2df04	-7.5897236
160	0x41ca4440	25.283325
161	0x41caa60a	25.331074
162	0x00000000	0.0
163	0x42010837	32.258022
164	0x41af91ee	21.946255
165	0x42011a4e	32.27569
166	0x42007fc4	32.12477
167	0x4200383c	32.054916
168	0x42012053	32.281567
169	0x42005bb9	32.089573
170	0x4200112a	32.01676
171	0x4206973a	33.647682
172	0x41d3d8d7	26.480879
173	0x00000000	0.0
174	0xbbc4c9d7	-0.0060055065
175	0x41e7ed48	28.99086
176	0x00000000	0.0
177	0x42006ce4	32.10634
178	0xbcdd4479	-0.02701019
179	0xbd1a5a94	-0.03768404
180	0x41be15b0	23.76059
181	0xc159c180	-13.609741
182	0x4191789b	18.18389
183	0xc1eaff2d	-29.374598
184	0x00000000	0.0
185	0x4200c1a6	32.18911
186	0x4205085c	33.258163
187	0x41ff6a7b	31.926992
188	0x41bb5ae8	23.419388
189	0x41d62d4c	26.772118
190	0x4201835e	32.37829
191	0x420051d9	32.07993
192	0x41be01cf	23.750883
193	0x00000000	0.0
194	0x42051e82	33.279793
195	0x41b338d9	22.402758
196	0xbcc69d01	-0.024244787
197	0x41bb2607	23.393568
198	0x4200ac4d	32.168262
199	0xbc4dc40c	-0.012558948
200	0x41b872b6	23.056011
201	0x42013c08	32.308624
202	0x42065d06	33.590843
203	0x42007e8a	32.123573
204	0x420124e5	32.28603
205	0x00000000	0.0
206	0x41ffce0f	31.975615
207	0x41ffb40a	31.96291
208	0x41fd0481	31.6272
209	0x4200f60d	32.240284
210	0x41ccad5b	25.584646
211	0x418e307e	17.773678
212	0x42012f19	32.295994
213	0x4200fd19	32.247166
214	0x00000000	0.0
215	0xc1e6d37f	-28.85327
216	0xbcf8477f	-0.03030753
217	0x4200c5fe	32.19335
218	0x41c75a3e	24.919064
219	0x4200a49c	32.16075
220	0x00000000	0.0
221	0x4186fc92	16.873325
222	0xbf90b5fd	-1.1305538
223	0xbcdb7ffe	-0.02679443
224	0x00000000	0.0
225	0xbd43ff33	-0.0478508
226	0x420097b0	32.148132
227	0x41ffede4	31.991158
228	0x41c40cc4	24.506233
229	0xc080d1b9	-4.025601
230	0x4200387b	32.055157
231	0x41c7ba25	24.96589
232	0xc004c88a	-2.07474
233	0x4200479c	32.06993
234	0xbd2517b0	-0.040305793
235	0x41c88570	25.065155
236	0x41ff4981	31.91089
237	0x41fed09d	31.851862
238	0xc1e9fc4b	-29.24819
239	0x41cd7d34	25.686134
240	0xbc0bf648	-0.008542605
241	0x41ff9cfa	31.951649
242	0x41b9e546	23.23695
243	0x41fe88e9	31.81685
244	0xc1e9c388	-29.220474
245	0x00000000	0.0
246	0x41ef0e69	29.882036
247	0x40846e03	4.138429
248	0x4200927f	32.143063
249	0xbc4623da	-0.012093509
250	0x41fd5bfb	31.669912
251	0xc131cb45	-11.112126
252	0xc1eb844b	-29.439596
253	0x4200c399	32.191013
254	0x41e95383	29.165777
255	0x42005f17	32.09286

fc1.weight f4 [256, 256]
0	0x3c2eb898	0.010664128
1	0xbdc0e9ec	-0.09419617
2	0x3c6c7a70	0.014433488
3	0xbb3f0446	-0.0029146834
4	0x3d135690	0.035971224
5	0xbb69a580	-0.0035651624
6	0x3d32c08d	0.043640662
7	0xbd1fb1c0	-0.038987875
8	0xbd8c889a	-0.06861992
9	0xbce96d53	-0.028494513
10	0xbd3c68eb	-0.045998495
11	0xbb7baee9	-0.0038403815
12	0x3c8a06b0	0.016848892
13	0xbd580ab1	-0.05274457
14	0x3d6cf66e	0.0578522
15	0x3ccbf27c	0.024895899
16	0x3cb34e74	0.021887995
17	0xbc4dccfe	-0.012561081
18	0xb9b43f00	-0.00034379214
19	0xbda6dd36	-0.081476614
20	0xbc6cfa08	-0.014463909
21	0xbd0d8a81	-0.034555916
22	0xbdb1dba6	-0.08684473
23	0x3c57a231	0.013161228
24	0xbd6c2146	-0.05764892
25	0xbd940ebd	-0.072293736
26	0x3d12e444	0.035862222
27	0xbdbb2ba3	-0.091391824
28	0xbd229cd4	-0.039700344
29	0x3d09233c	0.033480868
30	0xbccfa74c	-0.025348328
31	0x3bf3b771	0.0074376394
32	0xbd82d537	-0.06388324
33	0x3d19138c	0.037372157
34	0x3cf78338	0.030213937
35	0xbd78e559	-0.060765598
36	0x3c3ce225	0.011528526
37	0x3baca8b4	0.0052691344
38	0x3d00a32a	0.031405605
39	0xbae66410	-0.0017577428
40	0x3d0703e0	0.03296268
41	0x3d001e7e	0.03127908
42	0xbd6639aa	-0.056207336
43	0xbd514428	-0.05109039
44	0xbc90c486	-0.017671835
45	0xbd9437a2	-0.072371736
46	0x3c971b78	0.018445715
47	0xbd06c026	-0.03289809
48	0xbd7e4cfd	-0.06208514
49	0x39f1b700	0.00046103448
50	0x3c9a90ee	0.018867936
51	0xbd11dff8	-0.035613984
52	0xbc7acc88	-0.015307553
53	0xbd5ff537	-0.054677214
54	0xbd411633	-0.04714031
55	0xbbf72030	-0.007541679
56	0xb9359bae	-0.000173195
57	0x3c75d7ec	0.015005093
58	0xbd6b7fe2	-0.057495005
59	0x3d3b289c	0.045693025
60	0xbcafcfe4	-0.021461435
61	0x3bf331d5	0.007421712
62	0x3d4013fe	0.046894066
63	0xbc5d3e11	-0.013503567
64	0xbd973dac	-0.0738481
65	0xbd92cd00	-0.07168007
66	0x3d388d02	0.04505635
67	0xbc217d80	-0.009856582
68	0xbd96e994	-0.0736877
69	0x3d6c71f6	0.05772587
70	0x3be6ca70	0.0070431754
71	0xbd721506	-0.05910208
72	0x3cada3e9	0.021196323
73	0xbd236016	-0.039886557
74	0x3d002031	0.0312807
75	0xbd9bb0f7	-0.07602113
76	0xbcaab5c7	-0.020838631
77	0xbcec536c	-0.028848372
78	0xbcc5ca0c	-0.024144195
79	0xbd71daee	-0.05904668
80	0xbc13c8b8	-0.009020023
81	0xbd799f3e	-0.06094288
82	0xbcf5e1b4	-0.03001485
83	0x3c811414	0.015756644
84	0x3d066a4a	0.03281621
85	0xbd13ae02	-0.03605462
86	0x3d133ac8	0.03594473
87	0xbdbb6357	-0.09149807
88	0xbb3b9200	-0.0028620958
89	0x3c860a3c	0.016362302
90	0xbd3373b0	-0.0438115
91	0xbbde8500	-0.006790757
92	0x3cd09fb4	0.025466777
93	0xbc910c20	-0.017705977
94	0xbd1ef810	-0.03881079
95	0x3c81405c	0.01577776
96	0x3bd2c04c	0.006431615
97	0xbd4b41e8	-0.0496234
98	0xbd8b5583	-0.068034194
99	0xbc1dc5d0	-0.009629682
100	0xbd6da2de	-0.05801665
101	0xbda3162a	-0.07963212
102	0xbccbd3f6	-0.024881344
103	0xbd46b5ba	-0.04851315
104	0xbd0622a0	-0.032747865
105	0xbd762ff7	-0.060104337
106	0xbd09e90d	-0.03366952
107	0x3d693234	0.056932643
108	0xbc096790	-0.008386508
109	0xbd76dcca	-0.060269155
110	0xbd3ba342	-0.04580999
111	0x3d1ee41e	0.03879177
112	0xbb7a7d20	-0.0038221553
113	0xbdb95431	-0.09049261
114	0x39abdc00	0.00032779574
115	0xbcd1f880	-0.02563119
116	0x3d4b0634	0.049566463
117	0x3c778ec8	0.015109725
118	0x3ca1dd67	0.019758893
119	0xbd39c3a4	-0.045352593
120	0x3ccaeb0c	0.024770282
121	0xbd98d236	-0.074619696
122	0x3b0b6a56	0.0021273098
123	0xbd832257	-0.06403034
124	0xbdc01124	-0.09378269
125	0xbab07e6f	-0.0013465415
126	0xbdafe53d	-0.085886456
127	0xbd4eaa4e	-0.050455384
128	0xbd45f16c	-0.04832594
129	0xbd627b6e	-0.055293493
130	0xbcb32e3f	-0.021872638
131	0x3c66ee3c	0.014094885
132	0xbc35c44d	-0.011094165
133	0xbc822fc5	-0.015891919
134	0xbcaa233d	-0.020768756
135	0xbd06b97d	-0.03289174
136	0x3d0daa62	0.034586318
137	0xbd7ddca8	-0.061978012
138	0xbc8bcde4	-0.01706595
139	0xbb8d136f	-0.004305295
140	0x3d48a9e0	0.04899013
141	0xbd151a8e	-0.036402278
142	0xbd820cc3	-0.0635009
143	0x3d1245d4	0.035711125
144	0xbd8b25d8	-0.067943275
145	0xbd6a50e0	-0.057206035
146	0xbd82c8e2	-0.063859716
147	0xbd5e3c64	-0.05425681
148	0x3d5db4cc	0.0541275
149	0x3d291252	0.041277237
150	0xbd8f959c	-0.070109576
151	0xbb44dc40	-0.0030038506
152	0x3bf3c224	0.007438915
153	0xbdb80cf8	-0.089868486
154	0x3a9b4580	0.0011846274
155	0xbc9565d9	-0.018237041
156	0x3cf559e8	0.029950097
157	0xbd5cdf4c	-0.05392389
158	0x3d075f92	0.033050127
159	0x3c9733eb	0.018457374
160	0xbd60a30c	-0.054842994
161	0x3cd0ea64	0.025502391
162	0xbd18a55c	-0.037267074
163	0xbd4a0984	-0.04932548
164	0x3d00d3fc	0.031452164
165	0x3b8c6adb	0.004285199
166	0x3b9b3ead	0.004737696
167	0xbd7face0	-0.062420726
168	0xbdd6b7a0	-0.104842424
169	0xbd035626	-0.03206458
170	0x3a79fbd0	0.0009536119
171	0xbd3e6b06	-0.046488784
172	0xbd1171ce	-0.035508923
173	0xbd53df3c	-0.051726565
174	0xbd547b82	-0.0518756
175	0x3cfa415c	0.030548744
176	0x3d7c6c24	0.06162657
177	0xbd0914bb	-0.033467036
178	0xbc21a518	-0.009866022
179	0x3a264d00	0.00063438714
180	0xbd143d8c	-0.03619151
181	0xbd7fa50c	-0.06241326
182	0xbd3ff62e	-0.046865635
183	0x3ad363e9	0.0016127798
184	0x3c915e14	0.017745055
185	0x3b80a202	0.003925563
186	0xbd52b8f6	-0.051445924
187	0xbdb3fca4	-0.08788422
188	0xbcc40ec0	-0.023932815
189	0xbc1024b8	-0.008797817
190	0xbda6b2b3	-0.08139553
191	0x3cb0ceab	0.021582922
192	0xbd48d004	-0.049026504
193	0xbd5af6f0	-0.053458154
194	0xbd5e1141	-0.054215673
195	0x3c881740	0.016612649
196	0xbd138e3a	-0.03602431
197	0x3d333152	0.043748207
198	0x3ce7f65d	0.028315717
199	0x3cd440d4	0.025909819
200	0x3d020c2e	0.031749897
201	0xbd53a05e	-0.05166661
202	0x3c3dac9a	0.011576796
203	0xbd1498bf	-0.036278483
204	0xbddde946	-0.10835509
205	0xbc950658	-0.018191501
206	0xbd858ceb	-0.065210186
207	0xbbebe404	-0.0071988124
208	0x3c44525d	0.011982528
209	0x3cb03685	0.021510372
210	0x3c0f4400	0.00874424
211	0x3d69fe5a	0.057127334
212	0xbda5a0b8	-0.08087295
213	0xbd9bfa69	-0.07616121
214	0xbd199a72	-0.037500806
215	0xbdbc7bc6	-0.092032954
216	0x3d322eca	0.043501653
217	0x3ca00acc	0.019536398
218	0xbb0a9600	-0.0021146536
219	0xbda0df1a	-0.07855053
220	0x3c8457a8	0.016155079
221	0x3ae79d40	0.0017670766
222	0xbd5ebc75	-0.054378945
223	0xbd03f216	-0.032213293
224	0xbd2d0742	-0.04224325
225	0x3d0670d0	0.03282243
226	0xbd1097cd	-0.03530102
227	0x3c99ec7c	0.018789522
228	0xbc9860d0	-0.018600851
229	0xbd5ebd6c	-0.054379866
230	0xbd1d5eeb	-0.0384206
231	0x3d6dde6c	0.058073446
232	0xbc8c2c14	-0.017110862
233	0x3c41e8ca	0.011835286
234	0x3d374e8c	0.044752643
235	0xbb487740	-0.0030588657
236	0xbc5a827d	-0.013336775
237	0xbc9372da	-0.017999101
238	0xbd8c3348	-0.068457186
239	0xbd63b6ee	-0.055594377
240	0xbd711964	-0.058862105
241	0x3c9ec204	0.019379623
242	0xbb79db80	-0.0038125217
243	0x3a1373b6	0.0005624847
244	0xbd2444c6	-0.04010465
245	0x3d0b5032	0.034012027
246	0x3da6e6df	0.08149504
247	0xbd7722ac	-0.0603358
248	0x3cbcd5e2	0.023051206
249	0xbd58ab3e	-0.052897684
250	0xbdae3d97	-0.08507841
251	0x3cfc43e2	0.030794088
252	0xbd848b0c	-0.064718336
253	0xbd6fadc8	-0.05851534
254	0x3d732f1a	0.05937109
255	0xbc7c04e0	-0.015382022

fc1.bias f4 [256]
0	0xbd3c5467	-0.04597893
1	0xc05198e2	-3.2749562
2	0x41fe82a1	31.813784
3	0x4205269c	33.287704
4	0xbcde630d	-0.02714684
5	0xbd021cb9	-0.031765673
6	0x00000000	0.0
7	0xbca9262c	-0.020648085
8	0x41fecda2	31.850407
9	0x41fef426	31.869213
10	0x41feaa8e	31.833279
11	0x42034d3a	32.825417
12	0x41fea40b	31.8301
13	0xbc1fb9a2	-0.009748848
14	0x41fe878a	31.816181
15	0x41fe0806	31.753918
16	0x4200b6c9	32.1785
17	0xbcfd885d	-0.030948812
18	0x41fed001	31.851564
19	0x4200bd29	32.184727
20	0x4204d764	33.210342
21	0x41ff2819	31.894579
22	0xbd49e953	-0.04929478
23	0x41a18ec0	20.194702
24	0x41ff6551	31.92447
25	0xbd30b71d	-0.04314338
26	0x41fec578	31.84642
27	0xbbee4051	-0.0072708507
28	0xbca23ebd	-0.019805307
29	0x420443f9	33.06638
30	0xbc03f45f	-0.008053868
31	0x41fe7406	31.806652
32	0x41f3d853	30.480627
33	0xbd1d5865	-0.038414378
34	0x41ff198a	31.88747
35	0x00000000	0.0
36	0x41fdfb03	31.747564
37	0xbc631f29	-0.01386241
38	0xbd8c860c	-0.06861505
39	0x4203c989	32.94681
40	0xc001eca7	-2.030069
41	0x41febbc7	31.841688
42	0xbd390cc9	-0.04517821
43	0x41ff9633	31.94834
44	0x41ff2305	31.8921
45	0x3b9b7d50	0.004745163
46	0x42009909	32.14945
47	0xbc4dc40c	-0.012558948
48	0x4200c172	32.18891
49	0x41febe91	31.84305
50	0x41fefa22	31.872135
51	0xbc625a52	-0.013815479
52	0x41fe8889	31.816668
53	0x41ff92fb	31.946768
54	0x41fe4632	31.784275
55	0x42048b73	33.13618
56	0xbca2c108	-0.019867435
57	0x41fea6df	31.83148
58	0x42035a9c	32.838486
59	0x41ff11e1	31.88373
60	0x41fe1535	31.760355
61	0xbca3425b	-0.019929102
62	0x4200c8b3	32.195995
63	0x420508e9	33.2587
64	0x3cedffa7	0.029052569
65	0x41ff4b99	31.911913
66	0x41fedd0a	31.85793
67	0x4204cf54	33.20247
68	0x4200c1d3	32.18928
69	0x42048a06	33.13479
70	0x41febc5f	31.841978
71	0x41ff7aef	31.935026
72	0x41fe5041	31.789186
73	0x41f5dedd	30.73382
74	0x41fe573a	31.792591
75	0x41ff4c63	31.912298
76	0x41fef6d9	31.870531
77	0x41ff17e5	31.886667
78	0x3e332693	0.17495184
79	0x420569c7	33.3533
80	0x41ff104d	31.88296
81	0x41ff15e6	31.885693
82	0x41fa5d0e	31.295437
83	0x41fef14a	31.867817
84	0x3e18068f	0.14846252
85	0x41ff1cec	31.889122
86	0xbca461f6	-0.020066243
87	0x420514cc	33.27031
88	0xbcba0391	-0.022706779
89	0x41fe6644	31.799934
90	0xbd021cd1	-0.031765763
91	0xbc9092ff	-0.017648218
92	0xbd43fed9	-0.047850464
93	0x41ff1bfa	31.88866
94	0x41fef694	31.8704
95	0xbc1304b2	-0.008973287
96	0xbcf90342	-0.030397061
97	0x41ff0670	31.878143
98	0xbbdf34a7	-0.0068116966
99	0x4200af9a	32.171486
100	0x3e3a19de	0.1817393
101	0x4206b1b0	33.673523
102	0xbd021c92	-0.031765528
103	0x41ff246e	31.892788
104	0xbd9eea6b	-0.077595554
105	0x4206c62a	33.69352
106	0xbfdc4913	-1.72098
107	0x41fedb05	31.856943
108	0x41fea01d	31.82818
109	0xbd3c3bbd	-0.04595541
110	0x4204f553	33.239574
111	0x41d54a08	26.661148
112	0x4205b0db	33.42271
113	0x41ad5388	21.665787
114	0xbcb4f454	-0.022089161
115	0x4204c169	33.188877
116	0xbd71fe25	-0.05908026
117	0x41ff1e17	31.889692
118	0x41ff06ea	31.878376
119	0x41ff6126	31.922436
120	0x41e4f642	28.620243
121	0x41fead08	31.834488
122	0xbce3f5fd	-0.027827257
123	0x41ff58b4	31.918312
124	0x4204c12d	33.18865
125	0xbced0690	-0.028933793
126	0x41feeb4f	31.864897
127	0xc03568f0	-2.8345299
128	0x41fd828e	31.688747
129	0x42032cab	32.79362
130	0x41ff012d	31.875574
131	0xbd06b121	-0.032883767
132	0x41ff1ad9	31.88811
133	0x42001c79	32.027805
134	0x41fed996	31.856243
135	0xbd021cb2	-0.031765647
136	0x41ff0bc8	31.880753
137	0x41feb1c0	31.836792
138	0x41fe886c	31.816612
139	0xbd0efc4e	-0.034908585
140	0xbd2f4763	-0.04279269
141	0x41fe3a52	31.778477
142	0xbca57d0f	-0.020201234
143	0x41fec8fa	31.848133
144	0xbd86b4e3	-0.0657747
145	0x41feae95	31.835245
146	0x41fe5854	31.793129
147	0x41fe8e99	31.819628
148	0x41fea684	31.831306
149	0x41ff68de	31.926205
150	0xbc5c13bf	-0.013432442
151	0xbd021cdb	-0.0317658
152	0xbd4b8b3a	-0.049693324
153	0xbd2cb2cf	-0.042162713
154	0xbee83010	-0.4534917
155	0x41ff0aa8	31.880203
156	0x41fed5fc	31.854485
157	0xbd19e5e9	-0.037572775
158	0x42006c36	32.105675
159	0x4200d23d	32.20531
160	0xbc0b4a6c	-0.00850163
161	0x3c86d54e	0.016459133
162	0x42009289	32.1431
163	0xbbdbe89a	-0.006711078
164	0x00000000	0.0
165	0x41feb1fd	31.836908
166	0xbcc6f61d	-0.024287278
167	0x41ff7643	31.932745
168	0xbb468377	-0.0030290761
169	0x40e2787f	7.077209
170	0x41fefcda	31.873463
171	0x4204ad23	33.16908
172	0x420013b3	32.019238
173	0x41fed650	31.854645
174	0x41fe059d	31.75274
175	0x41fed27c	31.852776
176	0x41ff278a	31.894306
177	0x42049a16	33.150475
178	0x41b7bb76	22.966534
179	0xbbc6222f	-0.0060465555
180	0x3d3d0e0f	0.046155985
181	0x41ff4244	31.907356
182	0xbffc9cfb	-1.9735407
183	0x4204f0ef	33.235287
184	0x3d1bcbb0	0.03803605
185	0xbca2c105	-0.01986743
186	0x4206bd1a	33.68467
187	0xbcba9ae5	-0.022778938
188	0xbe3085b1	-0.17238499
189	0x41fefbeb	31.873007
190	0x42057923	33.368298
191	0x42039674	32.896927
192	0x41fb79cc	31.434471
193	0x41b413a1	22.509584
194	0xbd209bbe	-0.039211027
195	0x41cca942	25.582645
196	0x41ff8da2	31.944157
197	0xbd49e92a	-0.04929463
198	0x3d3cece7	0.046124365
199	0x42035934	32.837112
200	0x420633c1	33.55054
201	0x41fec3af	31.845549
202	0xbd021c93	-0.03176553
203	0x41fe9daa	31.826984
204	0x41fe7df5	31.811502
205	0xbd021cda	-0.031765796
206	0x41fea750	31.831696
207	0x41ff0529	31.87752
208	0x41fec661	31.846865
209	0x41fe8122	31.813053
210	0x41fef12f	31.867765
211	0xbcc0fe38	-0.023558721
212	0xbd2c4b15	-0.04206379
213	0x4174c082	15.296999
214	0xbbf11151	-0.0073568006
215	0x41ff00a0	31.875305
216	0x3e4f3c25	0.20237787
217	0xbd202d52	-0.03910572
218	0x41fcfd45	31.623667
219	0xbc6578f3	-0.014005887
220	0xbd021cc7	-0.031765725
221	0xbbc6c0cd	-0.006065464
222	0xbcd07f91	-0.025451453
223	0x41ff4b87	31.911879
224	0x41ff175b	31.886404
225	0x41e5cb01	28.724123
226	0xbd0e3879	-0.034721825
227	0x3ded51c9	0.11587865
228	0x4200c13e	32.188713
229	0x41ff22ea	31.892048
230	0x41ff05c5	31.877817
231	0x41c5fdf1	24.748995
232	0x41feee0d	31.866236
233	0x41feefa9	31.867022
234	0x00000000	0.0
235	0x417e1b53	15.881671
236	0x41ff5e8c	31.921165
237	0x3e22ab44	0.15885645
238	0x41ff3706	31.901867
239	0x41fecbec	31.849571
240	0xbbf7ff37	-0.007568266
241	0x4203491d	32.8214
242	0x41feca57	31.848799
243	0x41fe6697	31.800093
244	0x41fed817	31.855513
245	0x3c96adeb	0.018393477
246	0x418db241	17.712038
247	0x41fea552	31.830723
248	0x41bc828c	23.563744
249	0x4200bafb	32.1826
250	0xbc015660	-0.007894129
251	0x41fefb55	31.87272
252	0x41ff0212	31.87601
253	0x41ff25a0	31.893372
254	0xbbc5440a	-0.006020074
255	0x41ff56bf	31.917356

last_fc.weight f4 [1, 256]
0	0x3c4baa71	0.012430773
1	0xbcdc7e69	-0.026915746
2	0xbf00640c	-0.5015266
3	0xbf2307b5	-0.63683635
4	0x3be3c68c	0.006951159
5	0xbcfef0e8	-0.031120732
6	0x3aa5cb18	0.0012649028
7	0xbcc5a4be	-0.024126407
8	0xbf1a2a57	-0.60220855
9	0xbf20971e	-0.62730587
10	0xbf033711	-0.512559
11	0xc01ea9bc	-2.4791098
12	0xbf171c6b	-0.5902774
13	0xbc48b0aa	-0.012249151
14	0xbf19a684	-0.6001971
15	0xbeb10a35	-0.345781
16	0xbf27e031	-0.65576464
17	0x3cb317e5	0.02186198
18	0xbf3a40be	-0.7275504
19	0xbf29f830	-0.6639433
20	0xbf196b36	-0.59929216
21	0xbf279c6c	-0.65473056
22	0x3c827826	0.015926432
23	0xc0cb01a1	-6.343949
24	0xbf4474a2	-0.7674047
25	0xbcccc328	-0.024995402
26	0xbf11513a	-0.56764567
27	0xbb745b36	-0.0037285811
28	0xbc9fbd04	-0.01949931
29	0xc0171cdc	-2.3611364
30	0x3c63a6d9	0.01389476
31	0xbefbfad1	-0.49214795
32	0x3f0944da	0.53620684
33	0x3cc5a83c	0.024128072
34	0xbf2ebe8b	-0.68259495
35	0xb9dbf7c8	-0.00041955546
36	0xbeac59e4	-0.3366233
37	0xbc0fe7c1	-0.008783282
38	0x3cd7a288	0.026322618
39	0xbe62fcf8	-0.22166812
40	0x3ccf521f	0.025307713
41	0xbf107615	-0.5643018
42	0xbce27ef6	-0.02764843
43	0xbf0a9410	-0.54132175
44	0xbf1ffc62	-0.6249448
45	0x3c56f847	0.013120717
46	0xbf35f3d5	-0.71075183
47	0x3c4bd1f2	0.012440192
48	0xbf345fe9	-0.7045885
49	0xbf175f4c	-0.59129786
50	0xbf1dc0f7	-0.61622566
51	0x3d013ac9	0.031550203
52	0xbef9abaf	-0.48763797
53	0xbf0965ea	-0.53671134
54	0xbf281fa2	-0.6567327
55	0xbf13f85e	-0.57800853
56	0xbc9730f8	-0.018455967
57	0xbf1a0c49	-0.60174996
58	0xc0588f20	-3.3837357
59	0xbf309b17	-0.6898665
60	0xbeb40b97	-0.35165092
61	0xbc9150f2	-0.017738793
62	0xbf269e3f	-0.65085214
63	0xbf1ff000	-0.62475586
64	0x3ae823d1	0.001771087
65	0xbf392ba0	-0.7233219
66	0xbeb8aab2	-0.3606773
67	0xbf2d7be9	-0.67767197
68	0xbf32643d	-0.696842
69	0xbf10c6bc	-0.56553245
70	0xbf16168d	-0.5862816
71	0xbf570d18	-0.84004354
72	0xbf14736c	-0.5798862
73	0xbfc09249	-1.5044643
74	0xbec32452	-0.38113648
75	0xbf00a985	-0.50258666
76	0xbf28425a	-0.65726244
77	0xbf1d0dd5	-0.6134923
78	0xbd255af8	-0.040369958
79	0xbf36c28b	-0.713906
80	0xbf2a471d	-0.6651476
81	0xbf1826e9	-0.5943437
82	0xbf216992	-0.6305171
83	0xbf0f02d4	-0.5586369
84	0x3ccd576e	0.025066104
85	0xbf2cc63c	-0.6748998
86	0xbc96194c	-0.01832261
87	0xbf215ff2	-0.63037026
88	0x3c691fbc	0.0142287575
89	0xbe9b5b0f	-0.3034291
90	0xbcecd0e2	-0.028908197
91	0xbc8f9c3c	-0.017530553
92	0x3ce07d62	0.027403537
93	0xbf192c8b	-0.5983359
94	0xbf27d01c	-0.65551925
95	0x3c915333	0.017739868
96	0x3c9f2792	0.019428048
97	0xbf42bca9	-0.7606912
98	0xbbbfe2df	-0.0058559026
99	0xbf1697dd	-0.58825475
100	0x3a943ba5	0.0011309279
101	0xbf9c1d85	-1.2196509
102	0xbcfd480c	-0.030918144
103	0xbf329e54	-0.6977284
104	0xbd0161eb	-0.031587522
105	0xc05ce160	-3.4512558
106	0xbcaf3c8f	-0.021391181
107	0xbf283704	-0.6570895
108	0xbeef3a66	-0.46724242
109	0x3c48f0d9	0.012264454
110	0xbf29df29	-0.6635614
111	0xc0ec6d28	-7.3883247
112	0xbf3cdddf	-0.7377605
113	0xc0221cd9	-2.5330107
114	0x3c905b92	0.01762179
115	0xbf36dd44	-0.71431375
116	0xbca6cb08	-0.020360485
117	0xbf26742e	-0.65021026
118	0xbf279e99	-0.65476376
119	0xbf10aa19	-0.5650955
120	0x3f824c2d	1.0179497
121	0xbef5f560	-0.4803877
122	0x3ce265ca	0.027636427
123	0xbf370a56	-0.71500146
124	0xbf27c3a4	-0.655329
125	0xbcdb769e	-0.02678996
126	0xbf1d8eb5	-0.6154588
127	0xbbbbddd9	-0.0057332334
128	0xbea40a10	-0.32038927
129	0xbf34f0e5	-0.70680076
130	0xbf1d900d	-0.6154793
131	0xbc0c9451	-0.008580283
132	0xbf1b6bff	-0.60711664
133	0xbf5cd70a	-0.86265624
134	0xbf277037	-0.654056
135	0xbd001915	-0.03127392
136	0xbf271f68	-0.652823
137	0xbf090347	-0.53520626
138	0xbeec20cd	-0.46118775
139	0xbced1590	-0.028940946
140	0x3d0f4d62	0.034985907
141	0xbea398fa	-0.3195265
142	0xbc922af0	-0.01784274
143	0xbf168596	-0.58797586
144	0xbc783e11	-0.015151517
145	0xbf0616fe	-0.52378833
146	0xbee79ca2	-0.4523669
147	0xbec8ea29	-0.3924115
148	0xbf0164a5	-0.50544196
149	0xbf04fb0f	-0.51945585
150	0xbc2b8a84	-0.010470036
151	0xbceea500	-0.029131413
152	0xbcb6a238	-0.022294149
153	0x3c286c0a	0.010279665
154	0x3ec76b05	0.38948837
155	0xbf043963	-0.51650065
156	0xbf239f61	-0.6391507
157	0x3cd0d4ce	0.025492098
158	0xbf10469c	-0.5635774
159	0xbf26044c	-0.64850307
160	0xbb957c4d	-0.004561937
161	0x3cb030fe	0.021507736
162	0xbf3b2aa7	-0.7311196
163	0xbbf19bca	-0.007373308
164	0xbac10e22	-0.0014728943
165	0xbf2333e0	-0.6375103
166	0xbce2e82d	-0.0276986
167	0xbf03cfd2	-0.51488984
168	0x3bc88b33	0.0061201095
169	0x40881824	4.252947
170	0xbf1d6dff	-0.61495966
171	0xbf20bfc6	-0.62792623
172	0xbf012fe2	-0.5046369
173	0xbeffa197	-0.4992797
174	0xbea7f2c4	-0.32802403
175	0xbf1cbec1	-0.6122857
176	0xbef63446	-0.48086756
177	0xbf0b441d	-0.5440081
178	0xbfca0aaa	-1.5784504
179	0xbb857259	-0.004072469
180	0xbcff4890	-0.03116253
181	0xbf1e1657	-0.6175284
182	0x3d9e33f9	0.07724757
183	0xbf2b5956	-0.6693319
184	0xbc29bbe9	-0.010359743
185	0xbc9aa446	-0.01887716
186	0xbf93e103	-1.1553043
187	0x3ce18827	0.027530743
188	0x3c419154	0.011814434
189	0xbeccb88a	-0.39984542
190	0xbf3b61dd	-0.731962
191	0xbfd54ec5	-1.6664664
192	0xba4af19c	-0.0007741691
193	0xbfae0ae9	-1.359708
194	0x3cd0248b	0.02540805
195	0x3cc398a7	0.023876501
196	0xbf07e032	-0.5307647
197	0x3c6d6a2d	0.014490646
198	0x3c1d568e	0.009603156
199	0xc01dbabc	-2.4645224
200	0xbf66b936	-0.9012636
201	0xbf21a9d3	-0.63149756
202	0xbd007eca	-0.031370915
203	0xbf165c4b	-0.5873458
204	0xbf17e23c	-0.5932958
205	0xbcf73bd8	-0.030179903
206	0xbf0b6279	-0.5444713
207	0xbf0fc0a0	-0.561533
208	0xbef6a23a	-0.48170644
209	0xbf0951a4	-0.536402
210	0xbf067457	-0.5252127
211	0x3ca55e98	0.020186707
212	0xbb72138e	-0.0036937925
213	0x405ae431	3.4201777
214	0xbb8d1047	-0.004304919
215	0xbf2683e7	-0.65045017
216	0x3a8f5401	0.0010935069
217	0x3ccc708a	0.024956007
218	0xc01eee61	-2.4832995
219	0xbcb1dc88	-0.021711603
220	0x3d000e2d	0.03126352
221	0xbb9c465c	-0.0047691297
222	0x3c346dcb	0.011012505
223	0xbf4c4a16	-0.79800546
224	0xbf293ec2	-0.66111386
225	0x408bb5c1	4.3659368
226	0xbcbe3c23	-0.023222035
227	0x3cc47fd1	0.023986729
228	0xbf24d23a	-0.6438328
229	0xbf28a5a6	-0.6587776
230	0xbed7eb25	-0.4217159
231	0xbfdfee15	-1.7494532
232	0xbf165e02	-0.58737195
233	0xbf1b737e	-0.607231
234	0x3914da20	0.00014195638
235	0xc12e6dc7	-10.901801
236	0xbef46740	-0.47735023
237	0x3c9a0ab7	0.018803937
238	0xbf32a310	-0.69780064
239	0xbf11eb34	-0.56999516
240	0xbbb354b0	-0.005472742
241	0xbfb47fb3	-1.4101471
242	0xbf25bec1	-0.6474419
243	0xbeaf1eae	-0.34203094
244	0xbf24dcba	-0.643993
245	0x3c880fc1	0.016609075
246	0x40f3172e	7.5965796
247	0xbef4a70e	-0.47783703
248	0xbff3de3a	-1.9052193
249	0xbf21dc5c	-0.63226867
250	0x3c6d1514	0.014470357
251	0xbf43219b	-0.7622315
252	0xbf29a55d	-0.6626795
253	0xbf23fa0b	-0.6405341
254	0xbba50492	-0.005035945
255	0xbf3bb989	-0.7332998
