save_mode/SAC_v_500_target_qf1_network.pth (torch, 329559 bytes, 5 tensors)

fc0.weight f4 [256, 61]
00000000: e62e a43c 793f 473d 7054 3a3d df13 383d
00000010: 0ccf 723d c94f c83e 8080 d03e 2942 a13e
00000020: 7f9a a03c c2e8 df3c 60d7 3fbd a854 3ebd
00000030: e903 40bd 6b2c bb3e d603 883e fc76 a43e
00000040: 3fa2 bf3c 822c dcbb aa7f 54bd fe3d 253d
00000050: 823d 6e3d b744 393f a97a 683f f6bd 803f
00000060: 1472 8b3c cf0a b33c eae2 d1bc aa54 57bd
00000070: 3be5 6dbd 9fb0 8f3d 1e44 593e 62a7 533e
00000080: 8f51 223b 9238 d43c 5ff0 26bd 380c c2bc
00000090: 788e bebc 5e9e e4bd c807 9bbe d81e babe
000000a0: dbbf 613d ffa1 253d d5af 08bd 815e c33c
000000b0: d4ad 803c e9a8 003d b4ce e13d 0ebf 433e
000000c0: 0dac 10bf d4ad 4e40 b4dc 9840 62d1 cec0
000000d0: 1885 053d 1237 673f fd74 adbe b1f2 6abf
000000e0: b1c5 433f 7bb6 b4bc 0055 c6be 0bdf 4d3f
000000f0: 425f a5be 62f4 e8bc 55bb 1d3b dacd 673b
00000100: 193b 423b c52f 82bc f801 b2bf c9ef 463f
00000110: f20a d9bd c060 ccbb 1365 70bc 6541 8a3c
00000120: fc30 713d bf64 2a3c 7537 8ebf 89a3 c1bc
00000130: 6344 e4bc e29e d7bc c0e2 473d 0d89 86bc
00000140: e18b d63b de5d 1b3d afa8 2dbd fc3d 8c3d
00000150: d2e4 623d e3e6 e43c 74d8 883c e402 f1bc
00000160: 827e dfbb 5ead 143d 9fc9 a1bc 21f1 42bd
00000170: 46bd ab3c e5a4 083d f835 ba3b 2a69 debc
00000180: 07a3 263d 88f2 383d 4589 8abd dde7 04bd
00000190: aefb 9bbc 837a 68bd 6bf0 ee3c 2b13 64bd
000001a0: dd90 06bd 4239 5dbd fc80 053c 465c 9ebc
000001b0: 61a9 cfbd 663a 203f 0d2b 1ebe 76ce 2bbe
000001c0: f4a0 0b3e 5537 1a3e 4e1b 91be 15c2 063d
000001d0: f731 aabe e465 863d aee9 1e3c 10ec 343e
000001e0: ecf0 893d 483d b83b 53d4 6bbd b4a2 793b
000001f0: 73fc 693d ae2b 143c e010 453c ee63 cd3d
00000200: ee01 fa3e edc1 893e 2467 72bb a07d cf3b
00000210: 2050 483c e118 4c3d 85cc 043d 6cc7 853e
00000220: 5466 ab3e d45f 913e 22ea d8bc d760 aa3c
00000230: 578d 2dbd e0f3 b4bc fb75 f23c 6344 383f
00000240: 822e 583f c8d2 793f 95cd 023d 4829 33bd
00000250: 09bf 4b3d 2b32 7c3c bada dc3c 8a46 a53d
00000260: 3092 503e e83d 053e 3aa7 563d ffc0 243c
00000270: 0c14 f4bc 7dc5 1d3d d397 f3bc a9fb dbbd
00000280: f976 8cbe 8208 ecbe 6ad7 553d 9818 353d
00000290: 2db7 033d 2be9 6a3d a984 cf3a 2b59 fd3d
000002a0: 0831 0f3e cd0a 313e f601 febe f8d6 5240
000002b0: 0976 9c40 ff71 cfc0 8dd4 943d 7784 6f3f
000002c0: 58dd a9be 1a9c 79bf 26ed 203f 4541 af3d
000002d0: dfa6 c7be 622d 313f c729 81be 8c93 fe3c
000002e0: ea27 533d 70f7 3cbd d569 03bd 3810 393c
000002f0: 0fe2 aa3e 09cb e93e 8db1 b93e 6694 913b
00000300: cad3 d3bc eb45 673d c94d 48bd 4cd4 07bd
00000310: 06c8 a13e 8ace b63e f8e0 ec3e ae2d 1cbd
00000320: 37bf a0bc c9a4 46bd d380 623d 2663 143d
00000330: 4d18 5a3f 9aca 823f c606 923f 01a4 463d
00000340: e4e9 f0bc 96d2 2f3d 4362 6bbd d764 21bd
00000350: 8b9a 4c3d f3d4 073e 1660 2c3e 0bac 63bd
00000360: 20ce 33bd 09b7 c4bb 8602 2e3d d32f 63bd
00000370: c680 adbd 5b38 4bbe 9c96 dabe 7fad 21bd
00000380: b8e8 303d d199 49bd 60ee b739 8bdd 7abb
00000390: 6b08 9b3d 74af 103e ad6a 173e 294f f3be
000003a0: a23c 4840 1c0f 9a40 7d1d cbc0 719a b83d
000003b0: e36e 6e3f fe7f a2be cbf2 65bf 43fd 1f3f
000003c0: d56f 213c ef54 d0be 2ad5 463f 17b8 bbbe
000003d0: a429 8f3c f570 13bd 37f1 393a faea d23c
000003e0: ec9d 02bc 1e77 1cbc be5d 273b 1ae1 d0bc
000003f0: 6442 75bd 4412 893c d02a 4f3d 793e 43bd
0.020041894 0.048644517 0.045490682 0.044940826 0.059279487 0.3912337 0.40723038 0.3149579
0.01960492 0.027332667 -0.046836257 -0.046467453 -0.04687873 0.36557326 0.26565427 0.32122028
0.023392795 -0.006719173 -0.051879562 0.040342323 0.058164127 0.72370476 0.90812165 1.0057971
0.01702217 0.02185574 -0.025620896 -0.052570976 -0.05807994 0.0701611 0.21217391 0.2066932
0.002476785 0.025905881 -0.04075658 -0.023687467 -0.023261294 -0.11163019 -0.30279374 -0.36351657
0.05511461 0.040437695 -0.03337081 0.023848774 0.015707888 0.031411085 0.110257536 0.1911585
-0.5651253 3.2293596 4.7769413 -6.4630594 0.03259763 0.90318406 -0.33878317 -0.9177657
0.7647353 -0.02205967 -0.38736725 0.8041846 -0.32299238 -0.028436843 0.0024067957 0.00353705
0.0029637276 -0.015891919 -1.3906851 0.77709633 -0.10597791 -0.0062371194 -0.0146725355 0.016876886
0.058884606 0.010399996 -1.1110674 -0.02363755 -0.02786464 -0.026320878 0.04880023 -0.016422773
0.0065474366 0.037931316 -0.042397197 0.0684776 0.055394 0.027942127 0.016704775 -0.029420324
-0.006820501 0.03629815 -0.01974946 -0.04759324 0.020964276 0.03336038 0.005682703 -0.027149756
0.04068282 0.04515317 -0.06764463 -0.032447685 -0.019040909 -0.05675746 0.029167375 -0.055682342
-0.032852996 -0.054009683 0.008148428 -0.019331109 -0.10139728 0.6258911 -0.1544611 -0.16777977
0.13635617 0.1506017 -0.28341144 0.032899935 -0.33241245 0.06562403 0.009699268 0.17668176
0.06735405 0.0056225397 -0.057575535 0.0038091363 0.05712552 0.009043617 0.012027949 0.10028826
0.48829597 0.26905766 -0.0036987746 0.0063321143 0.012226135 0.049828414 0.032421608 0.2612871
0.33476508 0.28393424 -0.02647883 0.02079813 -0.04237112 -0.022088945 0.029597273 0.7197935
0.84445965 0.9758725 0.03193434 -0.04374054 0.049742732 0.01539282 0.026959766 0.08070095
0.20368266 0.13011897 0.052405573 0.0100557795 -0.029794715 0.038518418 -0.029735481 -0.1074136
-0.2743452 -0.4610024 0.052207388 0.044212908 0.032157112 0.057351273 0.0015832382 0.12370523
0.13983548 0.17289276 -0.4961087 3.2943707 4.8894086 -6.4826655 0.07267103 0.935615
-0.33176684 -0.9750382 0.6286186 0.08557371 -0.389945 0.69209874 -0.25227186 0.031076215
0.051551737 -0.046134412 -0.03208335 0.011295371 0.33375594 0.45662716 0.36268273 0.0044427393
-0.025857825 0.056463163 -0.048902307 -0.033161446 0.31597918 0.35704452 0.46265388 -0.0381295
-0.019622428 -0.048496995 0.055298638 0.036227368 0.8519333 1.0218079 1.1408317 0.04849625
-0.029408403 0.04292544 -0.057466757 -0.03940281 0.04995207 0.13264827 0.16833529 -0.055583995
-0.043897748 -0.006003265 0.042482875 -0.05546553 -0.08471827 -0.19845717 -0.4269303 -0.0394721
0.043190688 -0.049218956 0.00035082083 -0.0038279023 0.07569965 0.1412943 0.14786787 -0.47521332
3.1287007 4.8143444 -6.3473496 0.09013832 0.9313795 -0.31738275 -0.898236 0.6249582
0.009853323 -0.406898 0.7766901 -0.36663887 0.01747591 -0.035996396 0.0007093134 0.025746811
-0.007972222 -0.009549884 0.0025538052 -0.025497962 -0.05987777 0.016732343 0.05057794 -0.047667

fc0.bias f4 [256]
00000000: d9a1 cd41 ded5 203e 3e79 cd41 4a33 ce41
00000010: e935 40bd 7ee5 cd41 0587 9a41 1579 d8c1
00000020: 3ebe ce41 0000 0000 e4d4 cd41 7f8b a2c1
00000030: 7310 a5c1 b64f cc41 3ce8 79bd b2b0 6641
00000040: a6b9 90c1 14d7 8f41 a06e c541 34f4 fac0
00000050: 946c 8e41 316c ce41 4ed2 cd41 51c0 cd41
00000060: b302 6abc e235 5cbd 3bdf 6ebd 5ed6 a241
00000070: 0e32 a141 0000 0000 8732 26bd 121b d041
00000080: 066c cd41 51ec ce41 d982 ce41 88ad 37bd
00000090: 29b6 cd41 200b 4741 014e cc41 29b6 cd41
000000a0: a9f4 cd41 1cde 8f41 e80f 3ebd 3c51 8e41
000000b0: 874a 22bc ee58 bf41 91df cd41 ee5e 19bd
000000c0: 59e0 cd41 26c4 a141 0000 0000 0561 c641
000000d0: 0000 0000 37f6 cd41 6644 af41 fc46 cd41
000000e0: 3ccc cc41 cf79 2dbd 7f82 ce41 3568 09c1
000000f0: 0bd9 e8bc 0543 84bd 4573 c841 ca1d d041
00000100: 2c71 7ebd e46f fcbc 3fbc cc41 ec73 8941
00000110: e28f cd41 3d70 9ac1 5c6f 7dbd 75e4 9f41
00000120: 3f37 23bd 595d ce41 caed cd41 1d9a 9241
00000130: 82ba 55c0 ffdd cc41 668e 12bd 067d a441
00000140: 1604 ae41 ba36 56bd e176 cd41 1f6d 26c1
00000150: c0ab cc41 d30c edbc 2db4 9041 d275 a8c1
00000160: 6031 cd41 7ab9 cd41 d532 88bd 60e1 ce41
00000170: c657 a541 5c4e 8f41 02c1 d641 e101 80c1
00000180: 5a7b 5e41 5a1c 5dbd a56a ce41 c9eb cf41
00000190: a5bb cd41 49eb cd41 2aff ce41 a9fa cc41
000001a0: c1d7 cd41 ed27 9e41 5641 90bc 61e7 cd41
000001b0: d81e b5c1 5808 bf41 9193 c941 c62c c941
000001c0: 9b3e cd41 6c84 cb41 2113 ce41 1118 cf41
000001d0: fdc9 cb41 de62 16bd b53d 0ebd aedc 9cbc
000001e0: 043b ce41 c955 cf41 0ea5 ab41 7dc8 9041
000001f0: 390f cebc 1bc7 65bd 4ee6 1dc0 84bf 8241
00000200: 61fe 38c1 6338 cd41 a648 a741 0000 0000
00000210: a907 cf41 5976 ce41 bde0 0dbd 149b a941
00000220: dd58 cc41 fd24 0cbc 7140 ce41 5976 ce41
00000230: 3552 ce41 6efa af41 5976 ce41 24b9 8e41
00000240: bedb ab41 3900 44c0 a86e a4c1 8e6e 19bc
00000250: 0625 cc41 6132 ce41 3172 cd41 6d0c 9441
00000260: 0fc5 bcc1 21a9 ce41 d304 cf41 93f8 7f41
00000270: 6e2a a841 59d3 cb41 619c cd41 020c ce41
00000280: 7bf5 ca41 6100 ce41 fe4f a6c1 0000 0000
00000290: 608c 3fbd 3941 ce41 92c4 debc c175 cb41
000002a0: dd30 ce41 a11f ce41 39ca cc41 0000 0000
000002b0: 3d36 06bd 1c3b 8d41 3023 3dbd d194 ce41
000002c0: 7314 cd41 561b a741 b0ce ce41 5432 8641
000002d0: f30e e9bc 8ce2 8e41 4658 a741 4790 26bd
000002e0: bbfd a5c1 86cd cd41 2e18 cc41 6fce 2ebd
000002f0: 4904 ce41 eb75 cd41 0000 0000 0000 0000
00000300: af1c 23bd 25b9 0ebd 1697 a241 88d8 ce41
00000310: 49a0 cd41 a675 ac41 3058 30bd 19c1 cd41
00000320: f37d e3bc 4f04 ce41 9969 cd41 eec8 cd41
00000330: 6873 3cbd 66c9 1dc1 366b ae41 9461 7bbd
00000340: 0000 0000 616a cd41 3992 cd41 3cb0 fabc
00000350: b1c3 ce41 6643 92bc 04b5 8a41 16ec 9841
00000360: beca 19c1 f16b cd41 6266 a1c1 b9fc ce41
00000370: d051 3cbd fb16 edbc 22df dec0 4dd7 9341
00000380: 36c7 a741 cdd8 ce41 412f ce41 0000 0000
00000390: 5e30 ad41 cdd5 0dbd bbb3 cc41 15fb 89bc
000003a0: 4e54 9441 94c4 77bd 0d05 03bd f0af 31c1
000003b0: 91c6 cd41 35a9 9341 acfd 8a41 19f7 44bd
000003c0: 00d9 39bd 1925 ce41 7e7a 1dbd 0400 cb41
000003d0: 212c ce41 9e02 a541 291a ce41 bd00 9141
000003e0: c83b 32bd 26fc cc41 fe42 a041 a958 ce41
000003f0: 5d56 9641 c9c5 cd41 91ed cd41 bbf1 ce41
25.704027 0.15706584 25.6842 25.775043 -0.046926413 25.737057 19.315928 -27.059122
25.842892 0.0 25.72895 -20.318113 -20.633032 25.538921 -0.06101249 14.4181385
-18.090649 17.980019 24.679016 -7.84231 17.803017 25.802828 25.727688 25.718904
-0.01428287 -0.053762324 -0.058318358 20.354671 20.14944 0.0 -0.04057553 26.013218
25.677746 25.865389 25.81389 -0.044843227 25.713945 12.440216 25.538088 25.713945
25.744463 17.983452 -0.046401888 17.789665 -0.009905464 23.918423 25.734163 -0.037444048
25.734545 20.220776 0.0 24.797373 0.0 25.745222 21.908398 25.65966
25.599724 -0.042352494 25.813719 -8.587941 -0.028423807 -0.064580955 25.056284 26.014545
-0.062119648 -0.030815072 25.591917 17.181602 25.695255 -19.304804 -0.06187378 19.986551
-0.03984761 25.79558 25.741108 18.32525 -3.3395085 25.608397 -0.035780333 20.561047
21.751995 -0.052298285 25.683046 -10.401641 25.583862 -0.02893678 18.087976 -21.05753
25.649109 25.715565 -0.066503204 25.860046 20.667858 17.913261 26.844242 -16.000917
13.905115 -0.053982116 25.802073 25.99013 25.716623 25.739885 25.874592 25.622393
25.730349 19.769495 -0.01760928 25.737978 -22.64006 23.879074 25.197054 25.146862
25.65557 25.43966 25.75934 25.886751 25.473627 -0.03671538 -0.034726817 -0.019148197
25.778816 25.916887 21.455593 18.097895 -0.025153743 -0.056098085 -2.4671817 16.343513
-11.562104 25.652533 20.910473 0.0 25.87874 25.807787 -0.034638155 21.200722
25.54339 -0.008553741 25.781466 25.807787 25.79014 21.99728 25.807787 17.8404
21.482296 -3.0625136 -20.554031 -0.009364737 25.518078 25.7746 25.680758 18.506067
-23.59622 25.832582 25.877356 15.998187 21.020718 25.478197 25.701357 25.755863
25.369864 25.750185 -20.789059 0.0 -0.04676473 25.781847 -0.027193341 25.432497
25.773859 25.765444 25.598742 0.0 -0.03276657 17.653862 -0.046176136 25.822664
25.634985 20.888348 25.850922 16.774574 -0.028449511 17.860619 20.918102 -0.040664937
-20.748892 25.725353 25.511806 -0.04267734 25.752092 25.682577 0.0 0.0
-0.039822277 -0.034844536 20.323772 25.855728 25.703264 21.557446 -0.043052852 25.719286
-0.027770018 25.752104 25.676561 25.72311 -0.046008497 -9.86167 21.80235 -0.061372355
0.0 25.676943 25.696398 -0.030601613 25.845552 -0.017854404 17.338387 19.115276
-9.611998 25.677706 -20.174992 25.8734 -0.04597646 -0.028941622 -6.964738 18.480127
20.972271 25.85586 25.773073 0.0 21.648617 -0.034627724 25.587759 -0.016843358
18.541164 -0.060490206 -0.03198724 -11.1054535 25.721956 18.45762 17.373863 -0.048087213
-0.045372963 25.768114 -0.038446896 25.375008 25.771547 20.626278 25.762774 18.12536
-0.043514043 25.62312 20.032711 25.793291 18.79217 25.721575 25.741 25.868032

fc1.weight f4 [256, 256]
00000000: eff8 a9bd 818a dd3a be7d 11bd fea7 a43c
00000010: 8501 913b cf46 a9bd 88a8 bc3c 7840 b2bd
00000020: 334e 6cbd 2db1 043d 6fb4 aabd 90c0 b53c
00000030: ff60 343d f03f b3bc 8093 b63c ed5f 9d3c
00000040: 2b0c 613d c90d dbbb d39a ff3c 6265 52bc
00000050: c57b 06bd 2802 39bd 43bd 60bd 17b3 aebd
00000060: 5aee 533d fd68 09bd 2992 533d c73d ba3c
00000070: afc5 bd3c 66ba 133c 5363 693d 3143 c0bd
00000080: 8ce1 f1ba ac09 f0bc aef5 1cbd c752 2a3c
00000090: d7bf afbd 6228 58bd 1833 bbbc 1f5a a5bd
000000a0: 5448 7abd 5946 56bc ef36 28bd cbd8 e7bb
000000b0: 8b7b 69bd a714 b8bc 63bb 65bd 3472 ff3c
000000c0: 20e7 b3bd d5df 993c 05ee 8d3c 54cb 79bd
000000d0: fa09 d23b 3fd4 26bd 1707 a13c b585 82ba
000000e0: c336 6cbc 12aa 58bd e105 4bbd e841 3e3d
000000f0: e0d4 353d ac80 f1bc 4fb9 b1bc 11de c7bb
00000100: fc9a 703d 1af1 5ebd 60e6 b0bd 6598 883c
00000110: ad8d 0cbc 6781 a9b9 915a c6bc 3044 c43c
00000120: a161 c33c c836 37bd f488 76bd 3626 ad3b
00000130: 66d3 2c3b a439 843c a267 5b3d aa4a e1bc
00000140: 0ab5 55bd 51d6 413d f7e4 21bc 5e86 27bd
00000150: 5ed9 95bd f440 02ba 9cd3 7e3d bb4c 633c
00000160: d960 c33c fb46 65bd 299b 45bd 44ac 003b
00000170: 0f71 233d feaf 12bd 4e8e 9bbd 3a96 5d3d
00000180: 7ac6 56bc 1ad7 da3c 9c74 f9bb a600 9abd
00000190: 6dbf 8bbd 64f6 70bd ae61 a4bc 0d13 89bd
000001a0: cda1 85bb f44b 7cbc 1311 653a df99 aabc
000001b0: 082a cf3c 9f28 a7bd 0d11 01bd 5c0b 7d3a
000001c0: ee6b 9bbd 6c3c 8cbb b6a2 ab3c 8db4 85bd
000001d0: c521 15bc 1a99 5cbd dff5 233d f72f 22bd
000001e0: 433f f53c 6d03 89bd e813 4eba 9aa3 54bd
000001f0: 5e94 143d 059c 8abc 55d4 84bc cf76 babc
00000200: afb9 26bd 8d56 9d3c 04a6 803b 0029 353d
00000210: 1631 1abd a6f4 9bbd af9b abbb 4647 15bb
00000220: a286 dabc 5837 b3bc 270c afbd c778 2cbd
00000230: 18d2 c63c 813f 44bc d1d7 47bd caf3 d63c
00000240: 7306 60bd 610a c4bc 7862 3d3c fc3d f3bc
00000250: 7e45 91bc 6b0f 6ebd d369 eab9 f406 fb3c
00000260: cc22 fdbc 1234 dbbc ccc0 843b 25ac 8cbc
00000270: d984 d63c d414 74bd e688 95bc a3a7 e1bc
00000280: cbe4 65bd 0038 3fba 1465 093b a2f6 58bd
00000290: f52c 16bc 4685 93bd 97b2 2cbc 2ee2 19bd
000002a0: 2718 adbd 80de b6bd 650a 0fbb 95c3 0cbd
000002b0: 8f55 b2bc 2dec 0fbd 6ce7 fcbc 33f5 65bc
000002c0: 40c6 39bb 364c 96bc 4705 80bd b44f 723d
000002d0: ea27 d33b 5cd7 743d e473 8c3c a490 023d
000002e0: 5673 103d 6e21 9dbd 948c 78bd 7690 143c
000002f0: a710 28ba 9fdd a6bd f72b abbb 7585 813c
00000300: 2cf7 09bd ce2e ad3c f6b4 903c 9ebe a73a
00000310: d8ee bcbb 4703 b13c ffa5 b53a 51ca c3bb
00000320: a4eb 773c e98e c6bc e69a 12bd 1214 58bd
00000330: e708 22bc 4504 03bd 53ae 69bd fe22 1dbd
00000340: 8ac2 593d a89c b2bd 9f09 28bd c166 4b3c
00000350: b986 513c c005 3e3d 930a 64bd 02df 513d
00000360: 0f45 22bd ed4c 833c 1278 d8bc b0a1 c33c
00000370: 3496 79bd 72dd ea3c 74da 77bb 2cf1 71bb
00000380: 7bd5 60bd bf3b b53a 0e7f 90bc 7c57 f5bc
00000390: 8e28 14bd 2fed 2c3c 57f0 29bd 2981 5a3c
000003a0: 350e 983c c844 bdbc 8bb4 6c3c ef75 aabc
000003b0: d3c6 67bd dddc 0a3d 3247 d03c d02b babc
000003c0: a65d 17bd 7d49 88bd d9f7 47bd 422b d7bb
000003d0: 0a97 5abb f8b4 423c b2d6 e83c ed29 8dbc
000003e0: 50ae 37bc b4fa 7bbd 76fa 13bd bc50 73bb
000003f0: 333b 6b3d bba4 e5bc 961b a83c 22a7 5fbd
-0.082994334 0.0016902239 -0.035520308 0.020099636 0.00442523 -0.08265459 0.02302958 -0.08703703
-0.057691764 0.03239553 -0.08335196 0.022186548 0.044037815 -0.021881074 0.02228713 0.01921078
0.054943245 -0.006684993 0.031201756 -0.012841554 -0.03283288 -0.045168072 -0.054867994 -0.085302524
0.05174098 -0.03354739 0.05165306 0.022734536 0.023165552 0.009016609 0.05697949 -0.09387816
-0.0018454059 -0.029301487 -0.038320236 0.010395712 -0.085815124 -0.052772887 -0.022851512 -0.0807383
-0.061104134 -0.013078296 -0.041068014 -0.0070754043 -0.057002585 -0.022470785 -0.05608691 0.031182386
-0.08784318 0.01878349 0.01732541 -0.060984924 0.0064098807 -0.040729757 0.019656701 -0.0009958061
-0.014417353 -0.052896567 -0.049566153 0.04644957 0.044392467 -0.0294803 -0.021694807 -0.0060994704
0.058741555 -0.05442915 -0.086376905 0.01667423 -0.0085787 -0.00032330604 -0.024213107 0.023958296
0.023850264 -0.044729978 -0.060189202 0.005284096 0.002637112 0.016140766 0.05356563 -0.027501423
-0.052174605 0.04732353 -0.00988125 -0.040899627 -0.0731685 -0.0004968785 0.062213525 0.013873274
0.023849891 -0.055975895 -0.048243675 0.0019633928 0.039902743 -0.03581237 -0.07595502 0.054098345
-0.013108844 0.026713897 -0.007612778 -0.07519655 -0.06823621 -0.058828726 -0.020066109 -0.06693087
-0.004078126 -0.015398968 0.0008738201 -0.020825325 0.025288597 -0.08162045 -0.0315104 0.0009652877
-0.07588945 -0.004279664 0.02095161 -0.06528578 -0.00910229 -0.053856947 0.040029403 -0.039596524
0.029937392 -0.066901065 -0.00078612426 -0.051913835 0.036274306 -0.016920099 -0.016214529 -0.02276173
-0.040704425 0.01920631 0.0039260406 0.044228554 -0.03764447 -0.07615022 -0.005237065 -0.0022778078
-0.026675526 -0.021876976 -0.0854724 -0.04210737 0.024270102 -0.011978031 -0.048789803 0.026239295
-0.05469365 -0.02393073 0.011559121 -0.029692642 -0.017733332 -0.058120172 -0.00044710803 0.030642964
-0.030900382 -0.026758227 0.0040513035 -0.017171929 0.026186394 -0.059590176 -0.018253755 -0.027545756
-0.056126397 -0.00072944164 0.0020964788 -0.052969582 -0.009165992 -0.07203154 -0.010540626 -0.037569217
-0.08451872 -0.08929157 -0.0021826264 -0.03436621 -0.021769313 -0.035137344 -0.03087207 -0.014035511
-0.0028346926 -0.018346887 -0.062510066 0.059158042 0.006443967 0.059775695 0.017145105 0.03187622
0.035266243 -0.07672392 -0.06068094 0.009067645 -0.0006411173 -0.081477396 -0.005223747 0.015810708
-0.033682987 0.021140482 0.017664414 0.0012797897 -0.005765777 0.021608008 0.0013858675 -0.0059750457
0.015131865 -0.024238067 -0.035792254 -0.052753516 -0.009889818 -0.031986494 -0.057051014 -0.03836345
0.053164043 -0.08721286 -0.0410248 0.012414635 0.012788468 0.046392202 -0.055674147 0.051238067
-0.03961664 0.016027892 -0.026424441 0.02388081 -0.06093426 0.028670046 -0.0037819417 -0.0036917431
-0.05489109 0.001382701 -0.01763871 -0.029948942 -0.03617149 0.010554596 -0.04148897 0.013336458
0.018561462 -0.023104087 0.014447342 -0.020808188 -0.056586098 0.033902038 0.025424574 -0.02272597
-0.036954544 -0.06654642 -0.04882035 -0.006566436 -0.0033354186 0.011883967 0.028422687 -0.017231906
-0.011210993 -0.061518386 -0.03612753 -0.003712698 0.057429504 -0.028032651 0.020520967 -0.05460275

fc1.bias f4 [256]
00000000: 3d1c 02bd f8ff ce41 6113 cf41 bd00 cf41
00000010: 94b6 f1bd 0110 cf41 0533 cd41 4f43 3436
00000020: 9bb6 6ebd 3214 cf41 c2cf f6c0 d9ff ce41
00000030: c021 dc41 790f cf41 3d1c 02bd b084 4c41
00000040: c438 74bd 3d1c 02bd 9fdc bb41 230d cf41
00000050: aeae 13bd 4302 cf41 2453 0641 dd0a cf41
00000060: 91f2 ce41 3909 cf41 38b3 3bbd 1620 a141
00000070: 1618 cf41 4750 cf41 c64e cf41 8de2 dc41
00000080: 41f7 ce41 ff2c 2cbd b00e b6bc 311b cf41
00000090: 13ff ce41 ca25 d741 3e90 103e 880e cf41
000000a0: 3905 cf41 1fd1 a6bc 35e4 9e41 c0d9 bcbb
000000b0: a5eb ce41 af61 a4bc 9dae 00bc 16a8 1bbd
000000c0: 857d d541 55ff ce41 1131 cf41 e6b5 1abd
000000d0: 8a1d cf41 ae8f ce41 b5f8 8cbc 0b15 cf41
000000e0: 980b cf41 9a71 ed3d 092a cf41 7131 d541
000000f0: cb0e cf41 5ded 81bd 530b cf41 2c77 fdbc
00000100: 0000 0000 ead6 d341 c603 cf41 e518 cf41
00000110: 2c4d 0441 e029 cf41 c44d 7dbb 4779 ce41
00000120: 9a15 cf41 bf20 cf41 65fa ce41 5ff7 ce41
00000130: 7724 a6bc 08c6 b5bc a8f0 ce41 3d1c 02bd
00000140: 1d1f cf41 81fd ce41 e742 a9bd 36cb 1ebd
00000150: f383 62bc 8d16 cf41 57be a9bc 0000 0000
00000160: 3ce1 8f41 c9f1 ce41 f114 cf41 c9c9 c4bb
00000170: c128 4dbb 314d cf41 2c00 cf41 c9c9 c4bb
00000180: 16ea ce41 eaac 5abc a913 cf41 9b52 cf41
00000190: 247e 8341 09f8 ce41 c9c9 c4bb a902 d341
000001a0: 61f2 ce41 41c3 46bc b7b2 20bd 9037 37bd
000001b0: bb64 cf41 0000 0000 450a cf41 7613 cf41
000001c0: e93f 4fbd 2dc0 8ebd cebc a63d d503 cf41
000001d0: 8b1d cf41 c9c9 c4bb 095c cf41 2c4e cf41
000001e0: c9c9 c4bb 852f cf41 f0cf b4bc 791a cf41
000001f0: 4a17 cf41 ef21 cf41 c008 cf41 250d cf41
00000200: e0c9 bbbc a907 cf41 9124 cf41 9ffc ce41
00000210: d23d 50bd 01f1 ce41 95f6 ce41 9504 cf41
00000220: 0000 0000 f830 bfbd 7e71 12bd dd8f 82bd
00000230: a8fc bbc0 4110 cf41 3487 0841 e6e8 d341
00000240: 8d7b 02bc 39d7 ce41 aa15 55bc f30e e9bd
00000250: 354e 85bd c393 e9bc 25cc 0fbd 4d38 88bc
00000260: 8eef ce41 9da8 9a41 3d08 9641 8904 cf41
00000270: 3d1c 02bd 5be0 6640 600d 37bd e240 cf41
00000280: a503 cf41 1de8 ce41 ef04 cf41 beea 9cc0
00000290: 864d 95bd 4a91 5cbd 0427 cf41 75ec 0dbd
000002a0: 4917 cf41 9557 1e3d 6dfb ce41 3d1c 02bd
000002b0: 13ff ce41 0c29 7dbc 0000 0000 047c cf41
000002c0: e9a1 c7bb 2e2d cf41 c3d5 7741 57fa ce41
000002d0: efd1 23be 6e23 cf41 c5e1 0ebd c1ea ce41
000002e0: 11ff ce41 96f3 9dbd 5f11 aebd b689 12bc
000002f0: a7d2 cb41 c103 cf41 0500 0bbd 9124 cf41
00000300: 7b73 cf41 836c e2bc 9f16 cf41 f50d cf41
00000310: 82b5 dabf 8c24 0441 0b51 ce41 7eb7 17bd
00000320: b404 cf41 8a3b cd41 3d1c 02bd 5519 cf41
00000330: 3101 cf41 461b cf41 936c 7541 3d1c 02bd
00000340: 8904 cf41 b1f5 ce41 bfab d241 8904 cf41
00000350: 1e74 293c d94a cf41 5676 1cbd 09df 4ebc
00000360: 9305 cf41 0000 0000 bb07 62bc 51ec ce41
00000370: 80ef ce41 0323 cf41 ec78 0441 a304 cf41
00000380: 339b 0bc1 58f8 ce41 250d cf41 7108 cf41
00000390: 2eff 293e a100 cf41 ad6e 8dbc f4f3 ce41
000003a0: d918 cf41 3609 1dbe da07 cf41 4ec0 1bbc
000003b0: 8536 d841 7cfa f7bd a533 85c0 c9d8 ce41
000003c0: c0fc ce41 21f4 ce41 56fe ce41 b1f5 ce41
000003d0: 9df9 ce41 3d1c 02bd 3c17 0741 66f3 ce41
000003e0: 9f40 23bd 1306 ebbb a200 cf41 37b7 e83e
000003f0: 0000 0000 24e4 f2bc f805 cf41 8d58 0cbd
-0.03176521 25.874985 25.884462 25.87536 -0.11802402 25.882814 25.649912 2.686127e-06
-0.058279615 25.884861 -7.712861 25.874926 27.51648 25.882555 -0.03176521 12.782394
-0.05962445 -0.03176521 23.482725 25.881414 -0.03605526 25.876104 8.395298 25.880304
25.86844 25.879503 -0.045825213 20.140667 25.88676 25.914198 25.913464 27.61062
25.87073 -0.0420351 -0.0222238 25.888277 25.874548 26.893452 0.14117524 25.882095
25.87755 -0.020363389 19.86143 -0.0057632625 25.86506 -0.02006611 -0.007854131 -0.038002096
26.686289 25.874674 25.898958 -0.037771128 25.889423 25.820156 -0.017208437 25.885275
25.880661 0.115939334 25.895525 26.649141 25.882223 -0.063441016 25.88053 -0.030940615
0.0 26.479939 25.876842 25.887156 8.268841 25.895447 -0.0038651088 25.809217
25.885548 25.89099 25.872263 25.870787 -0.02028106 -0.022189155 25.867508 -0.03176521
25.890192 25.873781 -0.08264714 -0.038768016 -0.013825404 25.886011 -0.020720644 0.0
17.984978 25.86806 25.885225 -0.0060055 -0.0031304809 25.912691 25.875084 -0.0060055
25.8643 -0.01334689 25.8846 25.915335 16.436592 25.87111 -0.0060055 26.376299
25.86835 -0.012131513 -0.039232936 -0.044730723 25.924185 0.0 25.880014 25.884502
-0.05059806 -0.06970248 0.081414804 25.876871 25.889425 -0.0060055 25.919939 25.91317
-0.0060055 25.898203 -0.022071809 25.887926 25.886372 25.89157 25.879272 25.881418
-0.02292341 25.87874 25.892855 25.87335 -0.050840206 25.867678 25.870401 25.877237
0.0 -0.09335512 -0.035752766 -0.06375096 -5.874592 25.882936 8.533009 26.48872
-0.007964027 25.85509 -0.013005653 -0.113798045 -0.065090574 -0.028512841 -0.035106797 -0.016628409
25.86697 19.33233 18.754023 25.877214 -0.03176521 3.6074436 -0.04469049 25.906681
25.87678 25.863337 25.877409 -4.903655 -0.07290177 -0.053849496 25.89405 -0.03464933
25.88637 0.038657743 25.872766 -0.03176521 25.874548 -0.015451681 0.0 25.935555
-0.0060922992 25.89706 15.489688 25.872236 -0.15998052 25.8923 -0.03488328 25.864626
25.874544 -0.07712476 -0.08499407 -0.008943966 25.477858 25.876833 -0.033935566 25.892855
25.931387 -0.027639633 25.886045 25.881815 -1.7086642 8.258923 25.789572 -0.037040226
25.877296 25.654072 -0.03176521 25.88737 25.875582 25.888317 15.339007 -0.03176521
25.877214 25.869967 26.33386 25.877214 0.010342626 25.911547 -0.03819879 -0.012626418
25.877722 0.0 -0.013795788 25.865389 25.866943 25.892096 8.279522 25.877264
-8.72539 25.871262 25.881418 25.879122 0.1660125 25.875307 -0.017264688 25.869118
25.887133 -0.15335545 25.878834 -0.009506298 27.02662 -0.12108323 -4.1625543 25.855852
25.873413 25.869204 25.874187 25.869967 25.871881 -0.03176521 8.443172 25.868847
-0.03985655 -0.007172355 25.875309 0.45452282 0.0 -0.029649802 25.877914 -0.034264136

last_fc.weight f4 [1, 256]
00000000: 2451 febc b2a7 97bf 0628 2fbf 88a3 9ebf
00000010: ec83 feba 5c63 93bf 32be 18c0 e086 c2bc
00000020: ccd7 fcbc 3a9c 52bf 48fa f83f adf8 a3bf
00000030: a979 adc0 a582 20be 3c4c fa3c 0cd5 8a3f
00000040: 3eb7 16bc 447f fbbc 1fc3 b9bf 05bb a6bf
00000050: 1739 21bc 3958 8ebf 6be0 f9bd 005c 91bf
00000060: 9728 97bf 3039 9fbf be20 94bc d859 40bf
00000070: 04a8 9ebf fa4e d2bf 7dee 84be a1cf bcc0
00000080: 75c1 a1bf 933c 64bc 0829 b2bc b887 a4bf
00000090: a3a8 8fbf e11a 69c0 6e19 163c 3857 9abf
000000a0: 6f65 a8bf 7e2c 91bc 6846 b73f 6b4b e4bb
000000b0: 49c1 99bf 8f57 a1bc 567a 133d 0b1d e63c
000000c0: 3f64 a8bf 3627 a4bf 6816 92bf 5278 d93c
000000d0: 795f 70c0 910a 68bf 8dff 05bb 9b6e 8fbf
000000e0: 4f60 8fbf 5736 2f3c b451 93c0 784f a6bf
000000f0: 649f a0bf 22b7 d4bc dc01 8bbf cb8f 6fbc
00000100: fe0b 25ba 6895 37c0 06a2 a6bf 716b 9abf
00000110: 22ca eebc a255 a2bf 77fc b4bb 0b2e 4abf
00000120: 0277 95bf fc71 90bf 19d6 a4bf 50a7 a3bf
00000130: 8668 1d3c 86ad 9ebc 32cc 9abf bc91 fdbc
00000140: 603b b2bf 03f9 9abf b3c5 efbc 93d1 e03c
00000150: 188f 343c 229a 8ebf b6e7 93bc 8908 46ba
00000160: 2a80 efbf dc74 24bf f324 a6bf b11a 4dbb
00000170: 5acb ddbc be0e a2bf 05c5 8ebf 56af 9fbb
00000180: 78d1 5bbf ea55 dcbc d235 91bf e7fc c2bf
00000190: 73fe 71be 0dd8 a4bf f5cb 88bb e63f 93c0
000001a0: bc87 8fbf 97bd 263c b1b6 cc3c dae4 5f3c
000001b0: be3a 93bf 6fd2 beb8 3a68 9fbf 8c1d 8ebf
000001c0: d362 e73b 01bc c2bc dc6d f7bc 5fd2 8fbf
000001d0: dd9a 9ebf 5dda 80bb b345 99bf 97c6 9dbf
000001e0: 37fa abbb abf6 51bf d77f a9bc 1538 91bf
000001f0: 9def a1bf 7fe9 9cbf 2171 a9bf 3e17 8ebf
00000200: fc95 8ebc 8e05 a0bf d981 a1bf 62d5 9bbf
00000210: 05b3 823c 6398 a0bf c37b 8fbf 7acd a0bf
00000220: a5b8 0cbb 56d3 993b 33c5 6d3c e873 3ebc
00000230: 5039 be3b a9e3 91bf faf6 69be 5dc7 0fc0
00000240: 90c0 b5bb 8ea4 29bf f451 fb3b 7165 ccbc
00000250: 88f0 b03c 2bf5 e83c e1c5 c4ba 9742 aebc
00000260: fd19 a5bf 4d29 17c0 ed19 18c0 dae1 9dbf
00000270: 5c69 febc 415e 42bd 476b a8bc fa4a aabf
00000280: 0f24 a6bf 3c3c 82bf 45b6 99bf f2e1 633f
00000290: d4e2 f3bc 8134 4a3c f823 c6bf 6089 b33c
000002a0: b977 73bf 0cc4 f83c bb92 94bf dca0 fbbc
000002b0: fe3e 9bbf 9205 503c 1c41 f3b9 4dff a0bf
000002c0: 3789 a9bb ede1 abbf 87f0 303e 3358 8fbf
000002d0: 8d52 0d3d e022 adbf e377 6abc 5041 9cbf
000002e0: a46c a6bf 82fe eb3b 32dd d0bc d4f7 fc3c
000002f0: 7b05 abbf b876 a0bf 627b 5fbc 9e2f 9bbf
00000300: 052b a9bf 84be fe3c c09c 90bf 8198 0fbf
00000310: 706e bebb 57c8 b8bd e0ef a5bf 73d6 e7bb
00000320: b903 9fbf 1ae1 29bf ec3e fd3c 051f a3bf
00000330: 8ea4 a3bf 6d2c 98bf 8738 3ebf dc6d f7bc
00000340: f87f 9bbf e883 67bf 75fb 25c0 485b 94bf
00000350: 10cd b5bc 779c c5bf fa2b dd3c 6f9f 213c
00000360: f012 97bf 874b 263b d088 373c d5a8 96bf
00000370: ae81 9dbf 2d7e a6bf 2882 45be 5f84 9abf
00000380: 3ca5 6240 856f 9ebf 8cc7 a8bf 297f a5bf
00000390: de3e 1c3c 9625 81bf 7dec 8abc a6fc 98bf
000003a0: 46e1 91bf 8d11 03bb d895 91bf dc75 7ebc
000003b0: 4f2e 84c0 0b18 ebbc 7ac5 6b3d 1dce 22bf
000003c0: a1be a8bf 6040 3fbf 9523 b1bf 5043 9ebf
000003d0: acdd 94bf 4408 fa3c de4c a2be 0e8e 93bf
000003e0: c35a e6bc a976 c9bb 78ce 90bf 1087 6fbf
000003f0: 7455 f03a 33e2 e4bc 5f6c 9dbf aecf 1a3d
-0.03104455 -1.1848052 -0.68420446 -1.2393656 -0.0019417978 -1.1514697 -2.3866086 -0.023745954
-0.030864619 -0.8226963 1.945138 -1.2810265 -5.421101 -0.15674837 0.03055393 1.0846267
-0.009198962 -0.030700333 -1.4512671 -1.3025824 -0.009840271 -1.1120673 -0.122010075 -1.1356201
-1.1809262 -1.2439327 -0.018082019 -0.7513709 -1.2395024 -1.6430352 -0.25963202 -5.9003453
-1.2637163 -0.013930458 -0.02174808 -1.2853918 -1.1223339 -3.6422656 0.009161336 -1.2057867
-1.3155955 -0.01772141 1.4318361 -0.0069669983 -1.2012111 -0.019695072 0.03600534 0.02809002
-1.3155593 -1.2824466 -1.1413088 0.026546631 -3.7558272 -0.90641123 -0.002044651 -1.1205629
-1.1201266 0.010694108 -4.6037235 -1.2993002 -1.2548642 -0.02596623 -1.0859942 -0.014621685
-0.00062960375 -2.868494 -1.3018196 -1.2064039 -0.029149119 -1.2682383 -0.00552326 -0.78976506
-1.1676943 -1.1284785 -1.2877837 -1.2785435 0.00960744 -0.019369852 -1.2093565 -0.03095328
-1.392437 -1.2107242 -0.029269075 0.027443683 0.011020444 -1.1140788 -0.018054824 -0.00075543724
-1.8710988 -0.64240813 -1.2980026 -0.0031296427 -0.027074505 -1.2660749 -1.1153876 -0.0048731966
-0.858665 -0.026896436 -1.134455 -1.523343 -0.23632221 -1.2878433 -0.004174704 -4.60155
-1.1213298 0.010177038 0.024989458 0.013665402 -1.1502302 -9.099102e-05 -1.2453682 -1.1102767
0.0070613413 -0.023771288 -0.030203752 -1.1236075 -1.239101 -0.003932281 -1.1974396 -1.232623
-0.005248334 -0.8201701 -0.020690842 -1.134524 -1.2651249 -1.2258757 -1.3237649 -1.1100843
-0.017405502 -1.2501695 -1.2617751 -1.2174494 0.015954504 -1.2546505 -1.1209644 -1.2562706
-0.0021472361 0.0046943827 0.014512348 -0.011624314 0.005805172 -1.1397601 -0.2284812 -2.2465432
-0.005546637 -0.66266716 0.0076696817 -0.024950715 0.02159907 0.028437218 -0.0015012586 -0.021271987
-1.2898556 -2.3618958 -2.3765824 -1.233455 -0.031056099 -0.04745317 -0.020558966 -1.3304131
-1.2979754 -1.0174632 -1.2008749 0.8901664 -0.029771246 0.0123416195 -1.5479727 0.021916091
-0.9510456 0.03036692 -1.1607279 -0.030716352 -1.2128599 0.012696641 -0.00046397082 -1.2577912
-0.005173828 -1.3428322 0.17279254 -1.1198791 0.034502555 -1.3526268 -0.01431081 -1.2207432
-1.3001904 0.0072019706 -0.0254961 0.030879892 -1.3361048 -1.253623 -0.013640257 -1.2123907
-1.3216254 0.031096704 -1.1297836 -0.5609208 -0.005811505 -0.09022587 -1.2963829 -0.007075125
-1.2423011 -0.663591 0.030913793 -1.2743841 -1.2784593 -1.1888558 -0.74305004 -0.030203752
-1.2148428 -0.9043565 -2.5934727 -1.1590357 -0.022192508 -1.5438374 0.026998509 0.009864672
-1.1802654 0.0025374608 0.011202052 -1.1770273 -1.23052 -1.3007256 -0.19287932 -1.2071646
3.541335 -1.2377783 -1.3185897 -1.2929431 0.009536473 -1.0089595 -0.01695847 -1.1952102
-1.1396873 -0.0019999475 -1.1373854 -0.01553103 -4.130653 -0.028697988 0.057561375 -0.63595754
-1.3183175 -0.74707603 -1.3838984 -1.2364292 -1.1630149 0.03052152 -0.3169927 -1.1527727
-0.02811945 -0.0061481786 -1.1313009 -0.93565464 0.0018336014 -0.027939891 -1.2298697 0.037795715
