save_mode/SAC_v_10_policy_network.pth (torch, 342351 bytes, 8 tensors)

hidden1.weight f4 [256, 48]
00000000: d4d2 5a3d 63dc 48bd e83b bc3c 4097 a0bb
00000010: 70c9 c2bc 21d3 72bc 80d2 653a 0881 debc
00000020: 00ac 1fba f728 3fbd 8032 663c b8b9 323d
00000030: 0445 15bd b4ad 1dbc 2058 2dbd fe30 37bd
00000040: b8fa 59bc d0fb 343d 82ae 5bbd 301a 7f3c
00000050: 2ae0 09bd 1c2a 1b3d 25bb 47bd 404f deba
00000060: f81e 203c 301c 98bc aa58 e4be 91fa eabd
00000070: 4033 7ebd 18e2 553d 6d4b 6bba 95bb 82bd
00000080: 38f3 2abd 842f 653d 6891 573c 225a d9bc
00000090: 10c1 96bb 807e 353b e6ab 39bd d353 5abc
000000a0: 6208 1cbe 7e0b 71bd 3235 37bd 2e22 dabd
000000b0: c701 6bbd fe67 10bd 00a1 bd3a 54eb d1bd
000000c0: 5af9 0e3d 0d07 bf3d 66bc 79bd 205e 1cbd
000000d0: e43a c6bc 6f8c 5a3d cc1c 8abc baa9 73bd
000000e0: a06f 8cbb 7e92 5c3e b323 10bc 264a 4dbd
000000f0: 4099 963b 340c 67bc 9149 1f3c 70dc 81bb
00000100: e8a2 8dbc b40c 3f3d d58d 4bbd 947a e53c
00000110: e8b0 413d c0f6 01bc aa95 91b8 3019 24bd
00000120: 8837 0bbd e899 47bd 7add 7c3d 3bea 5cbe
00000130: a0c6 bfbc bebc 693d 738d d2bd 3355 6ebb
00000140: 3cd9 fa3c d492 52bd 80df 9aba 584b 87bd
00000150: d08f 1b3c 90ab 9fbc 30f1 a13b 700a 65bd
00000160: c419 e13c d456 4d3d c0ee 023b 7788 53bd
00000170: d67c 5039 3ee0 3e3d d090 273d 93ac f43c
00000180: cc7c 19bd 905d 4e3c b074 81bc c2a5 59bd
00000190: 40a3 f3bb e122 0fbe 50c7 393c e025 7abc
000001a0: 80dd 4abc f9ea 043e 2120 88bc 60d0 e73c
000001b0: 548f 8bbc 98e3 433c 3bf7 453b 5013 0e3d
000001c0: c4ed 993c 24cb 73bd b071 45bc bc35 99bc
000001d0: e0d5 363c 1c29 f5bc 9435 74bd d8b1 133c
000001e0: aeb8 20bd c671 5c3d 92e7 02be cc34 7a3e
000001f0: 9003 063c 1639 103d c808 f83c 4a18 0b3d
00000200: 4485 9ebc 6008 17bd 7428 8d3c 171c 863e
00000210: e01d b03c a41d ecbc f872 ce3c 1812 b3bd
00000220: a52c 80bc 8c3b aabc c84d 993c 3090 943d
00000230: c46f 9cbd a4bd 5b3d a0b3 5c3d 7b3d 2bbb
00000240: aa9c 23bd 54f8 07be 8cc7 213d 709d bb3b
00000250: 6e16 33bd f105 4dbc 409b dfba 2492 9a3c
00000260: 901c b3bc 72f1 bfbd 09b7 87bc cc2d 583d
00000270: 3c81 febc 2f86 4d3c ecd9 43bc a01b 30bc
00000280: d8ad 3ebd 980f 643d d75c 83bd 4ee0 61bd
00000290: 0493 debc 9c12 613d fc33 48bc d835 1a3c
000002a0: bc32 c73c 4ea2 3e3d d6c8 39bd 191f 283c
000002b0: 3e24 1c3d 0c90 aabc fd62 5e3b 4fbe 0ebd
000002c0: 06b5 42bd 3e35 1e3d 3838 05bc 52d2 a53d
000002d0: a04d 12bd 6c8d cebc 6aa4 4d3d c238 8cbd
000002e0: bd95 ebbd f8f9 09bc f0ed b0bb e547 0a3d
000002f0: 041d 443d 909f 573d 0c39 633d 86c3 853c
00000300: 0076 e9bc 45b6 0a3b d463 dfbc 00bc 68bb
00000310: 0816 7dbc 5a45 06bd b2ec 573d cc0f 99bc
00000320: 8679 1fbd 42b0 12bd 9f9a c6bc e8d7 15bc
00000330: a4f5 893c f436 61bd b323 823c 1091 ed3b
00000340: e423 bfbc b843 d7bc 4864 9cbc d85e 03bc
00000350: 9088 773d d04e a9bc c6bb 43bd f89e 103c
00000360: 767d 303d 30a4 f43c b528 83bb 2193 383d
00000370: 08d2 47bd 986d e4bc 7965 b33c 0218 2b3d
00000380: 9844 fe3c 8023 aabb 185c 163c 6ceb 353d
00000390: 402d 223b 4c7e b3bc 5e25 7cbd 218d 3a3c
000003a0: ec1b 17bd ae14 133d a636 713d c5bc e83d
000003b0: 3801 4abd 10ed bbbc 1a4e 423d e23d ca3c
000003c0: 0e07 373d 9e90 18bd dad3 4fbd 404c 4b3d
000003d0: d829 5f3d 722b 6a3c ce47 0f3d 4a0b 1b3d
000003e0: d886 0c3c b275 103d 512b 9b39 e059 1c3b
000003f0: 00df 533c 1b58 20ba 5f4e 0d3c 9815 313d
0.053423718 -0.049038302 0.022977784 -0.004900843 -0.023777694 -0.014820845 0.00087670237 -0.027161136
-0.00060909986 -0.046669926 0.014050126 0.043634146 -0.03644277 -0.009623934 -0.04232037 -0.044724457
-0.013304405 0.04418546 -0.05363322 0.015570208 -0.033661045 0.037881956 -0.04876246 -0.0016960874
0.0097730085 -0.018568128 -0.44598895 -0.11473573 -0.062060595 0.052217573 -0.0008975778 -0.06383435
-0.041735858 0.055953518 0.013157226 -0.026532236 -0.0046006516 0.0027693808 -0.04532995 -0.013325649
-0.15237573 -0.05884885 -0.044728465 -0.106510505 -0.057374742 -0.035255425 0.0014467537 -0.102499634
0.03490577 0.09327517 -0.060970686 -0.038175702 -0.024198003 0.053356584 -0.016859435 -0.059488036
-0.0042857677 0.21540257 -0.008797574 -0.05011954 0.0045959055 -0.014102031 0.009722129 -0.003963046
-0.017289594 0.046642974 -0.04969581 0.028012551 0.04728785 -0.007932365 -6.942016e-05 -0.040063083
-0.033988506 -0.04873076 0.061734654 -0.21573727 -0.023410141 0.057064764 -0.102808855 -0.00363667
0.030621164 -0.051409557 -0.0011815876 -0.066061676 0.009494737 -0.019490987 0.004942082 -0.055918157
0.027478106 0.050131634 0.0019978732 -0.051643815 0.00019882931 0.046600573 0.04090959 0.029867446
-0.03747253 0.012595549 -0.015802711 -0.053136595 -0.0074352324 -0.13978149 0.011339024 -0.015267819
-0.012381911 0.1298026 -0.016616883 0.028297603 -0.017036118 0.011956118 0.0030207175 0.034686387
0.018790133 -0.059519902 -0.012051031 -0.01870238 0.01115939 -0.029926829 -0.05962141 0.009014569
-0.039238624 0.05381944 -0.1278365 0.24434203 0.00817956 0.03521069 0.030277625 0.03395871
-0.019350655 -0.03687322 0.017231204 0.26193306 0.02149862 -0.028822728 0.025201306 -0.087436855
-0.015646288 -0.020780347 0.018713847 0.07254064 -0.07638505 0.053647652 0.05388224 -0.0026129175
-0.03994433 -0.13278323 0.039496943 0.005725555 -0.043722562 -0.012513624 -0.0017059818 0.018868513
-0.021864206 -0.09372224 -0.01656677 0.05277805 -0.031067483 0.012544199 -0.011953812 -0.010748774
-0.04655251 0.055678934 -0.06414192 -0.055145554 -0.027169712 0.054949388 -0.012219425 0.009412251
0.024316184 0.046541505 -0.045357548 0.0102613205 0.0381205 -0.02082064 0.0033933513 -0.03484946
-0.04753592 0.038624994 -0.008131079 0.08096756 -0.03571856 -0.02521392 0.050205626 -0.06846763
-0.1150317 -0.008421414 -0.005399458 0.03375997 0.047879234 0.052642405 0.055474326 0.016328584
-0.02849865 0.002116577 -0.027269281 -0.0035512447 -0.015447147 -0.032780983 0.052715965 -0.01868429
-0.038934253 -0.035812624 -0.024243651 -0.009145714 0.016840763 -0.054984048 0.015886163 0.007249959
-0.023332544 -0.026277408 -0.019090787 -0.008018218 0.06043297 -0.020667464 -0.047786497 0.008826964
0.0430884 0.029863447 -0.0040026554 0.045062188 -0.048784286 -0.02788429 0.021898972 0.041770943
0.031038567 -0.00519222 0.00917723 0.04441397 0.002474621 -0.021910809 -0.061559074 0.011386187
-0.036891863 0.035908394 0.058890007 0.1136413 -0.04931757 -0.022940189 0.047437765 0.024687711
0.044684462 -0.037247293 -0.050739147 0.049633265 0.054483265 0.014292585 0.034980588 0.037852563
0.008577071 0.035268493 0.00029596177 0.002385728 0.012931585 -0.00061166444 0.008624642 0.043233484

hidden1.bias f4 [256]
00000000: 3493 93bd 87aa 85bd 8ddc 99bc d1a6 d63c
00000010: cadf 673d dde3 afbc cd3b d8bb e060 983d
00000020: 55e8 5abd c720 1dbd fefd 5ebd dc05 483d
00000030: f4d3 ccbd 3346 57bb 7b9c b83c 30cf 96bb
00000040: e48a 633c c074 a6bb 68be 0e3c 30bb 8abc
00000050: 182e 4e3a 0000 0000 135f f9bc c058 85bc
00000060: 0e96 19bd 0de0 d13b fbd1 babd f7c4 2ebd
00000070: c9bc 1ebd a646 03be a458 cdbb 8d50 91bc
00000080: e08a 8abc c1d5 bbbc 3860 b3bc 0000 0000
00000090: b1ee a03d 0649 8e3b ecc7 12bc c6fe 71bc
000000a0: 2710 3cbd 9f7c 3cbb 20a5 94ba d177 77bc
000000b0: 0d73 23bd fb37 09bc 7d74 c2bc fac3 fbbc
000000c0: 1f14 06bd 3b06 b0bb 4e22 94bc 6c23 2fbc
000000d0: 0148 3abe 3746 7a3d 71d5 833c f1c3 67bd
000000e0: 0000 0000 1611 8d3c 8b7e 0bbe c4ce fbbc
000000f0: 4182 273c 046b 16bd 7e73 9cbb ff40 aebb
00000100: 6b4a 3dbc ce11 e63b 7866 b43d 9762 9ebc
00000110: 670d c23b b1b5 843d 7e89 1dbd c5af c3bd
00000120: e0bd 93ba 4967 a0bc 0000 0000 6d5f f8bc
00000130: 9be4 5e3e 78b2 81bb eb69 23bd 5728 e53b
00000140: cac6 14be 6026 993c 8431 8cbf 8c3e 0dbd
00000150: 0000 0000 ae01 a1bc e54a 58bd d24e 97bd
00000160: ead0 37bd feca 32bd 7182 283c b2aa b8bc
00000170: 1f35 293b 7d77 83bd fbd8 e43d e44a a8be
00000180: 3a68 bebd 0a7c 123d 860d af3d 6e2b 713d
00000190: c7ac 0dbc 0000 0000 892e 98bc 860e 61ba
000001a0: e900 803b af71 d1bc 33c5 80bc 75b3 dd3c
000001b0: f46b 69bc 795a 6bbd 5c9a 73bc a0dc 293a
000001c0: db2c 2e3d dbfa 83be 3f03 453c be70 c2bd
000001d0: ae0b 9f3c b97a e9bc eb73 f43c a881 a0bd
000001e0: 91b3 2ebd dc21 8bbb 8216 e3bd 7bc2 a9bd
000001f0: 1730 96bd 4078 b03c 8122 863c fa5f b2bd
00000200: 5853 fcbb 80cb 1a3d 039d 67bc 12af c2bb
00000210: 5609 623d 01c8 9bbd d2c5 00bd 56a5 e4bb
00000220: b65c 0cbd 3fd4 b5bb 69e0 61bb 6714 12bd
00000230: a29e c3be ab21 c3bd 0000 0000 f127 43bb
00000240: d44b 9abe c1ee 16be 9546 c5bb 7bbf 2cbc
00000250: 8a0e d43d d992 e93b e028 4e3d b8c3 d23a
00000260: 7a01 05bd d4a0 1cbd 11a0 a93e e602 59bd
00000270: 957e 06be 8658 a2bc ac6a 4a3a 697c 753c
00000280: 0000 0000 9084 a6bd 0944 063c 8906 ab3c
00000290: 596e 8abc e82e 42bd af68 efbb 628c 03bd
000002a0: f640 9bbb 9f14 1abc 6c21 cfbc 4b81 43bc
000002b0: a9e8 8a3c a3f0 edbc dcf1 48bb 9be2 75be
000002c0: 95a4 8bbc abd5 83bb 4cb4 1fbd 901f 8bbc
000002d0: 95cc 12bc cd67 0e3d 03b8 23be 08e2 4bbd
000002e0: aa9d 68bd 4fa3 90bb 678c 21be eb02 adbe
000002f0: b40b 05bf 6c82 4dbd 1f98 36bd cacf 0dbc
00000300: b015 003d 0000 0000 bbc7 58bb ba5b c1bc
00000310: 979e dbbe 0ad0 16bd 36d1 33bd 0000 0000
00000320: 3eeb 773d c59b 5f3b 05c6 f4be e279 8abd
00000330: 45c2 8bbd eece c23c 84cb 92bc c3f7 3d3d
00000340: c88c f93c 7be5 15bd da2f 2cbb 25cd 77bd
00000350: 9990 0dbe 4453 8b3d 05f8 77bb 3790 7eba
00000360: 979f 35bd 1609 69be 6ccc fbbc 0000 0000
00000370: 3791 843b 5e64 69bc c5da 8abc b970 393c
00000380: a69c 10bc d83b c7bb 983a 543c 0000 0000
00000390: 01fd 47bc 6529 6abe a4d7 07bd 5446 0bbc
000003a0: d032 133c fb9f 263c 6888 37bb 7bf7 853c
000003b0: 5e19 ccbb 176e 7cbf 5194 5b3c acaf 27bd
000003c0: 0000 0000 fc25 213e adf6 2dbd ad9f 29bd
000003d0: 44d3 8dbd 274e c7bd 154d 40bd e291 bbbc
000003e0: 3343 ab3c 3589 c6bc 1314 783e ec2f c6bc
000003f0: 20c2 463d 4429 52bc fd03 f9bc 1c0f dab9
-0.07205811 -0.06526666 -0.018781925 0.026202591 0.056609906 -0.021470958 -0.0065989257 0.074403524
-0.053444225 -0.038361337 -0.054441445 0.048833713 -0.10001364 -0.0032848238 0.022535553 -0.0046023354
0.013888095 -0.0050798357 0.008712389 -0.016934961 0.0007865145 0.0 -0.030440843 -0.01627767
-0.03749662 0.0064048828 -0.09122082 -0.04266831 -0.03875426 -0.12819919 -0.0062666703 -0.017738605
-0.016911924 -0.022929074 -0.021896467 0.0 0.07858027 0.004342201 -0.008958798 -0.014770215
-0.04591384 -0.0028760803 -0.0011340715 -0.01510425 -0.039904643 -0.008375163 -0.023737187 -0.030733097
-0.032734033 -0.0053718365 -0.018082764 -0.010689598 -0.1819153 0.06110212 0.016092988 -0.05658335
0.0 0.017220061 -0.13622491 -0.030738242 0.010223926 -0.03672315 -0.00477451 -0.0053178067
-0.011553387 0.0070211655 0.08808607 -0.01933412 0.005922008 0.064799674 -0.0384612 -0.0955501
-0.0011271797 -0.0195805 0.0 -0.03031894 0.21766894 -0.0039580427 -0.039895933 0.0069933343
-0.14528957 0.018695056 -1.0952611 -0.034483477 0.0 -0.019654121 -0.0528058 -0.07388081
-0.04487697 -0.04365062 0.010285006 -0.022542331 0.0025819016 -0.06419275 0.11174198 -0.32869637
-0.092972234 0.035762824 0.08547501 0.05887931 -0.00864715 0.0 -0.018576877 -0.0008585233
0.0039063585 -0.025566904 -0.015719032 0.02706311 -0.014246929 -0.05745933 -0.014868345 0.0006479714
0.042523246 -0.25777325 0.0120247 -0.0949416 0.019414749 -0.028500902 0.02984043 -0.0783723
-0.042651717 -0.0042459797 -0.110882774 -0.08289047 -0.07333391 0.021541715 0.016373875 -0.08709712
-0.007700365 0.03779173 -0.014136556 -0.00594128 0.055184685 -0.07606507 -0.031438656 -0.0069777174
-0.034268104 -0.0055489833 -0.0034466034 -0.03566399 -0.38206965 -0.09527906 0.0 -0.0029778446
-0.30135977 -0.14739515 -0.006020377 -0.010543699 0.103543356 0.0071281013 0.05033195 0.0016080057
-0.03247211 -0.038239315 0.33129933 -0.05298128 -0.13134225 -0.019817602 0.0007721584 0.014983275
0.0 -0.08130753 0.008194932 0.02087714 -0.016898321 -0.047408015 -0.0073061804 -0.0321163
-0.0047379686 -0.0094043305 -0.025284491 -0.011932681 0.016956644 -0.029045409 -0.0030661738 -0.24012224
-0.017046252 -0.004023274 -0.038990304 -0.016982824 -0.008959909 0.03476696 -0.15988164 -0.049776107
-0.056790985 -0.004413999 -0.15776215 -0.3379129 -0.5197098 -0.050173208 -0.044578668 -0.008655498
0.031270683 0.0 -0.0033078033 -0.023603309 -0.42894432 -0.036819495 -0.04390069 0.0
0.06052708 0.0034119945 -0.47807327 -0.067615286 -0.06824163 0.023780312 -0.01791931 0.046378862
0.030462638 -0.036595803 -0.002627364 -0.060498375 -0.13824691 0.06802991 -0.003783704 -0.0009710821
-0.04434165 -0.22757372 -0.030737124 0.0 0.0040456313 -0.014245121 -0.01695002 0.011318379
-0.00882641 -0.006080132 0.012953423 0.0 -0.012206317 -0.22867353 -0.033164635 -0.008500654
0.008984283 0.010169978 -0.0028004888 0.01635336 -0.00622861 -0.98605484 0.013402061 -0.040939018
0.0 0.15737146 -0.042471576 -0.041412044 -0.06925061 -0.09731703 -0.04694851 -0.02289671
0.020906067 -0.024235347 0.24226408 -0.024192773 0.048524976 -0.012827221 -0.03039741 -0.00041591458

hidden2.weight f4 [256, 256]
00000000: 2685 76bc 6145 b93a 6844 6ebd 35ba 62bd
00000010: e7af 433c c50b 44bd 3866 17bc 23a6 073d
00000020: f102 82bd 3047 53bd be8f a0bd 678a fcbc
00000030: 898f 293b 89ca e23c e81f 8e3c a57a 3d3d
00000040: 2c36 30bd 9aa7 f0bb f375 51bc ee30 40bd
00000050: fc98 463d e482 76bd 9d49 29bc 72a3 c2bc
00000060: 06dc 0d3c 490e 9ebc cc99 703d 2745 2b3d
00000070: 9e96 a9bd 3975 a5bd b622 5fbd 152f a8bc
00000080: 1831 25bd d06e 6fbd ca83 3e3d c40c ebbc
00000090: c37b 32bd 4f1f 2abc 055e b73b 9cbc 14bd
000000a0: 6ea0 453c de7c 503d 42c8 56bd a2d6 493d
000000b0: 46d3 83bd 27f6 243d 2355 fcbc 6e10 8cbc
000000c0: fe2d dcbc aa49 38bd 8dfb 533d bdfc b8bc
000000d0: a038 06bd 5da0 2fbd efd7 4f3d 00be 893c
000000e0: 10b3 e3bc 0184 353d a5a7 cdbc 6c9e c83c
000000f0: a859 793d 399d 58bd 970e ba3c 5988 af3c
00000100: 7b54 8a3b ec20 42bd faf5 303d 7706 1fbd
00000110: 3c40 bd3c 7f40 043d 3426 0f3d 7cfe 64bd
00000120: 7e98 68bd b1d6 ebbb 7a18 14bd 5f31 533d
00000130: 87b2 8f3b 0a52 2e3d 1608 363c 2c45 fd3c
00000140: fd46 3cbd 52dd adbc b8ca 39bd b795 433d
00000150: 7a6a 30bd 37d2 93bd a678 f7bd f5bf 58bd
00000160: c8b1 b7bd 6ffe 78bb fa03 20bd df49 5d3d
00000170: c2a6 0d3d b6db d6bc a8a2 b0ba c720 36bc
00000180: 4225 01bd 7b51 343d e537 f9bc 0407 1f3d
00000190: b672 fbbc 20a3 6e3b f830 103d be8f 2b3c
000001a0: cce2 87bd dda3 e6b7 a6ab f83c 625f 3dbd
000001b0: a439 e7bc c0fe 1fbb e26a 0e3c 7b4e 483d
000001c0: 2a67 7a3c 743f 8ebc 86e2 113d 6770 6ebd
000001d0: 1692 52bc aec2 39bd ca7a 8fbc 5bd0 e13c
000001e0: c9b3 80bb 872f c7bc 73c3 473d f095 393b
000001f0: b602 28bd c9cd 853d 46e9 3d3d 36d9 093d
00000200: 13a6 5ebc a124 83bd e81c 4dbd f7fa 7bbd
00000210: d1a4 4abd 0a9c 5cbd 27c0 c13c 9b2e 33bd
00000220: ed5a 5c3d c0f7 72bd 7793 1dbd acfc 79bd
00000230: 3aca adbd eebe 823b 0030 f0bb 5c51 a43c
00000240: 63f1 eabc 908f 5ebd 1100 a9bd 6997 11bd
00000250: 0af7 c63c 42ae 75bd df02 493d 86b2 073d
00000260: adf4 aabc f679 d1bc 037b 21bc 476e 00bd
00000270: d884 b5bc e551 69bd f39f ad3c fb9d 51bd
00000280: 6043 893b 5e85 17bd a44c 6d3d 57d4 debc
00000290: 49fc a5bb 9bf0 8cbd 8f58 4b3d ac2f 18bd
000002a0: 17e0 ea3c 6c04 bb3c 7784 d23b 830c 6fbd
000002b0: a1c7 1c3d 758d 1c3c 3cf3 8a3c 3ed0 a4bd
000002c0: 6c9e 21bd aa49 4e3c 3789 3e3c ccb7 7fbd
000002d0: 7e53 35bd ff65 783c 37fc 69bd 1e8c 263d
000002e0: 44ca 213d 502f 0d3d 1377 51bc bdb2 c3b9
000002f0: 508d 8c3c 7974 823b 8c5e 373d 3edf f43b
00000300: e948 34bd b03d cdbc ea91 f9bd ee89 9fbc
00000310: e1be 863b 9adf bf3c 12ff 28bd b836 4fbd
00000320: 5c41 19bd bdfd 113d ef39 0d3d 8764 0dbd
00000330: 12ff 76bd c9f0 803d 785e f93b ff12 093c
00000340: 4dff 433d 1159 14bd 4246 ebbc 9d12 08bd
00000350: 03ee 16bd 62d4 ecbc 3c87 61bd 46ee dd3c
00000360: d310 16bd c313 57bd 02e1 37bd 9442 55bd
00000370: 4a5d 8abd 8740 99bd f361 6ebd cc08 4abd
00000380: eab7 8e3d f316 99bc 4037 79bc 6ebc 283d
00000390: 1579 3bbd acdb a93c 7ff1 95bc 9fb8 cfbc
000003a0: a8bd 613d b934 463d 21cd 3d3d ce45 273d
000003b0: 204d 01bd 2244 8bbd ac4b 15bd 10e9 d8bc
000003c0: 42eb 14bd 0ce1 b7bd 8efa 40bd 51c1 52bd
000003d0: 1058 5d3c 0982 d23c 750f ad3c 03ae f9bc
000003e0: 18c1 a0bb 7b2a cb3d d30d 11bd 9cda 7ebd
000003f0: 0b3a 5c3d 65b0 5a3d c40c 8c3d 332a 60bd
-0.0150463935 0.0014135056 -0.058170706 -0.055353362 0.011943794 -0.047862787 -0.009240679 0.033117425
-0.06348217 -0.05158156 -0.07839917 -0.030827714 0.0025872907 0.027684467 0.017349198 0.04625954
-0.043020412 -0.0073441984 -0.012784469 -0.046921663 0.04848574 -0.06018342 -0.010332492 -0.023759577
0.008658415 -0.019293921 0.058740422 0.041813996 -0.08280681 -0.08078999 -0.054476462 -0.020530263
-0.040330023 -0.05845529 0.046512403 -0.02869261 -0.04357506 -0.010383441 0.005595925 -0.036312684
0.012062175 0.050900333 -0.052437074 0.049276955 -0.064367816 0.04027381 -0.030802315 -0.017097678
-0.0268774 -0.044992127 0.05175357 -0.022581453 -0.032768846 -0.042877544 0.05074304 0.016814232
-0.027795345 0.04431534 -0.025104353 0.024489604 0.06087652 -0.052884314 0.022712035 0.02142732
0.0042214966 -0.047394678 0.04320333 -0.038824525 0.023101918 0.03228807 0.034948543 -0.055906758
-0.056786053 -0.007197224 -0.036156155 0.051560756 0.004385296 0.042558707 0.011110326 0.030916773
-0.045966137 -0.021223698 -0.045359343 0.0477502 -0.043070294 -0.0721783 -0.12083559 -0.05291744
-0.08969456 -0.003799345 -0.039066292 0.054025527 0.03458286 -0.026227813 -0.001347621 -0.011116213
-0.031529672 0.04402302 -0.03042216 0.03882505 -0.030694347 0.0036413148 0.03520295 0.0104712825
-0.06635055 -2.7494441e-05 0.030355286 -0.046233542 -0.028225727 -0.0024413317 0.008692475 0.04890297
0.015283385 -0.017364241 0.03561642 -0.058212664 -0.012852212 -0.045351677 -0.017514605 0.027565172
-0.003927682 -0.024314655 0.04877038 0.002831813 -0.04101821 0.06533391 0.046365045 0.033654414
-0.0135894 -0.06403471 -0.050076395 -0.061518636 -0.049473587 -0.053859748 0.023651196 -0.04374562
0.05379765 -0.059318304 -0.03847071 -0.061031982 -0.08485837 0.0039900457 -0.007329941 0.020058326
-0.028679555 -0.05433613 -0.08251966 -0.035544787 0.02428772 -0.05998064 0.049075004 0.033129238
-0.020868624 -0.02557085 -0.009855988 -0.03135517 -0.022158071 -0.056962866 0.021194434 -0.051176053
0.00418894 -0.036992423 0.05793442 -0.02720086 -0.005065475 -0.06881829 0.049645003 -0.03715484
0.028671307 0.022829257 0.0064244824 -0.05836154 0.03827632 0.00955521 0.016961686 -0.080475315
-0.039457723 0.012590805 0.011629394 -0.06243114 -0.044269077 0.0151610365 -0.057125296 0.04066097
0.039499536 0.03446895 -0.012784737 -0.0003732647 0.017157227 0.00398117 0.0447679 0.0074729016
-0.044014845 -0.025053829 -0.12186034 -0.01947495 0.00411211 0.023422051 -0.04125888 -0.050589293
-0.037415847 0.035642374 0.034479078 -0.0345197 -0.060301848 0.06295926 0.0076101385 0.008366345
0.047850896 -0.036217753 -0.028720025 -0.033220876 -0.03684808 -0.028909866 -0.05506061 0.027091157
-0.03663714 -0.05250908 -0.04489232 -0.052065447 -0.06756075 -0.07483011 -0.05819888 -0.049324796
0.069686726 -0.0186877 -0.0152109265 0.041195326 -0.04576977 0.02073463 -0.01830363 -0.025356589
0.05511251 0.048390124 0.046338204 0.040838055 -0.031567693 -0.06800105 -0.03644912 -0.02647832
-0.03635717 -0.08978471 -0.047113948 -0.051453892 0.013509765 0.025696771 0.021125535 -0.030478483
-0.004905831 0.09920212 -0.035413574 -0.0622202 0.05376629 0.05339088 0.06838372 -0.054727744

hidden2.bias f4 [256]
00000000: 459a 9bbc 7879 303a f9dc 5b3d 8c92 453c
00000010: f2a5 76bc ccc9 81bd a793 62bd 3b3e 19bd
00000020: 2c2e 2b3e 1ae9 a6bd 7e14 7bbd 9b8a a2bd
00000030: 3bd1 973b 64aa 5b3a cb02 6a3d ad93 81bd
00000040: 8754 3bbc d9cc 473d f950 1fbd 7cf1 6ebd
00000050: f6e0 983d 9e56 36bc 97b3 05be 468c 9abd
00000060: 29cd 28bd dbfe 0bbc 861e 543c 5bab 97bc
00000070: 9e69 99bc ec90 723c e4ec f6bc 3ff8 5fbd
00000080: 2c22 4fbd 2031 2fbd b996 01bd 62ea 08be
00000090: 9b35 66bd df3e 1cbd f439 a6bc 00e9 cc39
000000a0: d226 ee3b 5b24 d2bc a114 2f3c ccef 023d
000000b0: 4272 dfbc 7341 593e b6ef 1d3e ba11 bbbc
000000c0: fbe5 cbbc 433c 82bd 8590 963c 1f72 b6bd
000000d0: 23e6 05be a8d6 52bd 3a6c a9bd 472b f8bc
000000e0: e653 acbd 1f11 bfbd 19d8 bfbc ba09 45bc
000000f0: d4e5 4f3c ab3c 3fbd f78d 843d f657 80bc
00000100: ecaf 8fbd dc56 cc3c cd56 0dbd 6835 64bc
00000110: 8f9e 203f c3eb 853d 6966 953b 533e 5abd
00000120: 046a 953b e4a3 25bd fe27 723b a8cb 28be
00000130: 2a0f d1bc 906a 00bd e4db 783c cd9a 45bd
00000140: 2f70 1bbc 34d6 68bd e8bb 333e d32e 09bd
00000150: 65db 6dbd 8dee 843c 1a4f 423b 81de 71bd
00000160: b86e cfbc c915 06bd 5fc0 bbbd 38c5 e7bb
00000170: e3ed 34bc ff23 27bc 522a cabd 8593 50bd
00000180: a3a4 9e3c 4389 3e3d b1b6 b03c 4f45 0cbd
00000190: fa52 7bbb ea6f 38bd 82ba bdbc 6832 8d3f
000001a0: 1909 323c 0f69 2bbd abf5 5b3b eec6 87bc
000001b0: c011 bc3c a3ce 96bd fc14 6a3c c896 0ebc
000001c0: 7404 593d 6a4a 11bd acca 26bd 99a5 d7bc
000001d0: 1dd1 8bbd 1934 54bd 647f 44bd 9993 14bd
000001e0: 671c 22bd e8c4 b1bd 8860 c13c 5bba 7ebd
000001f0: 2274 82bd 5819 0abd cd24 c6bc ef90 e2bc
00000200: 3099 0bbd ed80 80bc fa58 85bd 9772 90bc
00000210: 97ce 5bbd 85a7 8dbd ab46 14bc 0f6e 9abd
00000220: 3077 8cbd 73f6 1a3b 65c8 d4bc c5c2 babd
00000230: e526 d7bc 51d9 cdbb e22f a93c d8cd f4bc
00000240: 22d6 b33a 313b 6dbc 0b62 24bd 7c6a 9f3e
00000250: d9f5 cbbc 4ac8 fcbc 1d09 7f3c b2a7 e1bd
00000260: 98c8 15bd 978e 7bbd ac42 bdbc 70a9 66bd
00000270: 0921 7f3c 9907 1dbb 4de8 96bd 1717 29bd
00000280: 3c89 17bd 9dbb 30bd ab60 8bbd bd6c ccbc
00000290: 6e48 64bc 9d6f a9bd 295e ac39 563a 3c3d
000002a0: e8bd 2ebd 2b94 09bd d353 d63b b564 e6bd
000002b0: d84a 68bd 5d88 633c 277c a1bd 4239 ecbc
000002c0: 50a9 7fbd 7a72 5abc 43b4 523d b6b6 67bd
000002d0: 911a cdbb ec2f be3b 6e4d 01bc 716f fcbc
000002e0: 78db 24bd 2cda 58bd cc42 65bc 443e dabc
000002f0: 31f6 63bc 6d94 9b3d cc44 1bbd cbac 443f
00000300: ecab e43b 6bbc adbc 329e d9bd 99c9 3ebc
00000310: c015 aa3b 69fb 25bd 4d94 aebd 96f8 b7bc
00000320: 490a 81bc aba3 803b 8318 8bbd 54f1 043c
00000330: 30a0 c2bd b645 a83d 8530 18bd 0c38 0b3d
00000340: 4952 07bd 805a b8bc 4ca2 833c eef5 89bc
00000350: a156 e6bc 8038 c8bc 14e4 1abd 93bc 7f3c
00000360: bb3f 883c ab31 a2bd 9232 65bc 234b 13bc
00000370: 42fb 81bd d067 7e3b 2ae4 66bc adde 8ebc
00000380: 6a9d c23c 001e 963c 47e6 15bd c14d 4fbd
00000390: 1574 cc3b 2d17 1bbd e606 53bd c407 a7bc
000003a0: 6263 6abc 115c 72bd 2778 10bd 8dad 70bd
000003b0: ca5c 30bc 80f2 fa3c ade3 68bc 1859 a8bd
000003c0: ac8c 27bb e0a4 3fbd 7d8e 093d 3db1 28bd
000003d0: cbbc 45be 13ba ebbc e10c 12be 119c c93b
000003e0: 06a9 9ebd 9e29 aa3d e373 b5bd e60e 283d
000003f0: 0c4b 013c 0dfe 003b 7390 ecbc 9841 91bc
-0.01899446 0.00067319674 0.053677533 0.012058865 -0.015054213 -0.06337318 -0.055316593 -0.037412863
0.16716832 -0.08149929 -0.06129884 -0.07936593 0.0046330965 0.0008379577 0.05713157 -0.06326995
-0.011433727 0.048779342 -0.03889558 -0.058335766 0.07464783 -0.01112905 -0.1305679 -0.07546286
-0.04121128 -0.008544649 0.0129467305 -0.018514326 -0.01872712 0.01480506 -0.030142255 -0.054680105
-0.0505697 -0.04277146 -0.03163788 -0.1337066 -0.056203466 -0.038145896 -0.020291306 0.0003908351
0.0072678113 -0.025652101 0.010686071 0.03196697 -0.027276162 0.21216373 0.15423474 -0.022835601
-0.024889937 -0.0635915 0.01837946 -0.089084856 -0.13076071 -0.051474243 -0.08272596 -0.030294074
-0.0841444 -0.093294375 -0.023418473 -0.012026245 0.012689073 -0.046688717 0.0647239 -0.015666943
-0.07015976 0.024943762 -0.034506608 -0.013928749 0.6274194 0.065391086 0.0045593274 -0.053282093
0.004559757 -0.0404395 0.0036950107 -0.16483939 -0.025519926 -0.031351626 0.015189145 -0.048243333
-0.009487196 -0.056844905 0.1755215 -0.03349192 -0.05807056 0.016227031 0.00296492 -0.059050087
-0.02532135 -0.03273562 -0.09167551 -0.007073071 -0.011043045 -0.010201453 -0.09871353 -0.050921936
0.019365614 0.04651762 0.021571489 -0.034245785 -0.0038349018 -0.045028605 -0.023160223 1.1031008
0.010866427 -0.04184824 0.0033563178 -0.01657435 0.022957683 -0.073636316 0.01428723 -0.008702941
0.052982762 -0.035471357 -0.040720627 -0.02632408 -0.068269946 -0.051807497 -0.04797305 -0.036273573
-0.039577868 -0.08680135 0.0236056 -0.06218944 -0.06369807 -0.033715576 -0.02418747 -0.027657
-0.034081638 -0.015686477 -0.065111116 -0.017632766 -0.053663816 -0.069167174 -0.009050052 -0.07540523
-0.06858671 0.002364543 -0.025974462 -0.091191806 -0.026263664 -0.0062820097 0.020652715 -0.02988331
0.0013720433 -0.014479444 -0.040132564 0.3113593 -0.024897503 -0.030857224 0.015566138 -0.110183135
-0.036568254 -0.06141528 -0.02310308 -0.056313932 0.015571841 -0.0023960827 -0.073685266 -0.041281786
-0.03699611 -0.043147672 -0.06805547 -0.024954194 -0.013933284 -0.08273242 0.0003287655 0.04595407
-0.042661577 -0.03358857 0.0065407543 -0.11249677 -0.056712 0.013887492 -0.07885008 -0.028835896
-0.06241733 -0.013332957 0.051441442 -0.05657073 -0.0062592705 0.0058040526 -0.007891996 -0.030814858
-0.040248364 -0.05294244 -0.013992976 -0.026641019 -0.013913677 0.07596669 -0.037907407 0.7682616
0.0069785025 -0.021208009 -0.106258765 -0.011644744 0.005190581 -0.040522967 -0.0852438 -0.022457402
-0.015751975 0.0039257607 -0.067917846 0.008114178 -0.095032096 0.08216421 -0.037155647 0.033988997
-0.033037458 -0.022504091 0.0160686 -0.016840901 -0.02811748 -0.024441004 -0.03781517 0.015608924
0.016631952 -0.0791963 -0.013989108 -0.008990082 -0.06346752 0.0038819201 -0.0140924845 -0.017440164
0.023756701 0.018324852 -0.036596563 -0.05061126 0.006239424 -0.0378639 -0.05152025 -0.020389445
-0.014305921 -0.059169833 -0.035270836 -0.05875926 -0.01076431 0.030633211 -0.014214438 -0.08220118
-0.0025566025 -0.046788096 0.033583153 -0.041184653 -0.193103 -0.02877525 -0.14262725 0.006152638
-0.077470824 0.08308719 -0.08859994 0.041029833 0.007891428 0.0019682676 -0.028877473 -0.017731473

last_mean.weight f4 [13, 256]
00000000: 5991 643d c051 f63c de10 a83b 7e70 2b3c
00000010: c233 773c 5ced f33c 3314 ba3c 0de1 b5bb
00000020: 25df 323a f99b b23c b3c6 a03d 3909 63b9
00000030: e0f7 49bc 1c25 143d a49e 4a3d d265 ab3c
00000040: b4ca 693c 8091 f83b 17de 783d 7727 113e
00000050: f8db 243c 4816 9cbb 7cc1 7bbc d025 b23d
00000060: f747 963c 8fc7 043d 715b ca3d 22bb d33c
00000070: 10b5 c83c ffff 7eb9 40c5 35bc 70d6 ad3c
00000080: 36ac 0b3d 3fe9 123d abb8 1dbb 4b56 b83c
00000090: 6074 613c ed69 4d3c 70ff 783b 4292 b93d
000000a0: ee21 4d3d 9b00 9b3c f52f 193c f78e 493d
000000b0: 46d2 1c3c cdd7 3ebd 35b4 9fbc a2e8 233c
000000c0: 0211 1f3d a75f d13c 48b3 8f3d 52f8 b03c
000000d0: 6047 2d3d 5c7f 92bc 06c1 983c 8a28 e03b
000000e0: 4cbf a53c dd95 dc3b 8d70 a13b f2bf be3c
000000f0: 9559 3e3a 7f34 1b3d bff5 babb 55d0 7e3c
00000100: f541 aa3b a3b7 193b f38d ed3c d00d a2bd
00000110: fcbd 86be e432 df3b 57a4 32bc 41ae a13b
00000120: c85e 763c 1d0d 1d3d 186e e13c 6bb3 003f
00000130: 3e64 1fbb 0b95 f43b a266 1c3c 2a6d da3c
00000140: a945 62bb 9784 13bb 7742 79bd 9bdd f03c
00000150: 8fbd 4c3d fa89 813b 527b 2a3d 5f58 0ebd
00000160: 78dc b93c 66b6 313b df43 953d 2565 9b3d
00000170: 5f45 05bb ff18 12bc b555 cb3c 1dd8 143d
00000180: e80f a6bc 350c 3c3c a0d3 353d 0299 cf3c
00000190: 9b75 e43b 4606 063d ceb9 4e3d e8c7 4bbe
000001a0: 88dc b4bc e42c fe3c 3d97 313c 3f89 203d
000001b0: 8a36 d93b ebdd 413e 0ff1 d73c a3a6 24ba
000001c0: 76db 853d 87e6 303c 104a 3b3d d345 913c
000001d0: dc52 aabb 1a7b aa3c 5bb2 173d 7612 4338
000001e0: d2c0 1a3c 6e48 fd3c f422 8a3c adac 243d
000001f0: 1aba bf3d 4f04 bebb 3999 a53c ab96 413d
00000200: 7acb 2cba 499d 4cbc e890 383c d6a8 07bc
00000210: 8ecd 5f3d 8768 10bb 2fd7 d3bb c40b 293d
00000220: ba77 503c faad e23c 30ad 063d da69 8b3c
00000230: 3c2d 063d ecb9 fcbb 498f 133c 3f3d f2bc
00000240: 6100 45bc 7cc4 a73c 47fd b13d 43dc 0d3d
00000250: fdbb a8b9 43d4 d939 eb56 473b 5b83 25be
00000260: 8867 403c cb78 e83c 159e 9f3d aa99 803c
00000270: 5a34 f13b 4e57 f43b 4d23 5a3d ecc3 203c
00000280: 2c8e ce3c 03b6 49bb be3c 103e 9a9c b73d
00000290: 4f3b 6f3d 872e a1be b815 f13d 711c 98bb
000002a0: e0ab 223c 5893 e93c 9afa 183d 14b2 aabc
000002b0: df81 f93c 4652 2cbc 4491 8f3c 078d 333b
000002c0: 0680 033c 2a97 be3b 138d a8be 7544 5b3d
000002d0: ae5c fe3c c103 093d dd12 0e3d 27af de3b
000002e0: ad78 263d e1f4 343d 68e4 a63c 8239 df3c
000002f0: 7d9a e53b e74b 1bbc 0e78 103c cf2d 1d3e
00000300: 2958 a93b d925 e53c 57ba b2bb 8321 39ba
00000310: ae9a 553c 8eac d33d 3b8a 253d 8df9 c13c
00000320: 3fd4 363d 933d 1e3d 3c76 843e e82d 963c
00000330: 490c ab3c bf23 2b3c 2246 09bc 2ebd cf3c
00000340: 7816 173d 5648 98bc f71a d1bb 30ed 873d
00000350: c87a 2cba d3bf 8e3c fd3b 8d3d a16c 203d
00000360: e7fe c43b 2291 37bd 103f 8c3b 0b98 743b
00000370: e160 ce3b 0a21 9e3c a380 60bb 6547 143c
00000380: 83bb abbb 2e43 993e 639e 383d 7e95 9c3c
00000390: 4ccc 3a3d 81d6 8f3b 970c 413d 8a74 313c
000003a0: f63a b83b 3f51 93bc c6fa 673c 3ac4 953d
000003b0: 07b7 983c 200e 333b 6cb4 efbb 50fb 7f3d
000003c0: 19ae c5ba 54f7 41bd 109d 1abc 0636 ee3b
000003d0: fdb5 eb3d 7fbe c93d f03e 083d 2a3f 64bc
000003e0: 4b83 4f3d ab09 8a3e 4e0b bc3c d7bb 913c
000003f0: e6a9 6a3c 88d2 683b da6f fc3c 208c 143c
0.055802677 0.030068278 0.005128964 0.010463832 0.015088024 0.029776268 0.02271471 -0.00555051
0.0006823412 0.02180289 0.07850399 -0.00021651843 -0.012327164 0.036168203 0.049467698 0.020922575
0.01426952 0.0075857043 0.060758676 0.14175211 0.01006221 -0.0047633983 -0.0153659545 0.086986184
0.018344862 0.032416876 0.09880722 0.025846068 0.0245004 -0.00024318694 -0.011094391 0.021220416
0.03409978 0.035866972 -0.002406637 0.022502085 0.013760656 0.012537462 0.003799405 0.090610996
0.050081186 0.018921187 0.009349813 0.049208608 0.0095716175 -0.046592522 -0.01949511 0.010004194
0.03883458 0.025558306 0.07016617 0.021602783 0.042304397 -0.017882995 0.018646728 0.00684077
0.020232819 0.0067317323 0.004926747 0.023284886 0.00072612736 0.03789186 -0.0057055647 0.0155526
0.005195851 0.0023455403 0.02899835 -0.07912791 -0.26316822 0.0068114866 -0.0109034395 0.0049341028
0.015037246 0.038342584 0.027518317 0.5027377 -0.0024321224 0.0074640564 0.009545954 0.026663382
-0.0034526384 -0.002250945 -0.0608544 0.029402545 0.049985465 0.0039532157 0.041621514 -0.034752246
0.022688136 0.0027116775 0.07288336 0.07587651 -0.0020335538 -0.008917092 0.024821142 0.036338914
-0.020271257 0.01147752 0.044391274 0.025341514 0.0069720275 0.032720827 0.050470166 -0.19900477
-0.022077814 0.031027265 0.010839281 0.039193388 0.006628816 0.18932311 0.026360063 -0.00062809343
0.065359995 0.0107971495 0.04572493 0.01773349 -0.005197866 0.020810653 0.037035327 4.6508816e-05
0.009445386 0.030918326 0.01686237 0.04020374 0.09361668 -0.0057988535 0.020214664 0.04726283
-0.00065915997 -0.012488672 0.011265017 -0.00828 0.05463939 -0.002203496 -0.006464861 0.041270986
0.012723858 0.02767085 0.03288001 0.017018247 0.032757983 -0.0077125933 0.00900633 -0.02957022
-0.012024016 0.020479433 0.08690887 0.034633886 -0.0003218352 0.00041547613 0.0030416797 -0.1616339
0.011743434 0.028377911 0.07793824 0.015698273 0.007360977 0.0074566966 0.05325632 0.009812336
0.025214277 -0.0030778653 0.14085671 0.08965416 0.05840617 -0.3148081 0.11771721 -0.0046420624
0.0099286735 0.028512642 0.037348367 -0.020836867 0.030457435 -0.010517662 0.017525323 0.0027397291
0.008026129 0.00581636 -0.3292013 0.053532083 0.031050052 0.033450846 0.03468596 0.006795782
0.04064243 0.044178847 0.020372584 0.027249102 0.007006942 -0.009478546 0.008817686 0.15349506
0.00516798 0.027972149 -0.0054543423 -0.00070621836 0.013037367 0.103356466 0.04041503 0.023678565
0.044636007 0.03863294 0.25871456 0.018332437 0.020879881 0.010445534 -0.008378537 0.025358763
0.036886662 -0.01858918 -0.0063813883 0.06637037 -0.0006579575 0.017425453 0.068962075 0.039166097
0.006011832 -0.044816144 0.0042799786 0.003732207 0.00629817 0.019302864 -0.003425636 0.009050225
-0.005240859 0.29934067 0.045072924 0.019114252 0.04560499 0.0043895845 0.047131147 0.010831008
0.005622263 -0.017983077 0.01415891 0.07312818 0.018641962 0.0027321652 -0.007315209 0.06249553
-0.0015081792 -0.04735501 -0.009436861 0.0072696237 0.11509321 0.09850787 0.033263147 -0.013931075
0.05066232 0.269605 0.02295461 0.017789764 0.0143227335 0.0035525877 0.030815054 0.0090666115

last_mean.bias f4 [13]
00000000: ee28 68be 2e55 2ebf e7c7 4bbf 19be 6a3f
00000010: 26d0 9cbc d4b6 ab3d 7490 17be 22da 01bb
00000020: 4150 a83d 8f59 02be 0a87 d4bc 98f9 d03d
00000030: 7086 28be
-0.22671863 -0.68098724 -0.796019 0.91696316 -0.019142222 0.08384481 -0.14801198 -0.0019813855
0.08218432 -0.12729476 -0.025943298 0.10203856 -0.16457534

last_fc_log_std.weight f4 [13, 256]
00000000: ee86 df3d f73f 803c 54c0 533c aa8e 763b
00000010: 6a78 aa3c 51fe 853d 6599 333d 2ee6 ba39
00000020: cd47 0e3b a677 2f3d 0390 0e3d b88d 123d
00000030: 4d30 733d 093d 8d3d e1e5 623c 2aaa 503c
00000040: c1f2 a83c 48e7 073d b931 773d da1b 933d
00000050: 18ca d53a 479d 043c 2448 8c3d 19c9 573d
00000060: df6b 2d3d 0066 b83c 33d7 403c f90d 333d
00000070: 1f2f 0e3c 231c 3d3c a4dd 1d3d fb1e 9f3c
00000080: bcb7 963c 6cb5 ee3c 1827 e7ba 163b d13d
00000090: 26c8 793c 5150 423d 1b9c 733c 27a3 933d
000000a0: f440 a63c 9cbe ba3c 9112 d53a f444 a83c
000000b0: bdf0 cc3c e119 ea3b 04c5 223c 3858 a13c
000000c0: 1c5e 623d 5284 3c3d 900b be3b 3f06 3c3d
000000d0: 3972 ae3c 5d45 623c d676 723d 4a66 0dba
000000e0: 9d55 a23c 0ceb 413d 2423 863c f152 d63b
000000f0: 2050 783b 0f49 983d 1e9f 5f3c 1826 d53c
00000100: 2b81 1c3d 5d0f 503b 017c f93c 1b15 0f3d
00000110: c459 fb3b 61ab debb 7e84 223c 1764 8d3b
00000120: 2698 573d de48 183d 2749 473d 65c1 bb3d
00000130: faba 013d 5282 6d3d 328d 313c 62b7 ec3c
00000140: cdcd 033c fe92 73bb 43ac c43d 63ae a73c
00000150: 4874 413d 1de3 fd3a 0d0a 5d3d 456a 7bbc
00000160: 9b46 383d 6f2b 813c 9a88 f33c 0c66 d4ba
00000170: d06b 043d 225e 293c c8ea 1f3d 193e 6d3d
00000180: daf0 903c 3180 493d d227 643d 357e f33a
00000190: 59b1 8c3c e451 973d bce7 1a3d 0290 f2bc
000001a0: 03e8 9eba 06dc ac3c d8cf cd3c d8e8 c73d
000001b0: bd68 7c3d be34 d43d da30 123d dd60 2b3d
000001c0: 8460 5f3d 99a2 993c 5e7a 0c3e d629 3c3d
000001d0: 7c2a 9f3c e1b3 133d a51c 143d c948 533b
000001e0: 32af 7d3c 4114 383c d20b 173c 7918 253d
000001f0: 1292 213d 39a3 d83c 520f b03d a44c 883d
00000200: 6f14 1139 5381 1cb9 c3d3 e33c 0762 583c
00000210: b1bb 1a3d 38ab a73b b2cf 2c3b c696 b23c
00000220: ecf1 723c 2642 b73c 2419 8e38 4c9f 553c
00000230: 0dfd b73c 3f83 bb3c 02a6 a93c 071f eb3b
00000240: f91f 263c 2f00 e33c 03cb a43d 6c23 a93c
00000250: 2f88 243d 98c1 343c 4801 5e3c 74eb 473f
00000260: 6bab c83c 9e40 303d 6f7c e03d 098b b53b
00000270: 1ca4 d23c 4e83 153d 5c2b 883d e8d2 813b
00000280: 3554 f73c 681d a73c b2a4 833d 07fc e53d
00000290: 3486 d53c c41a fe3c b449 4b3d 0aee 18bc
000002a0: 21e5 093d 9d68 073d 663c 653d d4b2 163d
000002b0: 3101 633d 0eac f3ba 5c6d 9a3d 96c7 d73c
000002c0: 34ec d63c bfd0 813c 2c75 fa3c f768 493d
000002d0: 67aa 223d 80ed 713d a425 b53c 788d e439
000002e0: d2d5 b53c d5c8 913d 6444 863c cf27 713d
000002f0: 39af 0e3d 699e 523a 08d4 903c 0b7f 35bd
00000300: 55f4 003d a410 203d 3d2f 983d 1792 a53b
00000310: b854 0f3c 1035 983d 03f6 0f3d cc16 f73c
00000320: 902d d33c fd14 a53c 534d 43ba bef0 1d3c
00000330: d340 033d 1bc6 4eba 965f 833b 464c 263d
00000340: 2449 2a3d a7d2 363d a3dd 633d eb8d 033d
00000350: 3c27 c43b 7e74 e23c c142 883d ddc0 4fbc
00000360: 69e8 c03b c233 ca3b e83e 203c af5c f63a
00000370: be1a 003d 3141 9a3c 939a 6a3c 7298 633b
00000380: 9b19 573c a87c b13d b6b4 563d 9fbe 633c
00000390: 411c 2a3d c402 f03b c99f 953d 1861 213d
000003a0: fa6b 313c 0691 5c3c 94af f13c 94dd 933d
000003b0: 260a 2f3d 9dd0 b63c 3ec0 ac3b 78a6 213d
000003c0: 459c 1c3c 53d7 fabb 9807 e5ba b1a0 573d
000003d0: ff29 a43d 8178 7e3d f9de a33d 4a94 2f3d
000003e0: 4a55 543d f33c e93d 518f 143d ca7b 6b3c
000003f0: ff8e 723b 99e5 543c 2e8d 5b3d 74be c03a
0.10914408 0.0156555 0.012924273 0.0037621656 0.020809371 0.06542648 0.04384746 0.00035648182
0.0021710277 0.042838715 0.03480531 0.035779685 0.059372235 0.06896407 0.013848753 0.012735883
0.020623567 0.03317955 0.060350154 0.07183047 0.0016310839 0.0080941385 0.06849697 0.052682016
0.042339202 0.022509575 0.0117700575 0.043714497 0.008678227 0.011542353 0.03854145 0.019423952
0.018398158 0.029139243 -0.0017635552 0.10216348 0.015245473 0.047439877 0.014868761 0.07208853
0.020294644 0.022795968 0.0016256144 0.020540692 0.025017137 0.0071441983 0.0099346675 0.019695386
0.05526553 0.046024628 0.005799718 0.045904394 0.0212947 0.013810483 0.059195362 -0.00053939654
0.019816214 0.0473433 0.016374178 0.006540649 0.0037889555 0.0743581 0.013648776 0.026019141
0.03820912 0.0031747438 0.030454637 0.034932237 0.007670613 -0.0067953323 0.009919284 0.00431491
0.052635334 0.037178867 0.048653748 0.091677465 0.031672455 0.05798561 0.010836886 0.028896037
0.008044672 -0.0037166472 0.09603169 0.020468896 0.047230035 0.0019370053 0.053964663 -0.015345161
0.04498921 0.015767781 0.029728223 -0.0016204729 0.03232938 0.010337384 0.039042264 0.05792055
0.017692972 0.04919452 0.055702038 0.0018577041 0.01717441 0.07388666 0.037818655 -0.029609684
-0.0012123588 0.02110101 0.025123522 0.09761208 0.061623324 0.10361622 0.03569112 0.041840423
0.054535404 0.01875429 0.13718554 0.045938335 0.019429438 0.036060218 0.03616013 0.0032239428
0.015483664 0.011235298 0.009219127 0.040306542 0.039445944 0.026445018 0.08596672 0.06655243
0.0001383589 -0.00014925496 0.027810937 0.013206965 0.037776653 0.0051168464 0.0026368913 0.02180041
0.0148281865 0.02237041 6.7757705e-05 0.013038468 0.022459531 0.022889731 0.020709042 0.0071753296
0.010139459 0.027710048 0.08046534 0.020646773 0.040168937 0.0110324845 0.01355011 0.7809365
0.024495801 0.043030374 0.10961234 0.005540256 0.02571302 0.036502175 0.06648895 0.0039619096
0.03019152 0.020399764 0.064278975 0.11229711 0.02606497 0.031018622 0.049630836 -0.009334097
0.03366578 0.03305875 0.055965804 0.036791638 0.055421058 -0.0018590705 0.0754039 0.026340287
0.026235677 0.015846608 0.03057345 0.049172368 0.03971329 0.05906439 0.022112675 0.0004359295
0.022196684 0.07118384 0.016390033 0.058875855 0.034835074 0.0008034469 0.01767923 -0.04431061
0.031483013 0.03907837 0.07430885 0.0050528157 0.008748226 0.07431996 0.035146724 0.030162238
0.025778562 0.02015161 -0.0007450182 0.009639917 0.032044243 -0.00078877964 0.0040091975 0.040600084
0.04157366 0.044634487 0.05563129 0.032117765 0.0059861224 0.027643438 0.06653357 -0.0126802595
0.0058870804 0.006170721 0.009780623 0.0018795932 0.031275503 0.018829914 0.01431908 0.0034728316
0.013128663 0.086663544 0.052418433 0.013900428 0.04153085 0.0073245484 0.07305867 0.039399236
0.010828966 0.013462311 0.029502667 0.07219997 0.042734288 0.022316271 0.0052719405 0.039465398
0.009558742 -0.007655063 -0.0017473577 0.05264348 0.080158226 0.06212664 0.08001513 0.04286603
0.05183915 0.11388578 0.03626949 0.014372775 0.0037011502 0.0129941935 0.053601436 0.0014705197

last_fc_log_std.bias f4 [13]
00000000: 2dee 83be 66ea b6be cc41 c4be ae1a d1be
00000010: 008e eebd bc27 00be c080 1bbe 42b2 0fbe
00000020: d7ba f0bd 9583 17be 7441 06be 0879 fcbd
00000030: cc91 0ebe
-0.2576765 -0.35725707 -0.3833145 -0.40840667 -0.11648178 -0.12515157 -0.15185833 -0.14032844
-0.11754387 -0.14796288 -0.13110906 -0.123277724 -0.13922805
