save_mode/SAC_v_100_qf2_network.pth (torch, 329559 bytes, 5 tensors)

fc0.weight f4 [256, 61]
-0.022337727 0.021784976 0.058310285 -0.06005998 -0.008534417 0.6494812 0.354867 -0.0014970397
-0.047494486 0.007048674 0.007702358 0.033028968 0.01678916 0.332818 0.5385548 0.75186014
0.028259277 -0.054217286 -0.03497135 -0.042318046 -0.04584679 1.6750177 1.74336 1.9877356
0.0091493875 -0.03888221 0.044058904 0.054952584 0.058459394 0.15552282 0.17827795 0.27107352
0.008809686 -0.044497155 0.048519306 -0.0014477521 -0.050188422 -0.25854275 -0.35434002 -0.37796494
0.047502697 -0.0068002045 0.042161748 0.020692326 -0.048821434 0.057903096 0.02600254 0.061340865
-1.4238617 1.777574 2.7026126 -3.5195897 -0.11679909 0.70865566 -1.2259182 0.014833191
0.36561802 -0.94448656 0.02058999 0.7976365 -1.2003411 0.009074181 -0.06200152 -0.0070466623
0.05333008 0.039659493 -0.06782027 -0.054735415 -0.06221844 -0.054273613 0.030062497 -0.002632536
0.027411178 -0.032968894 -0.038691945 -0.08413436 -0.01197046 0.034719825 0.013627619 -0.044643797
-0.058346592 -0.011007868 -0.07423563 0.033192195 -0.038957674 -0.031102061 0.062175527 0.04307001
-0.02046533 0.0053621307 -0.07552278 -0.0043511367 -0.0744845 0.041878954 0.060200386 0.03943222
-0.031764917 -0.03753441 -0.00493247 -0.071634814 0.0230395 -0.00038009882 0.024210967 0.024152435
0.0107348785 -0.02098348 -0.07077624 -0.02835726 -0.0077711944 -0.051452897 -0.08250928 -0.011062707
-0.059367843 -0.0044914507 -0.049654365 0.051988408 0.07365462 -0.03981029 -0.0030646771 -0.020894349
0.021227835 -0.0026289101 -0.056805663 -0.0064717084 0.05489908 0.042291164 -0.014003694 0.34251237
-0.13120928 -0.4007637 -0.042382374 -0.009425379 0.026251376 0.04440663 0.062376894 0.17727956
0.4800567 0.58030707 0.0012316257 -0.03092298 0.012786649 -0.0253883 0.012531027 1.3286633
1.3762734 1.5201046 -0.058183536 0.035040073 0.023245513 -0.050114684 0.015101962 0.056633484
0.12155315 0.14323498 -0.060412996 -0.050077602 0.021967106 -0.014460243 0.05995033 -0.29828233
-0.43642163 -0.5655764 0.038828023 -0.013025887 0.058484502 0.043480486 -0.028696395 -0.10840517
0.02676069 -0.022653617 -1.421308 2.004447 2.6734178 -3.6241379 -0.56283784 0.27642235
-0.7239417 -0.3143994 0.11976651 -0.5589032 -0.10182013 0.40908328 -0.86025405 0.060147375
0.019652784 0.048618853 0.034424506 0.040593475 -0.28367892 -0.5974599 -0.73391455 0.013162389
-0.011720084 0.005912043 0.035884097 -0.024591058 0.31218866 0.63941526 0.836499 0.0075888485
0.03462117 -0.0167453 -0.014710799 0.0031337515 3.1514602 2.7963881 2.5998862 -0.03456817
0.05833458 -0.0068904236 0.05856444 -0.013408989 -0.39633688 -0.40616825 -0.78414893 -0.020375505
0.03506366 -0.016778342 -0.015258543 0.0041940734 0.09858642 0.33121008 0.09282809 0.01756674
0.021579973 0.033512205 -0.05826159 0.036446832 -0.22901137 -0.27986535 -0.62169385 -0.67686003
-4.754699 -5.5522857 6.6220202 0.98821205 0.18404932 -1.6307095 0.035040893 -0.028900558
-1.078636 0.6281202 -0.016210599 -1.2354058 -0.011681564 -0.0072696432 -0.002480261 0.022561446
-0.0037501156 -1.8261596 -0.22298859 -0.5611845 -0.037027456 -0.027008392 -0.011275828 -0.04583873
00000000: 9cfd b6bc 6876 b23c c4d6 6e3d 7401 76bd
00000010: f0d3 0bbc 6644 263f 21b1 b53e 5138 c4ba
00000020: 9489 42bd 90f8 e63b 1064 fc3b 6249 073d
00000030: 6c89 893c 1f67 aa3e bade 093f e879 403f
00000040: 0080 e73c f212 5ebd 1e3e 0fbd b055 2dbd
00000050: d8c9 3bbd fb66 d63f 6c26 df3f 1f6e fe3f
00000060: 50e7 153c f442 1fbd 1c77 343d f615 613d
00000070: 1e73 6f3d 6041 1f3e 7f8e 363e 26ca 8a3e
00000080: 8056 103c a642 36bd 2ebc 463d 80c2 bdba
00000090: 6092 4dbd b75f 84be 0e6c b5be 9f84 c1be
000000a0: 3092 423d 40d4 debb ccb1 2c3d f482 a93c
000000b0: fcf8 47bd cc2b 6d3d 4703 d53c 8f40 7b3d
000000c0: 1a41 b6bf 8b87 e33f 9bf7 2c40 f540 61c0
000000d0: 5c34 efbd 756a 353f e3ea 9cbf ea06 733c
000000e0: 4932 bb3e dfc9 71bf 57ac a83c e831 4c3f
000000f0: c7a4 99bf e0ab 143c 4ef5 7dbd b0e7 e6bb
00000100: a470 5a3d fe71 223d 5be5 8abd 3e32 60bd
00000110: c3d8 7ebd 024e 5ebd a045 f63c a086 2cbb
00000120: 688d e03c 640a 07bd 727b 1ebd a34e acbd
00000130: c01f 44bc 6036 0e3d 6046 5f3c 6adc 36bd
00000140: d6fc 6ebd 585a 34bc da08 98bd 8af4 073d
00000150: 1592 1fbd c0c9 febc c4ab 7e3d 2e6a 303d
00000160: e8a6 a7bc d0b4 af3b b0ab 9abd fb93 8ebb
00000170: 548b 98bd 4489 2b3d ae94 763d ae83 213d
00000180: ee1b 02bd aebd 19bd 8fa0 a1bb 46b5 92bd
00000190: 55bd bc3c 0048 c7b9 1456 c63c 54db c53c
000001a0: 58e1 2f3c 8ce5 abbc 22f3 90bd 7c4d e8bc
000001b0: 81a5 febb 46c0 52bd a0fa a8bd 5b40 35bc
000001c0: b22b 73bd 052d 93bb 6062 4bbd ccf1 543d
000001d0: 3cd8 963d 1d10 23bd c0d8 48bb a02a abbc
000001e0: ffe5 ad3c cb49 2cbb 0ead 68bd a010 d4bb
000001f0: dcdd 603d 8039 2d3d c06f 65bc c85d af3e
00000200: ba5b 06be e630 cdbe 2499 2dbd e86c 1abc
00000210: 200d d73c bae3 353d ea7e 7f3d c688 353e
00000220: fec9 f53e 018f 143f 806e a13a 3052 fdbc
00000230: 187f 513c 20fb cfbc f04e 4d3c a411 aa3f
00000240: ba29 b03f ca92 c23f dc51 6ebd 2e86 0f3d
00000250: 606d be3c 0e45 4dbd 386e 773c 83f8 673d
00000260: dcf0 f83d 31ac 123e 9e73 77bd 2c1e 4dbd
00000270: 5cf4 b33c a8ea 6cbc 7a8e 753d 76b8 98be
00000280: a872 dfbe 9dc9 10bf 220a 1f3d 886a 55bc
00000290: 728d 6f3d 9818 323d b414 ebbc 8803 debd
000002a0: 3c39 db3c 1494 b9bc 6ced b5bf dc48 0040
000002b0: 4719 2b40 e0f1 67c0 2416 10bf 3b87 8d3e
000002c0: 3e54 39bf f5f8 a0be 2548 f53d 4814 0fbf
000002d0: 1387 d0bd 5d73 d13e 9c39 5cbf 185d 763d
000002e0: e0fe a03c 9024 473d b600 0d3d 5845 263d
000002f0: 5d3e 91be 22f3 18bf d3e1 3bbf 10a7 573c
00000300: 9805 40bc d0b9 c13b 34fb 123d 3073 c9bc
00000310: 31d7 9f3e b8b0 233f cc24 563f e0ab f83b
00000320: eece 0d3d 702d 89bc 9005 71bc a05f 4d3b
00000330: 86b1 4940 06f8 3240 8964 2640 5a97 0dbd
00000340: 3ef0 6e3d 10c9 e1bb 44e1 6f3d 60b1 5bbc
00000350: abec cabe 49f5 cfbe fcbd 48bf 88ea a6bc
00000360: ea9e 0f3d bc72 89bc f8fe 79bc 706e 893b
00000370: ade7 c93d 5e94 a93e a71c be3d 20e8 8f3c
00000380: 7cc8 b03c 1844 093d b4a3 6ebd 4649 153d
00000390: f581 6abe 834a 8fbe 5427 1fbf b346 2dbf
000003a0: 7f26 98c0 53ac b1c0 97e7 d340 77fb 7c3f
000003b0: 6d77 3c3e 17bb d0bf 0a87 0f3d ddc0 ecbc
000003c0: bf10 8abf 7ccc 203f 17cc 84bc c721 9ebf
000003d0: 0864 3fbc 3036 eebb e08b 22bb c8d2 b83c
000003e0: 80c4 75bb 99bf e9bf 1f57 64be caa9 0fbf
000003f0: 1aaa 17bd b440 ddbc 40be 38bc 64c1 3bbd

fc0.bias f4 [256]
23.956356 -0.027124042 23.63685 -17.94601 -14.803356 23.80929 23.816505 -1.727028
24.100979 24.19634 -0.014173626 23.866001 -0.03272196 -0.025423193 23.796024 23.834154
23.810183 -0.008452137 -0.035371788 23.875294 23.84936 23.99597 23.880419 23.87474
-0.04512497 -17.896122 -18.210667 23.776888 -17.91134 23.963808 -13.920129 -18.090084
-0.05729236 24.052088 23.837488 23.73883 -18.269619 23.951797 23.966957 23.894617
0.0 0.0 23.843006 23.81105 23.82712 -0.04835102 -10.719078 -0.041188825
24.00699 23.890142 23.892704 -0.031769227 23.802195 23.86088 -11.622431 19.178127
23.791594 23.928246 23.944176 23.893047 23.992685 -0.02897074 -0.037771262 21.873552
23.900654 -0.011270109 -0.05460277 19.52845 23.85758 -0.043103248 23.93223 -0.05668039
-9.609929 23.95577 23.811476 23.781012 23.821457 23.840092 24.179794 0.0
-0.055948105 -0.031765748 -18.607922 23.836142 23.940517 23.79304 24.154552 -0.047663566
23.955889 24.086807 24.067427 23.858633 0.0 -0.047056507 23.752268 23.925764
23.774794 23.956032 0.0 23.874716 0.0 23.913132 -0.04425207 -18.48693
23.871492 -18.327866 -0.023681188 -0.046856496 -18.074034 23.98674 -0.064995766 23.83555
-18.704475 23.852596 23.769245 23.719673 -18.11295 -0.008767028 24.040735 23.991272
23.901224 23.94543 0.0 0.0 23.828192 -9.402906 0.0 -20.37571
23.977413 23.878935 23.759241 22.633104 23.837782 0.0 23.9641 23.870367
24.052628 -0.058670167 -18.271248 -0.041201126 -0.05141894 23.865202 23.71568 -0.064585716
-0.039607838 23.71506 23.88246 24.713045 23.863482 24.03483 23.97742 -0.033818785
24.06573 -18.29275 -0.048784155 0.0 23.818922 -18.164328 23.886436 23.859497
-17.820248 23.958015 23.8573 -0.0076540234 23.773067 24.067429 -0.026994228 22.484812
23.884516 -0.051623657 23.769941 -0.034125347 23.7781 23.871172 23.833878 0.0
24.00576 24.014767 23.711254 23.776192 23.921062 -0.032734256 0.0 -18.454155
23.874489 23.94538 -0.027689671 -18.119255 23.882881 23.762585 24.050957 23.939968
23.919561 -0.023671703 -0.006005505 23.8334 23.704258 -0.07521005 -0.037771273 23.79081
23.892927 23.863214 -0.0060956096 -18.261423 -0.06870958 26.199032 -0.059892952 -0.047255743
22.446869 23.864784 -17.81242 23.967325 23.885641 -18.2515 23.488186 24.010738
24.10716 23.932764 23.71734 23.87498 23.883162 24.121315 23.845362 -0.010578921
23.877201 -0.029316552 23.73672 -0.028956184 24.04392 23.845373 23.958563 24.200108
23.89103 19.536835 23.990482 17.301783 -18.346125 23.104246 23.799637 23.84234
23.917095 -0.0317657 23.798325 23.80994 23.689886 24.102428 -0.04725297 23.86078
-18.628834 -18.315111 23.854376 -18.518827 0.0 -17.967712 24.02101 -18.595802
00000000: 9ea6 bf41 3d33 debc 4518 bd41 6e91 8fc1
00000010: 8cda 6cc1 6d79 be41 3488 be41 410f ddbf
00000020: cece c041 1b92 c141 7f38 68bc 92ed be41
00000030: 7607 06bd 4d44 d0bc 425e be41 59ac be41
00000040: 417b be41 d57a 0abc 02e2 10bd 9a00 bf41
00000050: 7dcb be41 bff7 bf41 190b bf41 78ff be41
00000060: f6d4 38bd 422b 8fc1 72af 91c1 1137 be41
00000070: 6d4a 8fc1 e1b5 bf41 d9b8 5ec1 7eb8 90c1
00000080: 65ab 6abd ad6a c041 2db3 be41 20e9 bd41
00000090: 2e28 92c1 489d bf41 54bc bf41 2d28 bf41
000000a0: 0000 0000 0000 0000 7abe be41 087d be41
000000b0: f19d be41 b80b 46bd 5881 2bc1 9db5 28bd
000000c0: 510e c041 031f bf41 4224 bf41 7320 02bd
000000d0: e56a be41 15e3 be41 7af5 39c1 ce6c 9941
000000e0: 2f55 be41 0c6d bf41 ac8d bf41 f624 bf41
000000f0: 05f1 bf41 0c54 edbc 0ab6 1abd 09fd ae41
00000100: 8a34 bf41 43a6 38bc 27a7 5fbd 443a 9c41
00000110: 53dc be41 088d 30bd 3575 bf41 b229 68bd
00000120: 45c2 19c1 6ba5 bf41 e77d be41 833f be41
00000130: 5892 be41 82b8 be41 3870 c141 0000 0000
00000140: d729 65bd cd1c 02bd 06dd 94c1 6bb0 be41
00000150: 2e86 bf41 2558 be41 863c c141 df3a 43bd
00000160: a9a5 bf41 c8b1 c041 178a c041 7bde be41
00000170: 0000 0000 53be 40bd a504 be41 f767 bf41
00000180: c732 be41 f4a5 bf41 0000 0000 6bff be41
00000190: 0000 0000 184e bf41 a941 35bd 3ce5 93c1
000001a0: d1f8 be41 789f 92c1 0dff c1bc 99ec 3fbd
000001b0: 9f97 90c1 d8e4 bf41 801c 85bd 35af be41
000001c0: c4a2 95c1 1ed2 be41 6a27 be41 e4c1 bd41
000001d0: 52e7 90c1 95a3 0fbc 6d53 c041 20ee bf41
000001e0: b535 bf41 3e90 bf41 0000 0000 0000 0000
000001f0: 23a0 be41 4e72 16c1 0000 0000 7401 a3c1
00000200: bed1 bf41 0f08 bf41 ed12 be41 9910 b541
00000210: c7b3 be41 0000 0000 7ab6 bf41 83f6 be41
00000220: c86b c041 2150 70bd 842b 92c1 83c2 28bd
00000230: ab9c 52bd efeb be41 b6b9 bd41 8445 84bd
00000240: d43b 22bd 71b8 bd41 470f bf41 51b4 c541
00000250: 69e8 be41 5547 c041 c2d1 bf41 9185 0abd
00000260: 9d86 c041 8d57 92c1 e5d1 47bd 0000 0000
00000270: 278d be41 8b50 91c1 6c17 bf41 40e0 be41
00000280: de8f 8ec1 04aa bf41 c0db be41 9ace fabb
00000290: 3e2f be41 188a c041 0023 ddbc e5e0 b341
000002a0: 7d13 bf41 5473 53bd d728 be41 05c7 0bbd
000002b0: 8c39 be41 29f8 be41 c8ab be41 0000 0000
000002c0: cc0b c041 3e1e c041 a6b0 bd41 a435 be41
000002d0: 565e bf41 5b14 06bd 0000 0000 1ca2 93c1
000002e0: f4fe be41 2390 bf41 73d5 e2bc 3cf4 90c1
000002f0: 2410 bf41 c619 be41 5c68 c041 0e85 bf41
00000300: 435b bf41 29eb c1bc d4c9 c4bb ceaa be41
00000310: 52a2 bd41 ba07 9abd 0db6 1abd 9453 be41
00000320: b724 bf41 dde7 be41 aebd c7bb 6517 92c1
00000330: 9cb7 8cbd 9e97 d141 5052 75bd 3d8f 41bd
00000340: 3093 b341 14eb be41 d67f 8ec1 15bd bf41
00000350: cb15 bf41 1203 92c1 cee7 bb41 fe15 c041
00000360: 77db c041 4d76 bf41 1dbd bd41 f6ff be41
00000370: b710 bf41 74f8 c041 4dc3 be41 3653 2dbc
00000380: 8204 bf41 4429 f0bc cde4 bd41 8535 edbc
00000390: f359 c041 53c3 be41 23ab bf41 d299 c141
000003a0: d420 bf41 704b 9c41 82ec bf41 0d6a 8a41
000003b0: ddc4 92c1 7fd5 b841 a865 be41 1dbd be41
000003c0: 3656 bf41 c01c 02bd f862 be41 c27a be41
000003d0: e384 bd41 c6d1 c041 558c 41bd e1e2 be41
000003e0: da07 95c1 5985 92c1 c3d5 be41 8f26 94c1
000003f0: 0000 0000 e0bd 8fc1 072b c041 34c4 94c1

fc1.weight f4 [256, 256]
-0.055315908 0.058407255 0.037252884 -0.045895826 -0.061207376 -0.004177424 0.047983978 -0.054319456
-0.022564504 -0.0655346 -0.033551443 -0.025317013 0.013845608 0.04313802 -0.024052083 -0.016902883
-0.0024321708 0.033504862 0.021914914 0.024706328 0.037270658 0.033956233 0.03768257 0.005122697
-0.03676069 0.024234615 0.04697416 -0.06338435 0.02542993 -0.0021354838 0.019616047 -0.053244304
0.015347331 0.05151915 -0.033789568 -0.02321307 0.02067373 -0.015343983 -0.027226588 -0.0022493713
0.0013499632 -0.0147585645 0.026683968 0.027055997 0.029903853 -0.014447056 0.044867843 -0.0017484574
-0.061972477 -0.020862425 0.02960753 0.033386193 -0.05815486 0.0062675294 -0.09890953 -0.007752397
0.041152675 -0.0041253506 -0.04233511 -0.00018489479 0.029764306 0.010145493 0.055543296 0.054706573
-0.0004594254 -0.043116383 -0.012065843 -0.04137941 0.018963376 0.05223471 -0.05988236 0.006939888
0.050426304 0.0007167181 -0.026722325 0.028102154 0.03022988 0.007810483 -0.057435833 -0.007924892
0.010151267 -0.031451292 0.003839411 0.0517145 -0.03551968 -0.047500342 -0.045171093 -0.056487024
0.017751044 0.018585237 -0.07191355 0.042731974 -0.023251213 0.0254343 -0.0016107929 0.041550487
0.003638554 -0.050046813 0.034707755 -0.05427007 0.059543893 -0.05285152 0.047330715 0.03771338
0.04623773 -0.06344556 0.055064186 -0.011573068 0.052739806 0.02801653 -0.03982132 0.042509757
0.028011635 0.01784695 -0.013692876 -0.0038228482 0.022206329 0.036585208 -0.036483478 -0.061131496
-0.025559701 0.0147911105 0.029179402 0.05317761 -0.006970518 0.036185198 -0.043817468 0.012522389
-0.020298786 0.013421026 -0.04212316 -0.0063306913 -0.04354622 0.03011632 0.026469046 0.01880433
-0.016153041 -0.010806996 -0.018970164 0.0020518303 -0.028328622 -0.0006063812 0.031105362 -0.060037613
-0.043690406 0.01854498 0.0081393095 -0.05147254 -0.029193284 0.031055918 0.018722905 -0.055873916
0.018299341 -0.05548183 -0.020455517 -0.04857435 -0.059446998 0.021806024 -0.038334344 -0.035690486
0.060701616 -0.0062573487 -0.026251292 -0.038949482 0.04859513 0.029630575 -0.04162582 0.0015812444
0.0075580887 0.05523298 -0.04191661 -0.049791507 -0.06930368 -0.06064879 -0.010712935 0.02507931
-0.06466362 -0.032939438 -0.05951363 -0.0012703303 -0.0696447 -0.047855936 -0.015074745 -0.010296375
0.014461779 -0.023146102 0.03637664 0.056315564 -0.03821874 -0.007023244 -0.059987053 -0.04726453
-0.031484537 0.000106334686 0.052693784 -0.006031274 0.023770513 0.023174055 0.0056607462 -0.009753468
-0.03126584 -0.0155841345 -0.025859142 -0.0021961688 0.049191102 -0.05251036 -0.005187109 -0.03520178
0.023031635 -0.023136497 0.058812983 -0.040554665 -0.06068933 0.03017165 -0.06157354 0.020299083
-0.01934807 -0.048740715 0.043515544 -0.043632243 -0.040963233 0.016438242 -0.050959595 0.01709714
-0.03483477 -0.01660766 -0.043582443 0.018007359 0.005983671 -0.045468066 0.020682078 -0.040010665
0.0070345467 0.034964778 0.01182793 -0.02989553 0.03176691 0.042868443 0.0050109797 0.05034307
0.045856994 -0.030202433 0.02300463 0.027148644 -0.069990814 -0.018299881 0.03567023 0.051465698
0.04359398 -0.068637915 -0.035975516 -0.058805473 -0.049225733 -0.04689963 0.007353303 -0.048795946
00000000: ef92 62bd 723c 6f3d 7b96 183d 43fd 3bbd
00000010: 96b4 7abd c6e2 88bb d98a 443d 147e 5ebd
00000020: 32d9 b8bc 0137 86bd 3d6d 09bd a065 cfbc
00000030: b0d8 623c 7eb1 303d e008 c5bc ea77 8abc
00000040: 0e65 1fbb 653c 093d e886 b33c ed64 ca3c
00000050: 1ea9 183d b115 0b3d 0a59 1a3d 4cdc a73b
00000060: 6192 16bd ac87 c63c fa67 403d a7cf 81bd
00000070: 6e52 d03c 79f3 0bbb d5b1 a03c b316 5abd
00000080: 5f73 7b3c bf05 533d ee66 0abd 5629 bebc
00000090: f45b a93c 5465 7bbc 4b0a dfbc 306a 13bb
000000a0: 40f1 b03a e8cd 71bc 5698 da3c 8aa4 dd3c
000000b0: edf8 f43c 58b3 6cbc 58c7 373d 7f2c e5ba
000000c0: dad6 7dbd ade7 aabc 7e8b f23c f6bf 083d
000000d0: ca33 6ebd d95f cd3b 1491 cabd d207 febb
000000e0: b58f 283d f32d 87bb 9567 2dbd 51e0 41b9
000000f0: 46d4 f33c 4839 263c 5e81 633d 0014 603d
00000100: 09df f0b9 ce9a 30bd d0af 45bc 757d 29bd
00000110: 1559 9b3c 10f4 553d 3547 75bd 0068 e33b
00000120: d08b 4e3d 23e2 3b3a c7e8 dabc 7d36 e63c
00000130: a7a4 f73c 15ef ff3b d641 6bbd 68d7 01bc
00000140: 8051 263c 12d3 00bd a19e 7b3b 95d2 533d
00000150: 157d 11bd b88f 42bd 5305 39bd f05e 67bd
00000160: a36a 913c 1140 983c 6947 93bd b907 2f3d
00000170: 5479 bebc 985b d03c 3e21 d3ba d830 2a3d
00000180: ce74 6e3b e3fd 4cbd b829 0e3d 4b4a 5ebd
00000190: 4ce4 733d d67a 58bd dadd 413d 5879 1a3d
000001a0: c663 3d3d bfef 81bd fc8a 613d f79c 3dbc
000001b0: b205 583d ec82 e53c ae1b 23bd b61e 2e3d
000001c0: a878 e53c c433 923c 1658 60bc c088 7abb
000001d0: 0cea b53c 5fda 153d b36f 15bd 0565 7abd
000001e0: 9462 d1bc 6a56 723c a409 ef3c c4d0 593d
000001f0: f168 e4bb ee36 143d f279 33bd b52a 4d3c
00000200: a449 a6bc dde3 5b3c 5689 2cbd b071 cfbb
00000210: 855d 32bd 80b6 f63c 9dd5 d83c 8a0b 9a3c
00000220: 6253 84bc d40f 31bc 5167 9bbc 0078 063b
00000230: 6d11 e8bc 8ef5 1eba acd0 fe3c 00ea 75bd
00000240: b6f4 32bd a4eb 973c bd5a 053c dfd4 52bd
00000250: c126 efbc fb68 fe3c c760 993c 0cdc 64bd
00000260: 80e8 953c ea40 63bd 5492 a7bc e6f5 46bd
00000270: b27e 73bd 8ca2 b23c 7904 1dbd 3030 12bd
00000280: 42a2 783d 720a cdbb f30c d7bc 7e89 1fbd
00000290: b00b 473d d2bb f23c d67f 2abd c241 cf3a
000002a0: d8a9 f73b fa3b 623d c0b0 2bbd 2ef2 4bbd
000002b0: 16ef 8dbd de6a 78bd 4e85 2fbc 2073 cd3c
000002c0: 5c6e 84bd 81eb 06bd 90c4 73bd 3681 a6ba
000002d0: e1a1 8ebd 9604 44bd 10fc 76bc 20b2 28bc
000002e0: 19f1 6c3c e59c bdbc acff 143d 26ab 663d
000002f0: 418b 1cbd 3e23 e6bb fcb4 75bd 7498 41bd
00000300: eef5 00bd 0000 df38 70d5 573d fea1 c5bb
00000310: 61ba c23c 84d7 bd3c c87d b93b 03cd 1fbc
00000320: 9c10 00bd 9954 7fbc 8dd6 d3bc 99ed 0fbb
00000330: 9c7c 493d 1a15 57bd a0f8 a9bb be2f 10bd
00000340: d7ac bc3c c088 bdbc e2e5 703d a61c 26bd
00000350: 6095 78bd 892a f73c 8934 7cbd 434a a63c
00000360: d87f 9ebc 58a4 47bd 5b3d 323d b9b7 32bd
00000370: 10c9 27bd 7ea9 863c 02bb 50bd 4d0f 8c3c
00000380: e7ae 0ebd ca0c 88bc 8183 32bd 2b84 933c
00000390: ac12 c43b b93c 3abd 766d a93c 39e2 23bd
000003a0: 0e82 e63b 3a37 0f3d efc9 413c 78e7 f4bc
000003b0: 051e 023d d296 2f3d 2533 a43b 8934 4e3d
000003c0: 8bd4 3b3d 186b f7bc 3574 bc3c d566 de3c
000003d0: 5857 8fbd a2e9 95bc f21a 123d b2cd 523d
000003e0: 9a8f 323d 0992 8cbd 105b 13bd 02de 70bd
000003f0: eca0 49bd d419 40bd faf3 f03b 42de 47bd

fc1.bias f4 [256]
-0.07134941 23.835281 -0.06483224 -0.043599747 23.842999 23.852861 23.843918 23.85305
23.872032 -0.006240649 -0.06177464 23.97032 23.85965 23.870214 23.857233 -0.076938175
23.832386 15.535935 15.441389 1.0173689 23.873505 0.23570064 24.333221 23.79699
-0.045738176 23.871775 23.865782 0.23337097 23.876223 -0.010647836 23.827614 12.808389
23.853113 -0.032516718 23.835512 23.863768 24.223711 24.25058 23.854975 23.848333
23.864069 24.536001 0.19818573 23.854704 23.855341 2.128481 23.849249 1.1671145
0.12066624 23.853863 23.835358 23.803822 -0.04281278 -0.008494502 15.398955 -7.562836
23.854753 1.2080458 -0.031765148 0.1664966 -0.03936393 -0.0020820198 23.930939 23.851189
23.860384 24.251406 23.816162 24.220081 23.798794 23.862865 0.12203697 23.849659
23.825739 -0.07416421 -0.045093 23.840237 -0.04181961 23.832314 0.44559115 0.20297469
24.508373 23.83515 23.86137 23.853432 23.841429 24.199377 23.826416 24.109835
24.101755 -0.28667808 23.858934 20.455193 23.866768 23.854994 -0.031765804 24.201094
-0.0824744 23.843967 23.865255 23.876064 23.852238 -0.4908313 -0.031765696 -0.107002914
23.879469 23.83288 -0.06492344 12.573966 -0.070561975 23.83968 0.004724774 23.860992
24.077137 23.84255 23.831692 -0.2498056 13.097597 23.838074 0.90187955 23.86456
-0.10351528 -0.043471374 23.85187 -0.031761345 23.830086 23.831306 21.42024 23.857231
-0.028327525 23.839167 23.844906 23.851784 0.14319105 23.879662 -0.07155691 23.838547
23.87536 24.822294 23.83993 0.96240765 23.865175 23.830185 23.851633 0.32552052
24.431013 23.85919 23.841564 -0.04715573 -0.015143808 23.880487 23.87146 23.848972
23.862858 23.882856 23.858969 -0.068895996 1.0032089 -0.03451585 13.732313 24.249378
-0.07140577 0.26619017 23.87987 23.863447 23.8425 23.78793 13.617871 23.784403
23.856314 24.36397 23.83368 13.006748 23.865086 13.088759 23.82948 23.906898
23.854515 -0.00540943 23.828587 -21.523043 23.863304 23.85441 -0.099224545 23.826172
23.824846 18.153765 23.830194 -0.03260938 23.829496 23.852364 -0.06583504 -0.06990933
-0.03451167 23.835278 15.882373 23.834198 -0.07425006 23.848253 23.795687 23.834736
-0.12245005 23.864897 24.442677 -0.010088186 -0.040346373 23.850119 -0.07111475 24.222328
24.758062 23.862886 23.89948 23.818155 23.862457 23.862026 23.883747 23.849686
23.843552 23.814161 0.884687 -0.02763206 23.86584 23.7727 -0.061549142 23.886812
24.802305 -0.05947261 23.941893 -0.027186893 -0.0060055065 23.867107 -0.7199703 23.919651
23.844711 23.866058 1.009757 -0.06807718 13.1247425 23.840391 17.428877 23.84383
23.841082 0.09929308 23.833944 23.845402 23.842173 23.838604 23.833649 23.873262
23.976019 -0.04686374 0.08864204 23.846632 -0.031765796 24.495487 18.87177 23.879038
00000000: a41f 92bd a8ae be41 c4c6 84bd a695 32bd
00000010: 76be be41 a9d2 be41 58c0 be41 0cd3 be41
00000020: ecf9 be41 5c7e ccbb 6807 7dbd 37c3 bf41
00000030: 90e0 be41 33f6 be41 9ddb be41 c391 9dbd
00000040: baa8 be41 3193 7841 ee0f 7741 2539 823f
00000050: f0fc be41 825b 713e 70aa c241 3c60 be41
00000060: f457 3bbd 65f9 be41 1fed be41 cdf8 6e3e
00000070: 8102 bf41 4374 2ebc f49e be41 29ef 4c41
00000080: 2dd3 be41 4030 05bd 21af be41 ffe8 be41
00000090: 29ca c141 3001 c241 fdd6 be41 63c9 be41
000000a0: 9de9 be41 bb49 c441 33f1 4a3e 6fd6 be41
000000b0: bdd7 be41 0839 0840 43cb be41 0264 953f
000000c0: dd1f f73d b6d4 be41 d0ae be41 3a6e be41
000000d0: 745c 2fbd 862c 0bbc 1f62 7641 c102 f2c0
000000e0: 89d6 be41 3fa1 9a3f 2c1c 02bd 167e 2a3e
000000f0: 123c 21bd 7f72 08bb 9072 bf41 3ccf be41
00000100: 11e2 be41 e102 c241 8087 be41 bac2 c141
00000110: ee63 be41 26e7 be41 85ee f93d 1acc be41
00000120: 1d9b be41 68e3 97bd 70b3 38bd ceb8 be41
00000130: 0a4b 2bbd 94a8 be41 8624 e43e 99d8 4f3e
00000140: 2611 c441 63ae be41 16e4 be41 d4d3 be41
00000150: 3fbb be41 5398 c141 809c be41 f1e0 c041
00000160: 65d0 c041 78c7 92be 19df be41 3ca4 a341
00000170: 24ef be41 07d7 be41 dc1c 02bd d79b c141
00000180: 57e8 a8bd 72c0 be41 0bec be41 2e02 bf41
00000190: 62d1 be41 3d4e fbbe bf1c 02bd 5824 dbbd
000001a0: 2709 bf41 bda9 be41 95f6 84bd f72e 4941
000001b0: cc82 90bd aab7 be41 47d2 9a3b 50e3 be41
000001c0: fa9d c041 8bbd be41 4ea7 be41 0acd 7fbe
000001d0: c28f 5141 60b4 be41 94e1 663f 9eea be41
000001e0: d2ff d3bd 0a0f 32bd a1d0 be41 2f18 02bd
000001f0: 04a4 be41 84a6 be41 a75c ab41 9cdb be41
00000200: 200f e8bc 9db6 be41 5ec2 be41 74d0 be41
00000210: ada0 123e 8c09 bf41 6e8c 92bd 58b5 be41
00000220: bd00 bf41 0f94 c641 2db8 be41 5960 763f
00000230: e1eb be41 38a4 be41 25d0 be41 a0aa a63e
00000240: b772 c341 9fdf be41 86bb be41 5e26 41bd
00000250: bc1d 78bc 3d0b bf41 c0f8 be41 b2ca be41
00000260: 22e7 be41 1710 bf41 2bdf be41 5819 8dbd
00000270: 2669 803f 7e60 0dbd 8eb7 5b41 bafe c141
00000280: 303d 92bd 144a 883e f909 bf41 57e8 be41
00000290: 71bd be41 ae4d be41 cde2 5941 7546 be41
000002a0: bbd9 be41 69e9 c241 60ab be41 a41b 5041
000002b0: b2eb be41 8f6b 5141 c6a2 be41 5441 bf41
000002c0: 0cd6 be41 9641 b1bb f2a0 be41 312f acc1
000002d0: 0ce8 be41 d5d5 be41 3d36 cbbd 009c be41
000002e0: 4999 be41 e93a 9141 3da4 be41 6a91 05bd
000002f0: cfa2 be41 a4d1 be41 85d4 86bd 9f2c 8fbd
00000300: 1c5c 0dbd a6ae be41 331e 7e41 70ac be41
00000310: 6a10 98bd 39c9 be41 915d be41 8aad be41
00000320: 18c7 fabd 4feb be41 9a8a c341 eb48 25bc
00000330: 3d42 25bd 0bcd be41 9ca4 91bd 54c7 c141
00000340: 8310 c641 31e7 be41 2332 bf41 958b be41
00000350: 50e6 be41 6ee5 be41 ea11 bf41 28cc be41
00000360: 98bf be41 6783 be41 d97a 623f a15c e2bc
00000370: 3eed be41 7d2e be41 f41a 7cbd 3118 bf41
00000380: 1f6b c641 8d99 73bd ff88 bf41 0cb7 debc
00000390: d7c9 c4bb d6ef be41 f94f 38bf 725b bf41
000003a0: f8c1 be41 b0ed be41 b83f 813f 0c6c 8bbd
000003b0: f2fe 5141 1fb9 be41 576e 8b41 2ac0 be41
000003c0: 89ba be41 2c5a cb3d ebab be41 62c3 be41
000003d0: c5bc be41 76b5 be41 50ab be41 71fc be41
000003e0: e3ce bf41 31f4 3fbd f589 b53d e7c5 be41
000003f0: da1c 02bd c2f6 c341 63f9 9641 4508 bf41

last_fc.weight f4 [1, 256]
-0.006220723 -0.26835322 -0.041298687 -0.020744769 -0.47435477 -0.514824 -0.5093368 -0.45914775
-0.53013414 0.03969048 0.01806913 -0.43446192 -0.5137689 -0.50108093 -0.49603724 -0.027446257
-0.28130862 -1.1588563 -3.0825124 -0.33718365 -0.55988723 -0.023855474 -0.90367097 -0.33473352
0.01972631 -0.54925495 -0.50913185 -0.018797291 -0.51562226 0.030004447 -0.48010388 -1.284301
-0.4750582 -0.011114969 -0.46981078 -0.51949257 -1.1741427 -1.1996613 -0.54529464 -0.4808697
-0.48535743 -1.0576756 0.014631535 -0.50544226 -0.5341333 -0.011189026 -0.494285 -0.44176707
-0.029065933 -0.49842125 -0.47142997 -0.34215662 -0.01548212 0.0003089875 -1.8634946 -0.071268715
-0.32293463 -0.607167 0.031699017 0.025904633 0.009634568 -0.013942096 -0.28917024 -0.2947793
-0.52853703 -0.9809203 -0.4335022 -1.0530596 -0.30223125 -0.50364006 0.025859589 -0.5411484
-0.42626518 0.0024239984 0.02221894 -0.48133212 0.03855414 -0.46658558 -0.06629554 -0.010945816
-1.1056114 -0.46290737 -0.54766935 -0.4932513 -0.43201953 -1.1468418 -0.4447663 -0.7324829
-1.006299 0.020397032 -0.529282 -1.5983306 -0.52455425 -0.47756672 -0.029173234 -1.1283969
-0.010531148 -0.46367353 -0.5480616 -0.5698782 -0.5413527 0.008517023 0.029535878 -0.020883126
-0.50192904 -0.481181 -0.027983086 -0.7644184 -0.023061456 -0.29285857 0.0039102556 -0.46907148
-0.5914583 -0.5015148 -0.4690633 0.02561932 -1.2175443 -0.44556463 -0.2311718 -0.56821954
-0.020189349 -0.02225444 -0.4824361 0.030191116 -0.48310882 -0.45891544 -0.45273632 -0.5150856
0.02824065 -0.47344264 -0.5012368 -0.49462292 -0.011100163 -0.5659483 -0.0066908696 -0.44011715
-0.3213774 -0.7353278 -0.46202287 -0.23298815 -0.51108295 -0.48211902 -0.48936793 -0.2389693
-0.92022073 -0.48983607 -0.44384962 0.031734254 -0.012186533 -0.52140135 -0.367918 -0.45772758
-0.49904975 -0.447111 -0.49163288 -0.005680358 -0.29664692 0.0066100163 -1.3786987 -1.1800601
-0.0050217626 -0.031260654 -0.4929167 -0.34986395 -0.49471077 -0.353809 -2.1414373 -0.33004424
-0.5073499 -17.54232 -0.48788184 -1.1586356 -0.5439092 -0.8190392 -0.44236284 -0.51905054
-0.50450355 -0.013406842 -0.46114865 0.5084819 -0.3158477 -0.5207149 -0.02501251 -0.46545085
-0.47616884 -1.3377225 -0.4651127 0.009029396 -0.45358065 -0.51449466 -0.085043795 -0.0068117897
0.019365847 -0.44997308 -1.4634731 -0.3577418 0.031238193 -0.29884183 -0.34804386 -0.4882686
-0.024005013 -0.5216617 -0.89205426 0.01200646 0.025445845 -0.47784856 -0.004523399 -1.2309892
-0.6391625 -0.5108017 -0.5843012 -0.4200859 -0.486089 -0.3018873 -0.52939755 -0.46081638
-0.5062049 -0.416639 -0.12483068 0.016050123 -0.5553506 -0.30636084 0.02513943 -0.31346184
-1.7906474 -0.03084442 -0.27917495 -0.010413718 -0.005646492 -0.47686672 -0.0033601436 -0.5442296
-0.3276742 -0.49478954 -0.36895677 -0.021727437 -0.98810315 -0.47151887 -4.34703 -0.48641092
-0.46695462 -0.03167542 -0.453245 -0.48375213 -0.4816241 -0.27776882 -0.47251797 -0.55510515
-0.32331204 -0.01784512 -0.0054125944 -0.5018552 0.02890046 -0.9612724 -3.8601959 -0.56552094
00000000: 35d7 cbbb 9865 89be d028 29bd eff0 a9bc
00000010: a1de f2be 81cb 03bf e663 02bf 6a15 ebbe
00000020: dfb6 07bf 7c92 223d b605 943c cb71 debe
00000030: 5c86 03bf d746 00bf 98f8 fdbe f9d6 e0bc
00000040: af07 90be 6755 94bf e247 45c0 56a3 acbe
00000050: c554 0fbf 8e6c c3bc fb56 67bf 3162 abbe
00000060: 1299 a13c f99b 0cbf 7756 02bf c7fc 99bc
00000070: d2ff 03bf e3cb f53c 2dd0 f5be fa63 a4bf
00000080: d43a f3be 8f1b 36bc 0a8b f0be 77fd 04bf
00000090: 4f4a 96bf 808e 99bf 6e98 0bbf 8e34 f6be
000000a0: c580 f8be ea61 87bf 1bb9 6f3c aa64 01bf
000000b0: f6bc 08bf 2d52 37bc ec12 fdbe 4b2f e2be
000000c0: ae1b eebc 1231 ffbe 455f f1be 272f afbe
000000d0: b8a8 7dbc 9aff a139 fe86 eebf 55f5 91bd
000000e0: b057 a5be 4c6f 1bbf d4d6 013d f435 d43c
000000f0: 4fda 1d3c 646d 64bc 1f0e 94be 50ed 96be
00000100: 344e 07bf 981d 7bbf 00f4 ddbe a8ca 86bf
00000110: 0ebe 9abe 8eee 00bf 7dd7 d33c b488 0abf
00000120: 6e3f dabe f2db 1e3b 7f04 b63c 2a71 f6be
00000130: f2ea 1d3d 4ee4 eebe f5c5 87bd 1456 33bc
00000140: ad84 8dbf 3202 edbe 0f34 0cbf 6f8b fcbe
00000150: aa31 ddbe b6cb 92bf 69b8 e3be 0084 3bbf
00000160: 68ce 80bf ad17 a73c 067f 07bf 1996 ccbf
00000170: 3049 06bf a083 f4be b5fc eebc 4f6f 90bf
00000180: d68a 2cbc 9e66 edbe c44d 0cbf 8ae3 11bf
00000190: 1796 0abf fc8a 0b3c 3af5 f13c 1713 abbc
000001a0: 6c7e 00bf 5b5d f6be c93c e5bc edb0 43bf
000001b0: 61eb bcbc 8ff1 95be 9a21 803b 232a f0be
000001c0: d069 17bf 4663 00bf 1129 f0be 9cdf d13c
000001d0: 7ed8 9bbf 0c21 e4be 4db8 6cbe d676 11bf
000001e0: 2264 a5bc f14e b6bc dd01 f7be 5c53 f73c
000001f0: 0a5a f7be f7f6 eabe 0ecd e7be a6dc 03bf
00000200: f058 e73c 1367 f2be 0e51 00bf 373f fdbe
00000210: 75dd 35bc fde1 10bf 153f dbbb 0957 e1be
00000220: 948b a4be 713e 3cbf 438e ecbe 7294 6ebe
00000230: 55d6 02bf 4ed8 f6be 6f8e fabe 5eb4 74be
00000240: 9693 6bbf cbcb fabe 4240 e3be c7fb 013d
00000250: 06aa 47bc 8f7a 05bf c05f bcbe 455b eabe
00000260: 7383 ffbe bceb e4be 4eb7 fbbe 4c22 babb
00000270: 1be2 97be d698 d83b 3379 b0bf 360c 97bf
00000280: 998d a4bb 2c0b 00bd 945f fcbe 5e21 b3be
00000290: bb4a fdbe 7426 b5be 4f0d 09c0 8ffb a8be
000002a0: afe1 01bf ac56 8cc1 a6cb f9be 2c4e 94bf
000002b0: a23d 0bbf 8eac 51bf 627d e2be 7fe0 04bf
000002c0: 2527 01bf 5fa8 5bbc ad1b ecbe df2b 023f
000002d0: cab6 a1be 924d 05bf 09e7 ccbc 934f eebe
000002e0: 67cc f3be 7e3a abbf 4023 eebe 08f0 133c
000002f0: b93b e8be ecb5 03bf 712b aebd 6f35 dfbb
00000300: 20a5 9e3c df62 e6be 1653 bbbf ef29 b7be
00000310: 3de7 ff3c cc01 99be ce32 b2be 58fe f9be
00000320: 29a6 c4bc 9f8b 05bf ab5d 64bf beb6 443c
00000330: ce73 d03c 91a8 f4be 0539 94bb 0e91 9dbf
00000340: 27a0 23bf e6c3 02bf c394 15bf 8015 d7be
00000350: a8e0 f8be f990 9abe 9986 07bf 20f0 ebbe
00000360: a596 01bf b551 d5be 3aa7 ffbd 8c7b 833c
00000370: 752b 0ebf 54db 9cbe 35f1 cd3c 127e a0be
00000380: ef33 e5bf 70ad fcbc 05f0 8ebe 4d9e 2abc
00000390: 3506 b9bb e027 f4be db35 5cbb a252 0bbf
000003a0: eac4 a7be 0e55 fdbe e7e7 bcbe bdfd b1bc
000003b0: 54f4 7cbf ec6a f1be df1a 8bc0 da0a f9be
000003c0: ad14 efbe 16be 01bd bb0f e8be 5cae f7be
000003d0: 6f97 f6be b737 8ebe e0ed f1be 5f1b 0ebf
000003e0: 2889 a5be ee2f 92bc 225c b1bb 9579 00bf
000003f0: a8c0 ec3c f315 76bf 730d 77c0 fbc5 10bf
