save_mode/SAC_v_500_qf1_network.pth (torch, 329559 bytes, 5 tensors)

fc0.weight f4 [256, 61]
0	0x3ca42ec0	0.020041823
1	0x3d473fa6	0.048644684
2	0x3d3a54a8	0.04549089
3	0x3d381362	0.04494036
4	0x3d72cfaa	0.059280075
5	0x3ec8587a	0.39130002
6	0x3ed02e0d	0.40660134
7	0x3ea11126	0.31458396
8	0x3ca09ab8	0.019605026
9	0x3cdfe970	0.027332991
10	0xbd3fd7f2	-0.0468368
11	0xbd3e551a	-0.046467878
12	0xbd40040a	-0.046878852
13	0x3ebb4113	0.36573085
14	0x3e8826fd	0.26592246
15	0x3ea45c19	0.32101515
16	0x3cbfa1f4	0.023392655
17	0xbbdc2d20	-0.0067192465
18	0xbd548020	-0.051880002
19	0x3d253d76	0.040341817
20	0x3d6e3d2e	0.058163814
21	0x3f38ed35	0.7223695
22	0x3f683e1d	0.9071978
23	0x3f80a64b	1.0050749
24	0x3c8b7150	0.017021805
25	0x3cb30a38	0.021855459
26	0xbcd1e2f0	-0.025620908
27	0xbd575524	-0.05257143
28	0xbd6de538	-0.05807993
29	0x3d8dbf56	0.0692126
30	0x3e584a57	0.21122108
31	0x3e52fa3f	0.20603274
32	0x3b2251c0	0.0024767965
33	0x3cd4392c	0.025906168
34	0xbd26f05a	-0.04075656
35	0xbcc20bf8	-0.023687348
36	0xbcbe8eb4	-0.023261406
37	0xbde66651	-0.11249984
38	0xbe9b8361	-0.30373672
39	0xbeba6507	-0.36405203
40	0x3d61c05e	0.055115096
41	0x3d25a27c	0.04043816
42	0xbd08afde	-0.033370845
43	0x3cc35f08	0.023849025
44	0x3c80ad60	0.015707672
45	0x3cf9b1b9	0.030480253
46	0x3ddfc303	0.109258674
47	0x3e4307c5	0.19045933
48	0xbf154360	-0.5830593
49	0x404ebcc6	3.2302718
50	0x4098df86	4.7772856
51	0xc0ced639	-6.46365
52	0x3d359852	0.044334717
53	0x3f68010a	0.90626585
54	0xbeb15f8d	-0.34643212
55	0xbf6b6a8f	-0.9195947
56	0x3f44ff44	0.76952004
57	0xbcd05d62	-0.025435153
58	0xbec5f77b	-0.38665375
59	0x3f489d2a	0.78364813
60	0xbea9aba3	-0.3313876
61	0xbce8f3cc	-0.028436564
62	0x3b1dbaa0	0.0024067536
63	0x3b67cdc0	0.003537044
64	0x3b423b60	0.002963744
65	0xbc823054	-0.015892185
66	0xbfb20288	-1.3907022
67	0x3f46f07c	0.777107
68	0xbdd90b07	-0.105978064
69	0xbbcc60b0	-0.006237112
70	0xbc706500	-0.014672518
71	0x3c8a41e0	0.016877115
72	0x3d713190	0.058885157
73	0x3c2a6520	0.010400087
74	0xbf8e37b7	-1.1110753
75	0xbcc1a40e	-0.023637798
76	0xbce44487	-0.027864708
77	0xbcd79f00	-0.026320934
78	0x3d47e2ac	0.048800156
79	0xbc868914	-0.016422786
80	0x3bd68b10	0.0065473393
81	0x3d1b5e96	0.037932
82	0xbd2da91a	-0.042397596
83	0x3d8c3da9	0.06847698
84	0x3d62e49c	0.0553938
85	0x3ce4e760	0.02794236
86	0x3c88d868	0.016704753
87	0xbcf10398	-0.029420659
88	0xbbdf7f10	-0.006820567
89	0x3d14ae04	0.036298767
90	0xbca1c9b3	-0.019749498
91	0xbd42f140	-0.047593355
92	0x3cabbd12	0.02096418
93	0x3d08a568	0.03336087
94	0x3bba3660	0.0056827515
95	0xbcde69e0	-0.027150095
96	0x3d26a364	0.040683165
97	0x3d38f30e	0.04515367
98	0xbd8a8953	-0.06764474
99	0xbd04e805	-0.032447834
100	0xbc9bfbef	-0.01904103
101	0xbd687a82	-0.056757458
102	0x3ceef0b0	0.029167503
103	0xbd6413de	-0.05568301
104	0xbd069132	-0.032853313
105	0xbd5d3950	-0.054009736
106	0x3c0580c6	0.008148378
107	0xbc9e5cc8	-0.01933135
108	0xbdcfaa0a	-0.10139854
109	0x3f2039ae	0.6258801
110	0xbe1e2a70	-0.15445876
111	0xbe2bcdb5	-0.1677769
112	0x3e0ba037	0.13635336
113	0x3e1a372e	0.15060112
114	0xbe911b90	-0.2834134
115	0x3d06c22e	0.032900028
116	0xbeaa3251	-0.33241513
117	0x3d8665ad	0.06562362
118	0x3c1eea35	0.009699394
119	0x3e34ecc7	0.17668448
120	0x3d89f04f	0.06735288
121	0x3bb83dba	0.0056225928
122	0xbd6bd46c	-0.05757563
123	0x3b79a320	0.0038091615
124	0x3d69fc90	0.057125628
125	0x3c142be0	0.009043664
126	0x3c4510d0	0.012027934
127	0x3dcda239	0.10040707
128	0x3ef9bacd	0.4877533
129	0x3e89961a	0.2687233
130	0xbb726760	-0.0036987886
131	0x3bcf7d20	0.0063320547
132	0x3c484fc0	0.012226045
133	0x3d4c195c	0.049828872
134	0x3d04cd28	0.032422215
135	0x3e85e0f3	0.26148185
136	0x3eab8d70	0.33506346
137	0x3e914907	0.28376028
138	0xbcd8ea84	-0.026479013
139	0x3caa60f8	0.020798191
140	0xbd2d8d98	-0.042371362
141	0xbcb4f3e4	-0.022088952
142	0x3cf27550	0.029596955
143	0x3f37ee6e	0.7184819
144	0x3f57f3dd	0.8435648
145	0x3f79a57f	0.9751815
146	0x3d02cdee	0.03193467
147	0xbd3329b0	-0.04374093
148	0x3d4bbf0a	0.049742736
149	0x3c7c31d0	0.015392736
150	0x3cdcdad8	0.026959822
151	0x3da3588d	0.07975874
152	0x3e4fa2b7	0.20276915
153	0x3e049b22	0.12949803
154	0x3d56a790	0.052405894
155	0x3c24c160	0.01005587
156	0xbcf41430	-0.029794782
157	0x3d1dc4d4	0.038517788
158	0xbcf39760	-0.029735267
159	0xbdddc01e	-0.10827659
160	0xbe8ced66	-0.2752487
161	0xbeec4973	-0.46149787
162	0x3d55d7f6	0.05220791
163	0x3d351898	0.044212908
164	0x3d03b7ca	0.032157697
165	0x3d6ae952	0.057351418
166	0x3acf8500	0.0015832484
167	0x3dfb7480	0.1227808
168	0x3e0e3573	0.13887577
169	0x3e305dd3	0.17223291
170	0xbf03ab5f	-0.51433367
171	0x4052e568	3.2952518
172	0x409c78a0	4.8897247
173	0xc0cf7699	-6.4832273
174	0x3dad4870	0.08461082
175	0x3f705135	0.9387391
176	0xbeadce33	-0.3394638
177	0xbf7a1eea	-0.9770342
178	0x3f222991	0.63344675
179	0x3da84a00	0.082172394
180	0xbec74e21	-0.38926795
181	0x3f2bdea8	0.6713662
182	0xbe858082	-0.26074606
183	0x3cfe93dc	0.031076364
184	0x3d5327f4	0.051551774
185	0xbd3cf7aa	-0.04613463
186	0xbd036a5c	-0.032083854
187	0x3c3910a8	0.011295475
188	0x3eaae70f	0.3337941
189	0x3ee97183	0.45594415
190	0x3eb97d4f	0.36228415
191	0x3b919500	0.004442811
192	0xbcd3d3e0	-0.025857866
193	0x3d674612	0.05646331
194	0xbd484e46	-0.048902772
195	0xbd07d3b4	-0.03316088
196	0x3ea1da32	0.31611782
197	0x3eb6ef9f	0.3572969
198	0x3eecc519	0.46244124
199	0xbd1c2e00	-0.038129807
200	0xbca0bfdc	-0.019622736
201	0xbd46a4f6	-0.048497163
202	0x3d628146	0.055299066
203	0x3d1463c6	0.036227964
204	0x3f59c063	0.85059184
205	0x3f82ac07	1.0208749
206	0x3f91eec0	1.1400986
207	0x3d46a412	0.048496313
208	0xbcf0ea4c	-0.029408596
209	0x3d2fd1f0	0.04292482
210	0xbd6b6236	-0.057466708
211	0xbd2164fe	-0.039402954
212	0x3d48c2bd	0.049013842
213	0x3e06d84c	0.13168448
214	0x3e2bafc0	0.16766262
215	0xbd63ac36	-0.055584155
216	0xbd33ce80	-0.043898106
217	0xbbc4b7c0	-0.00600335
218	0x3d2e020c	0.04248242
219	0xbd63305a	-0.055466034
220	0xbdaf4375	-0.08557788
221	0xbe4c328c	-0.19941157
222	0xbedade75	-0.42747846
223	0xbd21ad86	-0.039472125
224	0x3d30e970	0.043191373
225	0xbd4999ea	-0.04921905
226	0x39b7ef00	0.0003508255
227	0xbb7add00	-0.00382787
228	0x3d9925c8	0.07477909
229	0x3e0fa6ca	0.14028469
230	0x3e16b04b	0.14715688
231	0xbefc6772	-0.49297673
232	0x40484bc3	3.1296241
233	0x409a11fd	4.814696
234	0xc0cb2267	-6.3479495
235	0x3dd060a3	0.10174682
236	0x3f6f3910	0.93446445
237	0xbea666b0	-0.3250022
238	0xbf6664ce	-0.89997566
239	0x3f2135e3	0.6297285
240	0x3bd46ea2	0.006482915
241	0xbecff3c2	-0.4061566
242	0x3f419bcf	0.7562837
243	0xbebffe0e	-0.37498516
244	0x3c8f2950	0.017475754
245	0xbd13706c	-0.035995886
246	0x3a39f080	0.0007093027
247	0x3cd2eb04	0.02574683
248	0xbc029d28	-0.007972039
249	0xbc1c77b9	-0.0095500285
250	0x3b275d78	0.002553789
251	0xbcd0e10f	-0.025497941
252	0xbd7542e2	-0.059878238
253	0x3c891224	0.016732283
254	0x3d4f2a0c	0.05057721
255	0xbd433e82	-0.047667034

fc0.bias f4 [256]
0	0x41cda255	25.704264
1	0x3e20d583	0.15706448
2	0x41cd79e7	25.684523
3	0x41ce33e9	25.775347
4	0xbd40360b	-0.04692654
5	0x41cde5e8	25.737259
6	0x419a8697	19.315718
7	0xc1d87a24	-27.059639
8	0x41cebeeb	25.843222
9	0x00000000	0.0
10	0x41cdd565	25.729197
11	0xc1a29186	-20.321056
12	0xc1a51684	-20.635994
13	0x41cc4fec	25.539024
14	0xbd79e885	-0.061012764
15	0x4166b00d	14.417981
16	0xc190ba43	-18.090948
17	0x418fd6e5	17.979929
18	0x41c56e07	24.678724
19	0xc0faf49a	-7.8423586
20	0x418e6bf5	17.802713
21	0x41ce6cba	25.80309
22	0x41cdd2f6	25.728008
23	0x41cdc0bd	25.71911
24	0xbc6a0346	-0.014283007
25	0xbd5c3694	-0.053762987
26	0xbd6edfec	-0.058319017
27	0x41a2d5e9	20.354448
28	0x41a1317a	20.149158
29	0x00000000	0.0
30	0xbd2632b8	-0.040575713
31	0x41d01b4c	26.013329
32	0x41cd6cb9	25.678087
33	0x41ceeccb	25.865622
34	0x41ce831e	25.814022
35	0xbd37ae35	-0.04484387
36	0x41cdb68b	25.714132
37	0x41470a8b	12.440074
38	0x41cc4e23	25.538153
39	0x41cdb6b2	25.714207
40	0x41cdf53c	25.744743
41	0x418fdd86	17.983166
42	0xbd3e0fe9	-0.04640189
43	0x418e5088	17.789322
44	0xbc224b18	-0.009905599
45	0x41bf5dc3	23.920782
46	0x41cddfd6	25.734295
47	0xbd195f12	-0.03744418
48	0x41cde09f	25.734678
49	0x41a1c3ce	20.220608
50	0x00000000	0.0
51	0x41c661fe	24.797848
52	0x00000000	0.0
53	0x41cdf64a	25.745258
54	0x41af4401	21.908205
55	0x41cd4761	25.659853
56	0x41cccc99	25.599901
57	0xbd2d7a8b	-0.042353194
58	0x41ce82d6	25.813885
59	0xc1096879	-8.588006
60	0xbce8d9b5	-0.028424123
61	0xbd844380	-0.06458187
62	0x41c874f9	25.057116
63	0x41d01e47	26.014784
64	0xbd7e7161	-0.062119845
65	0xbcfc7058	-0.030815288
66	0x41ccbcf4	25.592262
67	0x4189734e	17.181301
68	0x41cd907c	25.695549
69	0xc19a6f19	-19.304247
70	0xbd7d7009	-0.061874423
71	0x419fe3eb	19.986288
72	0xbd2337b5	-0.03984805
73	0x41ce5d88	25.79567
74	0x41cdee64	25.741402
75	0x4192996f	18.324919
76	0xc055bab7	-3.3395212
77	0x41ccde9f	25.608702
78	0xbd128eb9	-0.035780642
79	0x41a47ce6	20.560986
80	0x41ae03b0	21.7518
81	0xbd5636fa	-0.052298523
82	0x41cd7743	25.683233
83	0xc1266dda	-10.401819
84	0x41ccab8d	25.583765
85	0xbced0cf7	-0.028936846
86	0x4190b37f	18.087645
87	0xc1a87ad0	-21.059967
88	0x41cd320f	25.649443
89	0x41cdba09	25.715837
90	0xbd883350	-0.06650412
91	0x41cee121	25.859926
92	0x41a557b5	20.667826
93	0x418f4dc0	17.912964
94	0x41d6c18f	26.844511
95	0xc18006e0	-16.003357
96	0x415e7c81	13.905396
97	0xbd5d1cb3	-0.053982448
98	0x41ce6b4a	25.802387
99	0x41cfec10	25.990265
100	0x41cdbc4a	25.716938
101	0x41cdeb78	25.739975
102	0x41ceff13	25.874548
103	0x41ccfb0d	25.622583
104	0x41cdd80c	25.730492
105	0x419e2734	19.769142
106	0xbc9041ed	-0.01760956
107	0x41cde7bf	25.738157
108	0xc1b51f69	-22.640337
109	0x41bf08f0	23.879364
110	0x41c993d9	25.197191
111	0x41c92d7a	25.147205
112	0x41cd3ed3	25.655676
113	0x41cb8598	25.440231
114	0x41ce13a7	25.759596
115	0x41cf1838	25.886826
116	0x41cbcaa1	25.47394
117	0xbd16639a	-0.03671608
118	0xbd0e3dbd	-0.034726847
119	0xbc9cdcf6	-0.019148331
120	0x41ce3bb5	25.779154
121	0x41cf5604	25.917
122	0x41aba455	21.45524
123	0x4190c813	18.097692
124	0xbcce0fe9	-0.02515407
125	0xbd65c773	-0.056098413
126	0xc01de6d9	-2.4672148
127	0x4182bf1d	16.343317
128	0xc138efd5	-11.558553
129	0x41cd3907	25.652845
130	0x41a7486b	20.91036
131	0x00000000	0.0
132	0x41cf07e1	25.878847
133	0x41ce76e1	25.808046
134	0xbd0de164	-0.034638777
135	0x41a9952e	21.197842
136	0x41cc594a	25.543598
137	0xbc0c2583	-0.008553865
138	0x41ce40ac	25.781578
139	0x41ce769d	25.807917
140	0x41ce5274	25.79026
141	0x41affa5d	21.997248
142	0x41ce76b0	25.807953
143	0x418eb8ff	17.84033
144	0x41abdb09	21.48195
145	0xc04400f0	-3.0625572
146	0xc1a4740d	-20.556665
147	0xbc196f00	-0.009364843
148	0x41cc258d	25.518335
149	0x41ce32df	25.77484
150	0x41cd7238	25.68077
151	0x41940bbe	18.505733
152	0xc1bcc78e	-23.597439
153	0x41cea9ab	25.832846
154	0x41cf0551	25.877596
155	0x417ff7c8	15.997993
156	0x41a829a9	21.020342
157	0x41cbd3f3	25.47849
158	0x41cd9cba	25.701527
159	0x41ce0c30	25.75595
160	0x41caf61e	25.370174
161	0x41ce00a9	25.750322
162	0xc1a65279	-20.79027
163	0x00000000	0.0
164	0xbd3f8c5b	-0.046764713
165	0x41ce4157	25.781904
166	0xbcdec4b7	-0.02719341
167	0x41cb76a3	25.432928
168	0x41ce318f	25.774199
169	0x41ce202c	25.765709
170	0x41ccca9d	25.598932
171	0x00000000	0.0
172	0xbd0636da	-0.032767154
173	0x418d3ad9	17.653734
174	0xbd3d2355	-0.046176273
175	0x41ce950f	25.822783
176	0x41cd150f	25.635283
177	0x41a71aea	20.888142
178	0x41cecf65	25.851267
179	0x41863219	16.774462
180	0xbce90f4b	-0.028449675
181	0x418ee266	17.860546
182	0x41a75829	20.918047
183	0xbd26908e	-0.0406652
184	0xc1a602ce	-20.75137
185	0x41cdcdb1	25.725435
186	0x41cc18e7	25.51216
187	0xbd2ecea4	-0.042677537
188	0x41ce047d	25.752192
189	0x41cd7637	25.682722
190	0x00000000	0.0
191	0x00000000	0.0
192	0xbd231d5a	-0.039822914
193	0xbd0eb92a	-0.034844555
194	0x41a29682	20.32349
195	0x41ced8ce	25.855862
196	0x41cda089	25.703386
197	0x41ac7594	21.557411
198	0xbd3058b7	-0.043053355
199	0x41cdc17e	25.719479
200	0xbce37e26	-0.027770113
201	0x41ce04fc	25.752434
202	0x41cd69f1	25.67673
203	0x41cdc999	25.723436
204	0xbd3c73f8	-0.046009034
205	0xc11dc989	-9.861703
206	0x41ae6b20	21.802307
207	0xbd7b61c4	-0.061372533
208	0x00000000	0.0
209	0x41cd6ac4	25.677132
210	0x41cd928f	25.696562
211	0xbcfab065	-0.03060169
212	0x41cec435	25.845804
213	0xbc9243bc	-0.017854564
214	0x418ab4d1	17.33829
215	0x4198eca7	19.115553
216	0xc119cae9	-9.612039
217	0x41cd6c5e	25.677914
218	0xc1a16c6e	-20.177944
219	0x41cefcdb	25.873465
220	0xbd3c51c7	-0.045976426
221	0xbced1739	-0.028941737
222	0xc0dedfc1	-6.9648137
223	0x4193d6b1	18.47983
224	0x41a7c6f1	20.97214
225	0x41ced972	25.856174
226	0x41ce2f71	25.773165
227	0x00000000	0.0
228	0x41ad3004	21.648445
229	0xbd0dd5fd	-0.034627903
230	0x41ccb47a	25.588123
231	0xbc89fb6a	-0.016843516
232	0x419454c3	18.541388
233	0xbd77c4bf	-0.060490366
234	0xbd030539	-0.031987403
235	0xc131b096	-11.105612
236	0x41cdc709	25.722185
237	0x4193a867	18.457228
238	0x418afd61	17.37372
239	0xbd44f760	-0.048087478
240	0xbd39d989	-0.045373473
241	0x41ce257e	25.768307
242	0xbd1d7aec	-0.038447306
243	0x41cb0095	25.375284
244	0x41ce2c7d	25.771723
245	0x41a50217	20.62602
246	0x41ce1a66	25.76289
247	0x4190fffa	18.124989
248	0xbd323c16	-0.043514334
249	0x41ccfc4a	25.623188
250	0x41a042ef	20.032682
251	0x41ce58f6	25.793438
252	0x419655da	18.79192
253	0x41cdc649	25.721819
254	0x41cdedb4	25.741066
255	0x41cef1c7	25.868055

fc1.weight f4 [256, 256]
0	0xbda9f932	-0.08299483
1	0x3add8a40	0.0016902164
2	0xbd117e5b	-0.035520893
3	0x3ca4a73a	0.020099271
4	0x3b910160	0.0044252127
5	0xbda946e2	-0.08265473
6	0x3cbca938	0.023029909
7	0xbdb240ea	-0.087037876
8	0xbd6c4e52	-0.05769188
9	0x3d04b14c	0.032395646
10	0xbdaab524	-0.08335331
11	0x3cb5c0f8	0.022186741
12	0x3d346034	0.04403706
13	0xbcb34040	-0.021881223
14	0x3cb693e0	0.02228731
15	0x3c9d5fa4	0.019210644
16	0x3d610c34	0.05494328
17	0xbbdb0d70	-0.0066849515
18	0x3cff9a7c	0.031201594
19	0xbc5265c8	-0.012841649
20	0xbd067c38	-0.032833308
21	0xbd3902d5	-0.045168716
22	0xbd60bdb0	-0.0548684
23	0xbdaeb33c	-0.0853028
24	0x3d53eeea	0.051741518
25	0xbd09694c	-0.033547685
26	0x3d5391b4	0.051652625
27	0x3cba3cfc	0.022734158
28	0x3cbdc54f	0.023165373
29	0x3c13bad0	0.009016708
30	0x3d6963ce	0.056979947
31	0xbdc043a1	-0.09387899
32	0xbaf1e1ce	-0.0018454136
33	0xbcf00a0f	-0.029301671
34	0xbd1cf5da	-0.0383204
35	0x3c2a52e0	0.0103957355
36	0xbdafc080	-0.08581638
37	0xbd58289e	-0.05277311
38	0xbcbb3356	-0.022851627
39	0xbda55ab6	-0.08073942
40	0xbd7a4903	-0.061104786
41	0xbc564590	-0.013078108
42	0xbd28377a	-0.04106853
43	0xbbe7d8f0	-0.0070754215
44	0xbd697b8e	-0.057002597
45	0xbcb8145c	-0.022470646
46	0xbd65bb68	-0.056086928
47	0x3cff727c	0.03118252
48	0xbdb3e779	-0.08784384
49	0x3c99df16	0.018783133
50	0x3c8dee88	0.017325655
51	0xbd79cbca	-0.060985364
52	0x3bd20a50	0.0064099208
53	0xbd26d456	-0.040729843
54	0x3ca10744	0.019656785
55	0xba8285ec	-0.0009958125
56	0xbc6c3741	-0.01441747
57	0xbd58aa06	-0.052896522
58	0xbd4b0636	-0.04956647
59	0x3d3e41f8	0.04644963
60	0x3d35d4f4	0.04439254
61	0xbcf180e0	-0.029480398
62	0xbcb1b8cc	-0.021694563
63	0xbbc7de9e	-0.006099536
64	0x3d709b64	0.058741942
65	0xbd5ef1cc	-0.054429814
66	0xbdb0e6c3	-0.08637764
67	0x3c8898d0	0.01667443
68	0xbc0c8dfc	-0.008578774
69	0xb9a9820f	-0.00032331093
70	0xbcc65a8c	-0.024213098
71	0x3cc443be	0.023958083
72	0x3cc36208	0.023850456
73	0xbd373732	-0.044730373
74	0xbd768984	-0.06018974
75	0x3bad25e0	0.005284056
76	0x3b2cd2a0	0.002637066
77	0x3c843948	0.016140595
78	0x3d5b67e4	0.053565875
79	0xbce14a8c	-0.027501367
80	0xbd55b5b0	-0.052175224
81	0x3d41d6d2	0.04732401
82	0xbc21e57b	-0.009881373
83	0xbd2785c2	-0.040899046
84	0xbd95d95f	-0.07316851
85	0xba024080	-0.00049687177
86	0x3d7ed430	0.062214077
87	0x3c634d28	0.013873376
88	0x3cc3613c	0.023850076
89	0xbd65479a	-0.055976488
90	0xbd459b50	-0.04824382
91	0x3b00ac20	0.0019633844
92	0x3d237194	0.03990324
93	0xbd12b072	-0.035812803
94	0xbd9b8e7f	-0.07595538
95	0x3d5d967c	0.05409859
96	0xbc56c6b6	-0.0131089
97	0x3cdad7d4	0.026714243
98	0xbbf974c3	-0.007612796
99	0xbd9a00e0	-0.07519698
100	0xbd8bbfac	-0.06823668
101	0xbd70f6b2	-0.058829017
102	0xbca4612c	-0.020065866
103	0xbd89135f	-0.06693148
104	0xbb85a1db	-0.0040781326
105	0xbc7c4be8	-0.015398957
106	0x3a651180	0.00087382644
107	0xbcaa9a7c	-0.020825617
108	0x3ccf2981	0.025288345
109	0xbda728a6	-0.0816205
110	0xbd01110d	-0.0315104
111	0x3a7d0c00	0.0009652972
112	0xbd9b6c5d	-0.07589028
113	0xbb8c3c60	-0.004279658
114	0x3caba24d	0.020951414
115	0xbd85b531	-0.065287
116	0xbc152118	-0.009102128
117	0xbd5c99a2	-0.053857453
118	0x3d23f668	0.040029913
119	0xbd223028	-0.039596707
120	0x3cf53efe	0.029937264
121	0xbd8903c9	-0.06690175
122	0xba4e1380	-0.0007861182
123	0xbd54a3b8	-0.051913947
124	0x3d14945c	0.0362743
125	0xbc8a9c08	-0.016920105
126	0xbc84d478	-0.016214594
127	0xbcba76b0	-0.022761673
128	0xbd26b9f2	-0.040704675
129	0x3c9d5676	0.019206267
130	0x3b80a55b	0.003925962
131	0x3d352974	0.044228986
132	0xbd1a317f	-0.03764486
133	0xbd9bf4cb	-0.0761505
134	0xbbab9c40	-0.0052371323
135	0xbb1547e3	-0.0022778444
136	0xbcda8700	-0.026675701
137	0xbcb33810	-0.021877319
138	0xbdaf0cce	-0.08547364
139	0xbd2c7978	-0.04210803
140	0x3cc6d1c2	0.024269942
141	0xbc444030	-0.011978194
142	0xbd47d850	-0.048790276
143	0x3cd6f3d4	0.026239313
144	0xbd60068e	-0.05469375
145	0xbcc40b08	-0.023931041
146	0x3c3d6278	0.011559121
147	0xbcf33ea8	-0.029692963
148	0xbc914588	-0.01773335
149	0xbd6e0fff	-0.058120724
150	0xb9ea6a29	-0.00044711053
151	0x3cfb06f0	0.030642956
152	0xbcfd22bf	-0.030900357
153	0xbcdb3474	-0.02675841
154	0x3b84c0a2	0.004051284
155	0xbc8cac5c	-0.017172031
156	0x3cd68450	0.026186138
157	0xbd74154c	-0.059590623
158	0xbc958936	-0.018253904
159	0xbce1a80f	-0.027545957
160	0xbd65e4d2	-0.056126423
161	0xba3f387e	-0.000729449
162	0x3b0964c9	0.0020964614
163	0xbd58f6d0	-0.052969754
164	0xbc162c40	-0.009165823
165	0xbd93856f	-0.07203185
166	0xbc2cb2b8	-0.010540657
167	0xbd19e286	-0.037569545
168	0xbdad18bb	-0.084519826
169	0xbdb6df37	-0.089292936
170	0xbb0f0ac0	-0.0021826476
171	0xbd0cc3c8	-0.0343664
172	0xbcb25530	-0.021769136
173	0xbd0fec86	-0.035137676
174	0xbcfce788	-0.030872121
175	0xbc65f5a5	-0.014035617
176	0xbb39c664	-0.002834701
177	0xbc964c7c	-0.018347017
178	0xbd8005ba	-0.06251092
179	0x3d724ff4	0.05915828
180	0x3bd32810	0.006443985
181	0x3d74d7f4	0.05977626
182	0x3c8c735c	0.017144851
183	0x3d029000	0.03187561
184	0x3d1073de	0.03526675
185	0xbd9d21d3	-0.07672467
186	0xbd788d36	-0.060681544
187	0x3c1490d0	0.009067729
188	0xba2810db	-0.0006411203
189	0xbda6ddfe	-0.081478104
190	0xbbab2c30	-0.0052237734
191	0x3c818608	0.015810981
192	0xbd09f698	-0.033682436
193	0x3cad2e7c	0.02114033
194	0x3c90b580	0.017664671
195	0x3aa7be76	0.0012797851
196	0xbbbcef85	-0.0057658576
197	0x3cb10288	0.021607652
198	0x3ab5a5c0	0.0013858601
199	0xbbc3cab4	-0.005975092
200	0x3c77ebb0	0.015131876
201	0xbcc68f6b	-0.024238309
202	0xbd129b14	-0.035792425
203	0xbd581466	-0.05275383
204	0xbc2208e8	-0.009889819
205	0xbd0304a6	-0.031986855
206	0xbd69ae98	-0.05705127
207	0xbd1d230c	-0.0383635
208	0x3d59c2fc	0.053164467
209	0xbdb29d16	-0.08721368
210	0xbd280a1e	-0.041025274
211	0x3c4b6728	0.012414731
212	0x3c518678	0.0127884075
213	0x3d3e05ba	0.04639218
214	0xbd640aee	-0.055674486
215	0x3d51df68	0.051238447
216	0xbd224520	-0.039616704
217	0x3c834d94	0.016028203
218	0xbcd8787c	-0.026424639
219	0x3cc3a129	0.023880558
220	0xbd799650	-0.060934365
221	0x3ceadcd0	0.028669745
222	0xbb77dae0	-0.0037819669
223	0xbb71f1a0	-0.0036917701
224	0xbd60d5a4	-0.054891244
225	0x3ab53b5e	0.0013826897
226	0xbc907f19	-0.01763873
227	0xbcf557e4	-0.029949136
228	0xbd1428c2	-0.036171682
229	0x3c2ced30	0.010554597
230	0xbd29f09e	-0.041489236
231	0x3c5a80f8	0.013336413
232	0x3c980d88	0.01856114
233	0xbcbd44c4	-0.023104079
234	0x3c6cb4c0	0.014447391
235	0xbcaa7678	-0.020808443
236	0xbd67c726	-0.056586407
237	0x3d0add6a	0.033902563
238	0x3cd04734	0.025424577
239	0xbcba2be8	-0.022726014
240	0xbd175e10	-0.03695494
241	0xbd88497c	-0.06654641
242	0xbd47f7dc	-0.04882036
243	0xbbd72b40	-0.006566435
244	0xbb5a9709	-0.0033354184
245	0x3c42b468	0.0118838325
246	0x3ce8d5fa	0.028422344
247	0xbc8d2a00	-0.017231941
248	0xbc37ae68	-0.011211015
249	0xbd7bfb20	-0.06151879
250	0xbd13faf4	-0.036128
251	0xbb735125	-0.0037127223
252	0x3d6b3b72	0.05742974
253	0xbce5a4fc	-0.028032772
254	0x3ca81ae3	0.020520633
255	0xbd5fa720	-0.054602742

fc1.bias f4 [256]
0	0xbd021cdc	-0.031765804
1	0x41cf00c2	25.87537
2	0x41cf13ee	25.884731
3	0x41cf0182	25.875736
4	0xbdf1b708	-0.118024886
5	0x41cf1080	25.883057
6	0x41cd33c6	25.65028
7	0x36344295	2.6860846e-06
8	0xbd6eb6da	-0.05827985
9	0x41cf14e3	25.885199
10	0xc0f6c626	-7.711688
11	0x41cf0057	25.875166
12	0x41dc2282	27.51685
13	0x41cf1003	25.882818
14	0xbd021cd5	-0.031765778
15	0x414c8432	12.782274
16	0xbd74395a	-0.059625007
17	0xbd021cd0	-0.03176576
18	0x41bbdc90	23.482697
19	0x41cf0dc0	25.881714
20	0xbd13aead	-0.036055256
21	0x41cf02f7	25.876448
22	0x410652a4	8.395176
23	0x41cf0b90	25.880646
24	0x41cef2f6	25.868633
25	0x41cf099d	25.879694
26	0xbd3bb32f	-0.04582518
27	0x41a11f74	20.140358
28	0x41cf18c0	25.887085
29	0x41cf50cb	25.91445
30	0x41cf4f71	25.91379
31	0x41dce331	27.610933
32	0x41cef7c3	25.870977
33	0xbd2c2da8	-0.04203573
34	0xbcb60f59	-0.022224115
35	0x41cf1b89	25.888445
36	0x41ceffb1	25.87485
37	0x41d72627	26.89363
38	0x3e1090ba	0.14117709
39	0x41cf0ef6	25.882305
40	0x41cf059b	25.877737
41	0xbca6d136	-0.020363431
42	0x419ee420	19.86139
43	0xbbbcda12	-0.0057633007
44	0x41ceec68	25.865433
45	0xbca461f7	-0.020066245
46	0xbc00af09	-0.007854232
47	0xbd1ba81e	-0.038002126
48	0x41d57dde	26.686459
49	0x41cf0007	25.875013
50	0x41cf3189	25.899187
51	0xbd1ab613	-0.037771296
52	0x41cf1e24	25.889717
53	0x41ce9051	25.820467
54	0xbc8cf8ce	-0.017208483
55	0x41cf15c6	25.885632
56	0x41cf0c48	25.880997
57	0x3ded7106	0.11593823
58	0x41cf2a90	25.895782
59	0x41d53202	26.649418
60	0x41cf0f86	25.88258
61	0xbd81ed5c	-0.06344101
62	0x41cf0bd0	25.880768
63	0xbcfd776c	-0.030940734
64	0x00000000	0.0
65	0x41d3d775	26.480204
66	0x41cf0473	25.877172
67	0x41cf1997	25.887495
68	0x41044ce6	8.268774
69	0x41cf2a4f	25.895658
70	0xbb7d4df9	-0.0038651212
71	0x41ce79b7	25.809431
72	0x41cf1600	25.885742
73	0x41cf2175	25.891336
74	0x41cefb09	25.872576
75	0x41cef827	25.871168
76	0xbca62500	-0.020281315
77	0xbcb5c63f	-0.022189258
78	0x41cef139	25.867785
79	0xbd021cdd	-0.031765807
80	0x41cf1fc3	25.890509
81	0x41cefdec	25.873985
82	0xbda9430a	-0.0826474
83	0xbd1ecbd6	-0.03876861
84	0xbc628440	-0.013825476
85	0x41cf173e	25.886349
86	0xbca9bec4	-0.020720847
87	0x00000000	0.0
88	0x418fe121	17.984926
89	0x41cef210	25.868195
90	0x41cf156c	25.88546
91	0xbbc4c9d7	-0.0060055065
92	0xbb4d2917	-0.003130501
93	0x41cf4d9c	25.912895
94	0x41cf00d1	25.875399
95	0xbbc4c9d8	-0.006005507
96	0x41ceeadb	25.864676
97	0xbc5aad3c	-0.013346966
98	0x41cf1458	25.884933
99	0x41cf52f6	25.915508
100	0x41837d66	16.43623
101	0x41cef877	25.87132
102	0xbbc4c9d7	-0.0060055065
103	0x41d30360	26.376648
104	0x41cef2d4	25.868568
105	0xbc46c3d8	-0.012131654
106	0xbd20b355	-0.039233524
107	0xbd3737dc	-0.044731006
108	0x41cf6579	25.924547
109	0x00000000	0.0
110	0x41cf0af7	25.880354
111	0x41cf142a	25.884846
112	0xbd4f403d	-0.05059837
113	0xbd8ec0da	-0.06970377
114	0x3da6bc7f	0.081414215
115	0x41cf0488	25.877213
116	0x41cf1e2b	25.88973
117	0xbbc4c9d8	-0.006005507
118	0x41cf5c98	25.920212
119	0x41cf4ee9	25.91353
120	0xbbc4c9d6	-0.006005506
121	0x41cf3028	25.898514
122	0xbcb4d004	-0.022071846
123	0x41cf1b2e	25.888271
124	0x41cf17e6	25.88667
125	0x41cf2275	25.891825
126	0x41cf0969	25.879595
127	0x41cf0dc9	25.881731
128	0xbcbbca24	-0.022923537
129	0x41cf083b	25.879019
130	0x41cf2512	25.8931
131	0x41cefd02	25.873539
132	0xbd503e05	-0.050840396
133	0x41cef155	25.867838
134	0x41cef75a	25.870777
135	0x41cf0547	25.877577
136	0x00000000	0.0
137	0xbdbf3183	-0.093356155
138	0xbd1271bb	-0.035752993
139	0xbd828fef	-0.063751094
140	0xc0bbfcbb	-5.874601
141	0x41cf10d5	25.883219
142	0x41088668	8.532814
143	0x41d3e990	26.489044
144	0xbc027c10	-0.007964149
145	0x41ced7a7	25.855299
146	0xbc5515ae	-0.013005657
147	0xbde90f8e	-0.1137992
148	0xbd854ea7	-0.06509142
149	0xbce9941e	-0.02851301
150	0xbd0fcc5d	-0.035107005
151	0xbc8838bb	-0.016628614
152	0x41cef056	25.867352
153	0x419aa85b	19.332205
154	0x419607ba	18.753773
155	0x41cf0510	25.877472
156	0xbd021cda	-0.031765796
157	0x4066e0f9	3.6074812
158	0xbd370d89	-0.044690643
159	0x41cf41a1	25.907045
160	0x41cf0409	25.87697
161	0x41cee8a1	25.863588
162	0x41cf0586	25.877697
163	0xc09ceb68	-4.903736
164	0xbd954e05	-0.07290272
165	0xbd5c9145	-0.053849477
166	0x41cf27c5	25.894419
167	0xbd0decb5	-0.03464957
168	0x41cf17b2	25.88657
169	0x3d1e577e	0.038657658
170	0x41cefc1e	25.873104
171	0xbd021cdc	-0.031765804
172	0x41ceffb1	25.87485
173	0xbc7d2944	-0.015451733
174	0x00000000	0.0
175	0x41cf7c5d	25.935724
176	0xbbc7a1f9	-0.0060923067
177	0x41cf2ddd	25.897394
178	0x4177d51f	15.4895315
179	0x41cefaaf	25.872404
180	0xbe23d28e	-0.15998289
181	0x41cf2400	25.892578
182	0xbd0ee201	-0.034883503
183	0x41ceeb1a	25.864796
184	0x41ceff6a	25.874714
185	0xbd9df3e8	-0.07712537
186	0xbdae11f4	-0.08499518
187	0xbc1289fc	-0.008944031
188	0x41cbd35d	25.478205
189	0x41cf0433	25.87705
190	0xbd0b0052	-0.033935852
191	0x41cf250e	25.893093
192	0x41cf741e	25.931698
193	0xbce26c92	-0.027639661
194	0x41cf1768	25.886429
195	0x41cf0ea7	25.882154
196	0xbfdab59f	-1.7086676
197	0x41042414	8.258808
198	0x41ce452f	25.783781
199	0xbd17b778	-0.037040204
200	0x41cf0578	25.87767
201	0x41cd3c3c	25.654411
202	0xbd021cce	-0.03176575
203	0x41cf19dc	25.887627
204	0x41cf01ab	25.875814
205	0x41cf1bfa	25.88866
206	0x41756bc8	15.338814
207	0xbd021cdb	-0.0317658
208	0x41cf04e9	25.877398
209	0x41cef618	25.870163
210	0x41d2ac72	26.334202
211	0x41cf04f5	25.87742
212	0x3c297390	0.010342494
213	0x41cf4b57	25.911787
214	0xbd1c76d0	-0.038199246
215	0xbc4edfae	-0.012626572
216	0x41cf0645	25.878061
217	0x00000000	0.0
218	0xbc6207db	-0.013795818
219	0x41ceecb1	25.865572
220	0x41cef034	25.867287
221	0x41cf239f	25.892393
222	0x4104785a	8.279383
223	0x41cf055e	25.87762
224	0xc10b934e	-8.723463
225	0x41cef901	25.871584
226	0x41cf0dcc	25.881737
227	0x41cf08d9	25.87932
228	0x3e29fe7f	0.16600989
229	0x41cf00fc	25.87548
230	0xbc8d6f1e	-0.017264899
231	0x41cef465	25.869333
232	0x41cf192c	25.887291
233	0xbe1d0981	-0.15335657
234	0x41cf0899	25.879198
235	0xbc1bc075	-0.009506335
236	0x41d83738	27.026962
237	0xbdf7fb20	-0.12108445
238	0xc0853438	-4.1626244
239	0x41ced916	25.855999
240	0x41cefd6f	25.873747
241	0x41cef474	25.869362
242	0x41ceff09	25.874529
243	0x41cef640	25.87024
244	0x41cefa40	25.872192
245	0xbd021cd8	-0.03176579
246	0x410716fc	8.443111
247	0x41cef418	25.869186
248	0xbd234151	-0.039857212
249	0xbbeb0631	-0.007172369
250	0x41cf013c	25.875603
251	0x3eeb4d78	0.4595754
252	0x00000000	0.0
253	0xbcf2e432	-0.029649828
254	0x41cf0660	25.878113
255	0xbd0c594a	-0.03426484

last_fc.weight f4 [1, 256]
0	0xbcfe51b0	-0.031044811
1	0xbf97976f	-1.1843089
2	0xbf2f0376	-0.68364656
3	0xbf9e92a7	-1.2388505
4	0xbafe8475	-0.0019418137
5	0xbf9355a7	-1.1510514
6	0xc018af57	-2.385702
7	0xbcc2869f	-0.023745833
8	0xbcfcd875	-0.030864934
9	0xbf526f56	-0.82201135
10	0x3ff8e020	1.9443398
11	0xbfa3e962	-1.2805598
12	0xc0ad6947	-5.419101
13	0xbe1f81b2	-0.15576819
14	0x3cfa4c77	0.03055404
15	0x3f8ad4ee	1.0846231
16	0xbc16b7e6	-0.009199118
17	0xbcfb7fd6	-0.030700605
18	0xbfb9c28d	-1.4512497
19	0xbfa6aa80	-1.3020782
20	0xbc213915	-0.00984027
21	0xbf8e4a74	-1.1116471
22	0xbdf9e002	-0.12200929
23	0xbf914e18	-1.1351957
24	0xbf971a2c	-1.1804862
25	0xbf9f2940	-1.2434464
26	0xbc9420c1	-0.018082025
27	0xbf40592c	-0.75136065
28	0xbf9e991c	-1.2390475
29	0xbfd21b73	-1.6414627
30	0xbe84b547	-0.25919554
31	0xc0bcbfb2	-5.8984003
32	0xbfa1af17	-1.2631558
33	0xbc643ccc	-0.013930511
34	0xbcb22964	-0.021748252
35	0xbfa47407	-1.2847909
36	0xbf8f9af9	-1.1219169
37	0xc068ff54	-3.640584
38	0x3c1619ea	0.009161452
39	0xbf9a479f	-1.2053107
40	0xbfa85492	-1.3150809
41	0xbc912ca3	-0.01772148
42	0x3fb74706	1.431855
43	0xbbe44bc7	-0.006967041
44	0xbf99b106	-1.2007148
45	0xbca15800	-0.019695282
46	0x3d137ad1	0.0360058
47	0x3ce61d6a	0.028090198
48	0xbfa852ec	-1.3150306
49	0xbfa4177f	-1.281967
50	0xbf9208ba	-1.1408913
51	0x3cd97855	0.026546637
52	0xc07055c3	-3.7552345
53	0xbf67efcc	-0.90600276
54	0xbb060021	-0.0020446854
55	0xbf8f609d	-1.1201359
56	0xbf8f52f5	-1.1197191
57	0x3c2f36ff	0.010694264
58	0xc0934b6d	-4.6029572
59	0xbfa63f6a	-1.2988102
60	0xbfa090cf	-1.2544192
61	0xbcd4b782	-0.02596641
62	0xbf8af443	-1.0855793
63	0xbc6f9039	-0.014621788
64	0xba250b5c	-0.0006295943
65	0xc0377fc5	-2.8671734
66	0xbfa6920d	-1.3013321
67	0xbf9a5928	-1.2058458
68	0xbceec994	-0.029148854
69	0xbfa246a3	-1.2677807
70	0xbbb4fc3b	-0.0055232323
71	0xbf4a130f	-0.7893533
72	0xbf956866	-1.1672485
73	0xbf906479	-1.1280662
74	0xbfa4c678	-1.2873068
75	0xbfa3979e	-1.2780645
76	0x3c1d68f0	0.009607539
77	0xbc9eaddd	-0.019370014
78	0xbf9abcdb	-1.2088884
79	0xbcfd924b	-0.030953547
80	0xbfb22666	-1.3917968
81	0xbf9ae905	-1.2102362
82	0xbcefc61e	-0.029269274
83	0x3ce0d23e	0.027444001
84	0x3c348f26	0.011020457
85	0xbf8e8c43	-1.1136554
86	0xbc93e80e	-0.018054988
87	0xba460900	-0.00075544417
88	0xbfef7f9a	-1.8710816
89	0xbf244650	-0.6416979
90	0xbfa61528	-1.2975206
91	0xbb4d1acd	-0.0031296492
92	0xbcddcbcf	-0.027074723
93	0xbfa1ff3b	-1.2656015
94	0xbf8eb72a	-1.1149647
95	0xbb9faff6	-0.004873271
96	0xbf5bb1da	-0.85818255
97	0xbcdc55f1	-0.026896449
98	0xbf912847	-1.1340417
99	0xbfc2e8ef	-1.5227336
100	0xbe71fe61	-0.23632194
101	0xbfa4c82a	-1.2873585
102	0xbb88cc13	-0.004174718
103	0xc0933b7e	-4.601012
104	0xbf8f79ab	-1.1209005
105	0x3c26be51	0.010177211
106	0x3cccb701	0.024989607
107	0x3c5fe4e2	0.01366541
108	0xbf9324dd	-1.1495625
109	0xb8bed1a0	-9.098952e-05
110	0xbf9f595f	-1.2449149
111	0xbf8e0fb1	-1.1098539
112	0x3be76383	0.0070614233
113	0xbcc2bc87	-0.023771537
114	0xbcf76e70	-0.030204028
115	0xbf8fc43c	-1.1231761
116	0xbf9e8b4e	-1.2386262
117	0xbb80dac6	-0.00393233
118	0xbf9930e6	-1.1968048
119	0xbf9db76d	-1.2321602
120	0xbbabfa75	-0.0052483627
121	0xbf51d368	-0.81963205
122	0xbca97ff3	-0.020690894
123	0xbf912a3e	-1.1341016
124	0xbfa1df0a	-1.2646191
125	0xbf9cdafe	-1.2254331
126	0xbfa95ee9	-1.3232089
127	0xbf8e09b0	-1.1096706
128	0xbc8e9568	-0.017405227
129	0xbf9ff599	-1.2496825
130	0xbfa171ec	-1.2612891
131	0xbf9bc615	-1.2169825
132	0x3c82b364	0.01595468
133	0xbfa087bd	-1.2541424
134	0xbf8f6dcf	-1.1205386
135	0xbfa0bd8e	-1.2557847
136	0xbb0cb8c6	-0.0021472438
137	0x3b99d370	0.004694395
138	0x3c6dc576	0.01451241
139	0xbc3e7440	-0.011624396
140	0x3bbe398d	0.0058052004
141	0xbf91d5dd	-1.1393391
142	0xbe69f6bf	-0.22848032
143	0xc00fb3c7	-2.2453477
144	0xbbb5c0c7	-0.0055466625
145	0xbf297efc	-0.6620939
146	0x3bfb5258	0.0076697282
147	0xbccc6575	-0.024950722
148	0x3cb0f0dc	0.021599226
149	0x3ce8f56f	0.028437344
150	0xbac4c652	-0.0015012717
151	0xbcae4335	-0.021272281
152	0xbfa50986	-1.2893531
153	0xc01728ff	-2.3618772
154	0xc01819c8	-2.3765736
155	0xbf9dd219	-1.2329742
156	0xbcfe69e6	-0.031056356
157	0xbd425e82	-0.04745341
158	0xbca86bd6	-0.020559233
159	0xbfaa39c6	-1.3298881
160	0xbfa613ba	-1.297477
161	0xbf822a1c	-1.0169101
162	0xbf99a704	-1.2004094
163	0x3f63e120	0.8901539
164	0xbcf3e306	-0.02977134
165	0x3c4a34ca	0.012341687
166	0xbfc60f73	-1.5473465
167	0x3cb389ef	0.021916358
168	0xbf734bcf	-0.9503755
169	0x3cf8c4b8	0.03036724
170	0xbf94833f	-1.1602553
171	0xbcfba173	-0.030716633
172	0xbf9b2d53	-1.2123207
173	0x3c5005b3	0.012696671
174	0xb9f34120	-0.00046397094
175	0xbfa0ef67	-1.257306
176	0xbba98945	-0.0051738345
177	0xbfabcad9	-1.3421279
178	0x3e30efc4	0.17278963
179	0xbf8f47df	-1.1193808
180	0x3d0d531c	0.034503087
181	0xbfad1133	-1.3520874
182	0xbc6a7811	-0.014310853
183	0xbf9c3159	-1.220256
184	0xbfa65bb6	-1.2996738
185	0x3bebfe09	0.007201914
186	0xbcd0ddc3	-0.02549637
187	0x3cfcf87a	0.030880202
188	0xbfaaf02f	-1.3354548
189	0xbfa06682	-1.2531283
190	0xbc5f7ba2	-0.013640316
191	0xbf9b20eb	-1.2119421
192	0xbfa91983	-1.321091
193	0x3cfebed1	0.031096848
194	0xbf908f4d	-1.1293732
195	0xbf0f6f0f	-0.56028837
196	0xbbbe6ead	-0.0058115334
197	0xbdb8c7f8	-0.09022516
198	0xbfa44961	-1.2834893
199	0xbbe7d6e0	-0.0070751756
200	0xbf9ef512	-1.241854
201	0xbf29b23c	-0.6628759
202	0x3cfd3f6c	0.030914031
203	0xbfa30d92	-1.2738516
204	0xbfa39516	-1.2779872
205	0xbf981d5b	-1.1883959
206	0xbf3e37df	-0.74304
207	0xbcf76df0	-0.03020379
208	0xbf9b6f45	-1.2143332
209	0xbf67632a	-0.9038569
210	0xc025e721	-2.592232
211	0xbf944da5	-1.1586195
212	0xbcb5cd9b	-0.022192767
213	0xbfc588e7	-1.5432404
214	0x3cdd2cb0	0.026998848
215	0x3c219f87	0.009864694
216	0xbf970341	-1.1797868
217	0x3b264bc4	0.002537475
218	0x3c378923	0.01120213
219	0xbf969980	-1.1765594
220	0xbf9d71c0	-1.2300339
221	0xbfa66e1a	-1.300235
222	0xbe458212	-0.19287899
223	0xbf9a7613	-1.2067283
224	0x4062ae40	3.5418854
225	0xbf9e5e9a	-1.237262
226	0xbfa8b77c	-1.3180995
227	0xbfa56f8e	-1.2924669
228	0x3c1c3f88	0.009536631
229	0xbf81176f	-1.0085276
230	0xbc8aece0	-0.016958654
231	0xbf98ea7d	-1.194656
232	0xbf91d3a6	-1.1392715
233	0xbb0311ef	-0.0019999703
234	0xbf918833	-1.136969
235	0xbc7e75de	-0.015531031
236	0xc08423a9	-4.129353
237	0xbceb184a	-0.028698105
238	0x3d6bc558	0.05756125
239	0xbf22a5f7	-0.6353449
240	0xbfa8ad27	-1.3177842
241	0xbf3f1d74	-0.74654317
242	0xbfb1100f	-1.3833026
243	0xbf9e332f	-1.235937
244	0xbf94ce8e	-1.1625535
245	0x3cfa08d9	0.030521797
246	0xbea24c74	-0.31698954
247	0xbf937f91	-1.1523305
248	0xbce65afd	-0.028119558
249	0xbbc976aa	-0.006148179
250	0xbf90c0d6	-1.1308849
251	0xbf6fb2f4	-0.93632436
252	0x3af05598	0.0018336056
253	0xbce4e288	-0.02794005
254	0xbf9d5d6c	-1.2294135
255	0x3d1ad032	0.037796207
