save_mode/SAC_v_0_target_qf1_network.pth (torch, 329559 bytes, 5 tensors)

fc0.weight f4 [256, 61]
0.03404509 -0.05909024 0.014217491 -0.031383555 -0.023868145 -0.27774745 -0.59713113 -0.46003246
-0.014863643 -0.057476442 0.026398364 -0.016536767 0.029681094 0.20381758 0.623196 0.40768042
-0.05969225 -0.028047925 -0.042751845 -0.009603901 -0.040882494 2.6490033 2.5157876 1.948551
-0.00079579843 -0.019569902 0.05763663 -0.02823307 -0.024394527 -0.3095245 -0.23285781 -0.7339496
-0.043384403 -0.0482921 0.020600315 0.04703966 -0.024586009 0.09887975 0.12618116 0.09402594
0.05653022 0.0453968 -0.02937413 0.027785292 -0.0027609782 -0.1681398 -0.19319388 -0.4853948
-3.1232703 -3.5764837 -6.5469394 7.2723017 0.72581047 0.09875122 -0.2643716 0.39757305
0.75692666 -0.62888247 2.370405 -0.047580644 -2.4658222 0.044280708 0.054727178 0.04738835
0.03145601 -0.036602132 1.5417391 0.54572797 0.014135608 -0.054116227 -0.04682508 -0.021971598
0.054637022 -0.010583467 0.31999287 1.2413595 2.2176528 0.02121052 0.00021644103 0.05748836
-0.01560628 -0.056416225 4.383491 4.0247145 4.1401267 0.053377874 -0.06222023 0.024844917
-0.05446566 -0.012902835 -0.48834425 0.082270175 -0.6955118 0.038937144 0.02366288 -0.020859597
0.056063067 -0.013630198 -0.7074255 -0.35803992 -1.2329512 -0.013707871 -0.005017366 0.0033764897
-0.04707915 0.04712758 -0.31714082 0.08367909 -0.61774236 13.672045 -0.41659766 1.1841115
-3.0440612 2.9785721 1.2971945 -1.6720979 1.5126109 2.126052 -1.7275615 6.2211046
2.539294 -4.6211886 -0.016604567 0.036415868 -0.044773936 -0.027616536 0.036930703 0.028318007
0.5862897 0.45196158 0.022106826 -0.0012321527 0.043949157 0.011126987 0.009161709 -0.3205392
-0.3015849 -0.544185 -0.052592583 -0.025983367 -0.05723877 0.011569366 -0.00053287414 1.668419
1.8137114 1.8567698 -0.005096807 -0.023793267 -0.052550115 0.002393478 0.038452856 0.2524289
-0.3039691 -1.2281787 -0.053117104 0.053121574 -0.011457047 0.05515335 0.036455356 0.431994
-0.14461741 -0.84292376 0.03304522 -0.024650456 0.055992287 -0.056519043 -0.012156473 0.33970207
-0.19055177 -1.1021982 -1.4522923 -2.5367522 -3.634194 4.662852 -1.6992227 3.4008772
-5.5322223 -2.07627 5.927711 -4.459337 4.486422 4.438452 -6.7331853 -0.061039314
-0.0005035142 0.04329872 -0.054132618 -0.020699035 -0.35121349 -1.4361384 -1.8800626 0.024965988
0.010848336 -0.02041666 0.04726616 0.029380836 0.14787251 1.355375 1.8432043 -0.020870399
0.02504273 0.02846553 -0.014553699 -0.017196886 3.8855066 1.9249637 1.743379 -0.055610072
-0.05597962 -0.023067204 0.013060043 -0.033695657 -0.5143584 -0.6475447 -0.53807443 -0.024172502
-0.013082953 -0.016800143 0.042010512 -0.036732513 0.52000713 0.24133603 0.53926307 0.042950775
-0.049451414 0.009114397 0.044941574 -0.01755526 -0.47920632 -0.6314773 -0.542709 -0.7272891
-0.97880244 -4.6359463 4.2235646 0.89497465 -0.5279375 0.012437418 1.052819 -0.16040707
-0.15532935 4.138674 -1.0790229 -0.9016765 -0.008764405 -0.0319254 0.02537875 0.023434145
-0.017247923 0.004194234 -0.2434051 -0.17704748 -0.054181047 -0.04703966 -0.011121958 -0.052386202
00000000: dd72 0b3d 9c08 72bd 7bf0 683c 0b8c 00bd
00000010: 2187 c3bc ea34 8ebe 96dd 18bf 6089 ebbe
00000020: a386 73bc 6b6c 6bbd 6241 d83c 1d78 87bc
00000030: c425 f33c 8eb5 503e c689 1f3f 7dbb d03e
00000040: dc7f 74bd c3c4 e5bc 8f1c 2fbd ae59 1dbc
00000050: 6774 27bd 4589 2940 aa02 2140 1f6a f93f
00000060: 219d 50ba 0f51 a0bc 6314 6c3d 0a49 e7bc
00000070: 08d7 c7bc ff79 9ebe 4772 6ebe 1fe4 3bbf
00000080: d8b3 31bd f0cd 45bd fec1 a83c a9ac 403d
00000090: 9968 c9bc 7781 ca3d a235 013e ac90 c03d
000000a0: 3b8c 673d fff1 393d 04a2 f0bc fb9d e33c
000000b0: 87f1 34bb d72c 2cbe 9ed4 45be ab85 f8be
000000c0: a9e3 47c0 1ce5 64c0 8780 d1c0 b2b6 e840
000000d0: b7ce 393f 143e ca3d b75b 87be b28e cb3e
000000e0: f2c5 413f 71fe 20bf b7b4 1740 ece3 42bd
000000f0: 08d0 1dc0 b05f 353d 9b29 603d 491a 423d
00000100: 04d8 003d 1eec 15bd b557 c53f d4b4 0b3f
00000110: 0a99 673c faa8 5dbd a8cb 3fbd c8fd b3bc
00000120: 12cb 5f3d 4766 2dbc 1bd6 a33e dee4 9e3f
00000130: 06ee 0d40 afc1 ad3c 72f4 6239 ea78 6b3d
00000140: 7cb1 7fbc b314 67bd 8f45 8c40 76ca 8040
00000150: eb7b 8440 c2a2 5a3d a4da 7ebd 9187 cb3c
00000160: 6217 5fbd 6a66 53bc 4208 fabe 447d a83d
00000170: 100d 32bf 8e7c 1f3d a8d8 c13c bfe1 aabc
00000180: 63a2 653d 3251 5fbc d619 35bf 0251 b7be
00000190: 58d1 9dbf fa96 60bc b768 a4bb 1948 5d3b
000001a0: 11d6 40bd d908 413d 4860 a2be f15f ab3d
000001b0: 5d24 1ebf b2c0 5a41 4a4c d5be f790 973f
000001c0: e6d1 42c0 eda0 3e40 780a a63f 4e07 d6bf
000001d0: 3c9d c13f 3c11 0840 bc20 ddbf 4a13 c740
000001e0: cb83 2240 c7e0 93c0 4d06 88bc ce28 153d
000001f0: e064 37bd 133c e2bc a644 173d 2afb e73c
00000200: 1517 163f 8267 e73e 6019 b53c 2f80 a1ba
00000210: 0804 343d f74d 363c fe1a 163c b71d a4be
00000220: 5669 9abe b54f 0bbf 526b 57bd 12db d4bc
00000230: 3373 6abd 708d 3d3c 94b0 0bba c18e d53f
00000240: b227 e83f a2aa ed3f 1e03 a7bb 19ea c2bc
00000250: ca3e 57bd e6db 1c3b be80 1d3d 5c3e 813e
00000260: d6a1 9bbe f634 9dbf 5291 59bd 0296 593d
00000270: 57b6 3bbc 7be8 613d 3652 153d 512e dd3e
00000280: 9616 14be dac9 57bf 6d5a 073d c1ef c9bc
00000290: 2b58 653d 8380 67bd f12b 47bc 6eed ad3e
000002a0: 0120 43be d514 8dbf b7e4 b9bf 265a 22c0
000002b0: a296 68c0 1536 9540 2180 d9bf f9a7 5940
000002c0: f707 b1c0 9ce1 04c0 cfaf bd40 e4b2 8ec0
000002d0: c590 8f40 cc07 8e40 4176 d7c0 5c04 7abd
000002e0: 44fe 03ba 005a 313d 2aba 5dbd 0691 a9bc
000002f0: 41d2 b3be 62d3 b7bf e4a5 f0bf 7985 cc3c
00000300: 38bd 313c d740 a7bc 299a 413d 14b0 f03c
00000310: e46b 173e ee7c ad3f 1eee eb3f 66f8 aabc
00000320: 6926 cd3c 8b30 e93c a372 6ebc 7ce0 8cbc
00000330: 24ac 7840 3665 f63f 0b27 df3f 63c7 63bd
00000340: e34a 65bd 6ff7 bcbc caf9 553c 7504 0abd
00000350: feac 03bf 7dc5 25bf 3fbf 09bf 6905 c6bc
00000360: e259 56bc 74a0 89bc 3713 2c3d d574 16bd
00000370: 301f 053f cb20 773e 250d 0a3f 27ed 2f3d
00000380: 918d 4abd 8d54 153c a814 383d 0cd0 8fbc
00000390: 885a f5be 7fa8 21bf faee 0abf 9e2f 3abf
000003a0: cc92 7abf ac59 94c0 7127 8740 0f1d 653f
000003b0: e926 07bf 50c6 4b3c c6c2 863f c041 24be
000003c0: a80e 1fbe 0470 8440 6c1d 8abf 45d4 66bf
000003d0: 9498 0fbc 35c4 02bd 19e7 cf3c f7f8 bf3c
000003e0: 844b 8dbc c96f 893b 303f 79be ef4b 35be
000003f0: f2ec 5dbd a9ac 40bd df38 36bc ea92 56bd

fc0.bias f4 [256]
-22.0184 22.437777 -12.288011 -15.63429 27.494707 -0.031815875 27.912607 27.908178
27.925383 27.6412 -10.03295 27.595373 -0.009712679 27.933588 -0.038405173 27.556143
-0.48030362 -24.248154 -22.628311 27.678818 27.631235 27.899757 27.594294 27.558353
27.677397 -0.03176223 -0.016503239 -23.027388 -21.77046 -22.258797 27.461706 27.626812
-21.65672 27.656466 -23.976349 -0.08000814 27.74323 27.625952 -22.041632 -21.636028
-22.061455 -15.009037 -21.590433 27.942366 -22.39279 27.546385 -0.50390416 -0.018956345
27.537004 27.934717 -22.482988 -22.360641 -24.835428 -0.007838531 -14.75307 -22.0277
-21.930113 -0.06168379 27.543892 27.858707 -21.174217 -21.370684 -23.316135 -0.009643389
-21.93213 -21.781038 -0.43099263 27.521595 27.490057 0.0 -22.166452 -0.84892
-0.033017654 -0.0060055 -21.312923 -2.4923587 27.552177 -22.077099 -21.783142 27.977007
-0.4739796 0.0 27.720663 -22.496733 -0.04283827 27.602678 -22.200665 25.181032
27.821556 -0.03176372 -0.023313073 -22.838043 -0.45356497 -0.03921282 -22.342718 -8.93794
-21.3114 -22.166876 -21.216827 27.630882 -21.975662 27.959593 -24.561674 -21.444166
-0.47469485 27.584461 27.495462 27.96897 -24.281778 0.0 -21.990833 -21.826206
-5.3272176 -0.02463779 27.797262 -18.441982 -5.435043 27.786217 25.775362 -0.4919325
-19.689112 -21.068146 28.009396 27.50644 27.5319 -22.123997 0.0 27.417542
27.60436 0.0 27.939262 27.532032 -21.319954 -1.1169087 -21.722452 -21.201849
27.593102 0.0 27.574684 -23.276125 27.834293 27.942635 -0.08938247 -0.049555723
27.487381 27.727169 27.615059 27.914087 27.503916 13.1865635 27.691412 -0.025367947
-21.99112 -0.01960939 27.788132 -22.622204 27.905039 28.03252 -21.522943 27.757551
27.650175 25.76381 27.518751 -0.023059383 -22.32238 -19.015331 22.910326 27.938057
-23.974243 -22.664764 0.0 -0.025896568 -22.006168 -21.683132 27.895618 -21.48938
27.869743 -21.869926 27.627222 -22.214664 27.887764 -22.954866 -0.062378928 -21.125366
-0.008462285 27.816856 -0.066518106 27.902699 -23.333605 0.0 -21.705456 21.24386
-21.580032 27.731344 27.700165 0.78580093 27.902058 -24.202368 -23.537813 -21.589043
21.097395 -22.313652 -22.134537 27.946243 27.849886 -0.05790485 -0.06848357 27.696022
-8.214864 27.701406 -0.047439758 27.473074 -22.0294 -24.379507 27.802565 -21.621315
-22.32421 27.603716 27.883827 -24.598574 -23.731827 27.655325 27.856148 -22.2172
-22.166698 -1.1041771 27.64686 27.946648 27.593796 27.713856 -19.826603 -21.949095
-24.239737 28.078184 27.567308 -22.171274 27.779943 24.943375 27.707512 -21.978296
-21.300425 27.906254 -22.065388 0.0 28.185133 27.725094 -21.5399 27.421425
0.0 27.741615 -0.031761486 -0.032806057 27.640411 -24.590899 27.619076 -21.884455
00000000: af25 b0c1 9180 b341 b19b 44c1 0d26 7ac1
00000010: 29f5 db41 5d51 02bd 054d df41 f343 df41
00000020: 2f67 df41 2d21 dd41 f786 20c1 53c3 dc41
00000030: ee21 1fbc fd77 df41 be4e 1dbd fb72 dc41
00000040: 5bea f5be 38fc c1c1 c806 b5c1 386e dd41
00000050: c50c dd41 b432 df41 1dc1 dc41 8277 dc41
00000060: 4f6b dd41 1d19 02bd cd31 87bc 1738 b8c1
00000070: e729 aec1 0412 b2c1 93b1 db41 b603 dd41
00000080: f640 adc1 7140 dd41 90cf bfc1 4fdb a3bd
00000090: 23f2 dd41 f301 dd41 4355 b0c1 9616 adc1
000000a0: dc7d b0c1 0425 70c1 35b9 acc1 f789 df41
000000b0: 6f24 b3c1 ff5e dc41 ddff 00bf 564a 9bbc
000000c0: c94b dc41 4d7a df41 29dd b3c1 98e2 b2c1
000000d0: f5ae c6c1 2f6d 00bc 930c 6cc1 bb38 b0c1
000000e0: df70 afc1 24a8 7cbd e459 dc41 a2de de41
000000f0: cc64 a9c1 29f7 aac1 7287 bac1 4eff 1dbc
00000100: 0175 afc1 913f aec1 11ab dcbe 3a2c dc41
00000110: a3eb db41 0000 0000 e554 b1c1 d252 59bf
00000120: 853d 07bd c9c9 c4bb de80 aac1 ce82 1fc0
00000130: dc6a dc41 e69d b0c1 e043 aec1 e9d0 df41
00000140: 74ad f2be 0000 0000 ebc3 dd41 4ff9 b3c1
00000150: 2f77 2fbd 49d2 dc41 f69a b1c1 c172 c941
00000160: 8c92 de41 ad1a 02bd 0ffb bebc 50b4 b6c1
00000170: ab39 e8be 9f9d 20bd e3bd b2c1 cd01 0fc1
00000180: bf7d aac1 c355 b1c1 10bc a9c1 0c0c dd41
00000190: 28ce afc1 3fad df41 4f7e c4c1 a78d abc1
000001a0: 340b f3be faac dc41 b5f6 db41 73c0 df41
000001b0: 1541 c2c1 0000 0000 3aed afc1 129c aec1
000001c0: 9178 aac0 31d5 c9bc cb60 de41 2e89 93c1
000001d0: dfeb adc0 2c4a de41 f133 ce41 94de fbbe
000001e0: 4d83 9dc1 908b a8c1 3e13 e041 300d dc41
000001f0: 5541 dc41 f2fd b0c1 0000 0000 2057 db41
00000200: bbd5 dc41 0000 0000 9c83 df41 9a41 dc41
00000210: 448f aac1 ddf6 8ebf 95c7 adc1 639d a9c1
00000220: acbe dc41 0000 0000 f498 dc41 8135 bac1
00000230: a2ac de41 848a df41 280e b7bd f1fa 4abd
00000240: 28e6 db41 3ed1 dd41 a4eb dc41 0d50 df41
00000250: 0508 dc41 2afc 5241 0388 dd41 71d0 cfbc
00000260: d0ed afc1 dfa3 a0bc 184e de41 46fa b4c1
00000270: 853d df41 9a42 e041 fd2e acc1 770f de41
00000280: 8f33 dd41 481c ce41 6726 dc41 08e7 bcbc
00000290: 3c94 b2c1 661f 98c1 5948 b741 2481 df41
000002a0: 40cb bfc1 7051 b5c1 0000 0000 0a25 d4bc
000002b0: a20c b0c1 0e77 adc1 3a2a df41 40ea abc1
000002c0: 3cf5 de41 9cf5 aec1 8d04 dd41 a2b7 b1c1
000002d0: 241a df41 91a3 b7c1 0c81 7fbd c000 a9c1
000002e0: 65a5 0abc ec88 de41 a53a 88bd ba38 df41
000002f0: 39ab bac1 0000 0000 c6a4 adc1 6df3 a941
00000300: e8a3 acc1 cbd9 dd41 f099 dd41 402a 493f
00000310: 6a37 df41 739e c1c1 714d bcc1 5cb6 acc1
00000320: 77c7 a841 5c82 b2c1 8813 b1c1 e891 df41
00000330: 91cc de41 a32d 6dbd 1d41 8cbd 7491 dd41
00000340: 1570 03c1 7b9c dd41 3150 42bd dbc8 db41
00000350: 363c b0c1 3b09 c3c1 a76b de41 74f8 acc1
00000360: fb97 b2c1 69d4 dc41 1412 df41 e1c9 c4c1
00000370: c8da bdc1 1b3e dd41 64d9 de41 d3bc b1c1
00000380: 6655 b1c1 ad55 8dbf c52c dd41 bc92 df41
00000390: 18c0 dc41 fab5 dd41 e29c 9ec1 bf97 afc1
000003a0: fbea c1c1 1fa0 e041 d989 dc41 c55e b1c1
000003b0: 533d de41 088c c741 fca8 dd41 8dd3 afc1
000003c0: 4567 aac1 0240 df41 ea85 b0c1 0000 0000
000003d0: 277b e141 fecc dd41 b751 acc1 145f db41
000003e0: 0000 0000 d4ee dd41 5518 02bd a55f 06bd
000003f0: 901f dd41 29ba c4c1 def3 dc41 5d13 afc1

fc1.weight f4 [256, 256]
-0.0112944385 0.022375047 3.289063e-05 0.0211606 0.014534513 -0.006958244 0.008026426 0.03803339
0.0078112427 -0.050799973 -0.058344435 0.042124502 -0.018461999 0.026875947 -0.023527654 0.022497982
0.03455843 -0.0013738535 -0.013930643 0.0545424 -0.03936779 -0.0063080867 -0.04785252 -0.08115553
-0.023891242 -0.004169582 0.007855807 -0.010213173 0.03119021 -0.05144892 0.04089218 -0.0057990253
-0.07272147 -0.020416286 0.0147042 0.0020675615 -0.05234299 0.014591324 0.0066008014 -0.055894684
-0.0072172442 -0.04572016 0.0083987685 -0.027252201 0.016725266 0.024568498 -0.0028869864 -0.029781677
-0.056759693 0.013483048 0.043976724 -0.05518688 -0.02727567 0.03344159 0.034647092 -0.08072042
0.014543082 -0.002915671 -0.053503044 0.03153424 -0.05141986 -0.015833432 -0.05597366 -0.057299864
-0.040928688 -0.027282748 -0.020840598 0.046632856 -0.054217555 0.031785328 -0.0796222 -0.07846289
0.05011526 0.0028300823 0.05378393 -0.05912675 0.020463971 0.0390802 -0.035684966 0.01711307
-0.00563474 0.007791964 -0.0025364363 -0.001077646 0.03149475 -0.052269973 0.014432998 -0.05790336
-0.018063392 -0.020194633 0.029915787 -0.037531964 -0.045999557 0.013110707 -0.056295525 0.0064530936
-0.041685667 0.022801964 0.05089236 -0.05455283 -0.052656658 0.056814086 -0.00501066 -0.0025065872
-0.024890365 0.04535806 -0.025552351 0.009476682 -0.07188104 -0.04217815 -0.033394653 -0.03554266
-0.034837086 0.022393674 -0.057220142 0.009276447 -0.03742542 0.011691741 -0.011931838 0.013234758
-0.029159179 -0.0521679 -0.014430763 -0.06555251 0.017681548 -0.0805118 0.008468431 -0.033168156
-0.04714993 0.032739 -0.02753905 -0.06138651 0.05946575 0.01061867 0.01803955 0.0004305654
0.013278158 0.0103064915 -0.06744347 0.0384238 -0.017235259 -0.005273293 0.034790892 -0.051555462
-0.013711038 0.0016338091 0.030109502 0.027359864 -0.05599154 -0.023069069 -0.048383 0.0048279343
-0.0071198284 0.017702037 0.019614233 -0.05840106 -0.028984835 -0.058718458 -0.03329407 -0.04520309
-0.05243314 0.05242271 -0.012134866 0.009956314 -0.02786017 0.01358326 0.0016544611 -0.053146906
-0.01972748 0.010725773 -0.05123881 -0.037423186 -0.019566549 -0.06555251 -0.052190997 0.011145242
-0.0748568 -0.06250485 0.004149651 -0.015948543 0.049302403 -0.01451924 -0.012980321 -0.027492857
0.04669544 -0.020002408 -0.03683831 -0.02471863 -0.04950804 -0.060342684 -0.0117902765 -0.023674803
0.033935566 -0.022756144 0.003324336 0.039086904 -0.030976377 -0.0069389655 0.03406446 -0.042791333
0.010198271 -0.017233023 -0.0005064013 -0.047233377 -0.0004052567 0.008086403 -0.040109124 0.029510101
-0.03783893 -0.00042153156 -0.027921265 -0.058537405 -0.058771357 -0.024254085 0.016893275 -0.011003494
-0.021378903 0.032927502 0.018614735 0.040091988 -0.0227703 0.0070093735 -0.010440788 -0.06142451
-0.010512499 -0.0465576 -0.024372548 -0.051580794 0.00865395 0.020086598 -0.04241955 -0.07109426
0.021812156 0.006565877 -0.062004164 0.005322094 -0.07554822 0.023153631 0.023191629 0.007865492
-0.031852383 -0.033101846 0.01881888 -0.032158602 -0.0070043444 -0.008412737 0.034673173 -0.063052095
-0.056266468 -0.057182144 -0.026194591 -0.02811647 -0.025380611 -0.031220755 0.013934555 -0.053164788
00000000: 4f0c 39bc e04b b73c 0cf4 0938 ff58 ad3c
00000010: 2a22 6e3c fb01 e4bb 4581 033c e6c8 1b3d
00000020: 74f5 ff3b a213 50bd 93fa 6ebd be8a 2c3d
00000030: 9e3d 97bc f22a dc3c 11bd c0bc b04d b83c
00000040: 248d 0d3d e012 b4ba 5a3d 64bc da67 5f3d
00000050: 1f40 21bd 11b4 cebb 0101 44bd df34 a6bd
00000060: 91b7 c3bc fda0 88bb a5b5 003c 2755 27bc
00000070: 9c82 ff3c 1abc 52bd 8f7e 273d c005 bebb
00000080: feee 94bd 0e40 a7bc e3e9 703c ed7f 073b
00000090: 9a65 56bd 7310 6f3c 894b d83b d3f1 64bd
000000a0: a27e ecbb 1045 3bbd fd9a 093c 0240 dfbc
000000b0: 6d03 893c e043 c93c 9833 3dbb b4f8 f3bc
000000c0: da7c 68bd 01e8 5c3c f020 343d a30b 62bd
000000d0: 3a71 dfbc 0cfa 083d 1cea 0d3d bf50 a5bd
000000e0: 1b46 6e3c d814 3fbb 0226 5bbd 0c2a 013d
000000f0: a29d 52bd 1db5 81bc a344 65bd 43b3 6abd
00000100: d7a4 27bd 1280 dfbc e7b9 aabc 1802 3f3d
00000110: 3a13 5ebd 5531 023d f710 a3bd 27b1 a0bd
00000120: a945 4d3d e778 393b 8a4c 5c3d e42e 72bd
00000130: 0fa4 a73c 8f12 203d 662a 12bd b530 8c3c
00000140: a0a3 b8bb bb53 ff3b 573a 26bb cd3f 8dba
00000150: a400 013d 0a19 56bd 6278 6c3c 132c 6dbd
00000160: aef9 93bc 376f a5bc f411 f53c 1ebb 19bd
00000170: 086a 3cbd 4ace 563c 2396 66bd 7974 d33b
00000180: 97be 2abd 2fcb ba3c 8274 503d ca72 5fbd
00000190: 82ae 57bd e3b5 683d 7630 a4bb 8e45 24bb
000001a0: e1e6 cbbc 60c9 393d 2a53 d1bc 1644 1b3c
000001b0: 5e36 93bd ffc2 2cbd d5c8 08bd 2e95 11bd
000001c0: 55b1 0ebd f072 b73c ab5f 6abd 3dfc 173c
000001d0: 664b 19bd b78e 3f3c c17d 43bc 99d6 583c
000001e0: 3bdf eebc 02ae 55bd 026f 6cbc 6540 86bd
000001f0: e5d8 903c 5fe3 a4bd 2dbf 0a3c 55db 07bd
00000200: 4920 41bd 5419 063d 9399 e1bc 6c70 7bbd
00000210: 5c92 733d eef9 2d3c aec7 933c 82bd e139
00000220: a28c 593c 8fdc 283c cd1f 8abd 4662 1d3d
00000230: f530 8dbc 96cb acbb e580 0e3d d22b 53bd
00000240: 43a4 60bc 8925 d63a 34a8 f63c cb21 e03c
00000250: 6357 65bd 58fb bcbc 412d 46bd a633 9e3b
00000260: 734d e9bb dd03 913c 07ae a03c f335 6fbd
00000270: 9b71 edbc c482 70bd 5d5f 08bd e026 39bd
00000280: 22c4 56bd 32b9 563d 51d1 46bc cf1f 233c
00000290: 033b e4bc 528c 5e3c 81da d83a 92b0 59bd
000002a0: 869b a1bc 27bb 2f3c c9df 51bd 0e49 19bd
000002b0: 074a a0bc 6540 86bd 3ac6 55bd 889a 363c
000002c0: 864e 99bd 8b02 80bd ccf9 873b 85a6 82bc
000002d0: 51f1 493d 1be2 6dbc 6aab 54bc b338 e1bc
000002e0: b843 3f3d 17dc a3bc c5e3 16bd b97e cabc
000002f0: f1c8 4abd e429 77bd 012c 41bc a9f1 c1bc
00000300: 0500 0b3d 186b babc 1add 593b 9719 203d
00000310: 2cc2 fdbc 4360 e3bb 2d87 0b3d f745 2fbd
00000320: a616 273c 452c 8dbc 04c0 04ba c977 41bd
00000330: a278 d4b9 d57c 043c 7749 24bd 2bbf f13c
00000340: fefc 1abd 0201 ddb9 23bb e4bc ebc4 6fbd
00000350: 3cba 70bd 81b0 c6bc c463 8a3c 0048 34bc
00000360: cf22 afbc fdde 063d ee7d 983c 7f37 243d
00000370: c888 babc e3ae e53b d70f 2bbc 4498 7bbd
00000380: 9e3c 2cbc 2fb3 3ebd f0a8 c7bc 6246 53bd
00000390: 4cc9 0d3c a68c a43c 1fc0 2dbd de99 91bd
000003a0: 68af b23c 9126 d73b 14f8 7dbd f664 ae3b
000003b0: 06b9 9abd afac bd3c 5ffc bd3c 44de 003c
000003c0: a577 02bd cd95 07bd 0d2a 9a3c bdb8 03bd
000003d0: b384 e5bb 94d5 09bc 7505 0e3d 7521 81bd
000003e0: ab77 66bd d337 6abd 0a96 d6bc 8354 e6bc
000003f0: 00eb cfbc abc2 ffbc c34d 643c 52c3 59bd

fc1.bias f4 [256]
-0.072459206 -0.09418065 -15.51582 20.93298 26.836294 -1.0325218 27.881416 -0.052457727
-0.011645548 26.860193 26.911654 26.814081 -0.03295656 -19.244976 -0.06756715 26.933327
26.698116 26.744854 26.849106 26.892138 -0.02150631 -0.011341751 26.825459 26.73101
28.43939 26.81195 0.059605822 -8.689984 -0.009288369 28.151821 -0.03188591 26.757292
-20.88568 26.855703 -0.0061193076 0.0 26.901371 -25.394346 -0.116609894 26.848305
26.872355 -0.12512891 -13.489069 26.840448 -14.549556 27.918427 0.018947776 26.776434
26.724842 26.847954 -0.031450797 26.351381 -15.709797 -25.129534 20.836086 -12.744439
26.87918 26.788736 26.7411 19.520393 26.95743 -0.07014356 26.819147 0.05591331
20.207806 -15.503231 26.872501 25.291656 -2.5477197 -0.055239778 0.109582506 -9.795293
26.81695 25.751709 -0.012616732 -0.121268 -12.6513605 -23.010086 28.022276 -0.08267694
-21.694777 -14.037051 -12.344369 28.052477 -0.048418764 26.839733 4.793069 26.628756
-0.034351308 26.83602 26.89538 26.84446 -0.004246975 0.18991697 -0.042074587 -20.522139
26.81288 -0.024102839 26.82777 26.72918 26.911774 -0.023998903 26.73873 26.830692
0.08230888 -13.868822 26.853643 26.851467 27.347944 -11.541473 -12.83294 0.040394478
26.7028 20.11282 27.522758 26.433582 -15.256039 26.905174 26.834585 0.20217618
-19.831676 -0.0060055 26.751513 26.791704 -0.039123412 26.750656 26.878122 -22.35205
26.703342 19.40481 -0.0030873138 -0.0486922 26.637812 23.022291 22.325346 0.03521409
-0.017868932 26.867962 26.789555 26.710659 27.965359 26.83047 26.60835 26.841347
-0.01642985 26.865074 27.875675 -0.019327011 26.834984 26.838333 26.83341 27.26805
26.700232 26.725485 -0.008883243 0.00075161876 0.09813094 -0.04967046 0.001840563 26.765936
26.618761 27.880615 26.790985 -0.028035259 26.683414 26.833002 0.021233987 -0.013150195
27.561691 26.72952 26.873348 -0.057208966 26.849924 26.718143 -0.054591574 0.0
26.614508 -0.035579167 0.070079476 0.29031363 26.788294 -13.689722 26.820932 26.767254
26.822556 26.72773 26.802248 -0.0036043848 26.828224 26.779432 26.72389 -0.063545324
28.078533 26.78947 -0.0018763025 26.868076 26.610819 26.65194 28.09608 26.613743
22.06442 26.902819 19.440287 28.12986 -0.02313985 26.848717 21.32246 -11.139404
-0.028733378 -14.851871 -0.012558804 -0.00077452936 28.756657 26.84923 -0.011630647 26.6881
26.849218 -0.009021824 -7.157762 0.005190778 26.744207 -0.014132741 -25.374842 26.090456
-0.0061029163 23.48921 22.968122 -0.03176521 26.817747 27.94672 -0.008800169 -0.01888631
26.851852 0.022901058 27.764585 27.729353 -0.0765004 -26.066942 -0.10666187 -0.0206141
26.84504 26.812757 26.7765 0.05066064 26.894455 26.825706 26.830372 -0.03141131
28.086239 20.890636 28.07725 26.718504 26.75596 0.9986827 26.673962 26.835417
00000000: 7e65 94bd c9e1 c0bd cc40 78c1 be76 a741
00000010: bbb0 d641 ad29 84bf 240d df41 eadd 56bd
00000020: f8cc 3ebc ade1 d641 114b d741 3d83 d641
00000030: 75fd 06bd b6f5 99c1 a560 8abd 7477 d741
00000040: be95 d541 76f5 d541 f8ca d641 1923 d741
00000050: 002e b0bc c0d2 39bc 8a9a d641 1cd9 d541
00000060: df83 e341 e07e d641 3c25 743d 2d0a 0bc1
00000070: 3e2e 18bc ee36 e141 cd9a 02bd ef0e d641
00000080: df15 a7c1 7bd8 d641 7984 c8bb 0000 0000
00000090: 0236 d741 9f27 cbc1 2bd1 eebd 54c9 d641
000000a0: 95fa d641 cb21 00be 3ad3 57c1 3db9 d641
000000b0: fbca 68c1 f058 df41 5e38 9b3c 2336 d641
000000c0: 7acc d541 9cc8 d641 8dd2 00bd a1cf d241
000000d0: 545b 7bc1 4909 c9c1 4eb0 a641 39e9 4bc1
000000e0: 9008 d741 554f d641 c6ed d541 c429 9c41
000000f0: d1a8 d741 6da7 8fbd 9d8d d641 5b05 653d
00000100: 96a9 a141 3c0d 78c1 e2fa d641 5055 ca41
00000110: d70d 23c0 1b43 62bd cb6c e03d 85b9 1cc1
00000120: 1d89 d641 8003 ce41 69b6 4ebc 5b5b f8bd
00000130: f96b 4ac1 a814 b8c1 9f2d e041 8752 a9bd
00000140: e78e adc1 c397 60c1 8982 45c1 796b e041
00000150: c152 46bd c6b7 d641 d260 9940 b107 d541
00000160: f5b3 0cbd 2bb0 d641 bd29 d741 74c1 d641
00000170: 352a 8bbb 9879 423e 6756 2cbd 572d a4c1
00000180: c780 d641 5173 c5bc 469f d641 5cd5 d541
00000190: 504b d741 5999 c4bc ebe8 d541 42a5 d641
000001a0: 8f91 a83d b2e6 5dc1 43d4 d641 cecf d641
000001b0: 97c8 da41 e0a9 38c1 b953 4dc1 ae74 253d
000001c0: 569f d541 0ee7 a041 9c2e dc41 fa77 d341
000001d0: bc18 74c1 cc3d d741 3bad d641 4607 4f3e
000001e0: 46a7 9ec1 c9c9 c4bb 1903 d641 6955 d641
000001f0: df3f 20bd 5801 d641 6506 d741 00d1 b2c1
00000200: 72a0 d541 0d3d 9b41 8854 4abb 7971 47bd
00000210: 3d1a d541 a72d b841 4f9a b241 a63c 103d
00000220: de61 92bc 96f1 d641 0251 d641 6eaf d541
00000230: 0eb9 df41 cda4 d641 e7dd d441 14bb d641
00000240: e597 86bc aceb d641 6201 df41 ae53 9ebc
00000250: 0cae d641 e8b4 d641 d3aa d641 f724 da41
00000260: 139a d541 cbcd d541 068b 11bc 4808 453a
00000270: e0f8 c83d 4173 4bbd 0c3f f13a a320 d641
00000280: 39f3 d441 800b df41 f053 d641 33aa e5bc
00000290: a277 d541 fda9 d641 e6f2 ad3c ea73 57bc
000002a0: 587e dc41 0fd6 d541 9efc d641 f353 6abd
000002b0: a5cc d641 c2be d541 6a9b 5fbd 0000 0000
000002c0: 83ea d441 76bb 11bd d485 8f3d fda3 943e
000002d0: 6d4e d641 1a09 5bc1 4591 d641 5623 d641
000002e0: 9894 d641 64d2 d541 016b d641 8b37 6cbb
000002f0: 34a0 d641 473c d641 87ca d541 0d24 82bd
00000300: d6a0 e041 d650 d641 44ee f5ba d2f1 d641
00000310: f5e2 d441 2c37 d541 c6c4 e041 f2e8 d441
00000320: ef83 b041 f938 d741 b585 9b41 f409 e141
00000330: c88f bdbc 2cca d641 6694 aa41 003b 32c1
00000340: 4362 ebbc 43a1 6dc1 71c3 4dbc c909 4bba
00000350: a20d e641 39cb d641 788e 3ebc 3b81 d541
00000360: 33cb d641 46d0 13bc 630c e5c0 6717 aa3b
00000370: 23f4 d541 038d 67bc adff cac1 41b9 d041
00000380: f9fa c7bb e7e9 bb41 b7be b741 3d1c 02bd
00000390: bf8a d641 e292 df41 962e 10bc 76b7 9abc
000003a0: 98d0 d641 009b bb3c df1d de41 b7d5 dd41
000003b0: 3eac 9cbd 1989 d0c1 8a71 dabd e7de a8bc
000003c0: a4c2 d641 8780 d641 4636 d641 8881 4f3d
000003d0: d827 d741 0c9b d641 9aa4 d641 25a9 00bd
000003e0: 9eb0 e041 0620 a741 359e e041 7fbf d541
000003f0: 350c d641 aba9 7f3f 4664 d541 efae d641

last_fc.weight f4 [1, 256]
-0.025947604 0.010362185 0.00041107746 0.25582635 -0.6203107 -8.510311 -0.6876269 0.005730014
-0.008248826 -0.620598 -0.6618007 -0.58164644 -0.030563243 1.6943351 -0.025552351 -0.6544439
-1.7627116 -0.5127758 -0.61200947 -0.6339503 0.0054893605 0.011105381 -0.5937431 -0.46122274
-0.83138996 -0.59567267 -0.009836546 -0.58193856 -1.5414848 -0.60573655 0.03333207 -0.56187904
0.40193534 -0.60896546 -0.0035458046 -0.0006427121 -0.63541883 0.60085654 0.00030019175 -0.6073593
-0.63303834 -0.013127284 -0.0076317764 -0.5866957 0.024423586 -0.26142743 -0.0028270092 -0.41715434
-0.4070672 -0.6123133 0.00016086429 -1.3831033 0.829012 0.12717706 -0.1861261 0.027295787
-0.6077864 -0.56704587 -0.41782606 1.5144958 -0.68116385 -0.018327516 -0.5942823 -0.028576544
0.95384806 0.025898803 -0.59627444 -3.4621031 -8.264835 -0.007716341 -0.011506594 -3.5131729
-0.57079595 -0.39710736 0.0012706162 -3.6731994 -0.116065994 0.073307075 -0.2619683 -0.021799117
-0.11098321 -0.21982065 -2.009324 -0.5124626 -0.015102062 -0.6158902 -5.323658 -0.29873616
-0.0030341353 -0.60615325 -0.61139524 -0.6115794 0.025057632 -0.0142098535 0.017113814 -0.70534414
-0.58673364 0.0163017 -0.5587702 -0.39791664 -0.63182217 0.035052408 -0.37596905 -0.5956462
-0.013754624 -4.634909 -0.6108242 -0.6299356 -2.5913796 0.002082183 -0.03131724 0.012830006
-0.38455707 0.10892833 -0.36532444 -0.56309944 -0.05826918 -0.63893116 -0.60376716 -5.5032554
0.123436116 -0.0045718206 -0.3767638 -0.5457291 -0.031571496 -0.41193545 -0.6202322 -0.67671
-0.38332823 0.30407038 0.013214828 -0.014479565 -0.32187587 -0.10892088 0.7630892 -0.015963444
0.022300169 -0.60123837 -0.5391373 -0.40449145 -3.1105452 -0.6007351 -0.29019308 -0.59427595
-0.03141727 -0.62877804 -0.68200266 0.013555506 -0.60418314 -0.60234594 -0.6066543 -0.12226218
-0.40088004 -0.4075423 -0.019078534 -0.015037615 -0.03946986 -0.0122043425 -0.008116205 -0.58642715
-0.33196613 -0.64575094 -0.57430947 -0.0062629175 -0.40859902 -0.58707386 -0.026628587 -0.01103162
-2.4910889 -0.4719427 -0.6200197 0.022505432 -0.59608805 -0.4112452 -0.0069532148 -0.002085117
-0.36470878 -0.021131916 -0.005268264 -0.01213766 -0.56082964 -2.4571679 -0.5746653 -0.53808993
-0.58393866 -0.39757445 -0.5679805 -0.030120306 -0.59527504 -0.52430433 -0.3943612 -0.009764647
-0.5337896 -0.58911014 0.024558442 -0.63964766 -0.31206718 -0.3002904 -0.54139686 -0.32175106
-0.06344697 -0.61446136 0.3435108 -0.58643174 0.02740941 -0.6143376 -0.44049364 0.007817018
0.019001793 -3.2842906 0.012265065 0.00551581 -1.7125368 -0.61448765 0.009011207 -0.33929434
-0.617405 0.0083671035 -2.3713372 -0.0024857721 -0.54061365 0.0054311524 0.6932405 -2.704265
0.023154005 -0.0068635284 -0.3012332 -0.029124534 -0.59439254 -0.20627365 -0.0015076613 -0.015916878
-0.6012624 -0.0045504933 -2.616821 -3.1359863 0.00395752 0.42784742 0.023812639 0.030242868
-0.61312795 -0.44292507 -0.5667925 0.02566858 -0.636667 -0.6133508 -0.6055539 0.0029009562
-0.48864558 0.64516723 -0.5223838 -0.38471472 -0.5235019 0.00053154706 -0.3492838 -0.6113748
00000000: 1290 d4bc 27c6 293c e285 d739 acfb 823e
00000010: afcc 1ebf 3c2a 08c1 5108 30bf d7c2 bb3b
00000020: 1526 07bc 83df 1ebf c56b 29bf c8e6 14bf
00000030: c45f fabc f9df d83f 2a53 d1bc a389 27bf
00000040: 89a0 e1bf 4645 03bf a7ac 1cbf 914a 22bf
00000050: 18e0 b33b 58f3 353c 8cff 17bf 6325 ecbe
00000060: f9d5 54bf 017e 18bf 7729 21bc edf9 14bf
00000070: 604f c5bf 8d11 1bbf 3587 083d 4ed7 0fbf
00000080: 78ca cd3e 29e5 1bbf bb60 68bb ae7b 28ba
00000090: cfaa 22bf bcd1 193f 0e63 9d39 e67b 1bbf
000000a0: cd0e 22bf d213 57bc fb13 fabb b031 16bf
000000b0: f913 c83c d1d9 85be 5845 39bb 4195 d5be
000000c0: 1d6b d0be 90c0 1cbf aead 2839 8709 b1bf
000000d0: 213a 543f b43a 023e d797 3ebe 6a9b df3c
000000e0: e497 1bbf eb29 11bf 4ced d5be 00db c13f
000000f0: c160 2ebf 9623 96bc e322 18bf 5b19 eabc
00000100: 632f 743f ba29 d43c 71a5 18bf 1993 5dc0
00000110: c43c 04c1 5cd9 fcbb 2786 3cbc d3d7 60c0
00000120: af1f 12bf a851 cbbe ce8a a63a b315 6bc0
00000130: 02b4 edbd 0522 963d b620 86be 1094 b2bc
00000140: 2a4b e3bd aa18 61be c498 00c0 c030 03bf
00000150: a46e 77bc fbaa 1dbf 685b aac0 f2f3 98be
00000160: 58d8 46bb dc2c 1bbf 6684 1cbf 7890 1cbf
00000170: aa45 cd3c 72d0 68bc 4532 8c3c 6f91 34bf
00000180: 2d34 16bf 258b 853c 900b 0fbf bbbb cbbe
00000190: 19bf 21bf 1d93 0f3d 047f c0be 457c 18bf
000001a0: 135b 61bc 2d51 94c0 fa5e 1cbf 7643 21bf
000001b0: 2ad9 25c0 3c75 083b 8246 00bd f234 523c
000001c0: aae4 c4be d115 df3d ce0b bbbe 4927 10bf
000001d0: aaab 6ebd fe90 23bf 7c90 1abf ab1a b0c0
000001e0: 13cc fc3d 36cf 95bb 2fe7 c0be e7b4 0bbf
000001f0: 1d51 01bd 34e9 d2be 8ac7 1ebf de3c 2dbf
00000200: 9943 c4be 1daf 9b3e 0283 583c b33b 6dbc
00000210: eacc a4be e911 dfbd d059 433f c5c5 82bc
00000220: d8ae b63c c2ea 19bf e704 0abf 8119 cfbe
00000230: 2c13 47c0 c7c9 19bf 3094 94be 7822 18bf
00000240: 65af 00bd 99f7 20bf ba97 2ebf ea17 5e3c
00000250: bfab 1abf 5833 1abf b24d 1bbf 9864 fabd
00000260: 2640 cdbe 62a9 d0be 964a 9cbc 5460 76bc
00000270: 26ab 21bd b9f4 47bc d5f9 04bc 1720 16bf
00000280: 77f7 a9be ef4f 25bf f205 13bf 2939 cdbb
00000290: e433 d1be 794a 16bf 3224 dabc f8bd 34bc
000002a0: 006e 1fc0 79a2 f1be 9cb9 1ebf 505d b83c
000002b0: 3a99 18bf bb8e d2be cbd7 e3bb 75a6 08bb
000002c0: 1cbb babe d71c adbc 67a1 acbb 09dd 46bc
000002d0: 8892 0fbf 3d42 1dc0 441d 13bf 43c0 09bf
000002e0: 017d 15bf e18e cbbe 2c67 11bf dcbe f6bc
000002f0: f263 18bf cf38 06bf b6e9 c9be e6fb 1fbc
00000300: 6fa6 08bf eccf 16bf c92e c93c f3bf 23bf
00000310: 45c7 9fbe aabf 99be fc98 0abf 8ebc a4be
00000320: 7cf0 81bd 574d 1dbf a6e0 af3e 6420 16bf
00000330: b389 e03c 3b45 1dbf 6288 e1be f312 003c
00000340: a6a9 9b3c d131 52c0 69f3 483c f8bd b43b
00000350: 6834 dbbf 104f 1dbf bea3 133c fdb7 adbe
00000360: 410e 1ebf 2d16 093c fdc3 17c0 56e8 22bb
00000370: a865 0abf cff7 b13b 3678 313f ae12 2dc0
00000380: 78ad bd3c 73e7 e0bb 3d3b 9abe 9396 eebc
00000390: 1c2a 18bf 6639 53be b89c c5ba 1d64 82bc
000003a0: 55ec 19bf 4e1c 95bb ff79 27c0 00b4 48c0
000003b0: 15ae 813b d10e db3e b912 c33c e4bf f73c
000003c0: f4f5 1cbf 13c7 e2be 5019 11bf ea46 d23c
000003d0: 9cfc 22bf 8f04 1dbf 9505 1bbf f81d 3e3b
000003e0: c12f fabe ae29 253f f2ba 05bf 54f9 c4be
000003f0: 3804 06bf 8557 0b3a 54d5 b2be 0f83 1cbf
