save_mode/SAC_v_10_target_qf2_network.pth (torch, 329559 bytes, 5 tensors)

fc0.weight f4 [256, 61]
-0.056469124 -0.048130427 0.014146338 0.058964327 0.044268787 -0.08250856 -0.06271645 0.5083387
-0.023273215 0.039167367 0.05118517 0.04988504 -0.035130635 -0.1982825 -0.13598366 0.8045621
-0.035731904 0.00010846644 0.046597093 0.060306177 0.021892993 0.7540531 0.8809992 0.33940405
-0.051416136 -0.018209796 -0.01815317 -0.038958006 0.022806808 -0.23693615 0.0068584057 0.21315683
-0.01208327 -0.00067043066 -0.011134065 0.013298088 -0.03281872 -0.5161231 -0.49845922 -0.38069227
-0.060998335 0.055134725 -0.01080121 0.054733884 -0.05392102 -0.22010975 -0.113686286 0.07785193
2.5371816 4.857497 6.2038007 -8.294782 -0.1347558 0.31586024 0.12324687 -0.96309876
0.3512118 -0.6569809 0.20052361 0.064971365 0.44370037 0.0076542213 0.05553408 0.015622112
0.0063625695 -0.031887397 -0.6556462 -1.2267802 -0.95740384 -0.014346385 0.04596156 0.043272644
-0.0023545022 -0.01808537 0.013745067 -0.012687068 -0.29306492 -0.040220138 -0.04577976 -0.015267465
-0.013045514 -0.045615107 0.6240405 0.9066589 0.41369805 -0.03751632 -0.029572314 0.050254583
0.018699672 -0.023283273 -0.007007731 0.22368833 0.49809495 0.02998433 0.0026006042 0.034268606
0.008390387 0.059813693 -0.20744637 -0.47658092 -0.32952464 -0.011129223 0.018829683 -0.023657665
0.0033739752 0.05500508 -0.031080151 0.015667897 0.34074438 0.50038326 5.559402 7.6081257
-9.612374 -0.30669266 -1.6985434 1.2708387 2.283037 -1.8817225 1.0346063 0.90705734
-0.8016849 1.4091924 -0.035155967 -0.0075679813 -0.0045919367 -0.05486427 0.04483801 0.59103274
0.46041375 0.26317397 -0.03044217 0.004744953 -0.046536744 0.055151116 -0.05791528 -0.0073986063
0.19241163 0.8382352 -0.0033074324 0.05952759 -0.0033647553 0.0499208 -0.013318949 0.65179616
0.9372531 0.35934907 0.057638865 0.05388824 -0.02994 0.05606381 0.004412378 -0.10476305
0.25955316 0.5439095 0.026459085 -0.012253144 0.051948853 0.027145285 -0.019880963 -0.32071924
-0.2590348 -0.3549167 -0.013804542 -0.02536534 -0.008236532 0.007883187 0.0062784706 -0.11702359
0.055366397 0.4440923 0.40218318 5.3342867 7.404545 -9.362206 -0.4165243 0.6038458
-0.3534271 -0.91968334 0.9418261 -0.5980872 -1.0137837 0.7674172 0.4021376 0.04643467
0.00096600945 -0.027074503 0.035351925 -0.05383385 0.3735322 0.2838581 -0.028454194 0.031692196
0.04893658 -0.026631938 -0.004779785 0.029001601 0.104723535 0.05740618 0.54462755 -0.0014143195
-0.05791081 0.0037811035 0.024960026 0.0069395243 0.41629314 0.80022055 0.18013845 0.05721269
0.029099202 0.024681002 0.029197548 -0.025208877 -0.008840184 0.2383528 0.4956044 -0.028237913
-0.0103219515 -0.041705783 0.047598455 -0.018197874 -0.29231408 -0.35585523 -0.29020652 0.010631896
0.025566507 -0.0032240788 -0.020805951 -0.03749024 -0.09688733 0.049651902 0.4407348 0.3963534
5.38821 7.4915657 -9.574678 -0.04752404 -0.11984608 0.13180183 -0.56517786 0.4515407
-0.20682883 -0.9937089 0.39816487 0.8358598 0.0071392925 0.045636714 -0.056652408 0.0038416858
0.059243724 4.1336575 3.524569 4.727225 -0.022844061 -0.016935 0.052454002 0.022971466
00000000: 2b4c 67bd 6924 45bd 0bc6 673c 9484 713d
00000010: 3053 353d 3ffa a8bd 7b71 80bd 7c22 023f
00000020: 78a7 bebc f66d 203d 8aa7 513d 4154 4c3d
00000030: 24e5 0fbd 910a 4bbe 4d3f 0bbe c8f7 4d3f
00000040: 9e5b 12bd 7a78 e338 98dc 3e3d 9c03 773d
00000050: ef58 b33c a009 413f 2a89 613f 5ec6 ad3e
00000060: ba99 52bd b62c 95bc f5b5 94bc 6e92 1fbd
00000070: 58d5 ba3c 649f 72be 7abc e03b c945 5a3e
00000080: e8f8 45bc d7bf 2fba a76b 36bc 39e0 593c
00000090: ec6c 06bd a520 04bf 0c36 ffbe 19ea c2be
000000a0: 64d9 79bd f3d4 613d 8ff7 30bc a330 603d
000000b0: 4adc 5cbd 7364 61be 5bd4 e8bd d570 9f3d
000000c0: 2f61 2240 9e70 9b40 8985 c640 6db7 04c1
000000d0: 6dfd 09be 6fb8 a13e db68 fc3d a48d 76bf
000000e0: 08d2 b33e e62f 28bf 1056 4d3e b50f 853d
000000f0: b22c e33e 43d0 fa3b b477 633d e3f3 7f3c
00000100: 1a7d d03b 5c9c 02bd 6ed8 27bf 2207 9dbf
00000110: 6b18 75bf 1a0d 6bbc 3042 3c3d a83e 313d
00000120: fe4d 1abb c527 94bc fd32 613c 6cdd 4fbc
00000130: 9b0c 96be dfbd 24bd 8f83 3bbd 6424 7abc
00000140: dabc 55bc e8d6 3abd 1ec1 1f3f cc1a 683f
00000150: 3bd0 d33e b6aa 19bd a341 f2bc c0d7 4d3d
00000160: 0e30 993c 90bc bebc 1ca1 e5bb 8e0e 653e
00000170: 4d06 ff3e b3a1 f53c e66e 2a3b 3d5d 0c3d
00000180: d577 093c 34ff 743d d26c 54be 6a02 f4be
00000190: 74b7 a8be 5857 36bc b540 9a3c b8cd c1bc
000001a0: e91d 5d3b 024d 613d cd9b febc f659 803c
000001b0: 0c76 ae3e 1e19 003f 9fe6 b140 c475 f340
000001c0: 49cc 19c1 d206 9dbe df69 d9bf d8aa a23f
000001d0: 471d 1240 48dc f0bf fb6d 843f e934 683f
000001e0: 393b 4dbf 6b60 b43f b4ff 0fbd d4fc f7bb
000001f0: f577 96bb 5bb9 60bd 10a8 373d ec4d 173f
00000200: 5abb eb3e bdbe 863e dc61 f9bc 8d7b 9b3b
00000210: 509d 3ebd 23e6 613d 9338 6dbd 0270 f2bb
00000220: 8e07 453e 9596 563f 82c1 58bb 34d3 733d
00000230: 3a83 5cbb c179 4c3d b937 5abc 1ddc 263f
00000240: d2ef 6f3f 9afc b73e bb16 6c3d eab9 5c3d
00000250: bb44 f5bc 2aa3 653d b695 903b 038e d6bd
00000260: 27e4 843e a73d 0b3f b9c0 d83c 69c1 48bc
00000270: 52c8 543d ca5f de3c 67dd a2bc 5035 a4be
00000280: 36a0 84be a4b7 b5be 722c 62bc f9ca cfbc
00000290: 85f2 06bc 7c28 013c a1bb cd3b 10aa efbd
000002a0: e0c7 623d 1160 e33e f4ea cd3e 7ab2 aa40
000002b0: 08f2 ec40 99cb 15c1 ac42 d5be a395 1a3f
000002c0: 66f4 b4be 5e70 6bbf 841b 713f 3e1c 19bf
000002d0: aac3 81bf 7475 443f fbe4 cd3e 4832 3e3d
000002e0: cc3b 7d3a 59cb ddbc 2ecd 103d e280 5cbd
000002f0: 9d3f bf3e d955 913e c518 e9bc adcf 013d
00000300: b971 483d 392b dabc be9f 9cbb c494 ed3c
00000310: 4b79 d63d be22 6b3d b66c 0b3f b060 b9ba
00000320: e333 6dbd 64cc 773b f878 cc3c f364 e33b
00000330: 6024 d53e 41db 4c3f 3776 383e db57 6a3d
00000340: 7361 ee3c d02f ca3c b22f ef3c d982 cebc
00000350: 6bd6 10bc c212 743e dcbf fd3e 3253 e7bc
00000360: 671d 29bc afd3 2abd 99f6 423d b513 95bc
00000370: 31aa 95be a832 b6be f395 94be 6731 2e3c
00000380: da70 d13c 114b 53bb 3e71 aabc 5e8f 19bd
00000390: dd6c c6bd cb5f 4b3d fea7 e13e d5ee ca3e
000003a0: 376c ac40 e8ba ef40 e231 19c1 91a8 42bd
000003b0: dd71 f5bd 0ff7 063e 7faf 10bf 5830 e73e
000003c0: f0ca 53be b563 7ebf 44dc cb3e e8fa 553f
000003d0: baf0 e93b 90ed 3a3d 5b0c 68bd cbc4 7b3b
000003e0: 8ca9 723d ec46 8440 8a92 6140 6d45 9740
000003f0: 7823 bbbc 45bb 8abc 02da 563d a82e bc3c

fc0.bias f4 [256]
24.320816 32.11616 32.282486 32.069088 -12.8173 22.797987 -12.14 31.959915
-2.9779701 31.853182 32.998093 -29.26003 -2.9656677 29.331806 -0.0060055 5.602222
-12.441743 32.010098 -0.034939904 33.33075 21.368237 32.330803 32.324593 -6.1645565
22.96736 33.124012 -9.422789 32.177776 -7.54648 25.188278 -0.005764473 31.985727
32.186604 24.16632 32.8499 -1.0147702 32.51938 32.16803 0.0 32.08788
30.709677 0.0 -23.5224 22.451994 -13.145937 32.06474 31.993347 -0.054915678
32.16937 0.0 32.002174 32.165623 -0.0069113984 -11.697876 31.983154 -0.007798111
33.395817 31.740135 6.7055287 -2.81699 -0.04004356 31.702549 0.0 -2.3184085
32.14821 31.961035 29.251316 21.274776 32.072575 24.714874 24.220108 25.033783
-16.644114 20.450802 33.23151 32.14059 17.921204 -0.014534886 21.233578 32.133404
0.0 31.912052 30.066137 23.992369 25.005936 21.032162 24.226593 32.527283
30.317144 20.934505 22.999403 11.954986 29.089954 22.460768 -0.008967062 32.09169
-28.905344 32.123363 32.000652 25.05896 -20.907469 31.38526 31.890354 0.0
25.588821 31.938627 32.0015 23.40109 -0.035635047 22.624418 32.20448 30.085972
27.971102 33.099014 -0.009397147 20.936794 21.408672 24.94757 0.21873285 -24.633226
-29.360788 32.159904 31.91658 -29.244036 -30.13363 32.149128 32.24357 -0.019774048
19.74737 22.856733 32.392536 -2.8057842 33.716885 32.115623 32.09035 -29.19775
2.8799322 32.131954 27.961184 31.898846 0.0 -0.04010391 32.17463 -0.02473018
33.87378 21.396465 2.3430607 -0.03664162 25.509094 24.177002 -13.073458 0.0
-10.974608 32.193317 26.919008 31.401361 -0.057082307 22.664473 0.0 -7.5896816
25.283646 25.33133 0.0 32.25743 21.946545 32.275787 32.124073 32.054337
32.281055 32.08881 32.016197 33.647022 26.481081 0.0 -0.0060055 28.991154
0.0 32.105648 -0.027010057 -0.037683956 23.760817 -13.609085 18.183277 -29.374134
0.0 32.188377 33.25753 31.926363 23.419783 26.772522 32.377678 32.07903
23.75128 0.0 33.279106 22.402784 -0.024244772 23.393843 32.167576 -0.012558804
23.056242 32.307938 33.590275 32.122868 32.2854 0.0 31.97503 31.963161
31.627493 32.239582 25.585007 17.774025 32.29539 32.246815 0.0 -28.852522
-0.030307315 32.19116 24.919342 32.160023 0.0 16.873375 -1.1305463 -0.026794363
0.0 -0.047850285 32.147507 31.990566 24.506592 -4.0255113 32.054665 24.966263
-2.0746968 32.0738 -0.04030582 25.065445 31.91022 31.851254 -29.24759 25.686478
-0.008542565 31.95124 23.237059 31.816214 -29.21973 0.0 29.882267 4.138521
32.142498 -0.012093515 31.672306 -11.112129 -29.438986 32.190357 29.165867 32.092094
00000000: 0891 c241 f376 0042 4421 0142 bf46 0042
00000010: a913 4dc1 4762 b641 713d 42c1 e8ad ff41
00000020: 1097 3ec0 51d3 fe41 0cfe 0342 8b14 eac1
00000030: 80cd 3dc0 8aa7 ea41 c9c9 c4bb 6745 b340
00000040: 6111 47c1 570a 0042 251d 0fbd b052 0542
00000050: 26f2 aa41 be52 0142 624c 0142 0c44 c5c0
00000060: 27bd b741 fd7e 0442 bec3 16c1 0bb6 0042
00000070: c47c f1c0 9881 c941 e8e3 bcbb c5e2 ff41
00000080: 15bf 0042 a054 c141 4c66 0342 fde3 81bf
00000090: d813 0242 10ac 0042 0000 0000 fd59 0042
000000a0: 6bad f541 0000 0000 e02d bcc1 af9d b341
000000b0: c255 52c1 4b42 0042 60f2 ff41 43ef 60bd
000000c0: 6fad 0042 0000 0000 3a02 0042 99a9 0042
000000d0: 0379 e2bb 802a 3bc1 80dd ff41 4c87 ffbb
000000e0: 5195 0542 cceb fd41 b193 d640 9049 34c0
000000f0: b704 24bd d29e fd41 0000 0000 ce60 14c0
00000100: c497 0042 33b0 ff41 b202 ea41 be32 aa41
00000110: 514a 0042 10b8 c541 c8c2 c141 3045 c841
00000120: 2527 85c1 3e9b a341 11ed 0442 f78f 0042
00000130: a05e 8f41 bb23 6ebc 5ede a941 9b88 0042
00000140: 0000 0000 e24b ff41 7387 f041 5ff0 bf41
00000150: 280c c841 de41 a841 10d0 c141 f01b 0242
00000160: 8389 f241 de79 a741 c7fe b741 9f47 3f41
00000170: 3ab8 e841 a7af b341 96ea 12bc e45d 0042
00000180: 253e e7c1 537e 0042 ab00 0042 c078 c841
00000190: 7f42 a7c1 0315 fb41 721f ff41 0000 0000
000001a0: e8b5 cc41 4f82 ff41 8901 0042 6f35 bb41
000001b0: 0ef6 11bd cffe b441 63d1 0042 12b0 f041
000001c0: d1c4 df41 6465 0442 7ef6 19bc 8e7e a741
000001d0: f644 ab41 a094 c741 81fb 5f3e d910 c5c1
000001e0: e5e2 eac1 bea3 0042 2855 ff41 c9f3 e9c1
000001f0: ad11 f1c1 b598 0042 6af9 0042 2ffd a1bc
00000200: 9dfa 9d41 97da b641 f591 0142 f891 33c0
00000210: 17de 0642 6676 0042 855c 0042 fe94 e9c1
00000220: cf50 3840 1f87 0042 81b0 df41 d630 ff41
00000230: 0000 0000 ff43 24bd d2b2 0042 f296 cabc
00000240: c07e 0742 f62b ab41 b5f4 1540 8615 16bd
00000250: a012 cc41 806a c141 e22c 51c1 0000 0000
00000260: ff97 2fc1 f5c5 0042 215a d741 fd35 fb41
00000270: 23cf 69bd d750 b541 0000 0000 acde f2c0
00000280: e844 ca41 90a6 ca41 0000 0000 9c07 0142
00000290: 8692 af41 681a 0142 0d7f 0042 a437 0042
000002a0: cd1f 0142 f15a 0042 9610 0042 8d96 0642
000002b0: 41d9 d341 0000 0000 c9c9 c4bb e2ed e741
000002c0: 0000 0000 2f6c 0042 3244 ddbc 7e5a 1abd
000002d0: 2716 be41 d0be 59c1 5a77 9141 3afe eac1
000002e0: 0000 0000 e6c0 0042 b607 0542 3169 ff41
000002f0: b75b bb41 202e d641 be82 0142 ed50 0042
00000300: 9f02 be41 0000 0000 ce1d 0542 e738 b341
00000310: f99c c6bc 9726 bb41 99ab 0042 71c3 4dbc
00000320: 2f73 b841 543b 0142 715c 0642 d17d 0042
00000330: 4024 0142 0000 0000 ddcc ff41 8eb4 ff41
00000340: 1b05 fd41 55f5 0042 18ae cc41 3431 8e41
00000350: 7b2e 0142 bdfc 0042 0000 0000 f7d1 e6c1
00000360: 0c47 f8bc bfc3 0042 d05a c741 dda3 0042
00000370: 0000 0000 acfc 8641 beb5 90bf da7f dbbc
00000380: 0000 0000 a9fe 43bd 0c97 0042 aeec ff41
00000390: 800d c441 fdd0 80c0 fa37 0042 e8ba c741
000003a0: d5c7 04c0 924b 0042 b717 25bd 0886 c841
000003b0: 2148 ff41 5ecf fe41 10fb e9c1 e87d cd41
000003c0: 1df6 0bbc 249c ff41 7fe5 b941 9b87 fe41
000003d0: 02c2 e9c1 0000 0000 e20e ef41 c46e 8440
000003e0: eb91 0042 e123 46bc e260 fd41 48cb 31c1
000003f0: 0b83 ebc1 edc2 0042 b253 e941 4e5e 0042

fc1.weight f4 [256, 256]
0.010664305 -0.09419555 0.014433557 -0.0029146466 0.03597181 -0.0035651296 0.043641444 -0.038987808
-0.06861917 -0.028494215 -0.045998067 -0.0038403822 0.016848944 -0.052744575 0.05785195 0.02489558
0.02188815 -0.012561039 -0.00034378935 -0.081475906 -0.014464105 -0.034555454 -0.0868448 0.01316137
-0.05764855 -0.0722938 0.035862286 -0.091391146 -0.039700087 0.033480335 -0.025348203 0.0074376888
-0.06388209 0.03737252 0.030214181 -0.060765132 0.011528573 0.005269195 0.031405162 -0.0017577218
0.03296252 0.031278875 -0.056206863 -0.0510898 -0.017671492 -0.07237129 0.018445978 -0.0328977
-0.06208463 0.00046103133 0.018868053 -0.03561344 -0.0153076975 -0.054677255 -0.047140244 -0.007541625
-0.0001731927 0.015005204 -0.057494324 0.045693334 -0.021461232 0.007421763 0.04689363 -0.013503538
-0.073847994 -0.071679875 0.045056313 -0.009856476 -0.07368706 0.05772529 0.007043273 -0.059101418
0.021196362 -0.03988635 0.031281106 -0.07602058 -0.020838363 -0.028848488 -0.02414419 -0.059046283
-0.009020147 -0.060942456 -0.030014507 0.015756318 0.032815743 -0.036054514 0.035944246 -0.091496944
-0.0028620735 0.01636205 -0.04381132 -0.006790791 0.02546667 -0.017705765 -0.038810484 0.015777923
0.006431673 -0.049622778 -0.06803355 -0.009629605 -0.05801661 -0.07963114 -0.024881052 -0.04851264
-0.032747198 -0.060104266 -0.033668835 0.05693255 -0.008386475 -0.060268924 -0.045809567 0.038791113
-0.0038221746 -0.090492606 0.00032779385 -0.025631325 0.049566153 0.015109885 0.019759145 -0.0453521
0.024770409 -0.074618384 0.0021273522 -0.06402961 -0.09378131 -0.0013465425 -0.08588516 -0.050455008
-0.04832563 -0.055293422 -0.021872506 0.014094928 -0.011094019 -0.015891919 -0.0207687 -0.03289174
0.034586 -0.06197734 -0.017065758 -0.0043052756 0.04898948 -0.036402453 -0.06350062 0.035711784
-0.06794266 -0.057205986 -0.06385974 -0.054256298 0.054127403 0.04127737 -0.070109285 -0.0030038673
0.0074389926 -0.08986825 0.0011846086 -0.018236991 0.02995006 -0.053923257 0.033050433 0.018457526
-0.054842662 0.02550206 -0.037266724 -0.0493255 0.031452283 0.0042852517 0.004737782 -0.06242065
-0.10484244 -0.03206398 0.0009536228 -0.046488315 -0.035508387 -0.05172608 -0.051875092 0.030548714
0.06162642 -0.033466924 -0.009865976 0.00063437683 -0.0361916 -0.0624132 -0.046865314 0.0016127845
0.01774488 0.003925598 -0.05144594 -0.08788341 -0.023932593 -0.008797933 -0.08139544 0.021583049
-0.049025986 -0.053457595 -0.05421532 0.01661276 -0.036023967 0.04374799 0.028315771 0.025909606
0.031749565 -0.051666476 0.0115768155 -0.03627803 -0.10835464 -0.01819117 -0.06520978 -0.0071988045
0.011982687 0.021510405 0.008744103 0.05712701 -0.08087241 -0.076160654 -0.037500672 -0.092031896
0.043501377 0.019536745 -0.0021146399 -0.07854932 0.016154924 0.0017670814 -0.054378487 -0.032213733
-0.04224297 0.03282245 -0.035300516 0.018789452 -0.01860058 -0.054379232 -0.038420074 0.058073234
-0.017110834 0.011835352 0.04475233 -0.0030589085 -0.013336645 -0.017998945 -0.06845675 -0.055594426
-0.05886151 0.019379908 -0.003812489 0.00056249026 -0.040104654 0.03401156 0.08149379 -0.060335234
0.023051558 -0.052898053 -0.08507752 0.030794209 -0.064718045 -0.058515053 0.05937113 -0.015382203
00000000: 56b9 2e3c 99e9 c0bd ba7a 6c3c a803 3fbb
00000010: 2d57 133d f3a4 69bb 5fc1 323d aeb1 1fbd
00000020: 3588 8cbd b36c e9bc 7868 3cbd ecae 7bbb
00000030: cc06 8a3c b20a 58bd 2bf6 6c3d d1f1 cb3c
00000040: c74e b33c d1cc 4dbc a03e b4b9 d7dc a6bd
00000050: dafa 6cbc 058a 0dbd b0db b1bd c9a2 573c
00000060: e320 6cbd c60e 94bd 55e4 123d 482b bbbd
00000070: 8f9c 22bd ad22 093d 09a7 cfbc dbb7 f33b
00000080: 9dd4 82bd ed13 193d bb83 f73c dce4 78bd
00000090: 57e2 3c3c 36a9 ac3b b3a2 003d 5b63 e6ba
000000a0: b503 073d 471e 003d 2b39 66bd 8a43 51bd
000000b0: cec3 90bc 6637 94bd 051c 973c bdbf 06bd
000000c0: 744c 7ebd 94b6 f139 2d91 9a3c 66df 11bd
000000d0: 23cd 7abc 42f5 5fbd 2116 41bd bc1f f7bb
000000e0: 109b 35b9 63d8 753c 2b7f 6bbd ef28 3b3d
000000f0: 77cf afbc 4332 f33b 8913 403d f23d 5dbc
00000100: 9e3d 97bd e6cc 92bd f88c 383d 0f7d 21bc
00000110: 3ee9 96bd 5b71 6c3d 42cb e63b 5414 72bd
00000120: fea3 ad3c df5f 23bd 9e20 003d aeb0 9bbd
00000130: 37b5 aabc aa53 ecbc 09ca c5bc 84da 71bd
00000140: 3dc9 13bc cc9e 79bd fce0 f5bc 6513 813c
00000150: cd69 063d e6ad 13bd 463a 133d c062 bbbd
00000160: a091 3bbb b509 863c 8073 33bd 4985 debb
00000170: 7a9f d03c ae0b 91bc bef7 1ebd b440 813c
00000180: c9c0 d23b 4141 4bbd 2d55 8bbd 7ec5 1dbc
00000190: d3a2 6dbd a715 a3bd 59d3 cbbc 31b5 46bd
000001a0: ed21 06bd e42f 76bd 55e8 09bd 1b32 693d
000001b0: 6d67 09bc 8cdc 76bd d0a2 3bbd 6ee3 1e3d
000001c0: 737d 7abb 3054 b9bd bfdb ab39 c9f8 d1bc
000001d0: e105 4b3d 738f 773c eedd a13c 20c3 39bd
000001e0: 50eb ca3c 86d1 98bd 0c6b 0b3b f521 83bd
000001f0: 6a10 c0bd 787e b0ba 8fe4 afbd e9a9 4ebd
00000200: 19f1 45bd 5b7b 62bd f82d b3bc 6aee 663c
00000210: b0c3 35bc c52f 82bc 1f23 aabc 7db9 06bd
00000220: 0daa 0d3d f4db 7dbd 7dcd 8bbc 4513 8dbb
00000230: 31a9 483d bd1a 15bd 9d0c 82bd 8546 123d
00000240: 8525 8bbd d350 6abd e5c8 82bd da3b 5ebd
00000250: b2b4 5d3d 7612 293d 7595 8fbd 88dc 44bb
00000260: cbc2 f33b d80c b8bd de44 9b3a be65 95bc
00000270: d459 f53c a2de 5cbd e45f 073d 3d34 973c
00000280: b3a2 60bd b2e9 d03c fea4 18bd 8909 4abd
00000290: 1cd4 003d 4c6b 8c3b 653f 9b3b ccac 7fbd
000002a0: a2b7 d6bd 8555 03bd 8bfc 793a 886a 3ebd
000002b0: 3e71 11bd bade 53bd fa7a 54bd 4c41 fa3c
000002c0: fc6b 7c3d 9d14 09bd e7a4 21bc 4f4c 263a
000002d0: a53d 14bd fca4 7fbd d8f5 3fbd 1164 d33a
000002e0: b65d 913c 4ea2 803b fab8 52bd 38fc b3bd
000002f0: 490e c4bc 3525 10bc a7b2 a6bd efce b03c
00000300: 79cf 48bd 5af6 5abd e210 5ebd 7c17 883c
00000310: de8d 13bd 1831 333d 7af6 e73c 6240 d43c
00000320: d50b 023d 3aa0 53bd afac 3d3c 4698 14bd
00000330: 0ae9 ddbd a605 95bc b58c 85bd f3e3 ebbb
00000340: 0853 443c 9736 b03c 6d43 0f3c 03fe 693d
00000350: 6fa0 a5bd 1efa 9bbd 4e9a 19bd 387b bcbd
00000360: 802e 323d 860b a03c c595 0abb 77de a0bd
00000370: 5557 843c 6a9d e73a fabb 5ebd 8cf2 03bd
00000380: f706 2dbd d570 063d 4697 10bd 56ec 993c
00000390: 3e60 98bc c2bc 5ebd 5e5e 1dbd 33de 6d3d
000003a0: 052c 8cbc 10e9 413c 384e 373d f877 48bb
000003b0: f281 5abc 8672 93bc 0d33 8cbd fbb6 63bd
000003c0: c418 71bd 9dc2 9e3c f4da 79bb 1574 133a
000003d0: c744 24bd b54f 0b3d 37e6 a63d 1422 77bd
000003e0: 9fd6 bc3c a1ab 58bd 1f3d aebd 2344 fc3c
000003f0: e58a 84bd 7bad 6fbd 242f 733d a305 7cbc

fc1.bias f4 [256]
-0.045978695 -3.2749448 31.81315 33.287045 -0.027146775 -0.03176521 0.0 -0.020648
31.849771 31.868593 31.832653 32.827248 31.82945 -0.009749 31.815565 31.753302
32.177856 -0.03094881 31.85093 32.18408 33.209652 31.893934 -0.049294207 20.194836
31.923855 -0.043143004 31.845764 -0.0072707958 -0.019804968 33.0653 -0.008053807 31.806034
30.475838 -0.038414113 31.886852 0.0 31.746939 -0.013862285 -0.0686147 32.946198
-2.0300648 31.841072 -0.045177758 31.947687 31.891481 0.0047451397 32.148773 -0.012558804
32.188232 31.842396 31.8715 -0.013815346 31.81602 31.94612 31.783627 33.135544
-0.01986718 31.830849 32.83762 31.8831 31.759727 -0.01992902 32.19536 33.25804
0.029052634 31.9113 31.85729 33.201828 32.18864 33.134117 31.841337 31.934378
31.788532 30.73409 31.79196 31.911692 31.869879 31.88604 0.1749532 33.352642
31.882334 31.885044 31.294804 31.867172 0.14846191 31.888475 -0.02006611 33.269676
-0.022706598 31.79929 -0.03176521 -0.017648023 -0.047850285 31.888044 31.869766 -0.008973209
-0.030396722 31.877487 -0.0068116533 32.170815 0.18174218 33.67282 -0.03176521 31.892157
-0.077594146 33.69284 -1.7209666 31.856318 31.827534 -0.045954853 33.23889 26.661516
33.422043 21.666164 -0.022088945 33.18825 -0.05907981 31.889055 31.87775 31.921793
28.620365 31.833876 -0.027827015 31.917675 33.18801 -0.028933799 31.864264 -2.8344898
31.688147 32.80665 31.87494 -0.032883544 31.887463 32.02711 31.855623 -0.03176521
31.880096 31.836172 31.81598 -0.03490861 -0.042792078 31.777845 -0.020200966 31.847502
-0.06577454 31.834637 31.79249 31.819012 31.830675 31.92555 -0.013432385 -0.03176521
-0.049692813 -0.042162504 -0.4534875 31.879578 31.853828 -0.037572198 32.104977 32.205612
-0.0085015865 0.016458908 32.142445 -0.0067110704 0.0 31.836258 -0.02428724 31.932104
-0.0030290599 7.075306 31.872824 33.168446 32.018566 31.854023 31.75212 31.852165
31.89368 33.14983 22.966597 -0.006046478 0.04615676 31.906738 -1.9735236 33.234642
0.038035624 -0.01986718 33.684017 -0.022778869 -0.17238426 31.872398 33.367607 32.89684
31.438684 22.509977 -0.039210584 25.582718 31.94351 -0.049294207 0.04612398 32.836452
33.549908 31.844936 -0.03176521 31.826336 31.810865 -0.03176521 31.831059 31.876892
31.846214 31.812428 31.867115 -0.023558574 -0.04206341 15.297046 -0.0073567573 31.874691
0.20237733 -0.03910553 31.62406 -0.014005895 -0.03176521 -0.006065384 -0.025451396 31.911259
31.885773 28.724506 -0.0347216 0.11587973 32.18807 31.89143 31.877182 24.749207
31.865587 31.86637 0.0 15.884504 31.92052 0.15885696 31.901226 31.848925
-0.0075682607 32.81635 31.848152 31.799479 31.85488 0.018393453 17.712227 31.830095
23.563978 32.181965 -0.007893992 31.87207 31.875383 31.89272 -0.0060200286 31.916704
00000000: 2854 3cbd b298 51c0 5581 fe41 ef25 0542
00000010: ea62 debc 3d1c 02bd 0000 0000 ff25 a9bc
00000020: 55cc fe41 e1f2 fe41 46a9 fe41 1a4f 0342
00000030: b7a2 fe41 45ba 1fbc 4786 fe41 c306 fe41
00000040: 20b6 0042 5c88 fdbc b4ce fe41 7fbc 0042
00000050: afd6 0442 c726 ff41 b9e8 49bd 068f a141
00000060: 0e64 ff41 b8b6 30bd 20c4 fe41 db3f eebb
00000070: 073e a2bc de42 0442 1df4 03bc c272 fe41
00000080: 84ce f341 1e58 1dbd 4618 ff41 0000 0000
00000090: bbf9 fd41 a31e 63bc dd85 8cbd e8c8 0342
000000a0: 95ec 01c0 84ba fe41 500c 39bd dd94 ff41
000000b0: c121 ff41 1e7d 9b3b 5898 0042 71c3 4dbc
000000c0: c0c0 0042 3abd fe41 d5f8 fe41 c359 62bc
000000d0: 3587 fe41 a791 ff41 de44 fe41 cc8a 0442
000000e0: 7fc0 a2bc 94a5 fe41 b959 0342 9710 ff41
000000f0: ec13 fe41 2f42 a3bc 0cc8 0042 3c08 0542
00000100: caff ed3c 584a ff41 bbdb fe41 acce 0442
00000110: 2bc1 0042 5689 0442 0fbb fe41 9b79 ff41
00000120: ea4e fe41 6bdf f541 ef55 fe41 254b ff41
00000130: 83f5 fe41 9c16 ff41 ef26 333e 1b69 0542
00000140: 050f ff41 9214 ff41 c25b fa41 f8ef fe41
00000150: 6606 183e 991b ff41 af61 a4bc 2614 0542
00000160: 3003 babc f264 fe41 3d1c 02bd 9692 90bc
00000170: a9fe 43bd b71a ff41 48f5 fe41 5e04 13bc
00000180: 8c02 f9bc 1805 ff41 4a34 dfbb eaae 0042
00000190: 9f1a 3a3e f8b0 0642 3d1c 02bd 2323 ff41
000001a0: aee9 9ebd 78c5 0642 a248 dcbf bdd9 fe41
000001b0: ca9e fe41 283b 3cbd a0f4 0442 c94a d541
000001c0: 2cb0 0542 4e54 ad41 e0f3 b4bc c5c0 0442
000001d0: acfd 71bd c91c ff41 a205 ff41 d55f ff41
000001e0: 82f6 e441 c7ab fe41 7bf5 e3bc 6657 ff41
000001f0: 86c0 0442 9306 edbc 03ea fe41 4868 35c0
00000200: 5381 fd41 023a 0342 e1ff fe41 e5b0 06bd
00000210: 8619 ff41 c31b 0042 51d8 fe41 3d1c 02bd
00000220: 700a ff41 7bb0 fe41 2187 fe41 55fc 0ebd
00000230: bf46 2fbd 0739 fe41 7f7c a5bc afc7 fe41
00000240: cdb4 86bd 56ad fe41 0557 fe41 568d fe41
00000250: 39a5 fe41 8767 ff41 8213 5cbc 3d1c 02bd
00000260: b18a 4bbd 97b2 2cbd 832f e8be 6009 ff41
00000270: a4d4 fe41 4ee5 19bd 7f6b 0042 8cd2 0042
00000280: 3d4a 0bbc d5d4 863c dd91 0042 8ae8 dbbb
00000290: 0000 0000 a8b0 fe41 09f6 c6bc f374 ff41
000002a0: 3183 46bb e868 e240 8bfb fe41 7dac 0442
000002b0: 0313 0042 0ad5 fe41 5704 fe41 3cd1 fe41
000002c0: 4226 ff41 6d99 0442 97bb b741 8921 c6bb
000002d0: df0e 3d3d 0041 ff41 6c9c fcbf 46f0 0442
000002e0: 3ecb 1b3d 7fc0 a2bc 6fbc 0642 c09a babc
000002f0: 8085 30be acfa fe41 6e78 0542 5d96 0342
00000300: 6d82 fb41 6f14 b441 479b 20bd 68a9 cc41
00000310: 4f8c ff41 b9e8 49bd 80ec 3c3d 8758 0342
00000320: 1b33 0642 6ec2 fe41 3d1c 02bd 569c fe41
00000330: a77c fe41 3d1c 02bd 02a6 fe41 e003 ff41
00000340: 0cc5 fe41 da7f fe41 daef fe41 e9fd c0bc
00000350: af4a 2cbd b3c0 7441 f410 f1bb 5eff fe41
00000360: 013c 4f3e 1f2d 20bd 13fe fc41 fb78 65bc
00000370: 3d1c 02bd 21c0 c6bb 727f d0bc 424a ff41
00000380: 1016 ff41 cacb e541 3d38 0ebd 5a52 ed3d
00000390: 95c0 0042 a621 ff41 7804 ff41 60fe c541
000003a0: b9ec fe41 53ee fe41 0000 0000 ee26 7e41
000003b0: 3a5d ff41 66ab 223e b635 ff41 99ca fe41
000003c0: 2cff f7bb f143 0342 04c9 fe41 5565 fe41
000003d0: cbd6 fe41 dead 963c a4b2 8d41 09a4 fe41
000003e0: 0783 bc41 55ba 0042 cd55 01bc 00fa fe41
000003f0: c900 ff41 4a24 ff41 a943 c5bb 6955 ff41

last_fc.weight f4 [1, 256]
0.012430654 -0.026915435 -0.5017599 -0.6370082 0.006951073 -0.031120546 0.0012648887 -0.024126308
-0.60243696 -0.62754256 -0.51287 -2.4805915 -0.59054494 -0.012249231 -0.6004498 -0.34626582
-0.65600395 0.021861702 -0.7277823 -0.6641301 -0.5994674 -0.6549188 0.015926192 -6.3439903
-0.7676181 -0.024995418 -0.5679214 -0.003728577 -0.01949912 -2.3578594 0.013894695 -0.4924368
0.53290987 0.024127798 -0.6827856 -0.0004195583 -0.33707216 -0.008783218 0.026322369 -0.22222945
0.025307968 -0.5646229 -0.027648201 -0.5415509 -0.6251755 0.013120579 -0.71093285 0.012440153
-0.704769 -0.59155434 -0.6164776 0.03154989 -0.48794767 -0.5369464 -0.656968 -0.57823086
-0.018455666 -0.602001 -3.3848348 -0.6900887 -0.35201383 -0.017738547 -0.6510781 -0.62493837
0.0017710862 -0.72351754 -0.3610387 -0.67783767 -0.69701785 -0.5657613 -0.58656377 -0.8402733
-0.5802117 -1.5044823 -0.38146392 -0.5028454 -0.6574974 -0.61376333 -0.040369894 -0.7140506
-0.66537005 -0.59453213 -0.6298752 -0.55891854 0.025065826 -0.67515206 -0.0183223 -0.6305448
0.014228667 -0.30377507 -0.028908094 -0.017530302 0.02740345 -0.5986038 -0.65568787 0.017739665
0.019427966 -0.76090086 -0.005855836 -0.5884864 0.0011309178 -1.2197285 -0.03091789 -0.6979652
-0.031587142 -3.4517426 -0.021391196 -0.6572952 -0.4675759 0.01226432 -0.6637307 -7.38836
-0.73790497 -2.533033 0.017621573 -0.71442467 -0.020360408 -0.65042335 -0.65502167 -0.5652737
1.0179648 -0.4806959 0.02763628 -0.71530396 -0.6555093 -0.026789892 -0.61571544 -0.005733181
-0.3208419 -0.72064763 -0.61570996 -0.00858019 -0.60738206 -0.8629504 -0.6543526 -0.03127366
-0.6530339 -0.5354735 -0.46146598 -0.028940877 0.034985352 -0.32016122 -0.017842483 -0.5882931
-0.0151514225 -0.52408934 -0.4526843 -0.39280555 -0.5057424 -0.5196982 -0.010470032 -0.02913124
-0.022293836 0.010279669 0.3894899 -0.5168936 -0.63940454 0.025492001 -0.5640743 -0.6485051
-0.0045618555 0.021507427 -0.7312924 -0.0073732417 -0.0014728765 -0.63774914 -0.027698493 -0.51513004
0.0061200527 4.2554398 -0.6151908 -0.6281024 -0.50502294 -0.499592 -0.3284569 -0.61251825
-0.4811252 -0.5442481 -1.5784636 -0.004072445 -0.03116227 -0.6178096 0.07724843 -0.6694969
-0.010359762 -0.018876996 -1.1553754 0.027530482 0.011814305 -0.39982077 -0.7320923 -1.6675111
-0.0018748861 -1.3597143 0.02540781 0.023876341 -0.5309857 0.014490555 0.009603156 -2.4648755
-0.90137744 -0.6317514 -0.031370517 -0.5876587 -0.59356344 -0.03017991 -0.5448198 -0.561843
-0.48205835 -0.5366806 -0.5255166 0.020186437 -0.003693792 3.4201891 -0.004304903 -0.65070987
0.0010935018 0.02495593 -2.4833462 -0.021711573 0.03126323 -0.0047690747 0.011012435 -0.7982022
-0.66132784 4.3659725 -0.023221806 0.02398661 -0.64402795 -0.6590099 -0.42202723 -1.7494575
-0.58763254 -0.60750395 0.00014195553 -10.90691 -0.47758752 0.018803608 -0.69803077 -0.5702561
-0.00547269 -1.4083579 -0.6476512 -0.34248522 -0.6442246 0.016609037 7.596643 -0.47813198
-1.9052404 -0.63246995 0.014470252 -0.76244617 -0.6628846 -0.6407828 -0.005035899 -0.7336055
00000000: f1a9 4b3c c27d dcbc 5673 00bf f812 23bf
00000010: d4c5 e33b 84f0 febc 9fca a53a 89a4 c5bc
00000020: 4f39 1abf a1a6 20bf 734b 03bf 03c2 1ec0
00000030: f42d 17bf 00b1 48bc 14b7 19bf c149 b1be
00000040: e0ef 27bf 5017 b33c f14f 3abf 6e04 2abf
00000050: b276 19bf c2a8 27bf a577 823c f801 cbc0
00000060: 9f82 44bf 31c3 ccbc 4c63 11bf 245b 74bb
00000070: 9ebc 9fbc 2be7 16c0 93a6 633c ad20 fcbe
00000080: c86c 083f a9a7 c53c 09cb 2ebf 29f8 dbb9
00000090: b994 acbe 7de7 0fbc 02a2 d73c 1e90 63be
000000a0: a852 cf3c 208b 10bf 7b7e e2bc 14a3 0abf
000000b0: 800b 20bf b2f7 563c b2ff 35bf c9d1 4b3c
000000c0: be6b 34bf 1b70 17bf 7ad1 1dbf 753a 013d
000000d0: 47d4 f9be 5275 09bf 0e2f 28bf f006 14bf
000000e0: 5630 97bc bd1c 1abf 22a1 58c0 a7a9 30bf
000000f0: 283b b4be 6e50 91bc 0ead 26bf f6fb 1fbf
00000100: cb23 e83a 7238 39bf 11da b8be c586 2dbf
00000110: c36f 32bf bcd5 10bf 0b29 16bf 271c 57bf
00000120: c188 14bf e092 c0bf 3d4f c3be 7aba 00bf
00000130: c051 28bf 981f 1dbf e75a 25bd 05cc 36bf
00000140: b155 2abf 4233 18bf 803f 21bf 4915 0fbf
00000150: d956 cd3c c4d6 2cbf a618 96bc 626b 21bf
00000160: 5b1f 693c 6888 9bbe abd0 ecbc b59b 8fbc
00000170: 337d e03c 193e 19bf 29db 27bf c652 913c
00000180: 6627 9f3c 66ca 42bf 50e2 bfbb 0ba7 16bf
00000190: 4e3b 943a 1020 9cbf 8447 fdbc d9ad 32bf
000001a0: 8561 01bd 5ae9 5cc0 973c afbc 8044 28bf
000001b0: 1c66 efbe 49f0 483c 41ea 29bf 726d ecc0
000001c0: 57e7 3cbf 361d 22c0 1e5b 903c 89e4 36bf
000001d0: dfca a6bc 2582 26bf 80af 27bf c7b5 10bf
000001e0: ac4c 823f c61d f6be 7b65 e23c 291e 37bf
000001f0: 75cf 27bf 7a76 dbbc 879f 1dbf 68dd bbbb
00000200: 6445 a4be 5d7c 38bf 2b9f 1dbf ed93 0cbc
00000210: 647d 1bbf 51ea 5cbf a783 27bf cf18 00bd
00000220: 3b2d 27bf cb14 09bf 4545 ecbe 6b15 edbc
00000230: cd4c 0f3d 2cec a3be 662a 92bc 609a 16bf
00000240: ac3d 78bc b82a 06bf 3dc6 e7be cf1d c9be
00000250: 5578 01bf f10a 05bf 7f8a 2bbc a3a4 eebc
00000260: 90a1 b6bc 0f6c 283c 386b c73e 2453 04bf
00000270: 04b0 23bf 9ad4 d03c 2c67 10bf 6e04 26bf
00000280: 9e7b 95bb 5830 b03c fb35 3bbf 3c9b f1bb
00000290: 890d c1ba 8743 23bf f3e7 e2bc 90df 03bf
000002a0: b98a c83b 902c 8840 257d 1dbf 52cb 20bf
000002b0: 2f49 01bf 86ca ffbe 812b a8be ffcd 1cbf
000002c0: 0b56 f6be d853 0bbf 180b cabf 2572 85bb
000002d0: 0448 ffbc c528 1ebf 6d34 9e3d 2664 2bbf
000002e0: febb 29bc eea3 9abc 57e3 93bf 9b87 e13c
000002f0: c990 413c 4fb5 ccbe 676a 3bbf 0171 d5bf
00000300: bdbe f5ba 1e0b aebf 0a24 d03c 5198 c33c
00000310: aeee 07bf cb69 6d3c 8e56 1d3c 85c0 1dc0
00000320: acc0 66bf 76ba 21bf 5f7e 00bd cd70 16bf
00000330: c6f3 17bf dc3b f7bc 4f79 0bbf f1d4 0fbf
00000340: 5ad0 f6be e663 09bf 4288 06bf 075e a53c
00000350: 8c13 72bb 61e4 5a40 2510 8dbb ec94 26bf
00000360: d553 8f3a 6170 cc3c 25ef 1ec0 78dc b1bc
00000370: df0d 003d e645 9cbb 806d 343c fb56 4cbf
00000380: c84c 29bf 0cb6 8b40 a83b bebc 917f c43c
00000390: 04df 24bf dfb4 28bf f413 d8be 39ee dfbf
000003a0: 166f 16bf 6185 1bbf e6d9 1439 b482 2ec1
000003b0: 5a86 f4be 060a 9a3c 25b2 32bf 4efc 11bf
000003c0: 4054 b3bb 1245 b4bf 78cc 25bf 395a afbe
000003d0: e7eb 24bf ad0f 883c b317 f340 b7cd f4be
000003e0: ebde f3bf 8de9 21bf a314 6d3c ac2f 43bf
000003f0: ceb2 29bf 570a 24bf 2f04 a5bb 92cd 3bbf
