save_mode/SAC_v_0_policy_network.pth (torch, 342351 bytes, 8 tensors)

hidden1.weight f4 [256, 48]
000000 00 3a 43 3d 09 11 9f bc 52 43 01 3d 7c 60 aa bc
       0.047662735 -0.019417303 0.031558342 -0.02079796
000010 c4 e7 26 bd 6d ff cc bc f0 cd 8e bc a2 17 03 3d
       -0.040748373 -0.02502414 -0.017432183 0.03200496
000020 f0 ca 21 bd c6 33 90 bd 03 71 90 bd cc 30 ff bc
       -0.039500177 -0.07041125 -0.07052805 -0.031151198
000030 18 30 22 bd 3f 11 81 bd 8d 93 4d 3c 32 d4 67 bd
       -0.039596647 -0.063021176 0.012547386 -0.05659885
000040 28 0a 07 3d e2 23 0c bd 22 5d 17 3d b8 c6 f9 3c
       0.03296867 -0.034213908 0.036954053 0.030490264
000050 0c 84 96 bc a8 a7 47 bc 68 ea 1b 3d c2 3c 3d bd
       -0.018373512 -0.012185968 0.038065344 -0.04620052
000060 08 8a be bc 20 d1 35 bc 27 36 2e 3d c7 f7 3f bd
       -0.023259178 -0.011097223 0.042532112 -0.04686716
000070 9e d2 29 3d 18 1d 52 bc db 02 0e bd 1a e4 3d bd
       0.041460626 -0.012824319 -0.034670692 -0.046360113
000080 18 6b 33 3c c4 65 70 3d 28 57 1a 3d 8b 88 1f 3d
       0.010950826 0.0586908 0.037680775 0.038948577
000090 2a 69 79 3d cc 38 f0 3c 30 60 16 3c 53 eb 82 bd
       0.060891308 0.029323958 0.009178206 -0.06392541
0000a0 40 62 65 38 ae 6c 37 bd 70 38 80 3c 1a f9 db bc
       5.4689357e-05 -0.04478138 0.015651911 -0.02685218
0000b0 ed cc 16 bc 84 20 76 3d 20 de c0 3b dd 50 a9 3c
       -0.009204132 0.060089603 0.0058858544 0.020668441
0000c0 26 ea 30 3d 4f 34 86 3c 7c 79 cc 3c 68 87 22 3d
       0.04319205 0.016382365 0.024960272 0.039679915
0000d0 90 2a c8 3c 2f dd e1 bd 14 c9 f9 bc 98 ac e0 bc
       0.024434358 -0.110285155 -0.03049139 -0.02742605
0000e0 9a 5f 52 bd 2e da 56 bd aa 53 ab 3c 38 5d 13 3d
       -0.051360704 -0.052454166 0.020913918 0.035977572
0000f0 a8 ba ba bc 44 e9 9b bd 22 14 0a bd c0 ff 30 3c
       -0.022794083 -0.07612851 -0.033710606 0.010803163
000100 30 9c 32 3d 80 f4 d7 3b 62 9e 04 3b f6 5f 0a bd
       0.043605983 0.006590426 0.0020236005 -0.03378292
000110 5e 38 3c 3d f8 b0 46 bd bb 94 08 be ae f1 1a 3d
       0.045952193 -0.048508614 -0.13337986 0.03782814
000120 68 e8 cb bc da 42 64 3d c8 7b dc bb ee 7a 0e bd
       -0.024891093 0.055727817 -0.006728623 -0.034785204
000130 70 84 eb 3b 40 a4 dd 3c e2 57 c1 bd e6 9e 26 bd
       0.0071874186 0.02705586 -0.094405904 -0.04067888
000140 ce 77 63 bd cc ac 56 bd f2 07 58 3d 44 64 9b 3d
       -0.055534177 -0.052410886 0.052741952 0.075874835
000150 08 d3 c1 bc b0 f8 fa 3c a8 85 49 bd 02 6a de bd
       -0.023660198 0.030636162 -0.04919973 -0.10860063
000160 5a 20 ec bc b0 b4 68 3c 56 57 16 3d dd 87 f5 3d
       -0.02882402 0.0142032355 0.036704384 0.119888045
000170 de 85 a5 bd 84 62 a4 bc 10 18 15 bc 77 aa 9a bd
       -0.08082174 -0.020066507 -0.009099975 -0.07552045
000180 36 48 32 3d ad 1e 9e bd 8c 07 11 bd 10 73 eb 3b
       0.043525897 -0.07720695 -0.035407588 0.0071853474
000190 20 21 0a 3c 36 fa 97 bd 80 2a a8 3b c8 e8 6e 3c
       0.008430749 -0.07420771 0.0051320195 0.014581867
0001a0 ca 88 24 3d bb e5 54 be 60 82 ad bd 78 c6 16 bd
       0.040169515 -0.2079076 -0.08472133 -0.03681037
0001b0 b0 d5 3f 3c 85 80 7e 3d 6d 66 28 3c 68 d9 cf 3c
       0.011708662 0.062134285 0.010278326 0.025372222
0001c0 d4 d7 68 bd 00 81 c9 ba 4c 86 b5 bd 04 50 fe bc
       -0.056846455 -0.0015373528 -0.08863506 -0.031044014
0001d0 ca 59 0c bd f8 40 0c 3d cc a6 4c be 1c d5 6d bd
       -0.034265317 0.034241647 -0.19985503 -0.058064565
0001e0 1c 07 47 3d 8c 5a 24 3d d3 ee ba 3d fb 34 a0 bd
       0.048590764 0.040125415 0.09127583 -0.07822605
0001f0 0a d0 12 3d 00 1e 5a 39 44 05 24 3d 7c b8 10 3d
       0.035842933 0.00020801276 0.040044084 0.035332188
000200 ac ba 74 bd 82 72 66 3d c0 fd 32 3b bd f0 13 bd
       -0.059748337 0.056261547 0.0027311891 -0.036118258
000210 4c e4 f2 bc c6 86 6d 3d ce 93 0d bd e0 09 24 be
       -0.029649876 0.057989858 -0.034564786 -0.16019392
000220 59 26 a6 bd aa 3c 3b 3d c0 90 44 3b 87 45 9a bc
       -0.08112783 0.04571215 0.0029993504 -0.018831981
000230 d2 bb 84 3b d4 09 cc 3c 5c ee 92 3c 7d 1a 7f 3d
       0.0040507102 0.02490703 0.017935924 0.06228112
000240 70 4a c3 3c b3 fc 58 3e 74 37 27 bd 8c 3f 7d bd
       0.023839206 0.21190147 -0.04082437 -0.06182818
000250 c0 15 d6 3a c9 ee 22 bc c0 c5 f7 3c 40 c0 16 3d
       0.0016333386 -0.009944626 0.030245662 0.036804438
000260 80 f4 fc 3c 8f b1 0a 3e 5d 9a f3 bd bc 18 f4 3c
       0.030878305 0.13544296 -0.11894677 0.02979695
000270 b4 33 94 bc a5 d4 aa bd f6 8f 64 3c 86 b1 29 3d
       -0.01809106 -0.0834134 0.013950339 0.041429065
000280 80 32 93 bb 22 db 71 bd 83 4c 0d 3c 1e 37 56 3d
       -0.004492104 -0.059046872 0.008624199 0.052298658
000290 bc 03 f8 bc 44 c6 2c bd 04 61 81 bd e0 95 62 3b
       -0.030275218 -0.04218127 -0.063173324 0.0034574196
0002a0 d0 ec fc 3b b6 94 4f 3d bd 1b 2e 3d ba 9a 42 bd
       0.00771866 0.05067893 0.042506922 -0.04751084
0002b0 24 02 3e 3d 08 b4 21 bd 26 69 98 bc 6c 30 af bc
       0.04638876 -0.03947833 -0.018604826 -0.021385394
0002c0 f0 ac 20 3d 08 07 3e 3c 60 e9 a7 bc 0b 13 86 3d
       0.039227426 0.011598356 -0.020497024 0.06546601
0002d0 9a 3c 2c 3d 98 d9 40 bc fa 56 5f 3d 30 84 e1 3c
       0.04204998 -0.011770628 0.054526307 0.027528852
0002e0 4f 93 51 3e 8c 6b 24 3d 6c e3 7f bd 0f b6 d4 bc
       0.2046635 0.040141627 -0.062472746 -0.025965719
0002f0 2d ab 4a bd 58 70 12 3d ce 0c 61 bd eb f7 06 bd
       -0.049479652 0.03575167 -0.054943852 -0.032951277
000300 9c 84 00 3d 92 87 1b 3e d8 d1 a2 3c 48 10 32 3c
       0.031376466 0.15188435 0.019875452 0.01086814
000310 6c c9 2a 3d 46 d4 3b bd ee 38 29 bd 62 7a 07 3d
       0.041695997 -0.045856737 -0.041314058 0.033075698
000320 10 42 b3 bc b2 10 a1 3e eb f1 86 bc 5c 9c 1f bd
       -0.021882087 0.3145805 -0.016472777 -0.038967475
000330 0e 45 52 bd f3 32 58 bd f8 85 43 bd 7c be f4 3c
       -0.051335387 -0.052782964 -0.047735184 0.029875986
000340 a4 9e 6d bd 9c b7 ff bc 2a 76 04 bd 4c 39 96 3c
       -0.05801262 -0.031215481 -0.032339253 0.018337868
000350 34 cc fd bc 9e 16 0c bd 35 95 1a bc 0c b6 f9 3c
       -0.03098116 -0.034201257 -0.009434988 0.030482315
000360 b0 84 9b 3c 28 92 70 3d 20 fd c5 bc f2 fe af bc
       0.018984169 0.058733135 -0.024168551 -0.021483872
000370 78 03 86 3c 20 b8 b4 bb ea 16 ee bb 97 c3 c2 ba
       0.016359076 -0.0055151135 -0.007265915 -0.0014859316
000380 94 74 f9 bc 2e ac 76 3d e2 e1 18 bd f6 2d 81 3d
       -0.030451097 0.060222797 -0.037324794 0.063075945
000390 60 43 bc 3b e8 eb d7 3c 8c 63 df 3c a3 8c 80 3c
       0.0057453364 0.026357606 0.027269147 0.01569206
0003a0 b5 be 1c 3e d0 6d f7 3c 70 03 15 3c 60 5c 0e bd
       0.15307124 0.03020373 0.009095058 -0.034756064
0003b0 26 4e 09 bd 48 6d c1 bc 1e 15 69 bd d2 e3 fa bc
       -0.033521794 -0.02361168 -0.056904905 -0.030626211
0003c0 d8 74 7f bc e4 fc 08 3d ec fa f2 3c 64 af fb bc
       -0.015591823 0.0334443 0.029660664 -0.030723281
0003d0 88 03 1d 3c eb f0 9d bb 06 5a 7b bd 34 7d e5 3c
       0.009583361 -0.0048199794 -0.06136515 0.028013803
0003e0 74 a9 22 bd cd 37 dc 3c 03 dc a0 bb a8 d4 3a 3d
       -0.039712384 0.026882077 -0.00490904 0.04561296
0003f0 94 71 92 bc fd e5 9f bd e2 43 01 bd b0 b4 0b 3c
       -0.017876424 -0.07807539 -0.03155888 0.008526966

hidden1.bias f4 [256]
000000 c6 f3 73 bb b6 17 96 bd 50 bc 56 3d 1e d8 d0 3c
       -0.0037224158 -0.07328741 0.052425683 0.025493678
000010 b7 26 10 bc a6 80 9e bc 46 47 9b bc b1 66 5b be
       -0.008798293 -0.019348454 -0.018954884 -0.21425892
000020 e6 c2 d1 3c 6e 2b 71 bd cc ec 2e bd 07 89 82 bc
       0.02560563 -0.05887931 -0.042706296 -0.01593448
000030 f0 82 43 bd 15 de 16 bd ce 99 f9 bd 93 36 34 bc
       -0.047732294 -0.036832888 -0.12187539 -0.01099934
000040 24 a1 77 bd 00 00 00 00 41 e4 4d bc 9d 08 d4 bc
       -0.06045641 0.0 -0.012566627 -0.025883013
000050 f3 fc 78 bc 6d 2e 12 bd 0a ba 98 3c a9 3a 7f bd
       -0.015197027 -0.035688806 0.018643398 -0.062311802
000060 fd 7b 5e bd 5b d6 80 ba 00 00 00 00 a2 95 d7 bc
       -0.054317463 -0.0009829508 0.0 -0.026316468
000070 95 7f f5 bb 55 bf 24 bc 0b 79 84 3c 5e 3b 80 bb
       -0.0074920156 -0.010055383 0.016170999 -0.003913327
000080 07 88 28 bd 27 2e 11 bc 7d 1f 8d bc 97 f8 4c bd
       -0.04114535 -0.008861101 -0.017226929 -0.05004176
000090 e9 47 80 bc db 63 0e bd cb 50 3c bd 00 00 00 00
       -0.01565929 -0.0347632 -0.045975488 0.0
0000a0 e4 07 9c 39 c9 09 10 bc 51 a0 f9 bc ac bd f4 bb
       0.00029760518 -0.008791395 -0.030471953 -0.0074688997
0000b0 1f e0 54 3a a7 2b ad bb 26 7c 60 bc ad 54 f6 bd
       0.0008120555 -0.005284745 -0.013701474 -0.120278694
0000c0 84 bc 9b bc 34 33 19 bd e0 4c c2 bc ae 7a 4d bd
       -0.01901079 -0.037402347 -0.023718297 -0.050165825
0000d0 56 23 b0 bc e9 98 c8 bc 68 6d dd bd 34 e3 94 bc
       -0.021501224 -0.024486976 -0.10811883 -0.018174745
0000e0 8a 31 22 bd 9f 48 3a 3c d5 0c 58 bd 9f 11 95 bd
       -0.039598025 0.011369853 -0.052746613 -0.072787516
0000f0 9b 8d 90 bd fa 2c a3 bc 14 45 dd bc bf 69 a6 bc
       -0.07058259 -0.019918907 -0.027010478 -0.020314096
000100 77 80 82 bb b7 e2 c5 3b 26 ef 12 bd df f9 09 3d
       -0.0039825994 0.0060389894 -0.0358726 0.03368556
000110 bb 1d 55 bd a5 6f 89 bd 5a 96 bc bc 58 6e bb bc
       -0.052030306 -0.06710748 -0.023020912 -0.022879764
000120 77 fb c2 bc 38 4a 09 bb 97 ea 00 3c 00 00 00 00
       -0.023801548 -0.002094878 0.007868431 0.0
000130 b0 70 e8 bd bd d1 33 bd 00 00 00 00 00 00 00 00
       -0.113496184 -0.043901194 0.0 0.0
000140 04 b5 11 3c b4 d4 10 bd e5 90 17 bd c2 19 fc bc
       0.008893255 -0.0353591 -0.037003417 -0.030774001
000150 cb 7f 2c bd 6d de 19 3c cd 05 9f bc 3a ff ba bc
       -0.04211406 0.009391409 -0.019411946 -0.02282678
000160 f2 cd 34 bd 3a ff 39 3e e2 0a 8d ba 44 60 8d 3b
       -0.044141717 0.18163767 -0.001076069 0.0043144543
000170 12 58 41 bd 89 b3 9d 3b c9 7f 6d bb 42 a6 5f bd
       -0.04720313 0.004812662 -0.0036239496 -0.054601915
000180 a7 dd 8d 3c 03 a7 cc be a5 9b 74 3d 10 64 6b bf
       0.017317606 -0.3997117 0.059718747 -0.9194956
000190 00 00 00 00 80 cd 4f bc ef 1b dd bc 68 a8 b0 bc
       0.0 -0.012683272 -0.026990859 -0.021564677
0001a0 18 a7 80 bc f3 7c 1a bc 00 00 00 00 6d cb ba bb
       -0.015704677 -0.009429204 0.0 -0.00570052
0001b0 e5 c0 de bc 8f 8f 3c bd e2 de 86 bc 62 8b 9d bc
       -0.027191589 -0.046035346 -0.0164637 -0.019231502
0001c0 94 71 4d be 4a 28 84 3b 20 4d b6 bb ee 84 62 bc
       -0.20062858 0.004033123 -0.0055633932 -0.013825638
0001d0 1b 0c ef 3c ba 2f 01 3d 65 0e 59 bc 74 09 87 bd
       0.029180577 0.031539656 -0.013248061 -0.065936
0001e0 8c 54 53 bd 54 d9 12 bf c9 ce 1e bb 39 17 c0 bc
       -0.051594302 -0.57362866 -0.002423214 -0.023448573
0001f0 8c 1b 7c bd 10 80 72 bc 49 94 65 bd 20 0e 79 3c
       -0.06154971 -0.01480104 -0.05604962 0.015201122
000200 3b ec 38 3c 23 ca 9e bc f9 0d a5 3b bc 18 fc 3c
       0.0112867905 -0.019383496 0.005037066 0.030773513
000210 58 8f f1 ba 90 60 d4 bc 52 02 62 be 80 92 4d bd
       -0.0018429561 -0.02592495 -0.22071198 -0.05018854
000220 bb 8f 96 bd d7 83 61 bd 11 f1 78 bb 20 d7 f1 bd
       -0.07351633 -0.055057373 -0.0037985484 -0.1180861
000230 b3 af 9a 3b 72 7e 08 bd 55 00 95 bb f9 36 04 bc
       0.004720652 -0.033323713 -0.0045471587 -0.008069747
000240 72 9b 13 bc 93 06 20 bd f7 77 ac bc ea 84 66 bc
       -0.009009229 -0.03906877 -0.021053297 -0.014069775
000250 a3 e3 86 3c 00 00 00 00 61 df 50 3c 00 00 00 00
       0.016465968 0.0 0.01274857 0.0
000260 00 00 00 00 b0 87 cd 3b 5a 87 1e 3d cf 36 88 bd
       0.0 0.0062722787 0.0387033 -0.06651079
000270 b4 2c 88 3e cc 75 5c 3d 2b c0 f7 bc 3a 4a f9 3c
       0.26596606 0.053823277 -0.030243 0.030430902
000280 36 ba 84 bc 65 6a 9f 3b 49 bb 9a 3b 22 4e 15 3d
       -0.016202074 0.004864978 0.004722033 0.036451466
000290 68 ba 98 bd 00 00 00 00 89 a5 16 bd 00 00 00 00
       -0.07457429 0.0 -0.03677896 0.0
0002a0 38 5d 6c 3c c2 ba a8 3c fe ff 94 3e 96 ea fa bb
       0.014426522 0.020596866 0.29101557 -0.0076573594
0002b0 be 65 a7 bc 6c cb 22 bd ae 30 c2 3e e0 e9 bd bc
       -0.020434257 -0.03974478 0.37927765 -0.02318281
0002c0 67 bd ad 39 f3 40 b4 ba 55 df 3f bd e1 d9 d7 bc
       0.00033138247 -0.0013752267 -0.046843845 -0.02634901
0002d0 da b0 b6 bc 2c 36 59 bb ac 0b fe 3b 75 c3 be bb
       -0.022301126 -0.0033143861 0.0077528562 -0.00582164
0002e0 f2 5a e4 bb 61 b8 93 bd 1b 1f f8 3b d4 aa b3 bc
       -0.0069688493 -0.07212902 0.0075720674 -0.021932043
0002f0 f9 d5 28 bc 74 91 ef bc 44 13 0c bd 3e a5 60 bc
       -0.010304921 -0.029244162 -0.03419806 -0.013711272
000300 0c d6 22 bd 66 cf 19 bc 00 00 00 00 6d 1a c0 bc
       -0.039754912 -0.009387827 0.0 -0.0234501
000310 3d 8a 55 bd 1d d8 68 bd c4 47 41 bd 9d 77 11 bd
       -0.052133787 -0.056846727 -0.04718758 -0.035514463
000320 cc 8c 97 bd 82 c2 ab 3c 5f a2 d9 3b d6 6b 5e bc
       -0.07399902 0.020966772 0.0066416706 -0.013575515
000330 48 19 0b bc 3f 1d f2 bc b4 c5 bf bc 61 a3 60 3c
       -0.008489914 -0.029554961 -0.023409702 0.013710828
000340 bc 3b 3e bc bf ad 8e bc 9a 4d 90 3c 42 eb ed 3c
       -0.0116109215 -0.017416833 0.017615128 0.029042844
000350 9f 6d 07 bd 81 67 70 bc 10 4c 47 bc 8f b6 05 bd
       -0.033063527 -0.014673115 -0.012164131 -0.032644805
000360 e0 cb fd bb 43 7e c1 bc 0b 2b 72 3c 00 00 00 00
       -0.007745251 -0.023619777 0.01478077 0.0
000370 99 74 ee bc 48 1c 84 3d 8d a4 08 bc 11 12 d2 bc
       -0.029108332 0.06450707 -0.008340013 -0.02564338
000380 6b c0 07 3c 92 b2 7d bd 06 36 c1 bc 66 3c 87 bd
       0.008285622 -0.061937876 -0.02358533 -0.06603317
000390 b9 5d 16 bd bf a8 75 bd 54 e7 72 3c 75 48 27 bd
       -0.036710475 -0.059975382 0.014825661 -0.040840585
0003a0 3d e5 20 bd e1 cd 0c bb 50 9d b5 bb 8a e3 22 3b
       -0.03928112 -0.0021485018 -0.0055424348 0.0024854862
0003b0 68 09 33 bc 5b b1 55 39 81 89 b0 bc 8f 32 37 bd
       -0.010927536 0.00020379333 -0.021549942 -0.04472595
0003c0 0f 03 cf 3c 15 01 83 bd d3 d4 0e be f7 66 3d be
       0.025270013 -0.06396691 -0.13948373 -0.18496309
0003d0 d6 80 21 bb 3a f7 5d bd 10 75 74 bd bc ea 0e bd
       -0.0024643443 -0.05419085 -0.059681952 -0.03489183
0003e0 0a d4 09 bd 24 96 f1 bc ba 0b f2 3c ae 02 2e bd
       -0.03364948 -0.029490538 0.029546607 -0.042483024
0003f0 bb 2f 60 bd 73 4a 7a ba 1b 5e 84 bc d0 c1 88 bd
       -0.05473302 -0.0009547837 -0.016158154 -0.06677592

hidden2.weight f4 [256, 256]
000000 32 55 1f 3c 0a d2 c9 bd b9 92 05 be ea 55 5b 3c
       0.009724902 -0.09854515 -0.13044252 0.013387183
000010 db bf c2 bd 57 8e f6 3c 4a 08 92 bc c2 4e d6 bd
       -0.0950925 0.03009717 -0.017826218 -0.104642406
000020 f1 74 85 3d bd c8 31 3d fe 01 93 3c 5c 9d c1 bb
       0.065164454 0.04340433 0.017945286 -0.0059086513
000030 18 eb 80 bd 6c 5e 82 bd f3 c4 38 3d e9 74 9b 3d
       -0.062948406 -0.06365666 0.0451097 0.07590658
000040 4f 70 fb 3c a4 69 ab 3c 4c 6b b8 bd e9 84 73 3c
       0.030693201 0.020924397 -0.0900484 0.014863231
000050 0f 25 e7 3c d1 49 15 bd c8 4b b6 3c 6c bb 6d bd
       0.028215913 -0.03644735 0.022252932 -0.058040068
000060 81 5e 93 bd 5c 30 44 bd e0 ae 0f bc 02 51 19 3d
       -0.071957596 -0.04789768 -0.008769721 0.03743077
000070 6f de 43 bc f3 ad 72 3d 0d 3f 1e bd 5a de 5a bc
       -0.011954888 0.059247922 -0.03863435 -0.013358677
000080 bb 02 f1 3c 01 d2 9f 3c 2e cd 79 bb c8 72 3e bd
       0.029420247 0.019509317 -0.0038116681 -0.046496183
000090 d6 10 08 3d 0d fa 34 3b d5 bd 68 bc 40 67 f1 3b
       0.03321918 0.0027614862 -0.014205416 0.0073670447
0000a0 be 67 cf bc 13 5b c1 3c 38 e9 e6 bd 8e 80 1f 3e
       -0.025318023 0.023602998 -0.11274952 0.15576383
0000b0 90 d9 66 3d 10 39 f3 bc a3 1f af 3c 1d 65 de bd
       0.056359828 -0.029690295 0.02137739 -0.108591296
0000c0 12 81 39 bd 9d 68 9c 3c 99 72 bb 3b fe 5d f3 bc
       -0.045289107 0.019092852 0.005720448 -0.029707905
0000d0 68 b4 af bc 73 37 cf bd 5f 55 9a ba e9 09 e8 bc
       -0.02144833 -0.10117998 -0.001177471 -0.028325038
0000e0 9a ce 95 bd 1b b2 c8 bd 11 72 e2 3c a0 9a f6 bd
       -0.07314797 -0.09799596 0.027642282 -0.12041211
0000f0 84 69 e8 bc 17 c1 59 bd cf ee 24 3d d2 98 5e 3d
       -0.028370626 -0.05316266 0.040266808 0.05434496
000100 e3 ca 1a 3d 75 3d 29 3d 0b 2f b0 3c be 39 bb bd
       0.037791144 0.041318376 0.021506807 -0.09141873
000110 a8 cc 17 be 12 38 35 bd 47 44 31 3d 3b f9 7e bd
       -0.14824164 -0.044242926 0.043278005 -0.062249403
000120 65 7b ad bc 9d 53 4c bd e4 bb 4e 3c 40 ff a9 3b
       -0.021177003 -0.049884427 0.012618039 0.005187899
000130 14 b6 18 be 79 ff 52 bd 18 c6 25 3d 50 b5 7f bd
       -0.14913207 -0.05151317 0.04047212 -0.062428772
000140 0a 3e 89 3d 88 83 62 bc 0e 07 15 bd e9 c0 e1 bd
       0.06701286 -0.013825305 -0.03638368 -0.11023123
000150 a7 1f 04 bd 92 ea 5d 3d 57 34 19 3d df 45 41 bd
       -0.03225675 0.05417878 0.03740343 -0.047185775
000160 48 0b 9e bd f0 04 27 3c 1d 94 ba bd c9 48 92 bd
       -0.077169955 0.010194048 -0.091102816 -0.07142789
000170 05 5e be bd bc c9 82 3d c5 03 22 3c c4 4d bc bd
       -0.092952766 0.06386134 0.009888594 -0.0919452
000180 ab 8c cb 3c 81 10 45 be cb 6f 9e 3d c7 2a 47 bc
       0.02484735 -0.19244577 0.077361666 -0.012156195
000190 b0 71 31 3d 50 1d 5a 3c b5 f5 6d 3d 6d 92 0a bc
       0.04332131 0.013312653 0.058095653 -0.008457762
0001a0 a4 71 5a be 2f 56 66 3d 28 ea 62 3d 07 e6 6b 3b
       -0.21332413 0.056234535 0.05539909 0.0035995261
0001b0 d4 5d c4 bb 0c a0 20 be f3 9f 9c 3c ae 4f 92 bb
       -0.0059926305 -0.15686053 0.019119238 -0.004465065
0001c0 40 ff 49 3d 4c ad b2 3b a0 61 6c bc 04 bd ae bc
       0.04931569 0.0054527875 -0.0144275725 -0.021330364
0001d0 92 84 c1 bd e3 85 97 3c c1 0e 13 3d ef 4a 94 bd
       -0.09449114 0.01849646 0.035902742 -0.07240855
0001e0 ee 0c 50 3b 2d f4 81 bd 34 da 36 bd e0 55 3a 3d
       0.0031745988 -0.06345401 -0.04464169 0.045492053
0001f0 29 55 01 bd c5 90 9e bc b6 ea 4a bd 84 74 b9 3d
       -0.031575356 -0.01935614 -0.049540244 0.09055427
000200 a9 aa 18 3c bb d6 34 3d c6 f0 65 3d ff d3 79 3d
       0.009318032 0.044150095 0.056137823 0.06099319
000210 30 be 4a bc 5f 8b a2 3b b9 04 15 bc 1f f9 c0 bd
       -0.012374446 0.004960462 -0.009095364 -0.09422516
000220 76 69 9a bc 5d fb 9b bc e2 89 12 3d d4 b1 6f 3d
       -0.018849116 -0.019040758 0.035776027 0.0585192
000230 98 ad b0 3c 44 e9 00 be 64 b8 d0 bc 03 79 ee 3c
       0.021567151 -0.12588984 -0.02547855 0.029110437
000240 4c ec 7c bd 93 ad ac bd a3 47 79 3d a5 cf d0 3c
       -0.061748788 -0.08431544 0.060859334 0.025489638
000250 07 1c 31 3c a0 39 5d 3c 06 59 47 3d 38 24 78 bd
       0.010809905 0.013502508 0.048668884 -0.060581416
000260 d8 24 b5 bc 81 e5 04 3d 93 39 31 bd b1 3d 00 be
       -0.022112295 0.032445434 -0.043267798 -0.12523533
000270 b4 e5 b2 bd 91 ce 98 3c b7 f5 74 bb 20 53 60 bd
       -0.08735219 0.018653186 -0.0037377903 -0.054766774
000280 a8 9e 3d 3c 84 e9 8b 3d a8 fe 73 3d b2 6e 5d 3d
       0.011573471 0.06831649 0.05956903 0.054060645
000290 0c 4c 14 3d 04 10 af 3c e4 92 33 bd d6 11 2e bd
       0.036205336 0.021369942 -0.043841258 -0.04249748
0002a0 67 eb 54 bd 59 f1 fb 3b 9c 62 99 bd fe b2 02 3e
       -0.05198231 0.007688683 -0.07489511 0.12763593
0002b0 80 61 db 3c 28 fa 3a 3d 3b 05 bb 3d f9 55 11 3d
       0.02677989 0.045648724 0.09131857 0.03548238
0002c0 18 f3 df bc a8 5b 13 bd 4b bd 35 bc 18 c8 79 bd
       -0.027337596 -0.035976082 -0.011092494 -0.06098184
0002d0 89 33 1d 3d 90 df 75 bd 6d 65 0d bc 5d 3b b5 bc
       0.038379226 -0.06002766 -0.008630139 -0.022123033
0002e0 c0 dd c5 bc 37 0b 6f bd 5f ed 20 3c 7a f1 3d bb
       -0.02415359 -0.058360305 0.009822219 -0.0028983043
0002f0 30 3e d0 3c 3f 9c 9b bd 99 96 c9 bd 13 dc c0 bd
       0.025420278 -0.07598161 -0.09843177 -0.09416976
000300 58 6a 54 bd 9b a5 da bb c0 ef 26 bb 9e 40 80 bd
       -0.05185923 -0.0066725737 -0.0025472492 -0.06262325
000310 d1 67 00 bd 7c 6e 11 be fb fd f7 bd 2f 11 b1 bc
       -0.031349007 -0.14202303 -0.1210899 -0.02161464
000320 06 2b bb bd 11 9b 34 3d e0 c0 54 3d 54 32 90 3c
       -0.091390654 0.044093195 0.051941752 0.017602123
000330 f6 b8 d8 bc 14 43 67 be be 9b 98 3a 36 f5 1e 3d
       -0.026455384 -0.22584182 0.0011643094 0.03880807
000340 b3 e3 62 bc 2a 99 11 3d f5 ea 81 bc 39 c7 d6 bb
       -0.013848233 0.03554646 -0.015859107 -0.006554511
000350 d6 a3 4e bd a1 ea dc 3c 57 40 63 3d 35 d6 fd bd
       -0.050449215 0.026967349 0.05548128 -0.123943724
000360 95 3a 36 3d ab a4 5d bd 38 09 fe bd 20 c6 b2 bc
       0.044489462 -0.054112118 -0.12404102 -0.021822989
000370 f7 4b 81 3b 45 9d 71 bc 95 54 aa bc f5 b0 7b 3c
       0.0039458233 -0.014746969 -0.020792285 0.015362014
000380 f7 64 90 3b e5 23 94 bd 05 b5 87 3c 8a bb 1b bc
       0.004406567 -0.07233409 0.016565809 -0.009505162
000390 dc 84 62 bd 1b 45 fa bc 5f bb bf bc 26 65 d6 bd
       -0.055302486 -0.03055053 -0.023404775 -0.10468511
0003a0 2e 2c 38 3d 31 ee 2c bc a0 e9 22 bd fd 66 7f bd
       0.044964008 -0.010554836 -0.039773583 -0.062354077
0003b0 4f e1 54 3d bd 3b fe bb bd 9d 42 b9 95 a6 09 bc
       0.051972684 -0.007758586 -0.00018560044 -0.008401533
0003c0 4e b2 07 bd bf 8e 8c bc 4d f3 4f 3d cd 3a b8 bd
       -0.03312903 -0.01715791 0.05076914 -0.0899559
0003d0 4b b4 6c bd 8c 8d ca bd b2 56 1a 3d 23 5e 86 3d
       -0.05778913 -0.09890279 0.037680335 0.06560924
0003e0 0d b4 39 bd e7 7e 8a 3c 85 ed b9 3c c6 4c 9b 3d
       -0.045337725 0.016906215 0.022696266 0.07583003
0003f0 8b 91 b3 bc fc b5 97 bd 3d 3a 23 bc db 29 f2 bd
       -0.021919986 -0.07407758 -0.009962616 -0.118243895

hidden2.bias f4 [256]
000000 d0 fa 37 3d 93 a1 2d bc 3b a5 86 bd a4 fb 80 bc
       0.044916928 -0.010597604 -0.06574484 -0.015744992
000010 5e 31 70 bd 04 80 6d bd ff f5 cd bc 24 6f fb bc
       -0.05864083 -0.057983413 -0.025141714 -0.030692644
000020 2a e7 8a bc d1 9b 3f bc 60 6c 90 bd 78 17 76 3b
       -0.01695593 -0.011694864 -0.07051921 0.003755061
000030 98 f0 b6 bd 87 c1 d4 bd 83 e1 cc bb 46 3b 2b 3d
       -0.08932608 -0.10388475 -0.006252469 0.041804574
000040 77 30 8d ba 4e df dd bc 6f 7e 42 3e 55 1d 40 bd
       -0.001077189 -0.027084019 0.18993543 -0.046902973
000050 7f 57 24 bc 6b d1 2d bd 05 c1 1d bd bd 0f ae 3d
       -0.010030626 -0.042436045 -0.038514156 0.084990956
000060 81 eb 78 bc d1 a0 a1 bc 12 7e f3 bc 07 58 51 3e
       -0.015192867 -0.019730004 -0.029723201 0.20443736
000070 ef e2 59 3d 09 30 a4 3c a3 d3 61 3d 09 d6 94 bc
       0.053194936 0.020042436 0.055133473 -0.018168466
000080 c4 02 57 ba 8a 23 ef bd 00 36 25 3d e0 d4 3b bd
       -0.0008202011 -0.116767004 0.0403347 -0.04585731
000090 9e b1 74 bd df bc 7c be 52 4d c8 3a 90 07 51 3e
       -0.0597397 -0.24681424 0.0015281832 0.20413041
0000a0 26 bb 69 bd 78 49 eb 3b 40 40 c1 3d ed 4d 93 bd
       -0.057063244 0.007180389 0.09436083 -0.071925975
0000b0 67 73 4b bd 49 b9 99 bd e2 cb 41 bb 51 aa 91 bd
       -0.049670603 -0.075060435 -0.0029570987 -0.071125634
0000c0 7c 73 4e bd 0e 3e 75 3d 72 04 a4 bd d2 ee 15 bd
       -0.050403103 0.059873633 -0.080086604 -0.03660471
0000d0 c2 22 c5 bd d5 21 ee 3a 57 6b bb bb 67 1a cb 3d
       -0.0962577 0.0018168042 -0.005719583 0.09917145
0000e0 47 4c c7 3d 3e 46 3e bd de dc 18 bd 96 22 0a bd
       0.097313456 -0.046453707 -0.03732001 -0.03372439
0000f0 18 1d 82 bd 43 95 36 3c 36 9e 91 bd 10 2a b6 3c
       -0.063532054 0.011143985 -0.071102545 0.022236854
000100 38 3b ff 3c da c9 8d 3f 0c 02 c7 3d 9f 6e 3d bd
       0.031156167 1.1077225 0.09717187 -0.046248075
000110 ce dd 63 bd 35 d1 83 3d f8 ce f5 3c 92 54 b7 3d
       -0.05563145 0.064363874 0.030005917 0.089516774
000120 92 6f 66 3d ab d3 45 3d 3f 0b 96 bd 50 08 43 3c
       0.056258745 0.048297565 -0.07326364 0.011903837
000130 66 e2 8e 3c cf a3 be 3d 3b 77 79 bd 6b 7e 98 3d
       0.01744194 0.09308588 -0.060904723 0.07445987
000140 01 59 35 3d c7 0a 17 bd 7b b3 c4 3d f5 0a 1c 3d
       0.044274334 -0.036875512 0.09604546 0.038096387
000150 ed 82 5f 3f 66 50 fc bd fb 97 85 bc b7 64 17 bd
       0.8730915 -0.12320022 -0.016307821 -0.036961284
000160 08 d9 6a bd 21 5d 78 3d 58 84 15 bd 1d 96 c4 3b
       -0.057335883 0.06063569 -0.036503166 0.00599934
000170 8f 1f be bc ac 76 9a bd 89 c1 a5 bc 00 3f b6 3d
       -0.023208408 -0.07542166 -0.020233886 0.08898735
000180 d8 5d 32 bc 8a 11 82 3d d0 15 02 be d1 f8 23 bc
       -0.010886632 0.063510016 -0.12703633 -0.010008053
000190 7c 2b 5e 3e 15 82 a7 3d 44 2d 80 3d 77 84 66 bd
       0.21696275 0.08179108 0.06258634 -0.056278672
0001a0 47 8b 07 bc 82 8f a3 bc 41 82 04 bd 11 58 51 bd
       -0.008272952 -0.01996589 -0.032350782 -0.051109377
0001b0 46 38 dd bc 23 df fb bd 83 0b aa 3d 56 ed b0 bd
       -0.027004372 -0.12298419 0.08302977 -0.08639018
0001c0 57 0f 73 bd d1 03 be 3b 56 5c 91 bc 07 bc 0a 3d
       -0.0593408 0.005798795 -0.017744225 0.033870723
0001d0 29 cc 32 bc 73 ee a8 3c 02 a9 25 bd 40 fe 2b bd
       -0.010912933 0.020621514 -0.04044438 -0.04199052
0001e0 cf e5 5b bd b1 f0 20 3e 03 40 7a bd 3c 3c 19 3a
       -0.05368596 0.15716816 -0.061096203 0.00058454624
0001f0 9a f2 28 bd 25 b6 18 bd f8 8a e2 bc d4 2f 5c bd
       -0.041246988 -0.03728308 -0.027654156 -0.05375655
000200 3a 5f df 3a e7 0a 8c bd 77 6f cb 3d b4 d8 82 3c
       0.001704193 -0.06838017 0.099333696 0.015972473
000210 e2 e7 23 bd 7f 7f a4 bc d7 56 a1 bd e2 cd ed 3d
       -0.040016063 -0.020080326 -0.078778915 0.11611535
000220 e3 58 01 bd a7 63 c8 bc 76 08 d3 3c da 97 9e bd
       -0.03157891 -0.02446158 0.02576087 -0.07743807
000230 4a 7d 45 bd 89 45 2e bd d7 96 6d bc 54 d3 99 bc
       -0.048215188 -0.042546783 -0.014501295 -0.018777527
000240 1b 3b 55 bd 6e 5e 15 3d df 8b 5a bd 7c 93 b7 bc
       -0.05205832 0.03646701 -0.053356048 -0.022409193
000250 e0 c4 30 3e 15 e0 0d bd 73 0f cf 3c 5e a2 71 bc
       0.17262602 -0.03463753 0.025275921 -0.014748184
000260 02 c7 73 3d 9d e7 4d bd 7d 35 7d b9 8d fe a9 bc
       0.05951596 -0.05026971 -0.00024147886 -0.020751262
000270 2e 09 9b 3d 35 26 61 bd 4b 9f 28 3e 5d 6a af 3e
       0.0757011 -0.054968078 0.16467015 0.34260836
000280 0a 09 73 be 71 f7 67 bd af 66 b7 3a 0e 15 51 bd
       -0.23733917 -0.056632463 0.0013992394 -0.05104547
000290 53 f8 83 3a 8c 12 9e bd 55 e5 a1 bc 36 2c b3 bd
       0.0010068513 -0.07718381 -0.019762674 -0.08748667
0002a0 ef 6a 64 3f 0a e8 5e bd 84 ef ae bc 55 10 2b 3a
       0.8922567 -0.05442051 -0.021354444 0.0006525566
0002b0 67 15 01 be ec 5f ec bc 77 a8 0a bd 1d 7c 70 bb
       -0.1260582 -0.028854333 -0.033852067 -0.003669507
0002c0 1f e9 cd 3b 99 45 80 bd 69 45 94 3d 20 d1 9e bc
       0.0062838937 -0.06263275 0.072398014 -0.019386828
0002d0 95 4b 1b bd 61 2a ab 3d 7a 9d b4 bc f4 e8 73 bd
       -0.037913878 0.083576925 -0.022047747 -0.059548333
0002e0 99 c7 8b bc 33 4b aa 3d f1 99 dd bc bd 7f d1 bc
       -0.017062949 0.08315124 -0.027050944 -0.025573606
0002f0 e6 0a ea 3c 18 fc 9f 3c 07 cc a2 3c 7f 34 1c 3d
       0.02856965 0.019529387 0.019872678 0.038136
000300 be e4 c6 bd de f0 e6 3c 9f 36 30 3e 70 53 e1 3c
       -0.09711598 0.028191026 0.17208336 0.027505606
000310 e5 d3 88 bc 76 e1 81 3d 07 1c 55 be b3 36 2e 3d
       -0.016702602 0.063418314 -0.20811473 0.042532634
000320 eb d5 33 3d fa f7 62 bd b4 e7 33 be 7a 79 8b bc
       0.04390518 -0.05541227 -0.17568856 -0.017025698
000330 03 3e e7 bd c7 62 f6 3b ca 23 9c bc 55 75 40 bd
       -0.11291125 0.0075190994 -0.019060034 -0.046986897
000340 50 c0 92 bd 6e 2c 53 3c 74 eb 85 bd 11 e2 8c 3c
       -0.07165587 0.012889011 -0.0653905 0.01719764
000350 d6 5c cc bc 66 73 53 bd a4 53 5f bd c1 48 55 bc
       -0.024946611 -0.051623724 -0.054523125 -0.013017834
000360 27 21 92 bc 22 43 fa bc 17 02 f7 3c b4 48 a6 bd
       -0.017838074 -0.03054959 0.030152364 -0.08119336
000370 07 0b 5e bc db 8c d8 3e 4b 7b 2f 3d 85 fa 3a 3c
       -0.013552434 0.42294964 0.04284219 0.011412268
000380 63 2a ae bd b8 19 79 bd b7 98 91 ba a6 d0 ab bc
       -0.085041784 -0.060815543 -0.0011108135 -0.020973515
000390 72 cd 3d 3c 05 95 19 bd 77 23 13 bd 6d ae 9f bd
       0.0115846265 -0.03749563 -0.035922494 -0.07796941
0003a0 14 e7 a8 bc 75 81 9b 3d 72 6f 01 3d ef 6d 31 bd
       -0.020618 0.07593051 0.031600423 -0.04331773
0003b0 53 ce 49 3c e0 a7 30 bd 38 1a 9b bd 5a 1e 6a 3e
       0.012317258 -0.043128848 -0.0757336 0.2286314
0003c0 e6 90 6b bd a0 64 de bd 15 8f 2a bd 0e e2 67 bc
       -0.057511233 -0.108590364 -0.04164036 -0.014153017
0003d0 93 be 3b bd ba 20 ef bc bb d3 4c bb d3 90 88 bd
       -0.045836043 -0.02919041 -0.003125413 -0.06668248
0003e0 4c 37 0b 3d 0b b9 06 be 87 a8 9a 3c cd 27 62 3b
       0.033988282 -0.13156526 0.018879188 0.0034508586
0003f0 70 8b 43 bd 3b 5a dd bc eb 4e 64 bd ec a8 a0 bc
       -0.0477404 -0.027020564 -0.055739325 -0.019611798

last_mean.weight f4 [13, 256]
000000 7a 4b 67 3d 52 41 04 3d 41 3e d9 3b 65 ac 04 bf
       0.056468464 0.032288857 0.0066297357 -0.51825553
000010 8c 95 20 3d 53 7d cd 3b b9 ed d6 bc 5e fe 9d 3d
       0.03920512 0.0062710433 -0.026236402 0.07714532
000020 6e 31 16 3f 56 0f 9e bd 4f c7 77 3d 8c fc db bc
       0.58669174 -0.07717769 0.06049281 -0.026853822
000030 f9 58 b4 be 8c de 18 3c 53 c5 20 3e 50 3f 2e 3c
       -0.3522413 0.009330403 0.15700273 0.010635212
000040 0e 73 a3 3d 7e 6e 2c bd 4d 56 7e bd 70 cc 8c 3e
       0.07980929 -0.04209756 -0.06209402 0.27499723
000050 03 d6 f4 bc 4d 9d 0a be d5 32 6c 3b 72 6c d1 be
       -0.029887205 -0.13536568 0.003604104 -0.4090305
000060 45 83 83 bc 34 96 c3 3c fd a0 a4 3c 85 67 5a bd
       -0.016053805 0.023875333 0.020096296 -0.05332138
000070 5e 83 4c bf 41 d7 cb 3b 00 28 27 bc 85 1f 3d 3c
       -0.7988795 0.0062207286 -0.010202408 0.011543159
000080 cf c8 b4 bc 60 a0 a4 3d ff 32 fe 3c 9a 61 20 be
       -0.02206841 0.080384016 0.031030176 -0.15662232
000090 49 8c 9a 3c a6 a7 84 3e da 4c c9 3d 8b 15 9e 3e
       0.018865721 0.25909156 0.098291114 0.3087581
0000a0 ee fb 60 3d 98 eb 06 3d 1f be 5a 3d 93 61 12 3e
       0.05492776 0.032939523 0.05340397 0.14295034
0000b0 da 93 14 3c 92 9f 48 be 9e 44 3b 3c fb 54 4a bd
       0.009068454 -0.19592121 0.011429934 -0.04939745
0000c0 62 e0 c3 3e 05 85 4e bd 77 36 77 bb 28 cf c5 3c
       0.38257128 -0.050419826 -0.0037721673 0.024146631
0000d0 1c 34 db 3d 03 29 8b 3d d8 49 c4 3e 40 cf 84 bf
       0.107032984 0.06794932 0.38337588 -1.0375748
0000e0 96 b1 9c bb 0f ce dd 3b 57 cd 13 3c 55 65 8e 3c
       -0.004781912 0.006768949 0.009021125 0.017382303
0000f0 7d 4f 42 bc 91 7f 02 bd 2b a6 57 bf 4d a2 03 bc
       -0.011859772 -0.031859938 -0.8423793 -0.008034301
000100 f1 75 06 3c 9f 44 78 3e 77 d2 d0 3b e4 c2 08 3d
       0.00820683 0.24244927 0.0063727456 0.033388987
000110 7a e2 91 bd ca 35 c1 3e cb 60 80 be c0 46 74 bf
       -0.07123275 0.3773635 -0.25073847 -0.95420456
000120 14 21 31 3f 57 ed db 3b aa 89 7f be fa a9 5d 3b
       0.691911 0.0067116427 -0.24954858 0.0033823238
000130 5c 06 a3 3d 45 4b a7 bd 45 70 09 be 4e 5e 09 bd
       0.07960197 -0.081686534 -0.13421734 -0.0335372
000140 94 cc dc 3c 7e ce 8b 3c a3 e5 0e 3f 3b 48 84 3c
       0.02695302 0.017066237 0.5581915 0.016147723
000150 86 e6 45 be 90 b8 82 3d 60 60 3d 3d 12 d6 94 bd
       -0.19326219 0.06382859 0.04623449 -0.07267393
000160 f3 84 9e 3a 48 e0 45 bd 42 7b ae 3c 8f e6 89 bd
       0.0012094065 -0.048309594 0.021299008 -0.06733429
000170 5c a6 f6 bb 74 ec f7 bc 0c 54 2a be 95 ac ba bd
       -0.007527156 -0.030264117 -0.16633624 -0.09114949
000180 22 82 fd 3c 26 bd 4a 3e 3b bd 0b bc 17 83 89 bc
       0.030945841 0.19798717 -0.008529003 -0.016786141
000190 03 bc dd 3d 80 6b 05 be 33 d5 46 3a f7 e2 44 bc
       0.10826876 -0.13029289 0.000758487 -0.012017003
0001a0 23 23 87 bc 7f 16 8a 3b 67 9c ed bd 07 b9 ef 3b
       -0.016496247 0.0042141075 -0.11602097 0.007315758
0001b0 0b 96 8e bd 11 fb 91 be 40 ab 32 3c 15 9d 0c 3c
       -0.06962212 -0.2851186 0.010905087 0.008582373
0001c0 02 af e2 3c e5 09 06 3d 03 31 29 3c c9 a1 4e 3d
       0.02767134 0.03272428 0.010326627 0.05044726
0001d0 47 cd 5a 3e 49 d9 8d 3c 57 32 12 3d 1c c5 95 3c
       0.2136737 0.017315524 0.03569254 0.018282466
0001e0 38 09 d5 3e 9b f8 f3 bd bf f8 22 3d 2f e3 6e bc
       0.41608596 -0.11912652 0.039788004 -0.014580532
0001f0 08 63 9c 3e c0 c0 32 3c b6 f8 c9 3c 88 d9 13 3d
       0.30544305 0.010910213 0.024654727 0.036096126
000200 65 80 9f ba a2 b8 97 3c 5b 73 37 3d 10 c8 60 3d
       -0.0012169002 0.018520657 0.044787746 0.054878294
000210 07 67 66 bc d4 bd cc 3b f7 c4 7c 3e d3 b2 4f 3e
       -0.01406265 0.006248215 0.24684511 0.2028306
000220 5a 16 1a 3b 53 f2 77 bd 31 6c d6 bd b3 5e 38 3c
       0.0023511858 -0.060533833 -0.104698546 0.011253047
000230 74 a7 0c 3f ce e9 76 3c 71 59 1c 3d d1 33 af 3e
       0.54943013 0.015070392 0.038171235 0.3421922
000240 8d bc c2 3b ec a6 7e 3d 29 cd 8e 3d e8 33 c6 bd
       0.005942887 0.062170908 0.06972725 -0.09677869
000250 5c 4c 93 3e 53 03 70 3c d4 6a 41 3d 45 f0 0a 3d
       0.28769195 0.01464923 0.04722102 0.033920545
000260 d1 2a aa bd a2 ca 8f bc 88 52 00 3e 74 bc 1d 3d
       -0.08308948 -0.017552678 0.12531483 0.0385098
000270 f9 55 13 bc 47 82 5b 3d 08 57 19 bf 70 eb c4 3d
       -0.008992665 0.05359104 -0.59898424 0.09615219
000280 49 56 66 3c 40 0d 07 be 5e ac d5 bc 32 fb 97 3d
       0.014058658 -0.13188648 -0.026083168 0.074209586
000290 9d 62 1c 3d bf d7 b3 3e 79 25 d0 3e 97 10 fa 3d
       0.038179982 0.3512554 0.4065359 0.122101955
0002a0 c6 9a ea be 2b 45 29 be 10 02 55 ba 7e c4 22 3c
       -0.45821208 -0.16530292 -0.00081256125 0.009934543
0002b0 b2 7b fd 3c 13 af 97 3c 71 56 83 39 67 3a bc bc
       0.030942772 0.0185161 0.0002505067 -0.022977067
0002c0 e9 a1 c8 3e ae 1d 9a bc b8 14 36 be df 2a 24 3d
       0.39186028 -0.01881298 -0.17781341 0.040079948
0002d0 6a a9 c8 bc 4e 67 b4 bc 68 65 ce 3c f7 7b 56 3d
       -0.024494845 -0.022021916 0.025194839 0.052364316
0002e0 3e 12 ee 3d 3c a8 8f 3d 05 cc 8b 3d 98 76 85 be
       0.11624573 0.0701451 0.06826023 -0.26067042
0002f0 5d 11 b4 3e 4b 1b 5f 3c ce d6 d3 3a a3 f9 6f 3c
       0.35169497 0.013617347 0.0016162039 0.01464692
000300 b4 32 d2 bd 5a 87 86 bc cd e2 a2 be 4f d2 12 3c
       -0.10263577 -0.016421963 -0.3181366 0.008961274
000310 8c 87 ac bb 73 96 84 3e e5 7e 7a 3e 46 94 b1 3c
       -0.005265182 0.25896034 0.24462469 0.021677148
000320 b3 a7 08 bd 67 50 08 3e 5c 22 c9 bb 5c fc 0e bc
       -0.033363055 0.13311921 -0.006138129 -0.008727159
000330 62 73 10 3e 45 ae 63 3d c3 54 bd bd ca 4c 66 3d
       0.14106515 0.05558612 -0.09244683 0.056225576
000340 18 2d 05 3d 20 33 83 3d db f7 82 3d ef ea b9 3c
       0.032513708 0.06406236 0.06394931 0.022695033
000350 84 80 80 bb ba 93 0f 3c d9 8c 34 3c d0 a9 d8 3c
       -0.0039215703 0.008763248 0.011019909 0.02644816
000360 18 f7 88 3c 1c 36 bd 3c 1b 26 83 bd 6a 64 1c 3e
       0.016719386 0.02309709 -0.064037524 0.1527268
000370 49 28 88 bd 86 8d 84 be 2a 4d 38 3c 6e 39 02 3c
       -0.06648309 -0.25889224 0.011248866 0.007948263
000380 64 59 da 3d 9a b9 b1 3d b3 1c 09 3e a2 9c b3 3b
       0.10661581 0.08677979 0.13389854 0.0054813186
000390 06 34 4f bb f8 6d 73 3d 1f 17 03 3d 49 ea 20 bf
       -0.0031616702 0.059431046 0.032004472 -0.6285749
0003a0 c4 4e 53 3d 30 ff c9 bc 4f aa c1 3d 7a 5c bc 3c
       0.05158879 -0.024657816 0.09456312 0.022993315
0003b0 da 9e 2b bb 16 c4 f7 3c c4 b7 a3 3c fb bf 1c bb
       -0.0026187212 0.030244868 0.019985087 -0.002391814
0003c0 e4 23 a2 3d 8e 81 63 be a9 97 84 3c 04 95 9c 3d
       0.07917002 -0.2221739 0.016185598 0.0764561
0003d0 9e 82 34 3d fa 46 71 bd 2d 8a 5b 3d dd b3 92 3e
       0.04406988 -0.05890558 0.05359857 0.2865285
0003e0 c8 2e cf bc c6 71 21 bb 72 a4 30 bd b0 2a b3 bb
       -0.025290862 -0.0024634465 -0.043125577 -0.005467735
0003f0 ba ed cf 3d dc be 44 3c 0b 01 65 3d 44 d8 82 3d
       0.101527646 0.012008395 0.055909198 0.06388906

last_mean.bias f4 [13]
000000 f0 1f a5 bd 91 84 1e bf 83 25 48 bf 50 22 50 3f
       -0.08062732 -0.6192103 -0.7818224 0.81302357
000010 3a 60 05 be b7 ff 73 3e 46 ed a0 be db 4a 47 be
       -0.13024989 0.23828016 -0.31431025 -0.19462149
000020 67 1c 8d 3e 1b bf ac be 9e 07 36 be d1 ac 83 3e
       0.27560732 -0.33739552 -0.17776343 0.25717786
000030 fb 7a 0e be
       -0.13914101

last_fc_log_std.weight f4 [13, 256]
000000 70 a0 01 3d 64 bd a3 3c 36 80 7c 3c 97 4d 8a 3c
       0.031647146 0.01998777 0.015411427 0.0168827
000010 33 c6 ae 3c ff e6 69 3b 9c 00 c2 3c f5 18 e2 3c
       0.021334743 0.0035690663 0.023681931 0.027599791
000020 aa 5a 8f 3c fe 0c be 3d 28 65 d5 3d 73 b5 56 3d
       0.017499287 0.09279822 0.10419685 0.052419137
000030 a1 d8 b5 bd 3c 4b 32 3d b2 cf 4c 3d fd 3d 89 bb
       -0.08879209 0.04352878 0.05000276 -0.004188298
000040 74 09 e8 3c da 81 6e 3d 7c 54 33 bc 14 53 98 3e
       0.02832482 0.058229305 -0.010945436 0.29750884
000050 d8 94 96 bc 87 2c eb 3d 54 a7 a0 3c c1 e6 8d bb
       -0.018381521 0.11483102 0.019611038 -0.0043304865
000060 72 86 00 3c 67 fe a2 bc 37 03 07 3d a7 44 83 3b
       0.007844554 -0.0198967 0.03296205 0.0040059867
000070 0b ae 14 3e 8e bd 42 bc 8b 84 8f bb c7 34 6e 3c
       0.14519517 -0.011886014 -0.004379814 0.01453895
000080 c8 a5 02 bc f3 17 7b 3d 5e 7b e6 3b dd c2 34 3d
       -0.007974096 0.061302137 0.0070337495 0.04413115
000090 74 97 51 3c 9d 8e 16 3d 21 b2 a6 3d e0 68 bd 3c
       0.012792457 0.0367571 0.08139444 0.023121297
0000a0 88 f9 a4 3d 39 5f 59 3b 75 4d 84 bc 24 74 20 3d
       0.08055407 0.003316833 -0.016150216 0.03917326
0000b0 e0 91 bf 3c 77 c2 ab bd 73 ba 61 b9 d8 d9 11 3d
       0.023384988 -0.083867006 -0.0002152713 0.035608143
0000c0 7a a5 a8 3d ef f4 e1 3d 5b 11 d1 3c f8 d0 bb 3c
       0.08234687 0.110330455 0.025520971 0.022926793
0000d0 20 f8 72 3d 5b 30 fa 3c 3f c9 00 3d 6f f7 80 3e
       0.05931866 0.030540636 0.031441923 0.25188777
0000e0 19 85 01 3d b6 e8 13 3d f3 0e 55 3d 50 81 8d 3d
       0.031621072 0.036110602 0.05201621 0.0690943
0000f0 db f0 6b 3c a7 cd a9 3d ee 85 87 3e 26 c7 03 3d
       0.014400686 0.08291178 0.26469368 0.032172345
000100 4d e7 b3 3b ed d6 a6 bd 19 09 7d 3c e7 b4 23 bc
       0.0054902197 -0.081464626 0.015444064 -0.009991861
000110 b9 ac 8f 3d 3c 3a f1 3d 8e 17 7d 3d fb 7a 01 3f
       0.07015366 0.117786855 0.06179004 0.5057828
000120 85 63 96 bc 80 c7 88 bb 47 c9 15 3d 95 80 81 3d
       -0.018358001 -0.004174173 0.036568906 0.06323353
000130 e5 d4 03 3d b5 cf 16 3d c9 20 f5 3d 8b b0 01 3c
       0.032185454 0.03681918 0.11969144 0.007915626
000140 c8 b9 01 3d ee 28 74 3c c6 fa c4 3c 48 0d 16 3d
       0.031671315 0.0149023365 0.02404536 0.03663376
000150 40 eb f8 3c 82 23 8b 3d 40 1a 53 3c 86 b2 46 3d
       0.030385613 0.06793882 0.012884676 0.048510097
000160 f4 41 2e 3d 9d 51 85 3b 59 ed 73 3c 66 75 d4 bc
       0.042543367 0.004068567 0.014888131 -0.025934886
000170 85 53 fb 3c 68 31 11 3d 4c 89 ca 3d 60 d3 94 bb
       0.030679474 0.035447508 0.098894686 -0.0045417994
000180 32 d3 3b 3d 5a 8d 51 bc a2 96 d0 3c 0b a9 ef 3c
       0.04585571 -0.0127900485 0.025462452 0.02925541
000190 4d 73 4e bc b9 f9 95 bc d7 b1 24 3d 4f f9 62 3c
       -0.012600732 -0.018307554 0.040208664 0.013853385
0001a0 a1 c4 69 bb dc 15 8f 3c 6a a8 49 3d 17 2f 12 3d
       -0.0035670178 0.017466478 0.049232878 0.03568944
0001b0 ae 22 33 3d e6 29 c0 bc 01 18 dd 3d e8 58 18 3c
       0.043734245 -0.023457479 0.10795594 0.009298541
0001c0 5f cc 02 3c ad 42 3b bc 22 26 00 ba f5 98 97 3d
       0.007983296 -0.011429471 -0.0004888495 0.07402221
0001d0 e0 df 7f bb 90 b2 2a 3d cb a3 af 3d a3 1b 73 bc
       -0.0039043352 0.041674197 0.08576163 -0.014838132
0001e0 62 22 2f 3e cb 5c 8a 3c 7d 20 4b 3d 3a d6 04 3c
       0.1710296 0.01688995 0.04959153 0.008107716
0001f0 cd 10 08 3d 34 b6 01 3d e1 27 2a 3c 35 d5 da bc
       0.033219147 0.031667903 0.010385484 -0.026712993
000200 d5 66 e3 3b 35 9b 05 3d 3a bd a6 3c 51 c0 b8 3d
       0.006939749 0.03261872 0.020353902 0.090210564
000210 d6 45 47 3c ba 73 9d 3c eb 3d f6 3c 32 68 08 bd
       0.012162646 0.019220222 0.030058822 -0.033302493
000220 ec 2e 69 3d 3c 30 c0 bc 6e a6 33 3d 5a 7c 81 3d
       0.056929514 -0.0234605 0.04385989 0.06322546
000230 c8 90 97 bc d2 63 17 3d 12 c0 34 3c 77 e1 fd 3c
       -0.018501654 0.03696043 0.011032121 0.0309913
000240 23 b1 c1 3c 3e ad 29 3d 54 ab a7 3c f7 9e 9e 3c
       0.023644036 0.041424982 0.020467438 0.01936291
000250 e0 9b 90 3c a5 88 9e 3a f5 88 7d 3d 1f 43 ed 3c
       0.017652452 0.0012095167 0.06189819 0.02896267
000260 19 a0 96 3c 65 d1 27 3c 35 fa 03 3e 55 b6 39 3d
       0.018386887 0.010242795 0.12888415 0.0453399
000270 89 d0 82 3c a6 fe 29 3d 4c 5d 7c bd be c3 11 3d
       0.015968578 0.041502617 -0.061612412 0.035587065
000280 d5 27 40 3c db ac 12 bd 03 e4 49 3c c1 a1 f8 3c
       0.011728247 -0.03580938 0.012322429 0.030350568
000290 a1 11 88 3d 5d 4b ca ba d7 b9 99 3d f7 e7 5f 3d
       0.066439874 -0.0015433837 0.07506149 0.05466458
0002a0 4c f3 16 bd 3d de 53 3d 19 c9 8d 3b c5 af 15 3d
       -0.03685312 0.051725615 0.004326951 0.03654458
0002b0 95 5a b5 3d 73 43 1d bc 98 2a e3 3a 55 63 06 3d
       0.08855168 -0.009598601 0.001733142 0.032809574
0002c0 01 ce a3 3d a5 29 eb 3c 74 83 ca 3c d7 0b c2 3d
       0.079982765 0.028706381 0.024720885 0.094749145
0002d0 9a 48 fa 3c e3 e3 19 bd f1 1c 11 3c 0d 9d 97 3d
       0.030552197 -0.037570845 0.008856998 0.07403002
0002e0 02 03 7f 3d 66 db a8 bc bc 02 eb 3c 86 9c 17 3d
       0.062258728 -0.02061243 0.028687827 0.037014507
0002f0 4d 91 97 bc 98 a4 de 3c ac b5 bf bb f0 d3 ae 3d
       -0.018501902 0.027178094 -0.0058505144 0.085365176
000300 18 39 13 3e 3e fe 23 3c cd 26 32 3c 85 cf 8a 3c
       0.14377248 0.0100093465 0.010873509 0.016944656
000310 ad ca 73 bc 30 6e f5 3d 90 d3 89 3d 5f 65 91 3c
       -0.014879865 0.11983907 0.067298055 0.017748533
000320 db c7 c9 bc d9 9f a4 3d 6d 0e df 3c 3a a4 5f 3c
       -0.024631431 0.08038301 0.027228558 0.0136499945
000330 b9 bc 35 3d 77 62 26 3d 9d 4b 87 3e b6 9d 32 bb
       0.044369433 0.040621247 0.26424876 -0.0027254648
000340 4f e0 7c 3d 83 98 ee 3d 67 e1 4f 3d 85 b2 4d 3c
       0.061737355 0.11650183 0.05075207 0.012554769
000350 65 f2 29 bc c2 c8 ac 3c 17 88 ca 3b c1 6e 64 3d
       -0.010372733 0.021091823 0.006180774 0.055769686
000360 91 fe 1e 3c 26 e7 1e 3c 6b a8 98 3c cb 73 68 3d
       0.009704248 0.009698665 0.018634995 0.056751054
000370 e8 d7 7f bc 84 3a 54 3d 8c 5e a8 3c 99 11 9a 3b
       -0.015615441 0.051813617 0.020552896 0.004701805
000380 b7 c2 c8 3c 47 2f 7c bc 43 af fc 3c 3d cf 0c 3c
       0.02450691 -0.015392131 0.03084529 0.008594331
000390 13 52 62 3c 4a 40 72 3d 59 d3 e7 3c 08 09 62 3e
       0.013813513 0.059143342 0.02829902 0.22073758
0003a0 64 85 df 3d 9e 2e fa 3c fa 56 24 3d 6e b0 45 3d
       0.10914114 0.030539807 0.04012201 0.04826396
0003b0 5d b7 bc 3c 68 e9 f7 3c 56 08 fd 3c 71 34 bc bc
       0.023036653 0.030262664 0.030887764 -0.022974225
0003c0 f4 c2 03 3e 0b 71 22 bd 35 76 37 3d 5d c7 81 3d
       0.12867337 -0.039658587 0.044790465 0.06336854
0003d0 dd c9 24 3d 8b b0 b1 3c 76 03 d2 3c 37 ca 1c 3e
       0.040231574 0.021690628 0.025636416 0.15311514
0003e0 6c f6 03 3c fa 86 5c 3c 09 62 05 3e e1 1d c1 bc
       0.008054357 0.013459915 0.13025679 -0.023573818
0003f0 be d7 e4 3c c7 7c 66 3c 1e 0d 6a 3d 83 21 34 3d
       0.027934905 0.014067835 0.057141416 0.04397727

last_fc_log_std.bias f4 [13]
000000 0a d9 65 be ba b6 b9 be e2 f6 ca be 43 34 be be
       -0.22446075 -0.36272222 -0.39641482 -0.37149248
000010 6e c7 0d be 5b 97 00 be a8 4a 16 be 6f 4e 0c be
       -0.13845608 -0.12557738 -0.14676917 -0.13701795
000020 f1 2c f8 bd 20 3b 10 be b0 b3 0b be d6 fe 0b be
       -0.12117947 -0.14085054 -0.13642764 -0.13671431
000030 94 cd 1c be
       -0.15312797
