save_mode/SAC_v_500_qf2_network.pth (torch, 329559 bytes, 5 tensors)

fc0.weight f4 [256, 61]
000000 ec c2 95 bc 00 63 47 3d a8 14 12 bd 92 ce 28 bd
       -0.018281423 0.048678398 -0.03566423 -0.041212626
000010 b8 7d 62 bc 33 de fe 3e b0 9d e2 3c 6b 62 a4 bd
       -0.013823919 0.497789 0.027663082 -0.08026584
000020 e0 af 60 3d ec 7b bb 3c f8 db 01 3c c0 91 7a 3d
       0.054855227 0.022886239 0.00792598 0.061174154
000030 00 08 d5 ba 27 69 4f 3e 97 7f 45 be db 68 95 bc
       -0.0016252995 0.20254956 -0.19286953 -0.018238476
000040 f0 cb 27 3d c8 d4 76 bd 54 a0 07 bd c4 5d 28 3d
       0.040965974 -0.060261518 -0.033111885 0.041105047
000050 72 aa 1b 3d 90 32 f1 3b a5 b3 d6 3e 21 41 08 3f
       0.038004346 0.007360764 0.41933933 0.5322438
000060 88 1c 33 bd e0 09 52 3b 72 49 15 bd c0 00 39 bd
       -0.04372838 0.0032049343 -0.036446996 -0.04516673
000070 b2 8b 7d bd d0 4d 41 3d a1 67 5f 3e ae dd 8e 3b
       -0.061900802 0.04719335 0.21816875 0.0043599224
000080 c0 7e 1b 3d 92 10 1c bd 10 23 38 bd 3c 0a 28 bd
       0.037962675 -0.03810174 -0.044955313 -0.041025385
000090 50 98 40 bc 31 19 be be 5e c1 04 bf 7a 75 52 bf
       -0.011755064 -0.37128595 -0.51857555 -0.82210505
0000a0 08 e9 2a 3d 54 f4 b6 3c e0 09 5e bc 48 e6 d2 bc
       0.041726142 0.022333302 -0.013552159 -0.025744572
0000b0 20 33 f7 bb 6f b3 dd bd 87 85 1d 3e af 6c db bd
       -0.0075439364 -0.1082524 0.15382968 -0.10714089
0000c0 b5 59 db be cc 3b 81 40 1e 1a a9 40 b3 7a d3 c0
       -0.4284188 4.0385494 5.284438 -6.608728
0000d0 a7 03 25 3f c6 83 1b bf fa af 1d 3f 91 3d 25 3e
       0.644587 -0.60747945 0.61596644 0.16136767
0000e0 ea fb a0 be 61 c3 81 be 67 42 6d 3f f6 f9 1e 3c
       -0.31442195 -0.25344375 0.92679447 0.00970315
0000f0 a7 ad 38 bf f8 e5 3d bc 64 bd 5d bd 70 a7 01 3d
       -0.7213997 -0.011590473 -0.054135695 0.03165382
000100 c8 de bc bc ac 3c 08 bd 72 4e 9c be 0b a1 b5 3d
       -0.02305545 -0.033260986 -0.305286 0.08868607
000110 d3 76 59 bd f2 94 02 3d 16 fa 04 bd b0 d2 e0 bb
       -0.053091835 0.031880327 -0.032465063 -0.0068610534
000120 c0 00 94 3c 20 df 74 3b bc f0 2d 3e c1 dc 4f 3e
       0.018066764 0.0037364438 0.16986364 0.20299055
000130 85 fd 92 3e 00 ee 33 39 80 ed cf 3b 90 3f d0 3b
       0.28709045 0.00017159432 0.006345451 0.0063552335
000140 6c dd 1c bd 58 6f 64 bc 22 af 70 3e 60 74 f7 3e
       -0.0382971 -0.013942562 0.23504308 0.48330975
000150 1c 74 19 3f a0 a8 38 3b e8 ab a1 3c 88 82 e0 3c
       0.59942794 0.002817668 0.019735292 0.027405992
000160 a0 d3 ae 3b 08 b4 16 3d 78 e6 3a 3e 48 9c d6 3e
       0.0053352863 0.036792785 0.1825198 0.41916108
000170 e1 99 9b 3e dc ee 66 3d 50 90 bc 3b e2 e7 41 3d
       0.30390838 0.056380138 0.005754508 0.04734028
000180 1e 31 04 3d ee 65 2b bd d7 3a 9f be 9a 0e b6 be
       0.032273404 -0.041845255 -0.3109958 -0.35558015
000190 2a c1 29 bf 00 96 45 3a b0 0e 15 3c 06 b4 25 bd
       -0.6631037 0.00075373054 0.00909774 -0.040454887
0001a0 96 dc 3a bd f0 f5 2c bc 80 13 68 3d f0 4a 68 3e
       -0.045620523 -0.010556683 0.05665922 0.22684836
0001b0 7e d4 e5 3d 32 73 91 3f e0 ea 83 40 aa 63 bd 40
       0.1122217 1.136328 4.1224213 5.918416
0001c0 d5 3d e8 c0 5e a7 02 3e 16 2a e8 3d e1 7b 67 bd
       -7.257548 0.12759158 0.11336152 -0.056514625
0001d0 79 1e c7 3e 7f 77 10 bb 13 3b 45 bd 06 ab 63 3e
       0.38890436 -0.0022043881 -0.04815204 0.22233209
0001e0 e7 c3 28 bd 20 82 d3 be 4c 31 d1 bc 84 9e a9 3c
       -0.041202452 -0.41310215 -0.025536202 0.020705469
0001f0 60 09 5e bb 00 45 db 3b 8a 68 34 bd 8b 0c 28 bd
       -0.00338801 0.006691575 -0.04404501 -0.041027587
000200 fc 29 ef bc 9e a2 12 3d b6 42 5c 3d d8 6c 60 bd
       -0.029194824 0.035799615 0.053774558 -0.0547913
000210 44 67 28 3d b0 92 ad bc a0 cc b2 3c c7 ae 11 bd
       0.041114107 -0.02118811 0.021826088 -0.03556707
000220 3a 9d f3 bc 5a 5b 08 3b 20 2d b4 bb 48 a3 26 3c
       -0.029738057 0.0020806403 -0.0054985434 0.010170765
000230 d0 5e 96 3c 28 a4 cf bc e0 57 16 bd 5c 1c c0 bc
       0.018355757 -0.02534683 -0.036704898 -0.023451023
000240 64 32 c6 3c 41 d0 15 3d 68 8f 47 3c fa 1a 23 3d
       0.02419395 0.03657556 0.012180187 0.03982065
000250 f4 ad e4 bc a0 67 00 bb 44 ad 28 bd 38 37 01 bd
       -0.027914979 -0.0019593015 -0.041180864 -0.0315468
000260 85 31 62 3d c1 d4 8c bc 1a d2 28 3d e0 38 76 bb
       0.055223007 -0.017191293 0.041215993 -0.0037570521
000270 40 2d 38 3b 70 93 bd bc 6c fe b4 bc fe 82 b8 3b
       0.0028103143 -0.023141593 -0.022093974 0.00563085
000280 c5 41 60 bc 83 aa 27 bd 74 d3 0e 3d a2 88 22 3d
       -0.013687556 -0.040934097 0.034869626 0.039681084
000290 14 a6 a6 3c f4 87 40 3d 58 2a 7d 3c 19 1f ea bc
       0.020342864 0.047004655 0.01545199 -0.028579282
0002a0 7a fd 31 3b e3 0b 85 bd ff c8 60 3d 88 0f 44 3d
       0.002715914 -0.06496408 0.054879185 0.047866374
0002b0 91 81 05 3d d6 d7 25 bc c3 b4 a3 bc d2 4f 88 3d
       0.032594267 -0.01012226 -0.019983655 0.066558495
0002c0 4e c3 3c 3d b7 bc 86 b9 ec a8 14 bc 16 8d 41 bc
       0.046084695 -0.00025699075 -0.009073477 -0.011813423
0002d0 31 4b 51 3d 66 78 26 3c 20 21 ab 3c d0 c4 ba 3c
       0.0510971 0.010160541 0.020889819 0.022798926
0002e0 ec ad e3 3c e8 9c 1f 3d b8 9e e4 3c b8 ee ea 3c
       0.027792893 0.038967997 0.027907714 0.028678283
0002f0 02 a6 5e 3d a2 05 28 3d 06 39 44 bd 6e 45 65 3d
       0.054357536 0.041020997 -0.047905944 0.055974416
000300 d4 d6 17 bd 22 ba 59 3d 5c 45 7f 3d 3c f1 1b 3d
       -0.03707011 0.053156026 0.062322006 0.038071856
000310 84 e6 92 bc c0 38 c3 ba b0 c9 14 bc 50 eb 75 3d
       -0.017932184 -0.0014894232 -0.009081289 0.060038865
000320 80 86 91 3a 00 92 13 bd c4 3c 74 bd 36 92 09 3d
       0.0011102706 -0.03602791 -0.059628263 0.033586703
000330 20 e6 32 bc e8 06 69 3d 24 d5 a2 3c c0 95 53 3b
       -0.010919124 0.056891352 0.019877024 0.0032285303
000340 60 08 2c 3b 3c c2 23 bd d8 3a 52 bd ba 3f 30 bd
       0.002625011 -0.03998016 -0.05132565 -0.043029524
000350 b0 58 7a bc 42 87 75 3d 1c e6 46 bd f6 2f 0b 3d
       -0.015279934 0.059943445 -0.048559293 0.033981286
000360 64 73 fe bc e0 9c ed bb b0 85 d9 bb b0 14 c8 bb
       -0.031060882 -0.007251367 -0.0066382512 -0.006105982
000370 08 a8 33 bc 68 0f c7 3c 5c 6f 4c bd a8 91 16 3d
       -0.010965355 0.024299338 -0.049910888 0.036760002
000380 e4 84 24 3d 14 1e e8 bc 48 58 12 3d 34 69 95 bc
       0.040165797 -0.028334655 0.035728723 -0.018238641
000390 f0 cf b2 3b b2 5a 4b bd 00 91 58 bc d0 7d e1 bb
       0.005456917 -0.04964704 -0.013218164 -0.006881453
0003a0 80 62 b5 bc 12 76 41 bd 3c b3 d6 3c a0 f3 f8 bc
       -0.022141695 -0.04723174 0.026208512 -0.030389607
0003b0 34 70 91 3c 98 bd 51 3d 7a c0 06 3d ee f9 30 3d
       0.017753698 0.0512062 0.032898404 0.0432071
0003c0 34 d1 04 bd 78 65 d4 bc 80 81 50 ba 56 d9 07 bd
       -0.032426074 -0.02592729 -0.00079538673 -0.033166252
0003d0 d8 19 6d bd 5c b1 f1 bc e8 bf 2a 3c a6 1f 16 3d
       -0.057885975 -0.029503517 0.010421731 0.036651276
0003e0 62 2b 39 3d 01 90 10 be d1 bb 14 3e 32 c4 59 3d
       0.04520739 -0.14117433 0.14524771 0.053165622
0003f0 70 93 66 3d 54 e5 66 bd 94 5b 59 3d 70 0b 88 bc
       0.05629295 -0.056371048 0.05306585 -0.016607016

fc0.bias f4 [256]
000000 2f bb ae 41 80 63 d5 41 4c 93 e3 bb 00 00 00 00
       21.841398 26.673584 -0.0069450494 0.0
000010 57 60 ce 41 fc b7 15 bd 42 9c 08 c1 00 00 00 00
       25.79704 -0.036552414 -8.538149 0.0
000020 45 a3 d6 41 8b 53 d5 41 13 0b d5 41 fe 64 b8 c1
       26.829721 26.665792 26.630407 -23.049313
000030 36 50 d4 41 0a e7 81 bd 56 8b d6 41 59 0d d7 41
       26.539165 -0.06342895 26.818035 26.881517
000040 4d 4e 17 bd 5f ad 54 bd 20 42 b3 41 72 dc c3 41
       -0.036939908 -0.051923152 22.407288 24.48264
000050 43 b1 d6 41 4b 2a 45 c1 28 21 d6 41 2e 0d d6 41
       26.836554 -12.322825 26.76619 26.756435
000060 0b 2c d6 41 11 5f 3a bd f0 d7 d4 41 04 d7 d6 41
       26.771505 -0.04550082 26.605438 26.854988
000070 97 cf d6 41 66 1e 2f bd a1 93 d3 41 00 b1 4a c1
       26.851362 -0.0427536 26.447084 -12.668213
000080 aa 6c 41 3f f8 49 b2 bc c8 63 d8 41 18 b0 f0 c0
       0.75556433 -0.021763787 27.048721 -7.521496
000090 bf 65 d4 41 e3 ae d5 41 97 6f d4 41 d2 65 d7 41
       26.54968 26.710394 26.554487 26.924717
0000a0 01 a8 5d c1 76 01 b8 c1 6e 47 d7 41 e2 5a 0c c1
       -13.853517 -23.000713 26.909878 -8.772188
0000b0 ce 7a c8 41 aa f9 6b bd 98 ed d5 41 7f 6b 02 c1
       25.059963 -0.057611145 26.741013 -8.151244
0000c0 00 00 00 00 bf f7 b5 41 47 63 ad 41 da b4 1c c1
       0.0 22.74597 21.673475 -9.794153
0000d0 f0 3b d6 41 16 3a 36 bd 04 32 0f bd 00 00 00 00
       26.779266 -0.04448899 -0.034959808 0.0
0000e0 09 83 09 bd 3b 1a b6 41 e2 0e d5 41 28 71 cf bc
       -0.03357223 22.762808 26.632267 -0.025322512
0000f0 ac a2 d3 41 3e f8 d4 41 b6 9f d6 41 71 24 d5 41
       26.45443 26.621212 26.827984 26.642794
000100 e1 b2 9e bc 45 01 d5 41 a6 e0 a6 41 00 42 d6 41
       -0.019372405 26.62562 20.859692 26.782227
000110 e2 ed d4 41 85 ac 80 bd 26 d4 b4 41 50 6d 66 c1
       26.616154 -0.062829055 22.603588 -14.401688
000120 9f 55 4b c1 d2 3b 47 bd b5 c6 d6 41 ff 92 d5 41
       -12.708404 -0.048641033 26.847025 26.696775
000130 00 00 00 00 a8 f0 dd c0 f5 46 d6 41 d3 0a 63 bc
       0.0 -6.935627 26.784647 -0.013857561
000140 ba c8 b7 41 e2 94 4a bd 0b 8a 0e 41 5c 70 d6 41
       22.973011 -0.049458392 8.908702 26.804863
000150 45 2e ab c1 18 35 f1 bc ab 98 d7 41 f3 8a d6 41
       -21.397593 -0.029444262 26.949545 26.817846
000160 6a b1 57 c1 db ce d6 41 fc f4 b0 41 4a 8a d5 41
       -13.480814 26.851004 22.119621 26.692524
000170 93 31 d6 41 3c 96 29 bd e9 cd d5 41 68 59 d6 41
       26.774206 -0.04140304 26.725542 26.793655
000180 bc ad c3 41 21 3f d6 41 6b 11 82 bd 02 ab 51 c1
       24.459831 26.780825 -0.063509785 -13.10425
000190 1f 19 c4 41 39 32 d4 41 55 48 0c bd c3 18 78 bd
       24.512266 26.524523 -0.03424867 -0.06057049
0001a0 10 62 4f bc 75 d3 71 bd c3 88 27 c1 de 57 c5 41
       -0.012657657 -0.05903955 -10.470889 24.667904
0001b0 2b 18 d8 41 80 82 96 41 bd ac 6d c1 89 60 d2 41
       27.0118 18.81372 -14.854672 26.297136
0001c0 22 8b d6 41 b1 59 d7 41 a1 b8 d6 41 47 59 8e bd
       26.817936 26.918795 26.84015 -0.06950622
0001d0 4b 30 1f bd 8e d8 d6 41 10 47 d2 41 f2 ce d2 41
       -0.038864415 26.85574 26.284698 26.351048
0001e0 00 00 00 00 90 e2 88 41 67 78 d3 41 88 08 d5 41
       0.0 17.110626 26.43379 26.629166
0001f0 6b 35 d6 41 3c ec b8 41 c4 b0 81 c1 21 cd ca 41
       26.776083 23.115349 -16.211311 25.35016
000200 00 00 00 00 12 e0 f9 bc 0c d7 22 41 00 00 00 00
       0.0 -0.030502353 10.177502 0.0
000210 bd 6e d3 41 40 72 e5 c0 57 fa bd 41 fc ed d4 41
       26.429071 -7.1701965 23.747236 26.616203
000220 29 0e d7 41 4c 90 d6 41 da 88 d5 41 c0 44 83 41
       26.881914 26.820457 26.691822 16.40857
000230 50 b5 bc 41 a8 44 d6 41 c7 8e 85 41 09 25 f4 c0
       23.588531 26.783524 16.694715 -7.629521
000240 21 22 d6 41 a5 60 d6 41 ee 29 76 c1 78 7c d5 41
       26.766665 26.79719 -15.385237 26.685776
000250 43 41 1f 41 07 e3 b8 41 7c 43 b0 41 72 4f 71 c1
       9.953433 23.110853 22.032951 -15.081896
000260 57 27 b6 bb 15 db c8 41 e5 5f d6 41 9f dc d7 41
       -0.005558889 25.106974 26.796824 26.982725
000270 00 00 00 00 2a c9 d4 41 f5 25 ce bc 00 00 00 00
       0.0 26.598225 -0.025164584 0.0
000280 cf 42 b8 c1 d5 b1 d6 41 22 1d 6a bd bd 60 85 41
       -23.032621 26.836832 -0.05715669 16.672235
000290 f9 4f d9 41 31 10 d7 41 a6 19 d6 41 97 85 46 bd
       27.16405 26.882906 26.762524 -0.048467245
0002a0 6c 18 b2 c1 7d c8 d6 41 77 7d 6b c1 0d 7a d6 41
       -22.261925 26.847895 -14.718131 26.809595
0002b0 20 d5 d4 41 96 79 d3 41 d3 3d d7 41 f8 ec af c1
       26.604065 26.434368 26.905188 -21.990707
0002c0 a5 11 70 bd 54 1f 25 c1 2d e1 d4 41 cd b2 4c c1
       -0.058610577 -10.320148 26.60995 -12.793653
0002d0 3b b3 dc c0 b8 0d d5 41 00 00 00 00 8d 41 d6 41
       -6.8968787 26.631699 0.0 26.782007
0002e0 33 7e 04 bd bd ff 5e bc 31 b9 a8 41 cb 9b fb bc
       -0.032346915 -0.013610777 21.090425 -0.030713936
0002f0 b5 ee d6 41 16 59 c6 c0 00 00 00 00 cc 4d d6 41
       26.866556 -6.1983747 0.0 26.787987
000300 23 34 bc 41 3b 21 d3 41 01 35 2b bd c5 7d 65 bd
       23.525457 26.391226 -0.041798595 -0.056028146
000310 01 08 30 bd 6b be b5 41 b2 62 3b bd 6d 97 d6 41
       -0.042976383 22.717978 -0.04574842 26.823938
000320 b8 31 d7 41 9c 98 d5 41 4d 55 d5 41 61 d2 b9 41
       26.899277 26.699516 26.66665 23.227724
000330 00 00 00 00 a7 15 b8 c1 d4 5f d6 41 82 7b a1 41
       0.0 -23.010572 26.796791 20.185307
000340 00 00 00 00 68 fb 89 bc fb cb d4 41 d0 f7 10 bd
       0.0 -0.016843513 26.5996 -0.035392582
000350 74 ec d4 41 cc 4a d7 41 77 51 d8 41 17 64 d6 41
       26.615456 26.911522 27.039778 26.798872
000360 f3 f6 24 bd 48 76 d6 41 26 d4 15 bd 46 6e 79 41
       -0.04027457 26.807755 -0.036579274 15.589422
000370 21 6c 18 bd 00 00 00 00 d0 23 3b bd 2f 45 24 c1
       -0.037212495 0.0 -0.04568845 -10.266891
000380 24 53 d2 41 70 75 d6 41 1c a8 d6 41 9a 85 d6 41
       26.290596 26.807343 26.832085 26.815235
000390 f9 a4 d6 41 78 c9 cf c1 39 96 d6 41 c6 13 8e 41
       26.830553 -25.973373 26.82335 17.759655
0003a0 9d 89 d6 41 da d7 a7 41 e9 c4 27 c1 d2 7b d5 41
       26.817194 20.980396 -10.485574 26.68546
0003b0 7e f1 8b 41 d3 d1 d7 41 00 00 00 00 00 f7 d5 41
       17.492916 26.977453 0.0 26.745605
0003c0 07 28 ba 41 6d e1 d4 41 75 7a b0 41 d6 5c e8 bc
       23.269545 26.610071 22.059793 -0.02836458
0003d0 be 53 3d bd 53 a1 d6 41 2d 21 39 bd c7 87 d5 41
       -0.04622244 26.828772 -0.045197655 26.691298
0003e0 b3 b0 a1 c1 77 b8 d7 41 9a ee a7 41 fa 49 51 bd
       -20.211279 26.96507 20.991505 -0.05109594
0003f0 20 55 d6 41 7e 2a c2 41 0d a2 d5 41 82 13 97 bd
       26.791565 24.270748 26.704126 -0.07376768

fc1.weight f4 [256, 256]
000000 69 44 c4 3e 07 b4 51 3e 97 90 10 3d 7c aa 74 bd
       0.38333443 0.20478831 0.03529414 -0.0597329
000010 ad f6 1d 3e 62 9a 22 3c 2c 3e f3 bf 2a 54 78 3d
       0.1542613 0.009924503 -1.9003348 0.06062714
000020 48 ae d3 3e c1 11 70 3e 0e 0b f5 3e b1 6d 04 c0
       0.41343904 0.23444273 0.47859997 -2.069195
000030 88 02 d8 3e 48 f4 7b 3b d6 b1 ae 3e 01 6f e0 3e
       0.4218943 0.0038445164 0.34120053 0.4383469
000040 e3 1d 86 bd ad cd 6c bd a0 16 1e 3f d9 30 39 3f
       -0.06548669 -0.057813335 0.61753273 0.7234016
000050 94 54 02 3f 59 47 28 3f 9e 81 d4 3e c3 06 9d 3e
       0.50910306 0.6573387 0.4150514 0.3066922
000060 13 94 03 3e f0 7a 6f 3c 00 dc 6f 3f 45 a2 e7 3e
       0.12849455 0.014616713 0.9369507 0.4524099
000070 c1 e9 e2 3e 99 2b 78 3d 1b 4c 41 3e c8 95 2e 3f
       0.44318965 0.060588453 0.18876688 0.681973
000080 88 cc f3 3e a0 1a 6f bd f1 fa 34 3f 58 d4 7d be
       0.47616982 -0.058375 0.70695406 -0.24788034
000090 dc 21 82 3e 69 37 9f 3d 9e 17 83 3e df 90 d7 3e
       0.25416458 0.077742405 0.25603956 0.42102715
0000a0 b8 55 88 be 7a fc f6 bf 24 fa 26 3f bc f6 01 c0
       -0.26627898 -1.92958 0.65225434 -2.0306845
0000b0 0f db 33 3f a1 74 be 3c 3e 01 2a 3f 12 3a 7b 3e
       0.7025613 0.023248972 0.66408145 0.24533871
0000c0 f0 be f7 3b 06 11 32 3e b0 42 be 3d bf bf 10 bf
       0.0075606033 0.17389306 0.092900634 -0.5654258
0000d0 cc 9e fb 3e c7 63 a4 bc 30 11 81 3c 50 40 e2 bb
       0.4914459 -0.020067109 0.015755266 -0.0069046393
0000e0 35 95 0c bd 5a 3c a3 3e 04 e6 74 3f 90 cd 30 bd
       -0.034321982 0.31881982 0.95663476 -0.04316479
0000f0 df 73 75 3e 4e 39 6e 3e 8c c7 a3 3e c2 24 91 3e
       0.23969983 0.23264048 0.3198818 0.28348356
000100 77 2e 7d ba f7 68 52 3e e2 50 c1 3e 53 27 88 3f
       -0.0009658108 0.20547853 0.3775702 1.0637001
000110 ce f2 fa 3d 73 cf 51 bd 4d a5 95 3e bf 41 24 bf
       0.122533426 -0.05122323 0.29227677 -0.6416282
000120 14 6d 55 bf 69 a0 82 b8 19 63 cf 3e 97 7f 53 3e
       -0.83369565 -6.228762e-05 0.40505293 0.2065414
000130 40 b0 fc bb 93 01 01 c0 cc 98 b3 3e c0 5c 05 3d
       -0.0077114403 -2.015721 0.35077512 0.032559156
000140 4a c6 25 3f 29 c3 57 3d fc f8 9e 3e 9b 07 01 3f
       0.6475569 0.052676354 0.31049335 0.5040223
000150 5a e9 04 c1 03 5a 2d 3d 63 ad fb 3e fe 42 87 3e
       -8.306971 0.04232217 0.4915572 0.26418298
000160 63 ad d9 be 19 73 c6 3e 0f 4a 86 3f b6 8a 4c 3e
       -0.42515096 0.38759688 1.0491351 0.19974789
000170 cb c1 02 3f a0 df 17 bc 77 d2 70 3e 24 a2 4d 3e
       0.51076955 -0.009269625 0.23517786 0.20081383
000180 24 42 33 3e 90 90 c8 3e 80 8c 6a 3c 9f 21 10 3f
       0.175057 0.39172792 0.014315724 0.563013
000190 c7 cf 22 3f b7 95 a6 3d f4 11 1b 3c fc 5c 61 bd
       0.63598293 0.081340246 0.00946473 -0.055020317
0001a0 ef 33 fb bc d8 6e af 3c 6b 23 9d 3d b7 a2 47 3e
       -0.030664412 0.02141516 0.07672771 0.19495665
0001b0 d4 f0 fa 3e ba ab 35 3f 8e af 69 3e 1a 7b 6f 3e
       0.49011862 0.7096516 0.22820875 0.23386803
0001c0 d9 ec 5a 3e fa ea c7 3e 3c 85 e9 3e 4e 41 71 bd
       0.21379413 0.3904646 0.45609462 -0.05890017
0001d0 ba 92 54 3d 58 fe c0 3e 76 92 d7 3c 5b 54 8b 3f
       0.05189774 0.3769405 0.026314955 1.0885118
0001e0 d4 90 a8 3c 1b f5 87 3f 9c 9f 20 3e b2 b4 29 3e
       0.020576872 1.0621675 0.15685886 0.16572836
0001f0 83 5d ef 3e 4f 9f 8b 3f fa c0 5a c0 53 37 e2 3e
       0.4675103 1.0907992 -3.4180284 0.44182834
000200 c0 1a ef bc 62 32 8c bc dd ff a1 3f 7c e5 97 3c
       -0.02918756 -0.017113868 1.2656208 0.018542044
000210 7a d5 5c 3e 28 9e 5d bf 0d 36 3d 3f 05 aa 13 3f
       0.2156581 -0.8656945 0.739106 0.57681304
000220 76 e2 d3 3e 33 c8 00 3f 73 c1 91 3e 81 59 85 3f
       0.41383713 0.5030548 0.28467903 1.041794
000230 fb aa 34 3f 72 93 53 3f e7 49 19 3f 88 58 19 c0
       0.70573395 0.8264686 0.5987839 -2.3960285
000240 52 ec a6 3e 17 cc a3 3e 21 4d 77 bf a8 bf 7d 3f
       0.32602173 0.31991646 -0.96602064 0.9912057
000250 1e 2c 55 3f 93 d5 e7 3e 9c 2e 59 3f 42 db 74 be
       0.8327044 0.45280132 0.84836745 -0.23911765
000260 a4 be 77 3d 6e 6d 51 3f 92 b4 d7 3e 85 05 02 3f
       0.060484543 0.818076 0.42129952 0.5078967
000270 bc 25 e9 3c a2 77 c2 38 f1 8d 94 3d 46 66 04 3d
       0.028460376 9.272924e-05 0.07253636 0.032324098
000280 96 82 e5 bf 46 e3 f9 3e 6a 1d 93 bd 14 3b 3a 3f
       -1.7930477 0.48806208 -0.07183345 0.72746396
000290 c3 cf 4c 3f 7a af e2 3e 28 b9 b8 3e da 17 19 bd
       0.8000452 0.44274503 0.36078763 -0.037376262
0002a0 f4 15 44 c0 5d 1d be 3e 64 b9 bb be b7 ec 3a 3e
       -3.06384 0.37131777 -0.3666488 0.18254362
0002b0 7f c0 10 3e da 87 86 3e a2 4c bb 3e a7 56 1f c0
       0.14135931 0.26275522 0.36581904 -2.4896638
0002c0 9a 06 8a bd 25 3e 47 3f 25 67 5e 3f ed 1e 93 3d
       -0.067395404 0.778292 0.86876136 0.07183633
0002d0 97 5f 67 bf 99 d7 59 3e 08 60 81 bc 48 58 f0 3d
       -0.90380234 0.2127365 -0.015792862 0.11735588
0002e0 3b 1a 67 3d 42 fd d1 bc f1 37 1d 3f 32 77 fd bc
       0.0564215 -0.025633458 0.61413485 -0.030940626
0002f0 85 f1 8f 3e b0 ac 25 3f 90 fa 5c 3c 20 45 1e 3e
       0.28113952 0.64716625 0.013487473 0.15456057
000300 81 c0 54 3f 71 2c 94 3e 3c 20 f9 bb 57 9a 98 bb
       0.8310624 0.28940156 -0.0076027196 -0.0046570706
000310 88 1a 58 bd 8c 20 44 3f 49 db d4 3a b9 f3 d2 3e
       -0.052759677 0.7661216 0.0016239668 0.4120157
000320 23 7c 99 3e 33 ea 76 3e d2 8c 59 3e 2e 73 bc 3e
       0.2997752 0.24112777 0.21245125 0.36806625
000330 e8 94 08 bc bd 4b 04 c0 8b a8 87 3e b5 9b 53 3f
       -0.008336283 -2.0671227 0.26495776 0.82659465
000340 d8 ee 62 bc 89 6d 0f 3b f5 85 6b 3d dc ed 78 3c
       -0.01385089 0.0021885356 0.0575008 0.015193429
000350 58 29 e8 3d 67 fb cc 3e 3b 34 99 3f 0a d3 a0 3e
       0.11336011 0.40035555 1.1969064 0.3141101
000360 37 6a 8e bd 7d 43 eb 3e 80 85 2c bd d3 7d 1a 3f
       -0.069538526 0.45949927 -0.042119503 0.6034824
000370 19 f2 87 bc fe 75 3c 3d fc 1e aa bd 0e 48 9d c0
       -0.016594933 0.046010964 -0.08306691 -4.9150457
000380 e0 3b d0 3e f5 d0 1a 3f d5 42 05 3f 63 a3 de 3e
       0.4067068 0.60475093 0.520551 0.4348403
000390 eb b1 23 3f cf 3b 0c bf da 3a 06 3f 72 87 ac 3f
       0.63943356 -0.5477876 0.5243355 1.3478835
0003a0 86 8e e5 3e 91 f3 e6 3e d7 d5 10 3e 29 cf 5f 3f
       0.448353 0.451077 0.14144073 0.87425476
0003b0 06 45 85 40 de 88 1e 3f 40 e0 92 bb 6e 1d fb 3e
       4.1646757 0.6192759 -0.004482299 0.4904589
0003c0 40 06 3f 3f a9 1b 7a 3e 33 27 ed 3e 06 aa 36 bd
       0.7461891 0.24424614 0.4631897 -0.04459574
0003d0 88 e5 b1 bd 72 fd f9 3e ad 86 ba bd 4d 88 4d 3e
       -0.08686358 0.48826176 -0.091077186 0.20071526
0003e0 b0 a2 eb c0 0f a7 ec 3e c6 d4 27 3f 0e 73 1a bd
       -7.3636093 0.46221206 0.6555904 -0.03770738
0003f0 dc 07 bd 3e 8a 5e 36 3f 31 75 14 3e 62 b1 7f bd
       0.3692006 0.71238005 0.1449783 -0.062425025

fc1.bias f4 [256]
000000 43 0e d7 41 51 f8 d6 41 13 f0 a8 bc b4 0a d7 41
       26.881964 26.871248 -0.020622289 26.880226
000010 13 b6 04 bd 19 19 d7 41 c2 1f 04 bc bc 0d d7 41
       -0.032400202 26.887255 -0.008064212 26.881706
000020 25 62 03 bd 86 e9 d6 41 00 00 00 00 f0 c0 d6 41
       -0.03207602 26.864025 0.0 26.844208
000030 d0 ef a6 bc ec 77 d7 41 e8 26 89 3d c5 ee d6 41
       -0.020378023 26.933556 0.06696874 26.866587
000040 7c 06 d7 41 28 bd d6 41 4b f4 d6 41 4a 13 d7 41
       26.878166 26.842361 26.869284 26.884418
000050 1d 52 d4 41 4c ff d6 41 66 dc d6 41 cd 1b 07 c1
       26.540094 26.874657 26.857616 -8.444287
000060 d3 1a d7 41 39 12 d7 41 ba 16 d7 41 95 e3 d6 41
       26.888098 26.883898 26.886097 26.861124
000070 e1 e2 d6 41 63 f0 d6 41 85 f5 0f bd ed 34 0d 3c
       26.86078 26.867376 -0.035146255 0.0086185755
000080 09 e4 d6 41 3d 31 d7 41 04 96 d7 41 1a dd d6 41
       26.861345 26.899042 26.94825 26.85796
000090 66 12 d7 41 60 40 d3 41 ba 0a d7 41 18 b0 d6 41
       26.883984 26.406433 26.880238 26.835983
0000a0 7b 66 12 bd d7 c9 c4 bb 9b 5e 0f bc 07 5d d5 41
       -0.035742264 -0.0060055065 -0.008750583 26.670424
0000b0 c9 6f f0 bc 00 00 00 00 65 00 d7 41 96 f3 a9 3d
       -0.029350178 0.0 26.875193 0.082984135
0000c0 24 a0 85 bc 37 3f 07 bc 77 4d d7 41 3a e4 d6 41
       -0.016311713 -0.008254818 26.912825 26.861439
0000d0 bf c9 d6 41 00 00 00 00 e4 5f d7 41 91 1b d7 41
       26.848509 0.0 26.921822 26.88846
0000e0 f5 1a d7 41 00 00 00 00 70 ef 1c 41 df e9 a7 bc
       26.888163 0.0 9.808456 -0.02049726
0000f0 6f 0c d7 41 a3 40 2b bd 84 3e 0f bc a1 ee f7 c0
       26.881071 -0.04180969 -0.008742932 -7.7478795
000100 5a 61 76 bd 00 00 00 00 83 74 57 bc 03 88 a7 bc
       -0.060151435 0.0 -0.013150337 -0.020450598
000110 13 80 d7 41 4f 71 9a 3c a0 1b d7 41 99 2a d4 41
       26.937536 0.018852858 26.888489 26.5208
000120 02 88 a7 bc af a5 d6 41 5b 01 d7 41 59 a8 9f 3c
       -0.020450596 26.8309 26.875662 0.019489454
000130 ef b7 7a bc 9d 08 d7 41 74 06 d7 41 fe 80 d7 41
       -0.015302642 26.879206 26.87815 26.937984
000140 1a 13 02 bc 5b 58 55 bd 41 07 d7 41 d8 c9 c4 bb
       -0.0079391245 -0.052086215 26.878542 -0.006005507
000150 a0 f1 6e bd ea e6 d6 41 65 f8 d7 41 52 68 bf bb
       -0.0583359 26.862751 26.996286 -0.0058412934
000160 a5 0e 04 c1 56 da d5 41 f4 81 d7 41 f6 27 d7 41
       -8.253575 26.73161 26.938454 26.894512
000170 79 2d d7 41 73 90 e0 41 06 05 d7 41 fd ba 0c bd
       26.897203 28.070532 26.877453 -0.034358013
000180 23 be d5 41 78 c5 d6 41 8f 38 d7 41 6b 03 d7 41
       26.71784 26.84642 26.902617 26.876669
000190 8a 3d 31 3e 36 d1 a6 bc bd d6 e8 41 00 00 00 00
       0.17308632 -0.020363431 29.104853 0.0
0001a0 a3 17 d7 41 69 3a b4 bc ce f1 d6 41 37 06 0c bc
       26.886541 -0.022000508 26.868069 -0.008546404
0001b0 75 ee d6 41 e6 ff d6 41 96 79 d5 41 88 16 d7 41
       26.866434 26.87495 26.684368 26.886002
0001c0 a7 b5 df 41 61 22 d7 41 5a e3 d6 41 40 15 d7 41
       27.963697 26.891787 26.861012 26.885376
0001d0 0a 08 d6 41 4e 4a a5 3d 40 ba 16 bc e4 a5 e3 41
       26.753925 0.08070813 -0.009199679 28.456001
0001e0 84 53 b4 bc 4a 0e d7 41 bf d0 d6 41 dc d3 d6 41
       -0.02201248 26.881977 26.851927 26.853447
0001f0 63 cb f1 c0 8e f8 d6 41 34 be d6 41 64 2c d7 41
       -7.5560775 26.871365 26.842873 26.896675
000200 72 ea c3 bb c1 14 d4 bb 71 fc d6 41 79 ff d6 41
       -0.005978876 -0.0064722006 26.873262 26.874743
000210 75 6d 18 bc 39 07 d7 41 26 f0 d6 41 47 f5 d6 41
       -0.00930344 26.878527 26.86726 26.869764
000220 1d 0d d7 41 fb 51 d7 41 77 17 ca 3b 2f 87 d5 41
       26.881403 26.91503 0.006167348 26.691008
000230 07 95 5c bc da 6c 18 3d 0a bd 16 bc 49 aa d1 3c
       -0.013463265 0.037213184 -0.009200344 0.025593894
000240 0c 0f d7 41 17 6e df 41 00 f9 0f bd d9 1c 02 bd
       26.882347 27.928755 -0.035149574 -0.031765793
000250 0b 08 d7 41 b0 4f b7 bb 63 44 10 bc 0d d8 e0 41
       26.878927 -0.0055942163 -0.008805367 28.105494
000260 f8 61 a4 bc 98 f5 d6 41 d1 e8 b4 bc 26 07 d7 41
       -0.020066246 26.869919 -0.022083672 26.87849
000270 df 7e e5 bb a6 fe d6 41 da de d1 bb 16 f0 a8 bc
       -0.0070036496 26.87434 -0.00640474 -0.020622294
000280 0a 07 35 bc ad ef d6 41 00 00 00 00 69 3b d7 41
       -0.0110490415 26.86703 0.0 26.904009
000290 6f aa d4 41 13 c3 e2 41 6b e6 d6 41 c7 ef d6 41
       26.58322 28.345251 26.862509 26.867079
0002a0 1c f5 d6 41 ec 9e e1 41 d7 c9 c4 bb be bf d3 41
       26.869682 28.202599 -0.0060055065 26.468624
0002b0 b1 65 d6 41 8a 57 d7 41 9b 1c 02 bd 5d c3 7a 3d
       26.799654 26.917744 -0.03176556 0.06122147
0002c0 4a 75 d5 41 06 9f d7 41 3a ef d6 41 b8 8c b9 41
       26.68227 26.952648 26.86681 23.19371
0002d0 00 00 00 00 d9 c9 c4 bb 00 00 00 00 9f 07 d7 41
       0.0 -0.0060055074 0.0 26.878721
0002e0 fb 61 a4 bc b1 db d6 bb 71 92 65 bc e4 b5 d3 41
       -0.020066252 -0.006556951 -0.014011965 26.463814
0002f0 00 00 00 00 19 fe d6 41 34 55 d5 41 c0 12 6c 3d
       0.0 26.874071 26.666603 0.05763507
000300 cf cd d6 41 65 d2 d6 41 7c fd 2d bd 64 94 de 41
       26.850492 26.852732 -0.04247807 27.822456
000310 e6 0d 61 bc 00 00 00 00 f5 6f 23 be 57 27 b6 bb
       -0.013736224 0.0 -0.15960677 -0.005558889
000320 f1 68 5d bd 3a e8 94 bc 53 4c e0 bb 03 00 d7 41
       -0.054055158 -0.01817714 -0.006845036 26.875006
000330 d8 c9 c4 bb 99 8d e6 bb 41 36 bb bb 01 e4 8d 41
       -0.006005507 -0.0070359227 -0.0057132547 17.73633
000340 bc 2a 09 bd 2a 0b d7 41 ba 2b d7 41 19 5b d4 41
       -0.03348802 26.880451 26.89635 26.544481
000350 ba e9 d6 41 b4 0f d7 41 8b de d6 41 e8 6a d5 41
       26.864124 26.882668 26.858664 26.6772
000360 6f f8 d6 41 02 e2 d6 41 8c 12 d7 41 00 00 00 00
       26.871305 26.860355 26.884056 0.0
000370 22 ee d6 41 7e e7 d6 41 ae 70 75 bc 43 7b 0d c1
       26.866276 26.863033 -0.014980478 -8.842593
000380 ac 54 d7 41 d0 e0 d6 41 08 e6 d6 41 cf 0c d7 41
       26.916344 26.859772 26.86232 26.881254
000390 76 b4 07 bd d2 1c 02 bd 8a 5d d7 41 b5 c5 d5 41
       -0.033131085 -0.031765766 26.920673 26.721537
0003a0 bc 1a d7 41 0e db 26 c1 81 87 d7 41 ae ff d6 41
       26.888054 -10.42848 26.941164 26.874844
0003b0 97 f8 d6 41 95 da d6 41 45 58 d6 41 85 c1 d6 41
       26.871382 26.85673 26.7931 26.844492
0003c0 a6 4d 05 c1 4f 0c d7 41 84 59 c6 bd bc b2 d6 41
       -8.331457 26.88101 -0.096850425 26.837273
0003d0 83 74 57 bc f4 09 d7 41 46 1b d7 41 00 00 00 00
       -0.013150337 26.87986 26.888317 0.0
0003e0 8c 06 d7 41 08 56 ab bb 4d 18 d7 41 13 fd c4 bb
       26.878197 -0.0052287616 26.886866 -0.006011614
0003f0 cc 3b 45 3c 45 91 1b bd 91 00 e8 bb 45 73 d7 41
       0.0120381825 -0.037980337 -0.0070801456 26.931284

last_fc.weight f4 [1, 256]
000000 45 fa fb be d3 d6 ff be 4b b0 9b bc fb 33 02 bf
       -0.49214378 -0.49968585 -0.019004961 -0.50860566
000010 04 ed ad b6 28 62 0c bf 9b 89 bc bb 69 d7 09 bf
       -5.183394e-06 -0.54837275 -0.0057537085 -0.53844315
000020 f3 39 e8 3c 92 cc 02 bf f4 48 87 3a f9 e9 d1 be
       0.028347945 -0.510934 0.0010321424 -0.4099882
000030 ce f5 94 bc 4b fa 3d bf 72 7c a5 bd d7 bd f7 be
       -0.018183615 -0.7421004 -0.08080377 -0.48387024
000040 86 cc 09 bf 39 6a d8 be f0 4b f6 be 5d a9 fd be
       -0.53827703 -0.4226854 -0.4810481 -0.49543276
000050 9e 20 99 be b9 31 01 bf e5 66 f7 be 5d 5d 25 3c
       -0.29907697 -0.50466496 -0.4832069 0.01009306
000060 47 ea 08 bf 6c eb 0d bf ec 15 0b bf c0 ba ea be
       -0.5348248 -0.5543735 -0.54330325 -0.45845604
000070 56 2c fc be a6 1d e1 be 78 e7 1b bc 78 3b 6b bc
       -0.49252576 -0.43967932 -0.009515636 -0.01435744
000080 ff 46 f5 be 1c 81 0c bf 54 c1 3c bf a0 a2 f9 be
       -0.47905728 -0.54884505 -0.73732495 -0.48756886
000090 1e 51 0d bf 91 c0 39 be 50 b0 07 bf f4 1d e5 be
       -0.552019 -0.18139865 -0.53003407 -0.44749415
0000a0 5b 32 63 bc 63 fb 5a bb d4 77 a2 bb 09 45 2a bf
       -0.013866986 -0.0033413998 -0.0049581323 -0.6651159
0000b0 f3 9a 1c bb a0 9d 07 39 ef 32 01 bf b0 9e 4d bc
       -0.0023896068 0.00012933323 -0.50468343 -0.012550041
0000c0 84 ad 61 3c 82 4b e3 bb bc 05 2b bf a5 5b f7 be
       0.0137742795 -0.0069364915 -0.66805625 -0.48312107
0000d0 15 ae df be d9 b6 38 bb e1 33 2e bf 36 4e 11 bf
       -0.43687502 -0.0028185158 -0.6804791 -0.56759965
0000e0 91 75 09 bf b0 38 09 3a ee 34 3e c0 fc 1a 72 3c
       -0.5369502 0.00052345823 -2.9719806 0.014776941
0000f0 5c 9a 07 bf 70 32 6c bc b5 c5 c4 bb b8 aa 18 3e
       -0.5296991 -0.014416322 -0.006005014 0.14908874
000100 5d 08 e9 3c 80 69 4f b9 96 0b 34 3c 87 ca 98 bc
       0.02844637 -0.0001978036 0.01098909 -0.01865126
000110 db 95 35 bf e5 e7 43 3c 1d 08 0e bf d5 1c 91 be
       -0.70931786 0.011957143 -0.5548113 -0.2834231
000120 48 70 9d bc cc 5e c5 be e2 27 fd be 47 19 12 3c
       -0.019218579 -0.38548887 -0.4944449 0.008917159
000130 88 4b 25 3c c6 03 fe be ea 5e 06 bf f5 d3 3b bf
       0.010088809 -0.49612254 -0.5248858 -0.73370296
000140 15 af aa bb 25 4f 98 bd b0 20 08 bf 1f 8d b3 bb
       -0.0052088597 -0.074369706 -0.5317488 -0.0054794694
000150 44 fd a5 bd 21 60 f6 be b4 ef 2a bf 62 7c 08 bc
       -0.08104947 -0.48120216 -0.6677201 -0.008330436
000160 f1 1c 49 be ee 77 d0 be 53 66 3e bf 36 5c 08 bf
       -0.19639947 -0.407165 -0.74374884 -0.532657
000170 1a fb 18 bf 9e b7 45 c0 0b e0 04 bf cc fc e7 bb
       -0.5975815 -3.089332 -0.5190436 -0.0070796963
000180 f2 8d 7d be e8 4c e0 be 49 81 20 bf e1 e9 04 bf
       -0.24761179 -0.43808675 -0.62697273 -0.5191937
000190 bb a3 f6 3c e3 bd 9c bc d3 7a 9a c0 96 59 00 bb
       0.03010737 -0.019133514 -4.827493 -0.0019584647
0001a0 86 84 06 bf c5 24 b2 bc 85 9e e9 be c9 5f bc bb
       -0.52545965 -0.021746049 -0.45628753 -0.005748723
0001b0 77 3b ef be d3 c6 fc be 0d 21 ba be e5 87 10 bf
       -0.46725056 -0.4937044 -0.3635334 -0.5645736
0001c0 84 22 3c c0 26 70 06 bf 61 a9 f3 be ab e3 08 bf
       -2.9396067 -0.52514875 -0.47590163 -0.53472394
0001d0 b0 3c f8 be 05 65 7d 3b 0f ef 87 bc e3 a6 27 bf
       -0.484838 0.0038664949 -0.016593484 -0.65489024
0001e0 9a 03 a8 bc 31 af 07 bf d9 41 e1 be 95 89 de be
       -0.02050953 -0.53001696 -0.4399555 -0.43464342
0001f0 d3 08 5c be 5a 08 fa be 32 9e e1 be 02 3e 18 bf
       -0.21487741 -0.48834497 -0.44066006 -0.59469616
000200 17 72 be bb 2f 9d e2 bb bf 24 08 bf 9f 64 fd be
       -0.0058119404 -0.0069157104 -0.5318107 -0.4949083
000210 7c 49 a1 bb df 5a 04 bf fc 78 f5 be 4e 47 fa be
       -0.00492209 -0.5170116 -0.47943866 -0.48882526
000220 99 23 0b bf 72 bb 27 bf 97 e2 05 3c 1a f8 cf be
       -0.5435119 -0.65520394 0.008171699 -0.40618974
000230 71 be 4e 3c 87 10 b9 3c 9d ed d7 bb 67 30 b2 bd
       0.012618647 0.022590889 -0.006589605 -0.08700638
000240 bb 3c 00 bf 22 fc 42 c0 75 ff 17 bc 94 a5 f8 bc
       -0.5009267 -3.046639 -0.009277214 -0.030352391
000250 89 18 db be 00 d3 b4 bb 8d db c2 bb 40 0e 1d c0
       -0.42792156 -0.005518317 -0.0059465826 -2.4539948
000260 82 6e 9e bc 8f 54 07 bf d6 10 ac bc 5f aa 09 bf
       -0.019339804 -0.528634 -0.021004122 -0.5377559
000270 db 03 9f bb 08 ee ff be 66 33 67 3a 4e d7 9b bc
       -0.0048527545 -0.4998629 0.00088196096 -0.019023564
000280 18 7b 20 3c be 22 fa be 76 4d 37 3b 5d 85 12 bf
       0.009794973 -0.4885463 0.0027969754 -0.57234746
000290 32 e5 e3 be 53 12 65 c0 a6 1e fd be 21 05 f8 be
       -0.445108 -3.5792434 -0.49437445 -0.48441413
0002a0 90 fa fa be aa b8 25 c0 e0 74 52 bb 0a e8 d0 be
       -0.4901929 -2.589396 -0.003211312 -0.40802032
0002b0 55 03 b1 be 71 78 2b bf a8 d0 ff 3c cc ec a1 bd
       -0.34572855 -0.66980654 0.031227425 -0.079064935
0002c0 6f 92 f8 be a6 37 40 bf f6 82 01 bf e0 fa 22 c0
       -0.4854922 -0.7508491 -0.50590456 -2.5465622
0002d0 bf 57 20 bb fc ea 9b bb 3a f4 00 3b bc 6b 03 bf
       -0.0024466363 -0.004758237 0.001967682 -0.51336265
0002e0 b5 e0 8c bc 32 5c f3 bb cb 55 66 3c 8e 33 6c be
       -0.017196992 -0.007426762 0.014058541 -0.23066542
0002f0 70 65 82 3a 9f fd 04 bf d9 04 18 bf 60 29 52 bc
       0.0009948444 -0.51949495 -0.59382397 -0.012827247
000300 4b a5 de be 41 9d f5 be d6 b0 2f ba 88 cb ce c0
       -0.43485484 -0.47971538 -0.0006702071 -6.462345
000310 1c a1 35 3c ce 47 40 3b 41 f5 e9 bd ca 6c 71 bb
       0.011085775 0.0029339674 -0.114237316 -0.0036838525
000320 a2 47 9b bd 7e f3 a0 bc bf 6a 70 bb 7b 52 f3 be
       -0.07582022 -0.019647356 -0.003668472 -0.47523865
000330 bf 98 b6 bb a4 42 94 bb f9 05 05 bc 9c 7b 07 3f
       -0.005572408 -0.0045245457 -0.0081191 0.5292299
000340 7d 93 07 3c a4 05 05 bf 92 28 14 bf 39 ca a3 be
       0.00827491 -0.5196173 -0.57874405 -0.3199022
000350 41 80 fc be b6 82 0f bf b0 94 f8 be 70 70 1a bf
       -0.493166 -0.56058824 -0.4855094 -0.60327816
000360 0b 8b fe be 88 0f e9 be ff 4c fe be c8 b4 bb 3a
       -0.49715456 -0.45519662 -0.49668118 0.0014320845
000370 dc 8a f5 be 62 56 fc be 1b 8b f3 bb 09 ed ea 3f
       -0.47957504 -0.49284655 -0.007432354 1.8353587
000380 d0 ad 0d bf 17 f6 e6 be 32 de ef be c8 46 0a bf
       -0.5534334 -0.45109627 -0.4684921 -0.54014254
000390 9d 70 f2 bc 0b 66 f0 3c f4 92 2e bf 07 c3 8e be
       -0.029594714 0.029345533 -0.6819298 -0.2788317
0003a0 94 d3 0e bf 96 2f c6 3f 66 c8 0f bf 49 5e 01 bf
       -0.5579159 1.5483272 -0.5616516 -0.5053449
0003b0 60 28 fd be 99 8b e6 be b8 53 ab be c8 f4 d2 be
       -0.49444866 -0.4502838 -0.3346231 -0.41202378
0003c0 07 7b 08 bf 51 a4 07 bf 87 7e be 3a c7 c8 d2 be
       -0.53312725 -0.529851 0.0014533558 -0.41168806
0003d0 4f 56 31 3c 13 dd f8 be be 49 04 bf c8 fc 11 3a
       0.0108238 -0.48606166 -0.5167502 0.00055689784
0003e0 1e e8 03 bf dd 55 5a bb 00 e4 0d bf 61 6d a3 bb
       -0.5152606 -0.0033315339 -0.55426025 -0.004987404
0003f0 82 77 9c bd 8d d3 e3 3c 82 2c 25 bd 8a a9 3d bf
       -0.07639982 0.027810836 -0.04032565 -0.7408682
