save_mode/SAC_v_50_target_qf2_network.pth (torch, 329559 bytes, 5 tensors)

fc0.weight f4 [256, 61]
0.05521668 0.05487693 0.039076474 0.041547086 -0.014373953 -0.3670968 -0.33572948 -0.46584776
0.05320204 0.020429326 0.05943967 -0.050704602 0.019859727 0.120456025 0.7191335 0.9421761
-0.05759267 -0.050149534 0.053839065 0.02262576 0.002835298 1.289756 1.2011087 1.3155552
0.00815979 0.01767857 -0.0149014555 0.03837313 -0.059225842 0.48270315 -0.028595187 -0.019739164
0.02864956 -0.01675395 -0.045048118 -0.02830981 -0.062317833 0.074297234 -0.57890254 -0.68301713
-0.024243655 -0.038613044 0.0019035669 -0.046507686 -0.03649559 0.22405119 -0.13713853 -0.114628725
-3.588975 2.1814828 3.5892386 -4.6379666 3.155482 -1.8467381 0.9276202 3.3152149
-1.6606494 0.8063694 3.5911868 -2.757515 1.2485019 -0.040720813 0.005081813 0.0017686881
0.023981394 -0.022039771 -0.08167707 -0.038215928 -0.05854411 -0.018263066 0.051103957 0.014130506
-0.053157337 -0.054410525 -0.00886797 0.004413402 -0.03202449 -0.0045934273 0.023123085 -0.022154137
-0.023872986 0.047488928 -0.08576446 -0.010277062 -0.03328364 -0.056714248 0.005317531 0.05770294
0.034702975 0.043098297 -0.05031121 -0.08336686 -0.019077044 0.032081112 0.04830104 -0.05603252
-0.028003966 -0.03409948 -0.07136695 -0.027710414 -0.035882406 0.047170047 -0.060940966 0.03882464
-0.01798516 -0.028709536 -0.06184621 -0.067671455 -0.06810657 0.088697016 8.926081e-05 0.089589596
0.033641264 0.07596694 0.0278855 0.06391189 0.024126679 0.02272187 0.06550632 -0.037066303
0.027466033 0.025646228 0.030480541 -0.039229956 -0.033418495 -0.028772494 -0.028776592 0.44996732
-0.053164806 -0.3103661 -0.046529293 0.017317215 -0.052117236 0.059965685 0.022465197 0.27709216
0.70796704 0.86337924 0.0070724236 0.01223731 0.058898017 0.008546662 0.02707525 1.7757761
1.6652193 1.7345929 -0.02181588 0.040702935 0.05996941 -0.04185256 -0.019230524 0.20025432
0.15860319 0.312465 -0.04471582 -0.060455933 0.061107114 -0.021895602 -0.029797694 -0.15389432
-0.38549405 -0.41839334 -0.044894636 -0.023656549 0.05457816 0.0070772665 -0.029484771 0.051639747
0.094040245 0.15228733 -2.553428 1.8400874 3.1666248 -4.094192 -0.15094948 -0.21542238
0.2814158 0.71810496 0.066308305 -0.16194165 0.66602546 -0.09320553 -0.027335538 0.015503462
0.030854933 0.02150333 0.0578974 0.009918689 -2.0170772 -0.39407572 -1.1319872 0.0011826062
0.04895595 -0.046389967 0.002262301 -0.029203882 -0.004962248 0.56454355 0.36153042 -0.016889552
-0.012088485 -0.033549625 0.0322644 0.008300607 1.2992862 1.0841995 1.2899746 -0.016829947
0.028442431 0.008148056 0.025015907 0.020937826 0.1535693 0.20573291 0.2643755 0.028132115
-0.053929962 0.05672244 -0.05828036 0.052372046 -0.24681932 -0.46606025 -0.5360243 -0.060366526
-0.03727194 0.03239851 -0.036081336 0.029481791 0.12965778 0.1358808 0.1444696 -2.4218564
1.9100282 3.3983893 -4.3292866 -0.04371158 -0.5197187 0.6198449 0.8434479 -1.1789192
-0.043365393 1.7617006 -0.115525514 0.19732659 -0.008662332 -0.008457069 0.059575275 -0.037540156
0.05527405 0.38072792 -0.096772455 -0.327395 0.025977034 -0.028029671 -0.022866784 0.06029202
00000000: e32a 623d a2c6 603d a70e 203d 472d 2a3d
00000010: bb80 6bbc 1df4 bbbe bce4 abbe 9983 eebe
00000020: 62ea 593d 675b a73c 0377 733d a1af 4fbd
00000030: deb0 a23c a6b1 f63d 2219 383f 7432 713f
00000040: 4be6 6bbd 9969 4dbd 5a86 5c3d a859 b93c
00000050: 68d0 393b b916 a53f eebd 993f 1d64 a83f
00000060: a4b0 053c a6d2 903c 3c25 74bc 252d 1d3d
00000070: cc96 72bd de24 f73e 7440 eabc 07b4 a1bc
00000080: 7bb2 ea3c 943f 89bc 6084 38bd fae9 e7bc
00000090: fc40 7fbd 2629 983d f532 14bf 36da 2ebf
000000a0: a19a c6bc b628 1ebd 1b81 f93a d87e 3ebd
000000b0: 667c 15bd ad6d 653e 0b6e 0cbe 77c2 eabd
000000c0: c4b1 65c0 6a9d 0b40 16b6 6540 396a 94c0
000000d0: 6bf3 4940 ea61 ecbf 8478 6d3f 7b2c 5440
000000e0: 2990 d4bf 3a6e 4e3f 01d6 6540 207b 30c0
000000f0: e9ce 9f3f deca 26bd 5685 a63b 53d3 e73a
00000100: a174 c43c c08c b4bc 4f46 a7bd 4e88 1cbd
00000110: f3cb 6fbd 6d9c 95bc 6252 513d a383 673c
00000120: 82bb 59bd 92dd 5ebd f64a 11bc 4d9e 903b
00000130: 1d2c 03bd 7684 96bb a06c bd3c 987c b5bc
00000140: 4891 c3bc c083 423d 47a5 afbd 1f61 28bc
00000150: 6d54 08bd 334d 68bd af3e ae3b eb59 6c3d
00000160: b524 0e3d d787 303d 2113 4ebd 3fbc aabd
00000170: 7647 9cbc 7c67 033d 50d7 453d 5b82 65bd
00000180: 9368 e5bc e5ab 0bbd d628 92bd f300 e3bc
00000190: 6ef9 12bd 6135 413d 3c9d 79bd 9606 1f3d
000001a0: 9d55 93bc 4330 ebbc 7452 7dbd 5597 8abd
000001b0: 757b 8bbd c8a6 b53d 8831 bb38 c07a b73d
000001c0: 6ccb 093d 8e94 9b3d 2270 e43c 3de4 823d
000001d0: 50a5 c53c 3723 ba3c 2d28 863d d6d2 17bd
000001e0: 7200 e13c 0a18 d23c 54b2 f93c 97af 20bd
000001f0: d5e1 08bd 4bb4 ebbc e3bc ebbc 1e62 e63e
00000200: 57c3 59bd 4ee8 9ebe 8095 3ebd d5dc 8d3c
00000210: e278 55bd 949e 753d ef08 b83c 06df 8d3e
00000220: 543d 353f 6c06 5d3f cabf e73b 007f 483c
00000230: 0c3f 713d 4c07 0c3c eacc dd3c a24c e33f
00000240: e825 d53f 2407 de3f 37b7 b2bc 1fb8 263d
00000250: 7ca2 753d 976d 2bbd 5589 9dbc 780f 4d3e
00000260: e068 223e 6afb 9f3e f027 37bd a4a0 77bd
00000270: 744b 7a3d 685e b3bc 4b1a f4bc 7996 1dbe
00000280: 7a5f c5be a737 d6be 70e3 37bd 61cb c1bc
00000290: 598d 5f3d 6ae8 e73b 0c8a f1bc 3384 533d
000002a0: 2c98 c03d 36f1 1b3e 5d6b 23c0 fc87 eb3f
000002b0: fba9 4a40 9f03 83c0 8092 1abe af97 5cbe
000002c0: bb15 903e bad5 373f a6cc 873d 08d4 25be
000002d0: a580 2a3f 8ae2 bebd c7ee dfbc 3c02 7e3c
000002e0: 7cc3 fc3c c027 b03c d325 6d3d ff81 223c
000002f0: cb17 01c0 4bc4 c9be f5e4 90bf ae01 9b3a
00000300: 0986 483d 6803 3ebd 1d43 143b fb3c efbc
00000310: 5a9a a2bb ed85 103f 841a b93e f55b 8abc
00000320: c80e 46bc 556b 09bd ad27 043d 45ff 073c
00000330: 034f a63f 0dc7 8a3f e31d a53f f5de 89bc
00000340: 1a00 e93c 6d7f 053c 29ee cc3c ce85 ab3c
00000350: 4541 1d3e a6ab 523e 3a5c 873e 5275 e63c
00000360: aae5 5cbd ca55 683d 63b7 6ebd 1284 563d
00000370: 34be 7cbe 739f eebe e338 09bf e442 77bd
00000380: 76aa 18bd 4db4 043d 06ca 13bd cc83 f13c
00000390: 02c5 043e 5624 0b3e d7ef 133e b2ff 1ac0
000003a0: ce7b f43f 367f 5940 8489 8ac0 ea0a 33bd
000003b0: 490c 05bf 28ae 1e3f 34ec 573f d3e6 96bf
000003c0: e99f 31bd 687f e13f a498 ecbd fb0f 4a3e
000003d0: 74ec 0dbc 858f 0abc 3405 743d b5c3 19bd
000003e0: 0b67 623d c5ee c23e a330 c6bd 51a0 a7be
000003f0: cacd d43c 7b9e e5bc 1f53 bbbc c4f4 763d

fc0.bias f4 [256]
30.078966 -0.032978166 30.547173 30.287054 30.725319 29.991745 30.604012 30.515892
30.40641 30.290531 30.490334 30.760414 30.33126 30.195076 27.937151 0.0
-0.061446115 -0.05259631 -0.022872746 30.453619 -0.0067785913 30.617052 -0.028713262 30.53611
26.236177 30.090172 30.404491 30.441082 30.012352 30.378944 30.37513 30.18904
-0.04573208 30.39611 30.527105 30.181343 30.877903 30.07186 0.0 -21.734655
30.641396 30.516655 30.555565 30.214529 30.325539 30.235512 28.8729 27.517153
27.541948 30.239708 30.762321 30.225594 -0.10816987 -0.06931505 26.413181 21.170635
29.762917 -0.058306437 30.302135 30.393438 30.799706 -0.03533777 25.490784 30.472404
25.158905 -0.03613647 30.074913 28.038626 30.485405 28.485897 -0.02196452 30.822014
-21.793852 26.858736 30.333532 -21.686193 30.381615 -0.065232135 30.54412 -18.996256
30.151588 -21.826216 30.107449 29.833303 29.737087 30.58265 30.136187 30.205757
30.50216 30.589897 30.185701 30.370926 30.229677 28.921345 -0.025108667 30.120308
-0.055615287 20.395489 30.601723 27.10822 30.262136 0.0 30.260767 31.000015
-0.01331895 30.823357 -0.029451989 30.417091 -0.02367145 30.014635 30.242918 -0.035740845
-0.06378374 30.626907 -0.045367748 30.290825 -0.03125317 26.177814 -0.026942257 30.223837
29.992132 30.308754 -0.03734421 -0.006925834 -0.031215541 -0.035341494 29.934444 30.73867
-0.010974623 30.441956 30.55175 30.620012 30.511696 -0.027824035 -0.005558837 30.199635
31.403616 30.081554 -5.3990893 30.082972 30.91262 -0.02196452 -0.06967268 30.400995
30.259163 30.163033 -0.050588373 -0.033964623 30.093987 -22.687862 -0.030173205 30.59066
30.067665 -0.020647256 -21.343645 30.106194 30.619652 30.040186 26.532198 -0.032408196
-0.056123417 30.508644 -0.08459323 30.085213 -21.005827 30.288536 30.090935 30.619652
30.339653 24.576479 30.30532 30.140144 30.147392 30.197693 30.280144 -0.065877356
-0.034401227 0.0 30.18741 30.415184 30.228643 30.74363 -0.03787171 -0.026450519
30.496836 -0.10020519 30.222916 29.904604 30.47889 30.381208 30.722649 -0.040283468
-0.4594539 30.305824 30.497192 30.230171 0.0 -0.008298558 30.63758 30.026724
30.271751 29.95017 30.632622 30.62957 30.594475 30.21831 30.441887 -0.008452413
-0.02367145 30.140907 30.115347 -0.026683722 30.430822 30.119919 -0.04898799 30.261452
-0.021976441 30.20652 30.467064 30.165703 25.984407 30.539162 30.155403 -0.06474487
30.062706 30.315294 30.031843 30.184013 -0.03406893 -0.05861713 30.199654 30.113441
30.530354 -21.349955 29.996328 30.583794 -0.06643615 30.296928 30.573494 30.28434
30.191261 30.420525 27.390888 -0.058068763 0.0 30.346138 0.0 27.693773
30.600197 -0.04501459 -0.042025413 3.8908346 25.958466 -0.047244553 30.285484 0.0
00000000: b9a1 f041 1d14 07bd 9c60 f441 e34b f241
00000010: 74cd f541 18ef ef41 04d5 f441 8c20 f441
00000020: 5440 f341 0253 f241 34ec f341 5415 f641
00000030: 6ca6 f241 848f f141 497f df41 0000 0000
00000040: ecae 7bbd 3a6f 57bd a05f bbbc 03a1 f341
00000050: f21e debb b9ef f441 1338 ebbc f449 f441
00000060: b1e3 d141 acb8 f041 663c f341 5687 f341
00000070: 4c19 f041 1408 f341 4400 f341 2783 f141
00000080: 9051 3bbd 3c2b f341 8337 f441 6473 f141
00000090: f205 f741 2b93 f041 0000 0000 93e0 adc1
000000a0: 9421 f541 1c22 f441 cc71 f441 5bb7 f141
000000b0: b49a f241 54e2 f141 b3fb e641 2123 dc41
000000c0: e955 dc41 ecea f141 3c19 f641 04ce f141
000000d0: 2a88 ddbd 0df5 8dbd 324e d341 765d a941
000000e0: 741a ee41 bbd2 6ebd c66a f241 c325 f341
000000f0: cc65 f641 56be 10bd 20ed cb41 7cc7 f341
00000100: 7045 c941 d603 14bd 6c99 f041 1b4f e041
00000110: 1ce2 f341 1ee3 e341 f0ee b3bc 7c93 f641
00000120: cf59 aec1 b1de d641 13ab f241 537d adc1
00000130: 8c0d f341 6d98 85bd 5c5a f441 55f8 97c1
00000140: 7436 f141 179c aec1 0edc f041 9baa ee41
00000150: 8ee5 ed41 44a9 f441 e916 f141 64a5 f141
00000160: 6c04 f441 1cb8 f441 517c f141 a8f7 f241
00000170: 61d6 f141 ea5e e741 b1b0 cdbc 64f6 f041
00000180: dbcc 63bd f629 a341 54d0 f441 a2dd d841
00000190: db18 f241 0000 0000 0d16 f241 0800 f841
000001a0: ba37 5abc 3c96 f641 4c45 f1bc 3456 f341
000001b0: a1ea c1bc f91d f041 7ff1 f141 fe64 12bd
000001c0: 0da1 82bd e803 f541 88d3 39bd 9c53 f241
000001d0: 5303 00bd 2a6c d141 02b6 dcbc 6bca f141
000001e0: e3ef ef41 5478 f241 3ef6 18bd 1bf2 e2bb
000001f0: bcb7 ffbc 3ec2 10bd be79 ef41 cce8 f541
00000200: e8ce 33bc 2089 f341 fc69 f441 c9f5 f441
00000210: f417 f441 3bef e3bc e826 b6bb da98 f141
00000220: 9b3a fb41 06a7 f041 57c5 acc0 eda9 f041
00000230: 0c4d f741 f0ee b3bc 8db0 8ebd 3d35 f341
00000240: c412 f241 e44d f141 c135 4fbd 7d1e 0bbd
00000250: 7cc0 f041 be80 b5c1 cc2d f7bc acb9 f441
00000260: 948a f041 6f24 a9bc c9bf aac1 7cd9 f041
00000270: 0cf5 f441 4d52 f041 f141 d441 75be 04bd
00000280: abe1 65bd b411 f441 373f adbd 84ae f041
00000290: ef0b a8c1 ec4e f241 3cba f041 0cf5 f441
000002a0: 9cb7 f241 a19c c441 4c71 f241 041f f141
000002b0: dc2d f141 e094 f141 bc3d f241 b5ea 86bd
000002c0: 4de8 0cbd 0000 0000 d17f f141 4c52 f341
000002d0: 43d4 f141 f4f2 f541 5e1f 1bbd c2ae d8bc
000002e0: 85f9 f341 6138 cdbd 88c8 f141 a13c ef41
000002f0: c4d4 f341 b70c f341 fcc7 f541 4700 25bd
00000300: 8b3d ebbe 5472 f241 40fa f341 64d7 f141
00000310: 0000 0000 adf6 07bc c419 f541 bb36 f041
00000320: 8c2c f241 f399 ef41 9c0f f541 5c09 f541
00000330: 7cc1 f441 19bf f141 fc88 f341 fd7b 0abc
00000340: a1ea c1bc 9420 f141 3bec f041 d297 dabc
00000350: 5372 f341 98f5 f041 a1a7 48bd 7417 f241
00000360: f007 b4bc f4a6 f141 8cbc f341 5c53 f141
00000370: 11e0 cf41 3450 f441 443e f141 f598 84bd
00000380: 6c80 f041 b985 f241 3741 f041 dc78 f141
00000390: dd8b 0bbd 8418 70bd e498 f141 54e8 f041
000003a0: 2a3e f441 b5cc aac1 7bf8 ef41 9cab f441
000003b0: ad0f 88bd 1c60 f241 8496 f441 5446 f241
000003c0: b487 f141 3c5d f341 8a20 db41 83d9 6dbd
000003d0: 0000 0000 e4c4 f241 0000 0000 d98c dd41
000003e0: 34cd f441 3861 38bd d722 2cbd 6f03 7940
000003f0: f0aa cf41 8183 41bd ac48 f241 0000 0000

fc1.weight f4 [256, 256]
0.51728547 -0.021650476 0.36339363 0.72877914 0.516789 0.07070578 0.4438326 1.2284261
0.22261813 0.3266163 0.35455528 0.4514166 0.27692604 0.23563504 0.10659034 -0.054479066
-0.019071827 0.017482616 -0.014230901 0.32677367 0.029108513 1.6447778 0.0075276545 0.28582835
0.59343034 0.37507644 0.30365777 0.33313027 0.20657322 0.28406128 0.26769218 0.19146545
-0.036275793 0.74205095 0.414959 0.28887656 0.6108288 0.21324773 -0.04165512 -2.2788246
0.4223739 0.4538579 0.39266613 0.18884164 0.23519054 0.23764916 2.5980113 0.41324237
0.8817383 0.23097144 0.6169857 0.37372804 -0.013821678 0.036716122 0.2670797 0.46123606
0.029725999 -0.011158466 0.29468197 0.27742454 0.47705612 -0.056209844 0.8439489 0.35225722
-0.4744862 0.0849896 0.12543052 -0.03491159 0.3015606 0.45645165 -0.012238801 0.638781
-2.2378185 0.13753337 0.34627995 -2.4131317 0.33026117 -0.067534365 0.36952463 -3.8888254
0.1734912 -1.9530032 0.23543644 0.09028464 0.6955038 0.37699664 0.24871022 0.17868838
0.31513247 0.36505607 0.3955632 0.26202193 0.29537407 0.20635892 0.07938974 0.12142286
0.04744572 0.27402365 0.46892646 0.70992184 0.2555117 -0.011457235 0.24982755 3.3887286
0.04035872 0.6435899 -0.0027708036 0.674624 0.017975474 0.083881244 0.3022125 -0.001700259
-0.07996642 0.3735713 -0.0350755 0.31975323 0.002831619 0.43489078 -0.022261798 0.20495582
0.1354275 0.28387406 0.054776352 -0.04590717 0.071800575 -0.05648477 0.28972614 0.5609161
0.038258396 0.394411 0.36703214 0.30589753 0.3533855 -0.008860147 -0.0036665974 0.16087095
-0.14299895 0.20435776 -2.0980139 0.21071626 1.4625155 0.019309128 0.04464951 0.22928372
0.21461765 0.39318135 0.005694065 -0.093975015 0.2585071 -2.309097 -0.06693534 0.34589472
0.27838096 -0.047032956 -4.6807013 0.36845437 0.47476104 0.21690209 0.4557703 -0.02683981
0.056916904 0.3450642 0.019941686 0.1839195 -11.989169 0.38587308 0.1843806 0.39036292
0.18832797 -0.31815067 0.19132446 0.20218681 0.40070075 0.33373952 0.31196016 0.08306586
-0.0021836506 0.00540908 0.14397149 0.32927296 0.39299494 0.5936551 -0.014193091 -0.061233774
0.32454017 -0.050069064 0.3137286 0.14789417 0.3577844 0.4967062 0.46949008 0.025567252
-0.22548309 0.9102579 0.25383213 0.3720341 -0.054092385 -0.03837835 0.481823 0.13743499
0.32112145 0.19223638 0.4755693 0.3027169 0.41684103 0.34032276 0.3155496 -0.04826528
0.022391064 0.17808263 0.038885996 0.011267804 0.31471154 0.2162219 -0.04208427 0.21017538
0.028282244 0.20373148 0.41906533 0.21177417 0.3868792 0.27160436 0.23127475 0.06590269
0.20098132 0.33216137 0.19953638 0.23378791 0.014885808 -0.16403364 0.20057224 0.21924037
0.34280762 -3.7984598 0.16331856 0.36823758 -0.064986266 0.2571474 0.39748332 0.26879874
0.58499736 0.31718162 0.3100368 -0.049403727 0.045368493 0.37135366 -0.02583212 1.2697113
0.35331297 -0.031902302 -0.043537885 2.6264224 1.0604987 -0.036871094 0.29311708 -0.01372687
00000000: d26c 043f 575c b1bc bb0e ba3e 4591 3a3f
00000010: 494c 043f 31ce 903d 073e e33e 113d 9d3f
00000020: 02f6 633e 403a a73e 4588 b53e 1420 e73e
00000030: 40c9 8d3e 504a 713e 094c da3d 7125 5fbd
00000040: 853c 9cbc b437 8f3c ba28 69bc e14e a73e
00000050: fa74 ee3c 1488 d23f 8baa f63b 1858 923e
00000060: 0deb 173f 050a c03e 0879 9b3e 0d90 aa3e
00000070: ee87 533e 7b70 913e f30e 893e 850f 443e
00000080: ed95 14bd 0df7 3d3f 8275 d43e a1e7 933e
00000090: 475f 1c3f 9d5d 5a3e 8f9e 2abd 43d8 11c0
000000a0: 6441 d83e 1060 e83e 890b c93e b45f 413e
000000b0: cad5 703e 4d5a 733e d145 2640 8194 d33e
000000c0: 9ab9 613f c783 6c3e c6f2 1d3f 4859 bf3e
000000d0: 5274 62bc a563 163d acbe 883e 2227 ec3e
000000e0: f083 f33c 00d2 36bc 8ee0 963e 970a 8e3e
000000f0: b340 f43e 4b3c 66bd 090d 583f 0f5b b43e
00000100: dbef f2be 070f ae3d dc70 003e 75ff 0ebd
00000110: 2766 9a3e 08b4 e93e 4185 48bc 2787 233f
00000120: 6b38 0fc0 8cd5 0c3e 9b4b b13e c070 1ac0
00000130: fe17 a93e 754f 8abd 5532 bd3e 84e2 78c0
00000140: ada7 313e 02fc f9bf 4016 713e 27e7 b83d
00000150: 890c 323f b405 c13e e4ad 7e3e 16fa 363e
00000160: 0b59 a13e a1e8 ba3e 4287 ca3e bd27 863e
00000170: 453b 973e c14f 533e 1797 a23d 8cac f83d
00000180: 7156 423d d44c 8c3e 2117 f03e 70bd 353f
00000190: 6ed2 823e 20b7 3bbc cbd2 7f3e eee0 5840
000001a0: 2f4f 253d 4fc2 243f 5f96 35bb 29b4 2c3f
000001b0: 4d41 933c eec9 ab3d 99bb 9a3e 3adb deba
000001c0: 6fc5 a3bd bd44 bf3e 54ab 0fbd b2b6 a33e
000001d0: af92 393b 01aa de3e 605e b6bc f0df 513e
000001e0: 82ad 0a3e f157 913e 2b5d 603d 2809 3cbd
000001f0: 2e0c 933d 935c 67bd fc56 943e 3398 0f3f
00000200: d6b4 1c3d 3df0 c93e a3eb bb3e 9a9e 9c3e
00000210: f2ee b43e 262a 11bc 4c4b 70bb 5bbb 243e
00000220: 516e 12be 2943 513e dc45 06c0 01c6 573e
00000230: b533 bb3f 2d2e 9e3c 68e2 363d 5ac9 6a3e
00000240: bbc4 5b3e 114f c93e 4795 ba3b f975 c0bd
00000250: 0b5b 843e 3fc8 13c0 6515 89bd 1d19 b13e
00000260: f387 8e3e a1a5 40bd 4ec8 95c0 0da6 bc3e
00000270: e113 f33e 951b 5e3e ba5a e93e 29df dbbc
00000280: b321 693d 41ac b03e bf5c a33c 6555 3c3e
00000290: a3d3 3fc1 2891 c53e 45ce 3c3e a6dd c73e
000002a0: 0cd9 403e a5e4 a2be 8fea 433e 0f0a 4f3e
000002b0: a628 cd3e e8df aa3e 3eb9 9f3e 6f1e aa3d
000002c0: 941b 0fbb a73e b13b 436d 133e 7796 a83e
000002d0: a236 c93e c8f9 173f 238a 68bc 44d0 7abd
000002e0: 212a a63e 3815 4dbd 09a1 a03e 9271 173e
000002f0: 842f b73e 4650 fe3e 0161 f03e 6a72 d13c
00000300: 0ae5 66be a906 693f 49f6 813e 417b be3e
00000310: fa8f 5dbd 9e32 1dbd 81b1 f63e c2bb 0c3e
00000320: 086a a43e 9dd9 443e d27d f33e b6fd 9a3e
00000330: 306c d53e c93e ae3e b88f a13e d0b1 45bd
00000340: 776d b73c 4b5b 363e ec46 1f3d 989c 383c
00000350: df21 a13e 4669 5d3e 8e60 2cbd 3738 573e
00000360: 2ab0 e73c fc9e 503e bb8f d63e 54db 583e
00000370: 0815 c63e ba0f 8b3e 4ad3 6c3e fdf7 863d
00000380: 0cce 4d3e 0e11 aa3e 4453 4c3e 1966 6f3e
00000390: 9be3 733c 6ff8 27be cf62 4d3e 8c80 603e
000003a0: 7b84 af3e f719 73c0 fb3c 273e a389 bc3e
000003b0: 8517 85bd d3a8 833e ef82 cb3e fd9f 893e
000003c0: 63c2 153f a165 a23e 25bd 9e3e 905b 4abd
000003d0: 50d4 393d 1122 be3e e29d d3bc e685 a23f
000003e0: 70e5 b43e fdab 02bd c854 32bd 4e17 2840
000003f0: 6cbe 873f 2506 17bd 7113 963e aae6 60bc

fc1.bias f4 [256]
30.273277 30.248806 -0.06936721 25.652908 -24.575258 30.252548 30.249245 -0.007941489
-0.22098295 30.28904 30.221397 30.255348 -0.028980738 30.262596 -23.596024 -0.037807636
-0.02929888 30.262596 0.0 28.317862 30.524284 30.238564 31.657856 30.186684
30.248035 30.25431 30.261053 30.51284 23.525145 30.096607 30.240852 30.792105
-0.010144814 30.256493 30.266792 30.284332 4.483337 0.003847693 30.264687 30.246214
-0.017166713 30.233986 19.156092 1.4684333 30.272133 1.1013875 -0.03688153 30.267527
30.242378 30.191261 30.233604 -0.0074654426 30.267555 30.245049 30.238564 30.512365
-0.059085026 30.233986 -0.014425362 -0.033694167 26.489094 3.7558951 30.265291 3.505868
-0.007712988 -0.06885014 31.02134 30.26641 30.255348 30.282433 -0.015005391 19.569986
-0.051559933 30.26603 -0.029140925 -0.03176521 30.244667 30.263634 30.24677 19.753092
30.258402 30.247337 -25.248026 -0.031118311 30.249626 30.252941 30.241997 28.787449
30.268946 30.295933 -24.88368 -0.051693298 21.762232 30.526573 22.846434 31.918694
30.23513 -0.037809126 26.048113 30.245998 -0.013022045 30.254204 30.255442 30.4766
30.257256 30.244404 29.014423 30.21368 2.9460137 30.298615 30.242378 -0.07906788
30.490452 30.250212 30.292437 -0.06114362 30.240751 30.270226 29.712515 3.5807269
-0.037771128 30.202515 -0.026534338 3.2061784 -0.0021171544 30.261219 30.245811 4.4533567
30.260307 -0.3403339 30.248482 30.234749 30.258633 31.097633 30.27128 30.284048
30.276329 30.273888 30.271719 6.0426207 30.24641 27.494646 -0.0110875 -0.030176185
-0.0060055 1.0918031 30.254204 -0.05469961 29.010609 2.1664987 -0.0076238606 -25.71365
-0.03958982 26.531816 28.519657 30.219816 -0.0060055 30.940086 27.749086 30.2378
0.0 -0.05873485 1.7385141 30.23246 30.21949 30.271751 30.269081 -0.06353042
30.273132 30.263826 30.235903 30.269844 0.0 -0.17694998 30.264122 -0.06226419
26.323915 3.729497 30.228386 -0.030645572 0.37891006 30.275185 30.263273 30.296476
30.236761 30.254969 30.28807 30.26564 30.272133 -0.00046622928 30.211098 30.256493
30.235477 29.038456 30.240118 30.191767 -0.04546982 30.227882 30.277473 30.494148
1.4358653 -0.03176521 -0.0067729102 30.249626 30.282051 30.282814 -0.0504185 28.715351
30.239225 30.258781 30.477974 19.422739 30.24378 30.209082 30.254585 -0.03176372
3.0047207 34.493977 30.25306 3.8641741 5.196739 -0.019210782 30.246574 30.292507
3.7933424 30.243523 -0.044081032 -0.036419593 -0.14552042 30.503807 20.978756 30.256315
-0.04204553 -0.03850352 30.24535 30.28968 30.26011 30.246956 30.412657 30.277473
30.481016 1.3216627 -25.165253 -0.03176521 30.441505 -20.05293 30.274054 30.50483
30.26603 30.238564 -0.012823487 30.262403 30.710678 30.252296 -0.024590107 30.344229
00000000: ac2f f241 8efd f141 6510 8ebd 2839 cd41
00000010: 219a c4c1 3805 f241 74fe f141 051d 02bc
00000020: 5b49 62be f44f f241 6cc5 f141 f40a f241
00000030: 0369 edbc cc19 f241 a8c4 bcc1 2edc 1abd
00000040: 3404 f0bc cc19 f241 0000 0000 fb8a e241
00000050: bc31 f441 94e8 f141 4a43 fd41 547e f141
00000060: fafb f141 d408 f241 a316 f241 4c1a f441
00000070: 7f33 bc41 dac5 f041 44ed f141 3b56 f641
00000080: 6f36 26bc 4c0d f241 6422 f241 5046 f241
00000090: 7f77 8f40 9429 7c3b 141e f241 3ff8 f141
000000a0: 35a1 8cbc 34df f141 ad3f 9941 9ff5 bb3f
000000b0: 542d f241 44fa 8c3f 1611 17bd e523 f241
000000c0: 64f0 f141 b487 f141 6cde f141 aca0 f4bb
000000d0: f423 f241 dcf5 f141 94e8 f141 5319 f441
000000e0: 2403 72bd 34df f141 5b58 6cbc e502 0abd
000000f0: aae9 d341 9660 7040 511f f241 2460 6040
00000100: 3cbd fcbb 4d01 8dbd b42b f841 9c21 f241
00000110: f40a f241 6c42 f241 2cd9 75bc 558f 9c41
00000120: 8230 53bd d420 f241 f3b8 eebc 3d1c 02bd
00000130: 14f5 f141 ec1b f241 63f9 f141 5506 9e41
00000140: 3511 f241 8cfa f141 f5fb c9c1 d4eb febc
00000150: 3cff f141 0606 f241 9cef f141 b24c e641
00000160: cd26 f241 125e f241 c711 c7c1 5abc 53bd
00000170: 0d19 ae41 6c36 f441 7fc5 b641 7c59 ff41
00000180: 8ce1 f141 bedd 1abd 8962 d041 cef7 f141
00000190: 6a5a 55bc 9c08 f241 250b f241 14d0 f341
000001a0: dc0e f241 8af4 f141 8a1d e841 9eb5 f141
000001b0: 7d8b 3c40 9063 f241 64f0 f141 57ee a1bd
000001c0: 72ec f341 6f00 f241 e956 f241 bc71 7abd
000001d0: 0fed f141 6c29 f241 3bb3 ed41 a12a 6540
000001e0: e6b5 1abd c09e f141 8a5e d9bc 0732 4d40
000001f0: f5bf 0abb fa16 f241 6cf7 f141 e681 8e40
00000200: 1c15 f241 3f40 aebe e4fc f141 c4e0 f141
00000210: ae11 f241 f4c7 f841 952b f241 bb45 f241
00000220: ec35 f241 ec30 f241 7b2c f241 265d c140
00000230: a6f8 f141 09f5 db41 58a8 35bc 0c34 f7bc
00000240: c9c9 c4bb 34c0 8b3f 9c08 f241 b30c 60bd
00000250: ba15 e841 eaa7 0a40 94d1 f9bb 8eb5 cdc1
00000260: ef28 22bd 2941 d441 4228 e441 2fc2 f141
00000270: c9c9 c4bb 4c85 f741 21fe dd41 04e7 f141
00000280: 0000 0000 f493 70bd a187 de3f 14dc f141
00000290: 84c1 f141 8c2c f241 1427 f241 3d1c 82bd
000002a0: 602f f241 511c f241 21e3 f141 a428 f241
000002b0: 0000 0000 6032 35be ec1c f241 bc08 7fbd
000002c0: 6197 d241 14b0 6e40 bcd3 f141 6c0c fbbc
000002d0: 8000 c23e 9433 f241 2f1b f241 2f5f f241
000002e0: e3e4 f141 2d0a f241 f84d f241 0820 f241
000002f0: 542d f241 3c70 f4b9 54b0 f141 4c0d f241
00000300: 42e2 f141 c24e e841 c3eb f141 bd88 f141
00000310: 903e 3abd b4d2 f141 4438 f241 04f4 f341
00000320: 6fca b73f 3d1c 02bd 4aef ddbb 3cff f141
00000330: a441 f241 3443 f241 a183 4ebd 0ab9 e541
00000340: efe9 f141 fc11 f241 e4d2 f341 c561 9b41
00000350: 43f3 f141 33ac f141 6409 f241 ad1a 02bd
00000360: 584d 4040 d5f9 0942 4406 f241 a14e 7740
00000370: b04b a640 ee5f 9dbc fcf8 f141 0e57 f241
00000380: 1fc6 7240 bcf2 f141 508e 34bd b62c 15bd
00000390: 4e03 15be cc07 f441 7ed4 a741 ef0c f241
000003a0: ef37 2cbd deb5 1dbd 7af6 f141 4451 f241
000003b0: b514 f241 c4f9 f141 1f4d f341 4438 f241
000003c0: 1fd9 f341 3e2c a93f 7052 c9c1 3d1c 02bd
000003d0: 3488 f341 676c a0c1 4331 f241 e409 f441
000003e0: d420 f241 94e8 f141 9a19 52bc 6719 f241
000003f0: 78af f541 b404 f241 3171 c9bc fbc0 f241

last_fc.weight f4 [1, 256]
-0.5821066 -0.4423918 0.025758732 -2.5863433 0.20260575 -0.58806115 -0.5013893 -0.006621943
0.018105488 -0.63371795 -0.38049808 -0.5537079 -0.026724327 -0.5348837 -0.13099176 0.026827518
-0.02654514 -0.59785074 -0.0012738527 0.03488775 -0.7161359 -0.4220839 -1.156099 -0.28633896
-0.4854385 -0.3335401 -0.5614869 -0.3742586 -0.3535486 -0.34660882 -0.45762074 -0.46050254
0.0017178844 -0.5242317 -0.49260536 -0.6120234 -0.18384747 0.009594774 -0.5904976 -0.4918191
0.01918843 -0.48569122 0.017303431 -0.0064722793 -0.5925729 0.0058168136 0.026995901 -0.5550734
-0.4545627 -0.26912966 -0.4396717 -0.0077681225 -0.5835583 -0.5499073 -0.44788706 -0.43377596
-0.010327726 -0.43065542 0.0050074006 -0.032541562 0.2008306 -0.060347103 -0.5653307 -0.07705121
-0.0054786503 -0.016917491 -1.122932 -0.56410223 -0.53637457 -0.5795475 0.014570834 -0.32010406
0.0028971843 -0.5707276 0.0061691334 0.030747645 -0.47539896 -0.49863195 -0.47089148 -0.38841105
-0.5177166 -0.5432621 0.15608084 0.025573585 -0.5242345 -0.60535395 -0.4326899 0.0033946042
-0.62213093 -0.4474763 0.25302523 -0.004817503 -0.121447966 -0.40574506 -0.64615667 -1.0947256
-0.44666433 0.02792052 -0.5204623 -0.4394452 -0.010795996 -0.5344181 -0.47682786 -0.67920226
-0.5174071 -0.49103525 -1.2277733 -0.3274525 -0.20712134 -0.56809765 -0.43211514 0.00070350425
-0.34696355 -0.4987598 -0.49933442 0.02621955 -0.46105003 -0.5792524 -0.3963174 -0.13268387
0.028341105 -0.28423488 0.0024973208 -0.11409797 -0.02953022 -0.5361614 -0.44878042 -0.15337652
-0.5113907 0.01596121 -0.5001927 -0.3564062 -0.46858075 -0.69400716 -0.6015508 -0.5629402
-0.5518526 -0.47242847 -0.54738295 -1.3690265 -0.53728753 -1.5495672 -0.008975444 -0.015655456
-0.003886669 0.00028048843 -0.5145413 -0.0019097836 -1.2611997 -0.087678954 -0.005391758 0.12951604
0.026462067 -2.0059962 -0.0101641845 -0.38501787 -0.0045191078 -0.4845212 -1.6918555 -0.43406874
-0.0026613732 0.0057708994 0.001774439 -0.48208544 -0.39608487 -0.5639139 -0.585708 0.0010796484
-0.62665176 -0.4771109 -0.46329957 -0.5843456 -0.0018149748 -0.01660196 -0.62542236 -0.006137841
-2.6721263 -0.06224664 -0.43010244 0.014428902 -0.5395477 -0.5053669 -0.5573146 -0.4788074
-0.4646564 -0.5202022 -0.53419894 -0.5923888 -0.5787125 -0.023359269 -0.32648334 -0.53998595
-0.4682022 -1.9220728 -0.4787386 -0.29429153 0.028868979 -0.40856147 -0.566991 -0.662983
-0.008479421 0.029101437 -0.004069651 -0.5203912 -0.56849706 -0.57420117 -0.024800958 -1.2629163
-0.50785726 -0.51241577 -0.6858969 -0.3474209 -0.40948594 -0.2573847 -0.4830915 -0.03053195
-0.031125015 -9.183162 -0.50449455 -0.07233745 -1.1114963 -0.020343645 -0.58302194 -0.6247115
-0.14827205 -0.5249887 0.0010668893 0.0369687 0.012998762 -0.39883056 -0.12017425 -0.51006114
-0.03206994 0.028042337 -0.5403158 -0.6045249 -0.5336122 -0.5053461 -0.12450752 -0.55581695
-0.27335522 -0.010659463 0.095561795 -0.029844262 -0.18519847 0.014952677 -0.6113393 -0.39606118
-0.4798846 -0.44782645 0.012676151 -0.504385 -1.1424794 -0.4420247 -0.021719769 -0.044978485
00000000: f004 15bf 2e81 e2be fa03 d33c a686 25c0
00000010: e277 4f3e 2d8b 16bf 0d5b 00bf e2fc d8bb
00000020: f651 943c 573b 22bf a5d0 c2be cdbf 0dbf
00000030: faec dabc 23ee 08bf b422 06be 62c5 db3c
00000040: 3275 d9bc bf0c 19bf 67f7 a6ba 75e6 0e3d
00000050: af54 37bf 621b d8be 0dfb 93bf 059b 92be
00000060: 658b f8be c5c5 aabe 9bbd 0fbf d39e bfbe
00000070: 5204 b5be b676 b1be 444d eabe fdc6 ebbe
00000080: a32a e13a 0c34 06bf c536 fcbe 91ad 1cbf
00000090: 8342 3cbe 6633 1d3c da2a 17bf b7cf fbbe
000000a0: 0e31 9d3c 85ac f8be edbf 8d3c 6a15 d4bb
000000b0: dcb2 17bf f89a be3b 8226 dd3c 4a19 0ebf
000000c0: 71bc e8be 5dcb 89be a61c e1be bc8b febb
000000d0: 1464 15bf bac6 0cbf 7451 e5be e217 debe
000000e0: 9f35 29bc de7e dcbe 1f15 a43b 4d4a 05bd
000000f0: 89a6 4d3e 862e 77bd 83b9 10bf 06cd 9dbd
00000100: 4086 b3bb 8d96 8abc 3cbc 8fbf 0169 10bf
00000110: d84f 09bf 3a5d 14bf 82ba 6e3c aee4 a3be
00000120: b0de 3d3b 341b 12bf 7126 ca3b 7ce2 fb3c
00000130: 7e67 f3be b04c ffbe b018 f1be d0dd c6be
00000140: 1389 04bf 3a13 0bbf a8d3 1f3e b27f d13c
00000150: 3b34 06bf 7af8 1abf 8889 ddbe 0278 5e3b
00000160: f943 1fbf 9d1b e5be 868c 813e 25dc 9dbb
00000170: b6b9 f8bd d1bd cfbe 866a 25bf f81f 8cbf
00000180: 30b1 e4be 93b9 e43c 043d 05bf f6fe e0be
00000190: b0e1 30bc a0cf 08bf c822 f4be 33e0 2dbf
000001a0: cb74 04bf f968 fbbe ad27 9dbf dba7 a7be
000001b0: 9e17 54be d96e 11bf 323e ddbe 5f6b 383a
000001c0: 35a5 b1be 725d ffbe c3a8 ffbe 62ca d63c
000001d0: c00e ecbe e349 14bf 1dea cabe 48de 07be
000001e0: 9b2b e83c 3c87 91be 17aa 233b 32ac e9bd
000001f0: 5ce9 f1bc e041 09bf 8cc6 e5be bc0e 1dbe
00000200: 80ea 02bf 15c1 823c a10c 00bf e07a b6be
00000210: d1e9 efbe 74aa 31bf 3cff 19bf d91c 10bf
00000220: 3646 0dbf 25e2 f1be 4a21 0cbf 433c afbf
00000230: ad8b 09bf 3858 c6bf be0d 13bc df3f 80bc
00000240: 7cb7 7ebb 850e 9339 fbb8 03bf b451 faba
00000250: fe6e a1bf 0691 b3bd 58ad b0bb da9f 043e
00000260: fac6 d83c 3e62 00c0 ae87 26bc 1021 c5be
00000270: 0615 94bb 2a13 f8be b98e d8bf 423e debe
00000280: 6f6a 2ebb d019 bd3b 4b94 e83a e7d3 f6be
00000290: a3cb cabe a95c 10bf f6f0 15bf fd82 8d3a
000002a0: 406c 20bf e147 f4be 9a35 edbe ac97 15bf
000002b0: 73e4 edba d500 88bc ae1b 20bf f11f c9bb
000002c0: 1e04 2bc0 55f6 7ebd 6336 dcbe 3467 6c3c
000002d0: cc1f 0abf ba5f 01bf 2bac 0ebf 3e26 f5be
000002e0: 72e7 edbe f92b 05bf 43c1 08bf cba6 17bf
000002f0: 8126 14bf f05b bfbc d328 a7be 853c 0abf
00000300: 33b8 efbe 7b06 f6bf 3a1d f5be 61ad 96be
00000310: a37e ec3c f82e d1be 5226 11bf 41b9 29bf
00000320: 45ed 0abc 2366 ee3c b55a 85bb 5c38 05bf
00000330: 0689 11bf d9fe 12bf 612b cbbc 3ea7 a1bf
00000340: ef02 02bf ae2d 03bf f096 2fbf 27e1 b1be
00000350: 24a8 d1be edc7 83be c557 f7be 241e fabc
00000360: e3f9 febc 3bee 12c1 8e26 01bf a825 94bd
00000370: 8345 8ebf b7a7 a6bc ed40 15bf 18ed 1fbf
00000380: a1d4 17be a965 06bf ddd6 8b3a 7e6c 173d
00000390: c2f8 543c 8533 ccbe eb1d f6bd 5e93 02bf
000003a0: c55b 03bd 0bb9 e53c 2352 0abf 25c2 1abf
000003b0: cf9a 08bf 5d5e 01bf ccfd febd 054a 0ebf
000003c0: 37f5 8bbe 07a5 2ebc e7b5 c33d f47b f4bc
000003d0: aba4 3dbe 13fc 743c bb80 1cbf 88c8 cabe
000003e0: 6fb3 f5be 8249 e5be a1af 4f3c 601f 01bf
000003f0: c43c 92bf 1051 e2be a8ed b1bc 5c3b 38bd
