save_mode/SAC_v_50_target_qf1_network.pth (torch, 329559 bytes, 5 tensors)

fc0.weight f4 [256, 61]
00000000: 7185 4fbd 0dc6 193c c5de 9bbb ac04 753d
00000010: f2f2 dc3b ca5b cebc cefb a83f 148f 0240
00000020: 7cba 71bd d882 35bd 6b46 69bb 08e4 30bd
00000030: bcb6 7b3d e22f ddbd 41e2 de3d 91ca dd3f
00000040: 3b0e 633d 9ac3 d7bc b8ee c8bc df5f 3cbd
00000050: 6e9a a63c f8fc cf3f 5743 b13f 0053 c73f
00000060: 8282 d63c 5586 113d d458 8abc d8ee 3c3c
00000070: e870 323d 8082 bdbd c37f e4bd bc95 f4bc
00000080: b2c5 56bd a184 d2bc 5967 44b8 465f 113d
00000090: 9d9c 033d c100 43bf dd19 85bf 0eea 93bf
000000a0: fac7 5c3c 8e1c 163d fc22 04bc 79ed 43bd
000000b0: 93f9 6abd dd76 82be cfa4 aabe 0414 77be
000000c0: a89e ba3f 2cda 7940 48d1 b040 b5df 0cc1
000000d0: c6b1 afbf 2480 0b40 2a76 e0be eb9d e9bf
000000e0: 3b33 7abe d923 c93e 2688 12c0 b5f1 89bd
000000f0: 27be 3bbe dc33 f0bc 0cbf 7dbd 45a8 89bc
00000100: 75de 073d 5c03 8f3c d02b cd3f 2e0c 713f
00000110: 08f6 fa3e 3eb3 1f3d 0394 6abd 066c 923c
00000120: 8fa9 243c a0da b3bc 708a 00bd 49c0 4d3f
00000130: 6a25 943f 0048 cd3b 26b4 13bb e241 5a3d
00000140: 1b35 753a 3a37 d83c 6a7c 0140 696b eb3f
00000150: 462f f23f 372f 38bc 5e6a 1b3d 6dc3 023c
00000160: d4c4 78bd e117 c83b dadb 583e c3f1 4d3e
00000170: 3eeb b23e b9d6 4cbd 1dd0 093d 3fdf 20bd
00000180: c035 363b a4d5 03bc 0007 26bf 1da3 0dbf
00000190: ea29 44bf 5610 14bd 82b9 51bd 6cfe 0d3d
000001a0: e70e a1bb e5cf 053d 3753 87bc b268 9e3d
000001b0: 29e8 613e 8e69 b9bd b36f 6540 5953 a740
000001c0: 6afc 08c1 91ba 04bf 543c 8c3f 5152 f3bd
000001d0: a69a 34bf 9abc 0f3f 2f53 f7bd 2ff0 2bbf
000001e0: a47e 713f c46d 1cbf b433 7fbb 3f72 2e3d
000001f0: 858e 9fbb 3aeb 53bd 9bd7 753c 7156 5b3f
00000200: f853 ce3f 8f07 3f3f 31e2 4b3c 65d1 8bbc
00000210: 786f 3f3d 333a 67bd 39c4 4d3b 2376 e3be
00000220: 1f6d 3f3f 2258 683f 3725 293d df5e b8bb
00000230: faa0 563d 6479 f03b 5dfc 0bbd 5190 d53f
00000240: a0d1 c13f 00c3 c53f 0653 923c d700 21bd
00000250: c41b 7dbc 449d 0f3d 89c5 4c3d e56c 09be
00000260: dd57 83bd aece af3d 63f6 703a e196 d03c
00000270: 8937 533c d2c4 5fbd 990b 4c3d fa1c 53bf
00000280: 8a76 55bf 1d27 88bf 957f 8f3c 01f5 453b
00000290: 5581 163c 7d19 10bd 8c25 083d 17ac abbe
000002a0: 8e6f 1dbe 0741 aebd 2618 943d 4c97 7440
000002b0: c027 b040 6d6e 0cc1 024f 69bf 881a 433e
000002c0: 1d9c 813d 2dcc 8cbf 77ec 26be 485b 333e
000002d0: 2c43 75bf 30b5 463f 9b3d febe 2949 c2bc
000002e0: a715 a3bc b7b3 a43c 4581 03bb 6d34 85bc
000002f0: 6f87 a5be 6370 fe3e ba9d e23c f038 b03c
00000300: e7be a53c c2f1 6a3c deb2 2a3c c70c 253d
00000310: dccc 7cc0 8e6e 99c0 5f15 a5c0 8978 443d
00000320: 950b 81bc 19ab 40bd a0dd 3fbd b221 d0bc
00000330: 86ad 1ec1 4e6f 1cc1 976b 23c1 1898 3f3c
00000340: b646 193d 8f08 2abd 7de6 8bbc 539e f43b
00000350: 6779 3b3e 185e b8bd 377e 2fbd a345 693c
00000360: 7efb 94bc bf3f 2cbd ff31 a73c e8da 313d
00000370: 0400 0b3e a42e f1bd 9325 ecbd bc69 733d
00000380: e7f7 283d b4c0 74bc c63a 15bd 16df afbc
00000390: f843 403e e819 b4bd 1818 33bd 59b4 cc40
000003a0: 7574 8840 8951 d740 d51d 183f 17b3 ae40
000003b0: 6a29 5940 fd40 1840 aeff 2bc0 a9ac 40c0
000003c0: 82e9 e2bf 56d7 90c0 0f91 a63f e8d7 bec0
000003d0: 3e5e 10bd b4b5 fa3c 37f2 a43b fd2c 93bc
000003e0: 20b6 373d 6753 b9bc 120d 6ebd e88a 36be
000003f0: c8d8 35bc b179 523c 3728 b53b b3d6 68bd
-0.05066437 0.009385598 -0.004756781 0.05981891 0.0067428285 -0.025190253 1.3201845 2.0399828
-0.059015736 -0.044314235 -0.003559495 -0.043186218 0.061453566 -0.108001485 0.10882998 1.7327443
0.055433493 -0.026338387 -0.024527892 -0.045989867 0.02033731 1.6249075 1.3848675 1.5572205
0.026185278 0.0355285 -0.01688806 0.011531554 0.043564707 -0.092534065 -0.11157181 -0.029856555
-0.05243463 -0.025698008 -4.682629e-05 0.03549125 0.03213178 -0.76173025 -1.0398518 -1.1555803
0.0134754125 0.036648326 -0.008064982 -0.047833893 -0.05736692 -0.2548131 -0.33328864 -0.24128729
1.4579668 3.9039412 5.525547 -8.804616 -1.3726127 2.179696 -0.43840152 -1.8251318
-0.24433605 0.39285162 -2.2895598 -0.06735555 -0.18334256 -0.029321603 -0.061949775 -0.01680387
0.033171136 0.017457657 1.6028996 0.9415921 0.49015832 0.038989298 -0.05727006 0.017873775
0.010050192 -0.021954834 -0.031382024 0.8037153 1.1573918 0.0062646866 -0.0022537797 0.053285487
0.00093539216 0.026393522 2.0232186 1.8392154 1.8920677 -0.011241726 0.037943237 0.007981163
-0.060734585 0.006106362 0.21177617 0.20111756 0.349451 -0.050009463 0.033645738 -0.039275404
0.0027803034 -0.008046541 -0.6485443 -0.55327016 -0.76626456 -0.03614839 -0.051202305 0.034666464
-0.0049151066 0.032668967 -0.016519172 0.07734813 0.22061218 -0.09053336 3.5849426 5.2289243
-8.561625 -0.5184718 1.0955911 -0.11880935 -0.70548475 0.5614716 -0.12076413 -0.67163366
0.94333863 -0.6110499 -0.003894073 0.042589422 -0.0048692846 -0.051738 0.015005018 0.85678774
1.6119375 0.7462091 0.012444065 -0.01706762 0.046737164 -0.056451987 0.0031397475 -0.4442607
0.7477588 0.9075948 0.041295256 -0.005626544 0.052399613 0.0073386896 -0.03417622 1.6684667
1.5142097 1.5450134 0.017861854 -0.03930744 -0.015448514 0.03506209 0.04999307 -0.13420446
-0.06413243 0.08584343 0.0009191988 0.02546257 0.012891659 -0.05463106 0.049815748 -0.8246609
-0.83384 -1.0636936 0.01751689 0.0030205848 0.009186109 -0.035180558 0.033238932 -0.33529732
-0.15374586 -0.08508497 0.072311684 3.8217344 5.5048523 -8.776959 -0.9113618 0.1905309
0.06328604 -1.099981 -0.16301142 0.1751529 -0.9580562 0.7762022 -0.49656376 -0.023716526
-0.019907786 0.020105226 -0.0020066064 -0.01626035 -0.3232989 0.4969512 0.0276631 0.021511525
0.02023263 0.014339866 0.010418622 0.04029539 -3.9500036 -4.7947454 -5.158859 0.047966514
-0.015752593 -0.04703817 -0.046842217 -0.025406692 -9.917364 -9.777174 -10.213767 0.011693977
0.03742095 -0.04151207 -0.017077679 0.007465163 0.1830803 -0.09002322 -0.042844977 0.014237794
-0.018186327 -0.04205298 0.020409582 0.043421656 0.13574225 -0.11776474 -0.11530604 0.059427008
0.041252043 -0.014938522 -0.036433004 -0.02146868 0.18775928 -0.08794004 -0.04372415 6.397015
4.264216 6.728703 0.5942052 5.4593616 3.3931527 2.3789666 -2.6874804 -3.0105383
-1.7727511 -4.526286 1.3013018 -5.9638557 -0.035246126 0.03060422 0.005033757 -0.017965788
0.044851422 -0.022622777 -0.058117934 -0.17826426 -0.011099048 0.012846396 0.0055284756 -0.056845378

fc0.bias f4 [256]
00000000: f453 0342 be9c 0642 7c48 0442 cafe 50c1
00000010: 7937 40bd b1dd c8c1 12c8 53bd 61ea d941
00000020: 672f 26bd 6dc2 9741 d8c5 c741 b562 0742
00000030: 21f5 cac1 3d46 0742 87a0 b541 99da cfc1
00000040: 36de 1fbd 5ad8 b941 382e 0642 9699 93bd
00000050: b6ee 0642 0000 0000 d316 0642 8bf9 ed41
00000060: 02e2 dd41 4dda 0642 59f1 df41 15df 0642
00000070: 0d5f 0dbd fe1e c041 e1ef d641 0000 0000
00000080: dcae 0142 230b 7941 f980 0742 9e73 0642
00000090: 7bca ff41 c7ae bc41 347f 0142 1451 0442
000000a0: 92e1 55bd f056 c441 cad6 cfc1 3831 e341
000000b0: 893b ca41 2ccc 73bd 1cc5 0642 9876 0742
000000c0: 70b7 36bd e719 0642 7fba bc41 9dee 06bd
000000d0: 8dca c8c1 7337 f541 642c 0142 5b36 fa41
000000e0: 6b1b 6c41 0000 0000 80c6 0642 fff9 a7bb
000000f0: 2bc3 0742 3625 90bd 8cec 0442 a382 63bd
00000100: 7ff5 ae41 0c0e 0742 f9b6 cabe 4027 c741
00000110: feaf ab41 c513 0fbd 8378 00bd 799e 4cbd
00000120: 82a6 50bc 71d8 0542 6fbe b941 25ee 01c2
00000130: d9bf c841 b062 0742 a754 0742 acc6 cac1
00000140: 01c7 d541 ffb3 cfc1 5e49 ad41 3399 ec41
00000150: 0000 0000 83b1 e3bc a8c7 0642 9bfc f341
00000160: 0c13 dd41 0000 0000 a16e c5bd 6c77 0642
00000170: 3c42 0442 caf9 ee41 cae6 54bd 39d6 cabb
00000180: ca13 5abd cecb 97bd 394a 40bd 8dad 0642
00000190: 7f82 bd41 ee35 0642 8d30 0642 876c 2dbd
000001a0: c945 0642 4cb4 0442 ec05 0742 2b4b fc41
000001b0: 4049 39bd a7d5 b541 fccf fc41 c5e1 0642
000001c0: 2ca8 f941 1c11 7bbd 16f6 0542 ab49 9d41
000001d0: da90 ed41 6460 8941 0000 0000 1c9e f0bc
000001e0: 52b5 ec41 d3f5 f441 751a 0742 b8a2 c441
000001f0: ffe5 0942 bcff dd41 8c96 cdc1 b796 adbc
00000200: 08a5 0642 fc15 d941 7a18 da41 b392 0642
00000210: f702 0742 f4d4 0542 5250 e841 1351 0642
00000220: f6db 0642 7638 12bd 4be6 eb41 626f e141
00000230: 6e04 0442 264d 0742 ee45 19bd 7a29 53c1
00000240: c0b4 3ebd cb49 6abc b54f 0bbd 3bd4 f441
00000250: 3d1c 02bd 269c 97bd 263d 9241 6f4f 0642
00000260: fa10 ee41 d5b5 87bd 15d5 87bd 6739 0742
00000270: 6b2e ed41 c352 f841 3180 d341 b854 38bd
00000280: cf64 0642 f0ee b3bc ed64 0742 c847 30c1
00000290: 0cf0 79bd 2b7c f841 49ca c641 d520 0742
000002a0: 2c1f fb41 5a85 0642 ce7b 1cbd b5e5 0bc1
000002b0: 0000 0000 a06b b9bc 2cac 0742 19d1 42bd
000002c0: 5fbe 26bd e13a d741 120c 51bd 2eff 0642
000002d0: 3cc3 fb41 6a08 52bc 9e50 18bd d720 a441
000002e0: 6592 0542 0851 3cc1 6b12 0742 ce28 95bd
000002f0: 1a35 0742 a788 2dbd 22b5 e541 8bc4 fa41
00000300: bbd6 0442 f3d0 6abd f503 08bc 4eeb 98bd
00000310: 72bc 0542 024a a9c1 1223 e241 f8c8 0642
00000320: a9f1 da41 1fda 0a42 0000 0000 0667 17bd
00000330: 90c8 bc41 b129 ffc1 7ca2 ec41 a3e0 0642
00000340: 1d32 02bd 9092 c541 9d27 8abd bc3f 0742
00000350: 4ffc aabc c378 fa41 0000 0000 07aa 0642
00000360: 2f14 0742 44b1 fbbc 9920 0642 a30a 0642
00000370: c0a8 0742 6444 0642 5576 cec1 0000 0000
00000380: 4872 c441 3a84 0642 92e7 54bd 238d 0b42
00000390: c2d6 e241 767d 0642 b84a c241 eae9 ed41
000003a0: 3f17 00bf 8049 ba41 0345 0642 9da7 0642
000003b0: b02b c641 39b0 c841 9f34 25bd 37a1 25bd
000003c0: 386c bfc1 aa59 0642 7329 0742 0996 c8c1
000003d0: 2e8b 9bbd 432e e3bc ccf6 0742 844f 0742
000003e0: d288 50bd 90b9 0642 b573 94c0 827d 5bbd
000003f0: 8316 68bd a6ec 14bd b045 ca41 03fc e1bc
32.831985 33.65307 33.070786 -13.062204 -0.046927903 -25.108248 -0.051704474 27.239443
-0.04057255 18.969934 24.971603 33.846394 -25.369692 33.818592 22.703382 -25.981737
-0.039030276 23.23064 33.545135 -0.072070286 33.733116 0.0 33.52229 29.746847
27.735355 33.713184 27.992846 33.717854 -0.034514476 24.015133 26.867128 0.0
32.42076 15.565219 33.87595 33.612907 31.973867 23.58534 32.37422 33.079178
-0.052217074 24.54245 -25.979877 28.399033 25.27907 -0.059520885 33.69249 33.865814
-0.044608533 33.525295 23.591063 -0.032942403 -25.098902 30.652075 32.29335 31.27654
14.756694 0.0 33.693848 -0.0051262374 33.940594 -0.070383474 33.231003 -0.055544507
21.869871 33.763718 -0.39592722 24.894165 21.460934 -0.034930963 -0.03136493 -0.04995582
-0.012735011 33.46137 23.217985 -32.482563 25.093676 33.846375 33.83267 -25.347008
26.72217 -25.962889 21.660824 29.574804 0.0 -0.027794605 33.694977 30.498343
27.6343 0.0 -0.096402414 33.616623 33.064682 29.871967 -0.05197791 -0.006190088
-0.05324153 -0.074119195 -0.046945784 33.669483 23.688719 33.552666 33.547413 -0.042339828
33.56815 33.17607 33.755783 31.536703 -0.045235872 22.729322 31.601555 33.720478
31.207115 -0.061295614 33.49032 19.66097 29.695728 17.172066 0.0 -0.029372267
29.588535 30.620031 33.775837 24.579453 34.474606 27.74987 -25.69851 -0.02119003
33.661163 27.135735 27.261951 33.64326 33.752895 33.457962 29.039219 33.579174
33.714806 -0.035698377 29.487448 28.179386 33.004326 33.82534 -0.037420206 -13.197626
-0.046559095 -0.01429982 -0.03401156 30.603628 -0.03176521 -0.0740283 18.279858 33.57757
29.75829 -0.066264786 -0.06632439 33.806057 29.647665 31.040411 26.437593 -0.04500267
33.598446 -0.02196452 33.84856 -11.017525 -0.061019942 31.060629 24.848772 33.782063
31.39022 33.630226 -0.038204007 -8.743581 0.0 -0.022634327 33.918137 -0.047562692
-0.040708896 26.90375 -0.0510369 33.7492 31.47033 -0.012819389 -0.037186258 20.516035
33.392963 -11.769783 33.767986 -0.072831735 33.801857 -0.04236665 28.713444 31.345968
33.209698 -0.057328176 -0.008301725 -0.07466756 33.43403 -21.161137 28.267124 33.69626
27.367998 34.71301 0.0 -0.036963485 23.59793 -31.895357 29.579338 33.71937
-0.031786073 24.696564 -0.06745837 33.81224 -0.020872263 31.308966 0.0 33.666042
33.76971 -0.030724175 33.531834 33.510387 33.914795 33.566788 -25.80778 0.0
24.555801 33.629128 -0.051978655 34.88783 28.354862 33.62252 24.286484 29.739216
-0.5003547 23.285889 33.567394 33.663685 24.771332 25.086046 -0.040333387 -0.04043695
-23.927841 33.587563 33.790478 -25.07326 -0.07594906 -0.02773202 33.991013 33.827652
-0.050911732 33.681213 -4.6391244 -0.05358649 -0.056662094 -0.036358498 25.284027 -0.027585989

fc1.weight f4 [256, 256]
00000000: 21f8 5e3f 5c1d 023f eb3d f93e 191a d43e
00000010: 79f4 5fbd 7139 38c0 58a1 4b3d a6c7 af3e
00000020: 75ee 95ba d5f1 963e 26ea 233f 80ef af40
00000030: 4d62 31c0 0289 1f3f 1830 483d 6fcd 03c0
00000040: 9f7e 213d 0cfe bc3f 0725 d13e bf50 a53d
00000050: 1906 893e 5ba9 eb3c b56d 213f 697b dc3e
00000060: b4ba 0e3f 415a 073f e0eb 463f e2f1 cf3e
00000070: 0e3c 173d fe9f e53f ce64 a4bf 7c26 f9bc
00000080: 52c7 e93e 51aa 59bf 381e 123f bebb ff3e
00000090: 0137 d43e 6dd4 143e 4146 df3e 26f3 ae3e
000000a0: 8379 e43c 7661 a03e 2227 05c0 2151 0440
000000b0: f7aa b33e fbc6 f1bc f4b3 0e3f 5f7c 0c3f
000000c0: b5bd 813c 981a f23e dc54 77be ba12 dc3c
000000d0: 804b 45c0 b4e5 0b3e c9c1 d63e c370 f33e
000000e0: 5cc4 0c3e 3bb0 fab9 9af3 e13e f4b2 883b
000000f0: b746 0f3f f541 863d b148 d63e f368 f3bc
00000100: e360 723d 0a24 3f3f 01ee dbbe 568c 293f
00000110: 217f 553f da30 e43a 6b17 75bb 392a d63c
00000120: c6f6 97bd ff1f da3e 59d1 5c3f a935 d8bf
00000130: 9835 453e 64bd f03e 0326 7a3f d0c3 22c0
00000140: 27e3 393f c187 d0bf c325 733f e60a aa3e
00000150: 3cc4 7fbd 020b ecbc e7ac 0e3f 6ce5 0d3e
00000160: 8bfd 0e40 eaa0 dc3c 4ab0 5bbe d9c0 fb3e
00000170: 30a3 c93e 56b1 273f 250d 813d 8adb 59bd
00000180: f31e f7bc f2d1 55be 6d46 02bc 4148 e23e
00000190: 458c 163f f9d1 013f 2980 ea3e cf4b a43d
000001a0: a873 ba3e 36f4 2c3f cf31 f73e e992 d63e
000001b0: 4894 cfbd 6684 9cbe e69a ab3e 5ecf eb3e
000001c0: afb0 343e c224 56bd e4a3 ba3e 147d 2440
000001d0: 34ba 0c3e 7b9d 7a3f 1532 1e3c 502b b8bd
000001e0: 93c7 eabc b2d1 d4bc 18ff e23e 5f3e b33e
000001f0: 5182 e83e 7871 c73e 3932 4fc0 fa97 e4bc
00000200: 7a39 183f b10c 2540 741d 8a3e 93b6 1a3f
00000210: 8498 a63e 29e0 e73e 6b4b fd3e 704f f83e
00000220: 3837 073f 4e12 9fbd 146b 083f 6e6a 2e3f
00000230: cad0 b63e ecda f93e 7992 ce3c ecfe 8fc0
00000240: 94bd 74bd c9c3 c5bc c030 3bbd add9 903d
00000250: c545 8f3d 54dd 76bd 6583 183f 2c92 b23e
00000260: 0e95 04be ce67 97bd 8809 31be a776 213f
00000270: d44b 083f 8a43 6a3e d0d7 c73e 8edd 93bc
00000280: ccf5 0f3f 78a1 3fbd 848b e43a b460 04bf
00000290: 37a7 3dbd 0f70 383e e86e c33d d9e9 1c3f
000002a0: d5cb 943d 642e d03e 2872 b7bb 1492 8ebe
000002b0: 74af fabc 9ee5 94bd ea0b 363f 12e2 573d
000002c0: c609 993c 7664 ac3e 31d8 d5bc 91d4 1b3f
000002d0: 2562 103e 8674 1b3d 65d7 0abd dc1b 8d3e
000002e0: 84a7 a93e a460 0ac0 2f6a 1e3f ae20 1abd
000002f0: 3e3a 2d3f fb1a 64bd 2d59 9b3e fefa 2b3f
00000300: 42fa 1b3f 5572 0cbd 76bb 2abc 8b82 6cbe
00000310: dc7d c53e 671b 82c1 9150 d03d 0813 c83e
00000320: d62c 223e 6739 8540 3c4c 7a3d ba87 d5bc
00000330: 2185 543c 6b19 65c0 d50b 02be e6fe cc3e
00000340: 3afd 503c df9b b23d f39d 663d 90f3 163f
00000350: bd79 01bd 0e7e a53e a471 83bc f27c e83e
00000360: 035f e63e 4f90 3cbd e931 e93e bea9 ab3e
00000370: 5cae 153f 7625 db3e 2aec d3bf f360 ecbb
00000380: ed0b 923e 0ffe bf3e 4725 a33d 39d0 0b40
00000390: 90ec 4f3e 48f3 f83e 2f72 343f f409 873e
000003a0: 65f8 91be 01b7 473f 606b de3e 77f1 0a3f
000003b0: b923 553f f871 c93e 2f09 00bd e223 f83c
000003c0: ee17 36c1 1685 df3e 6720 1f3f 6a4d a8c0
000003d0: 618d 43be cdf3 083d 19c5 1e3f 3948 283f
000003e0: 8fdb a4bd 9070 053f ee28 a0bf 7882 40bb
000003f0: ded1 293a f61f 143d feeb a13f b1d4 c7bc
0.87097365 0.5082605 0.48680052 0.4142616 -0.054676507 -2.878506 0.049714416 0.34332007
-0.0011438864 0.29481378 0.6402916 5.497986 -2.7716248 0.6231843 0.04887399 -2.0594137
0.039427396 1.4765029 0.40848562 0.08072042 0.26762465 0.028767278 0.63058025 0.43062904
0.55753636 0.5287209 0.77703667 0.4061423 0.036922507 1.7939451 -1.2843263 -0.030413859
0.45659882 -0.8502551 0.5707736 0.49947923 0.41448215 0.14534159 0.43608287 0.34169883
0.027889973 0.31324357 -2.0805135 2.0674517 0.35091373 -0.029513827 0.55743337 0.54877275
0.01583753 0.47285914 -0.24153465 0.026864398 -3.0827332 0.13661844 0.4194472 0.47546968
0.1374678 -0.00047815018 0.44131166 0.0041717235 0.5596728 0.06555549 0.41852334 -0.02971313
0.05917443 0.74664366 -0.4295502 0.6622976 0.8339711 0.0017409578 -0.0037397991 0.02614318
-0.07420115 0.42602536 0.8625694 -1.6891376 0.19258726 0.47019494 0.9771425 -2.5432014
0.7261223 -1.6291429 0.94979495 0.3321144 -0.062443003 -0.028813843 0.5573258 0.13857049
2.234225 0.026932199 -0.21453968 0.4917057 0.39382315 0.6550497 0.06301335 -0.053187884
-0.030166125 -0.20880869 -0.007951361 0.4419575 0.58807784 0.5071102 0.45800903 0.08022272
0.36416364 0.67560136 0.48280188 0.4190896 -0.10135704 -0.30569762 0.33516616 0.46056646
0.17645524 -0.05228115 0.36453164 2.5701342 0.13742906 0.97896546 0.009655495 -0.08992636
-0.028659618 -0.025978897 0.44335246 0.35008523 0.45411924 0.38953757 -3.2374403 -0.0279045
0.594627 2.5788996 0.26975596 0.60434836 0.32538235 0.45288208 0.49471602 0.48498106
0.5281863 -0.07767163 0.5328839 0.6813115 0.35706168 0.48799837 0.025216328 -4.4998684
-0.05975111 -0.02414121 -0.04570079 0.07072768 0.06995729 -0.06026967 0.5957549 0.34877145
-0.12947485 -0.07392846 -0.17288792 0.63071674 0.53240705 0.22877327 0.3903184 -0.018049981
0.5623443 -0.046784848 0.0017436598 -0.5171006 -0.046302047 0.18011497 0.09542638 0.61294323
0.072654404 0.40660393 -0.0055983253 -0.27845824 -0.03060124 -0.072703585 0.7111193 0.05270583
0.018681418 0.33670396 -0.026104065 0.60871226 0.14099939 0.037952922 -0.033896822 0.27560318
0.33135617 -2.1621485 0.61880773 -0.037628822 0.67666996 -0.055689793 0.30341473 0.6717986
0.6092874 -0.034288723 -0.010420671 -0.23096673 0.38572586 -16.26338 0.10171617 0.3907702
0.15837416 4.163257 0.06110786 -0.026065696 0.0129711935 -3.5796764 -0.12699826 0.40038222
0.012755686 0.08721136 0.056302976 0.58965397 -0.03161024 0.32322735 -0.016045399 0.45407826
0.44994363 -0.04603606 0.4554589 0.3352794 0.58469176 0.42802018 -1.6556447 -0.0072137057
0.28524724 0.3749852 0.079660945 2.184584 0.20305085 0.4862311 0.7048673 0.2637478
-0.28509822 0.78013617 0.43441296 0.54274696 0.83257633 0.39344764 -0.03125876 0.030290548
-11.380842 0.43656224 0.6215882 -5.25945 -0.190969 0.03343563 0.620195 0.65735203
-0.0804969 0.5212488 -1.2512491 -0.002937464 0.0006478111 0.036163293 1.2650144 -0.024393411

fc1.bias f4 [256]
00000000: 336d 0642 a677 1bbd 52dc d93c 9f95 b241
00000010: 18cf 3abc 54fc 8e41 8f68 b341 0a3e d4c0
00000020: b654 0642 5245 0642 9332 0642 d644 1ebd
00000030: 6378 c1c0 3d1c 02bd c6e9 ae41 bd4c 0642
00000040: ff54 b641 c177 44bd f91e db41 1915 0642
00000050: 5a27 57bd 0957 0642 f120 4dc1 479f b041
00000060: b522 0642 df37 b241 c627 ad41 125f 58bd
00000070: 077c 00bd 0000 0000 e618 17bd 6cf9 f9bc
00000080: 0000 0000 9730 b141 4d5e 0642 4ecb ae41
00000090: 1ce2 8641 4c07 8c41 3c7d 76c1 9f6b b941
000000a0: cda6 80bd c49a 0642 0000 0000 efae ad41
000000b0: a9ae 48be 6a5a 55bc e044 0642 978a 22bd
000000c0: 6e7c ab41 b72e b641 4470 f1bb 1fbc ba41
000000d0: 0115 49bd ede2 03bd 0f24 0b42 95fa 87c1
000000e0: bd2f 05bd 11f9 4fbc 8780 b241 e12e c03d
000000f0: bb0d 61bc 2521 0642 061e 0642 6f25 0642
00000100: 7a4f d5c0 025c d2c0 6ea2 ad41 fdd1 9d41
00000110: 6918 47c1 415d 0642 3d1c 02bd 8f4a 0642
00000120: b08a b2bc d6e4 ad41 e1f7 44bc 57c0 b141
00000130: b534 03bd 4318 0742 65f4 01bc 1f44 b141
00000140: 494b 0642 2a15 d3c0 5004 0642 d50c 0642
00000150: e07d b741 6695 ae41 9aaf 52bc e6b5 1abd
00000160: 3c4c 0642 ae5d 94bc 428e 0642 3a4f d4c0
00000170: 5d49 0642 071b 0642 c6d3 a141 b165 4d3c
00000180: f24f 5abc 951f 0642 3748 0642 3289 debb
00000190: d48d 7dbd a810 c141 b739 b041 a5ea 0cbd
000001a0: 17f9 b341 dd55 0642 0b25 0642 fa50 0642
000001b0: 6e5b 0642 5f38 b441 4e4d aa41 7535 0642
000001c0: 4660 15bd 3d1c 02bd 7e0e af41 0b79 0642
000001d0: 0841 c741 1769 b241 edc4 083e 0418 0642
000001e0: 8b6d e3bc 2521 0642 854b 0d42 3d1c 02bd
000001f0: d8c4 14c1 8873 30bd c0e0 3fbd f24b 0642
00000200: 2694 10bc a4fc f0bb e845 35bd e72b b141
00000210: 97f5 25bc b020 0642 8856 0642 8a6b 0642
00000220: 715f 0642 d22b d3c0 112b 0642 feb1 1abd
00000230: cd37 0642 d557 0642 6bed e2bc 8b70 0642
00000240: 9751 b841 1e28 a541 2eb4 103c cf1e 0642
00000250: e519 02bd 3315 0642 7fd7 b341 9957 0642
00000260: c03b 0642 a70c b141 acb1 8641 9240 db3b
00000270: 1518 3fc1 a77f a2bc 2a41 0642 4066 0642
00000280: 0f04 b141 6c41 0642 1037 0642 a6cc 91bc
00000290: 3f0e 2a3f d862 cb41 c217 d4c0 2792 a13c
000002a0: 0000 0000 937d 2241 eedb 99bd 56e7 1ebc
000002b0: 3d1c 02bd b150 c4bd e6b5 1abd e51a 0642
000002c0: 3748 0642 8404 8441 2285 d4c0 673e 0842
000002d0: b25e e341 6727 0642 42a4 0042 5e11 ae41
000002e0: 5a0d 53bd 5ed8 91bd 5ac2 d2c0 8a4b 0642
000002f0: 8f56 0642 c067 cf41 40c8 c141 4229 0642
00000300: b4a7 8d41 6772 0642 cb94 eabd 9d3f 0642
00000310: 5ac5 de41 0a70 d4c0 2afc d2c0 9f71 b841
00000320: 86b7 ad41 409f b3bc c9f2 0c42 6460 0642
00000330: e931 c9bc 5dfa 9c41 8003 ce41 fd48 0642
00000340: 81fe 0b42 163c 14bd 05ad 9c41 0000 0000
00000350: ac53 0642 54ef 8c41 bacb d2c0 a77b ab41
00000360: 162b 0642 5f8d 2ac1 f209 d5bc 4c28 0642
00000370: 6e89 ad41 1cf5 b9c1 e85a 3ebd 8159 48bd
00000380: 0000 0000 a67c af41 7e56 0642 2f18 2abd
00000390: 8a2b d5c0 e826 b6bb cce4 febb f6a9 af41
000003a0: b14c 0642 8d8a 0c42 c9c9 c4bb ff57 29bd
000003b0: a5e9 88bc e827 0642 5fc8 b541 59c5 45bc
000003c0: 276c 0642 5127 0642 bc75 8a41 3516 0642
000003d0: 9f28 27bc 5fee b741 615d 0642 b855 3cbc
000003e0: 084a 0642 02d4 57bc 8e73 ad41 a879 5ec1
000003f0: cfcf a7bc c7eb b641 2a7f 1541 421b 0642
33.60664 -0.037955903 0.026594315 22.323057 -0.011401914 17.873207 22.426054 -6.632573
33.582726 33.567696 33.54939 -0.038639866 -6.0459456 -0.03176521 21.864147 33.57494
22.791502 -0.04796577 27.390123 33.520603 -0.052527763 33.584995 -12.820542 22.077772
33.533894 22.27728 21.64442 -0.05282504 -0.03136828 0.0 -0.03688898 -0.030514441
0.0 22.148726 33.59209 21.84927 16.860405 17.503563 -15.405575 23.17755
-0.06281815 33.65114 0.0 21.710417 -0.19597878 -0.013022045 33.56726 -0.03968295
21.435757 22.77281 -0.0073681194 23.341856 -0.049092297 -0.032198835 34.785213 -16.997355
-0.03251623 -0.012693659 22.312757 0.093839414 -0.013736184 33.532368 33.52932 33.536556
-6.6659517 -6.5737314 21.704311 19.727533 -12.4434595 33.59107 -0.03176521 33.57281
-0.021794647 21.736736 -0.01202199 22.218916 -0.032032687 33.773693 -0.007931803 22.158262
33.57352 -6.5963335 33.50421 33.51253 22.936462 21.822948 -0.0128592495 -0.037771128
33.574448 -0.018111076 33.638924 -6.634671 33.571644 33.526394 20.228405 0.012536452
-0.0133247245 33.53084 33.570522 -0.0067912573 -0.061902836 24.133133 22.028181 -0.034403462
22.496626 33.58385 33.536175 33.57908 33.589287 22.527525 21.287746 33.552204
-0.036468767 -0.03176521 21.882076 33.618206 24.906754 22.301313 0.13356371 33.523453
-0.027762195 33.532368 35.32375 -0.03176521 -9.298058 -0.04307893 -0.046845198 33.574165
-0.008824384 -0.007354336 -0.04425612 22.146437 -0.010129354 33.53192 33.584503 33.60502
33.593204 -6.599099 33.542057 -0.037767403 33.554493 33.585773 -0.0277011 33.609905
23.039839 20.644588 0.008832021 33.530087 -0.031762976 33.520702 22.480223 33.585545
33.55835 22.131178 16.836754 0.006691047 -11.943379 -0.01983626 33.563637 33.599854
22.126982 33.56389 33.553772 -0.01779778 0.6642799 25.423264 -6.6279 0.019723011
0.0 10.155658 -0.075126514 -0.0096987095 -0.03176521 -0.09585703 -0.037771128 33.526264
33.570522 16.502205 -6.6412516 34.06094 28.421238 33.53848 32.160408 21.75848
-0.051526405 -0.07121347 -6.5862246 33.57377 33.58453 25.92566 24.222778 33.54029
17.706886 33.61172 -0.11454161 33.562122 27.846363 -6.6386766 -6.5932817 23.05548
21.714611 -0.021926522 35.237095 33.59413 -0.024559932 19.622248 25.751709 33.571278
34.99854 -0.036190115 19.584482 0.0 33.58171 17.61686 -6.587369 21.435377
33.542076 -10.659514 -0.026005719 33.539352 21.692104 -23.244682 -0.046473414 -0.048913483
0.0 21.935863 33.584465 -0.04152697 -6.661565 -0.005558837 -0.0077787396 21.957989
33.574894 35.135303 -0.0060055 -0.041343685 -0.016712973 33.53897 22.722837 -0.012070977
33.605618 33.538395 17.307487 33.521687 -0.010202556 22.991392 33.59119 -0.011495046
33.572296 -0.013173105 21.681423 -13.904701 -0.020484833 22.865126 9.343546 33.52662

last_fc.weight f4 [1, 256]
00000000: c32c 57bf fbc2 e13c 7106 c73b f5a5 9fbf
00000010: fd75 0bbc d0ad 4e3d 638f fdbf 835f 603c
00000020: 2581 51bf 9a89 4dbf 1c64 40bf 952c 08bd
00000030: eb39 07bf ac81 f5bc 0f0b b4bf 11b1 4bbf
00000040: fc1d 09c0 4cca f83c be3f 2cc0 0b81 3ebf
00000050: 98ef 3f3c 9963 50bf 1b2f f6be 5d18 18c0
00000060: 6d53 3fbf 1888 4ac0 606d 40c0 1361 00bd
00000070: d33e edbc 1f79 243a a48c 8b39 1531 013c
00000080: f09d cd3a 3526 14bf 7203 59bf cc84 0ec0
00000090: b968 d63e 496c c5bc 6644 af3a 99bb d03d
000000a0: 4025 bf3a f3db 60bf ac15 073b e695 17c0
000000b0: 1682 193c ff63 27bc 0ab8 51bf 5a9e d83c
000000c0: 639a f7bf ff79 b4bf c4ac 82bb fa32 c03e
000000d0: ec50 7abc 4e29 173c fee3 2ebf 2543 113f
000000e0: a258 513c b958 483c a9c6 dd3e b83d 27bd
000000f0: 12bc 553c d37e 3bbf 76dc 3ebf 5a52 3bbf
00000100: 84b7 fb3c 8b59 77b9 cc3d 85bf dd32 1e3e
00000110: ca1d e9be 6c8e 52bf f709 003d 86b6 54bf
00000120: 3ebc 113d de4c 22c0 4325 71bc dd89 1cc0
00000130: dcca f4bc 5a5f 83bf 6f06 aebb 694d d33c
00000140: c444 46bf 2c81 0c3c 8dd5 2abf 2810 29bf
00000150: 354e 85bf 7f6d b4bf 71a9 49bc 0afa d63c
00000160: a882 50bf 1635 913c bf9a 6dbf e971 cfbc
00000170: 6561 50bf 0abf 3bbf 1431 013f 9d37 98bb
00000180: dd90 06bb a6e6 36bf 5ed3 52bf 391a c8bb
00000190: 95d4 85bc 7c69 0bc1 a43f 03c0 ac40 04bc
000001a0: 9610 2ec0 c934 58bf a26b 40bf 3ada 57bf
000001b0: 6e79 54bf c549 9fbf 9b81 fb3c d3d2 48bf
000001c0: bac5 d33c 8c2c f2bc 5145 d53e 0e2a 5cbf
000001d0: 9cc2 85c0 a53c 10c0 c186 cebc bda8 3fbf
000001e0: 865f 123d f645 3ebf d38e 3cbf aceb f4bc
000001f0: 0c18 b7be 3e0e 95bc b967 d23a b3cd 4fbf
00000200: 40e3 b0bb ee9c 173c 4d8f 86bc 6596 193c
00000210: ee29 a6bb 6bca 3dbf c02d 4abf 7b81 52bf
00000220: 95a6 56bf a04b b63c df45 41bf 4232 da3c
00000230: 4e2f 46bf 90e2 53bf 94d5 f03c e3f9 46bf
00000240: a442 0fbf a182 cabc f937 c23a fc1d 3abf
00000250: a57d 013d e2a2 38bf 508e 4dc0 314c 53bf
00000260: 10ad 4bbf fcca 01c0 2a60 ec3e 1d2e 0bbd
00000270: df14 d63d 4e7c 1ebd 2d90 4fbf ff2a 55bf
00000280: 832e fdbf efa4 54bf 340f 42bf 5fbc b73b
00000290: 8165 fbbe acbd 84be bb58 e13c 8ab6 5b3c
000002a0: 7ec9 143a 0134 873e 4431 883c 54e8 f0bb
000002b0: 6dcf 00bd d557 063c 3218 dc3c 010a 3cbf
000002c0: 679f 43bf 381b cc3e b4b6 febc d344 16bf
000002d0: b723 3cc0 bd16 43bf 57ce 37c0 2cb9 8b3c
000002e0: 3634 9abc 80b4 bdbc 4d82 04bc b16a 56bf
000002f0: 5356 56bf 5c84 863d 5711 b8c0 9434 43bf
00000300: 8370 f2bd e2d6 02bf 2cdf 743c 5b2a 4bbf
00000310: c835 33c1 ebe0 e2bb e034 bf3c b1d9 5b3e
00000320: 45ba 1fbe 0876 3a3c a05f 98bf 7f90 4fbf
00000330: ae3f 193c 68d4 c93e 72d7 6b3e d302 4fbf
00000340: 41b8 8fbf 162f 123c dcd6 8b3f d8cc 31bb
00000350: f449 54bf 67d6 38bf 9b10 e03c 2cf1 71bf
00000360: ae01 35bf b448 88bf 78b7 333c 33f0 3ebf
00000370: 6c98 05c0 b5b9 3a3f 6201 d23c b4f3 783c
00000380: 37e2 2f3b cfe4 30bf 7d0b 4dbf 2b99 efbc
00000390: 3456 0cbb c876 3dbb 44c4 e3bb 5645 20c0
000003a0: 7d55 57bf 0538 63bf dcf7 79bb eb72 ecbc
000003b0: 53a6 623c 24bd 44bf 6709 3dc0 fe34 1abc
000003c0: 1bc6 56bf 05a6 4abf 2473 f0ba 0067 45bf
000003d0: 3d4b 0fbc c071 c5c0 4020 55bf 432a 6c3c
000003e0: 78f8 4bbf c817 b83b 2cc9 00c0 a871 efbd
000003f0: 4281 d13c f963 dcbf 1274 713f 76ad 3abf
-0.84052676 0.027558794 0.006073766 -1.2472521 -0.008512017 0.05045873 -1.9809383 0.013694647
-0.81837684 -0.8028809 -0.75152755 -0.03324564 -0.5282275 -0.029969059 -1.4065875 -0.79567057
-2.142455 0.0303699 -2.6913905 -0.74415654 0.011714838 -0.81401974 -0.48082814 -2.376487
-0.7473667 -3.1645565 -3.0066757 -0.031342577 -0.028960621 0.0006274152 0.0002661693 0.007885237
0.0015687328 -0.578708 -0.8477088 -2.2268553 0.41876772 -0.024099486 0.0013371825 0.101920314
0.0014583245 -0.87835616 0.0020612283 -2.368524 0.009369394 -0.010216712 -0.81921446 0.026442695
-1.934399 -1.409973 -0.0039878804 0.37538892 -0.015278082 0.009226156 -0.6831664 0.5674308
0.012777479 0.012228184 0.43315628 -0.040830344 0.013045328 -0.73240393 -0.74555147 -0.73172534
0.030727156 -0.00023589113 -1.0409484 0.1544909 -0.4553054 -0.8224857 0.031259503 -0.8309101
0.035579912 -2.5359416 -0.014718357 -2.4459145 -0.029881887 -1.0263474 -0.0053108255 0.025793748
-0.7744868 0.008575719 -0.667321 -0.6604028 -1.0414492 -1.4095916 -0.012308464 0.026242275
-0.81449366 0.017725509 -0.9281425 -0.025322871 -0.8139861 -0.7333838 0.5046551 -0.0046453015
-0.0020533123 -0.7144569 -0.8235377 -0.0061066416 -0.016336719 -8.713253 -2.0507593 -0.00807206
-2.7197623 -0.84455544 -0.75164235 -0.8431736 -0.82997787 -1.2444388 0.03070145 -0.7844669
0.02585112 -0.029562257 0.41654447 -0.8600167 -4.180006 -2.2537014 -0.02521074 -0.7486685
0.03573563 -0.743255 -0.7365543 -0.029897533 -0.35760534 -0.018195268 0.001605264 -0.8117325
-0.005398184 0.009253724 -0.016425753 0.009374236 -0.0050709164 -0.7413699 -0.7897606 -0.8222882
-0.83847934 0.022252858 -0.7549724 0.026635293 -0.7741593 -0.8276758 0.029398717 -0.77725047
-0.5596106 -0.024720492 0.0014817707 -0.72702 0.031613965 -0.7212354 -3.211811 -0.82538134
-0.7956095 -2.0280142 0.46167117 -0.033979524 0.104531996 -0.038692765 -0.8107937 -0.8326873
-1.9779819 -0.8306417 -0.7580445 0.0056071724 -0.4910088 -0.25925958 0.02750813 0.01341022
0.00056757766 0.26406863 0.016625054 -0.0073519144 -0.031447817 0.008199652 0.026867006 -0.73452765
-0.76415104 0.39864516 -0.031092979 -0.5869877 -2.9396799 -0.7620657 -2.871969 0.01705607
-0.018823724 -0.023157358 -0.008087707 -0.8375655 -0.8372547 0.06568214 -5.7521167 -0.762521
-0.11837866 -0.51109135 0.014945786 -0.79361504 -11.20063 -0.006923785 0.023340642 0.21469761
-0.155984 0.01138068 -1.1904182 -0.8107986 0.009353561 0.39419866 0.23031405 -0.80863684
-1.1228105 0.008922359 1.0924945 -0.0027130153 -0.82925344 -0.7220215 0.027351668 -0.94508624
-0.7070569 -1.0647187 0.010969035 -0.74585265 -2.087428 0.72939616 0.025635425 0.015194822
0.0026837715 -0.69099134 -0.80095655 -0.02924784 -0.0021413686 -0.002890991 -0.006950887 -2.504232
-0.8411482 -0.88757354 -0.003814212 -0.02886339 0.0138336 -0.76851106 -2.9536989 -0.009412048
-0.83896035 -0.79159576 -0.0018344861 -0.7711029 -0.008745966 -6.1701355 -0.83252335 0.014414373
-0.7967601 0.0056180693 -2.0122786 -0.116916 0.02557433 -1.7218009 0.94317734 -0.7292093
