save_mode/SAC_v_100_target_qf2_network.pth (torch, 329559 bytes, 5 tensors)

fc0.weight f4 [256, 61]
0	0xbcb6fcf8	-0.022337422
1	0x3cb27660	0.021784961
2	0x3d6ed6a3	0.058310162
3	0xbd760104	-0.060059562
4	0xbc0bd3bd	-0.008534369
5	0x3f260ab0	0.6486006
6	0x3eb5a140	0.35474586
7	0xbb183598	-0.0023225304
8	0xbd428939	-0.047494147
9	0x3be6f95a	0.007048768
10	0x3bfc6364	0.007702278
11	0x3d07493d	0.03302883
12	0x3c898905	0.016788969
13	0x3eaa6082	0.33276755
14	0x3f09ce60	0.5383053
15	0x3f4045f7	0.7510676
16	0x3ce77fbb	0.028259149
17	0xbd5e1272	-0.05421681
18	0xbd0f3df5	-0.034971196
19	0xbd2d5517	-0.042317476
20	0xbd3bcaa7	-0.04584756
21	0x3fd668b6	1.6750705
22	0x3fdf2e95	1.7436091
23	0x3ffe8779	1.9885093
24	0x3c15e76d	0.0091494145
25	0xbd1f42be	-0.03888201
26	0x3d3476e0	0.04405868
27	0x3d61158b	0.054952186
28	0x3d6f72e3	0.058459174
29	0x3e1f49cb	0.15555494
30	0x3e36b1e7	0.17841302
31	0x3e8ab6a6	0.27092475
32	0x3c105735	0.008809854
33	0xbd364240	-0.044496775
34	0x3d46bc39	0.048519347
35	0xbabdc1c8	-0.0014477307
36	0xbd4d9239	-0.050188277
37	0xbe8460d7	-0.25855133
38	0xbeb55ae1	-0.35420898
39	0xbec1909b	-0.37805638
40	0x3d4291d1	0.047502343
41	0xbbded432	-0.006800198
42	0x3d2cb296	0.0421625
43	0x3ca982f7	0.020692332
44	0xbd47f8a1	-0.048821095
45	0x3d6d9234	0.05800076
46	0x3cd67143	0.026177054
47	0x3d7a78bd	0.0611503
48	0xbfb6e32f	-1.4288081
49	0x3fe3801e	1.7773473
50	0x402cf70e	2.702579
51	0xc061412d	-3.519603
52	0xbdd7709e	-0.10519527
53	0x3f338879	0.70130116
54	0xbf9be621	-1.2179605
55	0x3af8a7a7	0.0018970863
56	0x3eb9f416	0.36319035
57	0xbf6fdb94	-0.93694425
58	0x3cefeaf6	0.029286843
59	0x3f4c146a	0.7971865
60	0xbf9891f5	-1.1919543
61	0x3c14ac95	0.00907435
62	0xbd7df4f4	-0.062001184
63	0xbbe6e82a	-0.007046719
64	0x3d5a6ffa	0.053329445
65	0x3d22725e	0.03965985
66	0xbd8ae4ad	-0.06781898
67	0xbd603233	-0.054735374
68	0xbd7ed84c	-0.062217996
69	0xbd5e4dd2	-0.054273434
70	0x3cf644fc	0.030062191
71	0xbb2c86d6	-0.0026325486
72	0x3ce08cd3	0.0274109
73	0xbd0709f5	-0.03296848
74	0xbd1e7abe	-0.038691275
75	0xbdac4e97	-0.08413427
76	0xbc441f79	-0.011970394
77	0x3d0e35e5	0.034719367
78	0x3c5f4642	0.013627591
79	0xbd36dc28	-0.04464355
80	0xbd6efc23	-0.058345925
81	0xbc3459f8	-0.011007778
82	0xbd9808be	-0.074235424
83	0x3d07f51c	0.03319274
84	0xbd1f91a6	-0.03895726
85	0xbcfec974	-0.03110192
86	0x3d7eabc4	0.062175527
87	0x3d306aef	0.04307073
88	0xbca7a667	-0.020465089
89	0x3bafb4e6	0.005362141
90	0xbd9aaaf6	-0.075521395
91	0xbb8e93a5	-0.0043510967
92	0xbd988b36	-0.074484274
93	0x3d2b88ef	0.041878637
94	0x3d7694ac	0.06020038
95	0x3d21834f	0.039431866
96	0xbd021b75	-0.031764466
97	0xbd19bd76	-0.0375342
98	0xbba1a037	-0.004932429
99	0xbd92b4ae	-0.07163368
100	0x3cbcbd9f	0.023039637
101	0xb9c74749	-0.0003800935
102	0x3cc655e1	0.024210872
103	0x3cc5db39	0.024152385
104	0x3c2fe0a7	0.010734714
105	0xbcabe51f	-0.020983277
106	0xbd90f2ae	-0.070775375
107	0xbce84d33	-0.028357124
108	0xbbfea584	-0.007771196
109	0xbd52c002	-0.051452644
110	0xbda8fa3f	-0.08250856
111	0xbc35406f	-0.011062725
112	0xbd732b3c	-0.059367403
113	0xbb932cfe	-0.0044914475
114	0xbd4b6211	-0.04965407
115	0x3d54f1ba	0.05198834
116	0x3d96d80e	0.07365428
117	0xbd230f67	-0.03980961
118	0xbb48d8d8	-0.0030646827
119	0xbcab2b2e	-0.020894613
120	0x3cade666	0.021228027
121	0xbb2c49e6	-0.0026289164
122	0xbd68ac83	-0.056805145
123	0xbbd40ff2	-0.0064716274
124	0x3d60dd4b	0.05489854
125	0x3d2d39be	0.042291395
126	0xbc656f9b	-0.01400366
127	0x3eaebd2d	0.34128705
128	0xbe069405	-0.13142402
129	0xbece4b0e	-0.40291637
130	0xbd2d990f	-0.042382296
131	0xbc1a6c76	-0.009425273
132	0x3cd70cca	0.026251215
133	0x3d35e47f	0.044407364
134	0x3d7f7eb4	0.062376693
135	0x3e3572fe	0.17719647
136	0x3ef5a962	0.4798079
137	0x3f141f3c	0.5786016
138	0x3aa16e37	0.0012316172
139	0xbcfd51ac	-0.030922733
140	0x3c517eea	0.012786606
141	0xbccffb68	-0.025388435
142	0x3c4d4e41	0.012530864
143	0x3faa0fc0	1.3286057
144	0x3fb030fb	1.3764948
145	0x3fc2a939	1.5207893
146	0xbd6e51d3	-0.058183502
147	0x3d0f869c	0.035040483
148	0x3cbe6da7	0.023245646
149	0xbd4d44e1	-0.050114516
150	0x3c776ea3	0.015102061
151	0x3d67c77c	0.056586727
152	0x3df8e6b2	0.12153377
153	0x3e124ea8	0.14287817
154	0xbd777354	-0.06041272
155	0xbd4d1dd1	-0.050077263
156	0x3cb3f3a0	0.021966755
157	0xbc6cea73	-0.014460194
158	0x3d758e2c	0.05995004
159	0xbe98c607	-0.29838583
160	0xbedf75eb	-0.43644652
161	0xbf10ddfe	-0.56588733
162	0x3d1f0a7d	0.03882836
163	0xbc556a0a	-0.01302577
164	0x3d6f8d73	0.058484506
165	0x3d3218a0	0.043480515
166	0xbceb1423	-0.028696125
167	0xbdddfb18	-0.10838908
168	0x3cdb624a	0.026780266
169	0xbcbcebe3	-0.023061698
170	0xbfb666c3	-1.425011
171	0x4000487c	2.004424
172	0x402b1b58	2.673544
173	0xc067f4a5	-3.624307
174	0xbf0cd42b	-0.5501124
175	0x3e89cc8f	0.26913878
176	0xbf3738a2	-0.7157079
177	0xbea76509	-0.3269427
178	0x3defa846	0.117020175
179	0xbf0d1e41	-0.5512429
180	0xbdbdb899	-0.09263725
181	0x3ed1270a	0.40850097
182	0xbf59d10b	-0.850846
183	0x3d765c6c	0.060146734
184	0x3ca0fe7f	0.019652603
185	0x3d472421	0.04861844
186	0x3d0d0085	0.034424324
187	0x3d26460e	0.040594153
188	0xbe90f75f	-0.2831373
189	0xbf18f6c9	-0.59751564
190	0xbf3b3d8a	-0.73140776
191	0x3c57a779	0.013162487
192	0xbc400640	-0.01172024
193	0x3bc1ba30	0.005912088
194	0x3d12fafe	0.035883896
195	0xbcc972c1	-0.024590852
196	0x3e9fe4d6	0.31229275
197	0x3f23c1e4	0.6396773
198	0x3f56a421	0.8384419
199	0x3bf8ac9b	0.0075889356
200	0x3d0dcec5	0.03462102
201	0xbc892cd5	-0.01674501
202	0xbc71053c	-0.014710721
203	0x3b4d6038	0.0031337868
204	0x4049ab45	3.1510785
205	0x4032ed02	2.7957158
206	0x402651f9	2.5987532
207	0xbd0d974d	-0.03456812
208	0x3d6eefa3	0.058334004
209	0xbbe1c93a	-0.006890443
210	0x3d6fe10b	0.058564227
211	0xbc5bb1d9	-0.013409101
212	0xbecb00a0	-0.39648914
213	0xbed033a6	-0.40664405
214	0xbf48c6d4	-0.7842839
215	0xbca6ea1f	-0.02037531
216	0x3d0f9ed5	0.035063583
217	0xbc89725d	-0.016778165
218	0xbc79ffab	-0.01525871
219	0x3b896f3c	0.0041941684
220	0x3dc9b528	0.09849006
221	0x3ea95656	0.33073682
222	0x3dbdbd4f	0.092646234
223	0x3c8fe77d	0.017566437
224	0x3cb0c8af	0.021580068
225	0x3d09437d	0.033511627
226	0xbd6ea313	-0.05826099
227	0x3d1548d6	0.036446415
228	0xbe6ab998	-0.22922361
229	0xbe8f8dd6	-0.280379
230	0xbf1f2c9f	-0.6217746
231	0xbf2c4b2a	-0.6730219
232	0xc09822f4	-4.7542667
233	0xc0b1a9c2	-5.5519724
234	0x40d3e563	6.6217513
235	0x3f79c2fe	0.9756316
236	0x3e42e5cf	0.19032978
237	0xbfd1a697	-1.6378964
238	0x3d410a6e	0.047129087
239	0xbcdc6688	-0.02690436
240	0xbf8af0eb	-1.0854772
241	0x3f1e348a	0.6179892
242	0xbc84fb0e	-0.016232993
243	0xbf9f4179	-1.2441856
244	0xbc3f63c0	-0.011681497
245	0xbbee35b3	-0.007269585
246	0xbb228c26	-0.0024802773
247	0x3cb8d280	0.022561312
248	0xbb75c414	-0.0037500905
249	0xbfea6896	-1.8313167
250	0xbe610952	-0.21976212
251	0xbf0ef41e	-0.55841243
252	0xbd17a96e	-0.037026815
253	0xbcdd4111	-0.027008565
254	0xbc38be30	-0.011275813
255	0xbd3bc20f	-0.045839366

fc0.bias f4 [256]
0	0x41bfa4d4	23.955482
1	0xbcde3342	-0.027124051
2	0x41bd162a	23.635822
3	0xc18f903f	-17.945433
4	0xc16cdb3e	-14.803526
5	0x41be77a0	23.80841
6	0x41be8665	23.815622
7	0xbfdd0f12	-1.7270224
8	0x41c0cd05	24.100107
9	0x41c1903d	24.195429
10	0xbc68381b	-0.014173533
11	0x41beebbd	23.865107
12	0xbd06075d	-0.032721866
13	0xbcd04412	-0.025423083
14	0x41be5c7f	23.795164
15	0x41beaa9d	23.833307
16	0x41be797a	23.809315
17	0xbc0a7a6d	-0.00845204
18	0xbd10e17e	-0.035371296
19	0x41befed8	23.874435
20	0x41bec9b6	23.848492
21	0x41bff5f6	23.995098
22	0x41bf08aa	23.87923
23	0x41befdae	23.873867
24	0xbd38d4d8	-0.04512486
25	0xc18f29dc	-17.89544
26	0xc191ae27	-18.210035
27	0x41be3557	23.776045
28	0xc18f49b1	-17.910982
29	0x41bfb41b	23.962942
30	0xc15eb63e	-13.919493
31	0xc190b605	-18.088877
32	0xbd6aaaac	-0.05729167
33	0x41c068e3	24.051214
34	0x41beb161	23.83661
35	0x41bde75d	23.73797
36	0xc1922754	-18.269203
37	0x41bf9b7c	23.95092
38	0x41bfba96	23.966106
39	0x41bf265c	23.89373
40	0x00000000	0.0
41	0x00000000	0.0
42	0x41bebcb0	23.842133
43	0x41be7b37	23.810163
44	0x41be9c1d	23.826227
45	0xbd460ba9	-0.048350964
46	0xc12b811f	-10.719024
47	0xbd28b57f	-0.041188713
48	0x41c00c8f	24.006132
49	0x41bf1d3e	23.889278
50	0x41bf2272	23.891819
51	0xbd022025	-0.031768937
52	0x41be691e	23.801327
53	0x41bee156	23.860027
54	0xc139f5e7	-11.622535
55	0x41996cfd	19.178217
56	0x41be5363	23.790716
57	0x41bf6b35	23.927347
58	0x41bf8bdd	23.943293
59	0x41bf232a	23.89217
60	0x41bfef2e	23.991787
61	0xbced53eb	-0.02897068
62	0xbd1ab5e6	-0.037771128
63	0x41aefd4e	21.873684
64	0x41bf32c7	23.899794
65	0xbc38a5f8	-0.011270039
66	0xbd5fa722	-0.05460275
67	0x419c3af5	19.528788
68	0x41beda88	23.856705
69	0xbd308c88	-0.04310277
70	0x41bf7378	23.931381
71	0xbd682943	-0.056679975
72	0xc119c226	-9.6098995
73	0x41bfa3a6	23.954906
74	0x41be7c15	23.810587
75	0x41be3dac	23.780113
76	0x41be9086	23.820568
77	0x41beb6ae	23.8392
78	0x41c16e7b	24.178946
79	0x00000000	0.0
80	0xbd65294b	-0.055947583
81	0xbd021c3d	-0.03176521
82	0xc194dafa	-18.606922
83	0x41beaea7	23.83528
84	0x41bf846b	23.939657
85	0x41be5661	23.792177
86	0x41c13ac8	24.153702
87	0xbd433a91	-0.047663275
88	0x41bfa3e9	23.955034
89	0x41c0afff	24.085936
90	0x41c08852	24.066563
91	0x41bedcb0	23.857758
92	0x00000000	0.0
93	0xbd40bdd9	-0.047056053
94	0x41be0332	23.75156
95	0x41bf6631	23.924898
96	0x41be30fa	23.773914
97	0x41bfa384	23.954842
98	0x00000000	0.0
99	0x41befda2	23.873844
100	0x00000000	0.0
101	0x41bf4c52	23.912266
102	0xbd354138	-0.04425165
103	0xc193e2e8	-18.485794
104	0x41bef711	23.870638
105	0xc1929d54	-18.32682
106	0xbcc1fef1	-0.023681136
107	0xbd3fec78	-0.046856374
108	0xc19095a4	-18.073067
109	0x41bfe31c	23.985893
110	0xbd851c35	-0.06499521
111	0x41bead58	23.83464
112	0xc195a0b7	-18.703474
113	0x41bed04e	23.851711
114	0x41be25ab	23.768393
115	0x41bdc021	23.718813
116	0xc190e577	-18.112043
117	0xbc0fa385	-0.008767013
118	0x41c051a2	24.03986
119	0x41bfec5c	23.99041
120	0x41bf33ea	23.900349
121	0x41bf8e69	23.944536
122	0x00000000	0.0
123	0x00000000	0.0
124	0x41be9e57	23.827314
125	0xc116727d	-9.402951
126	0x00000000	0.0
127	0xc1a2ff8f	-20.374784
128	0x41bfcfe8	23.976517
129	0x41bf0646	23.878063
130	0x41be1115	23.75834
131	0x41b510c7	22.633192
132	0x41beb1f8	23.836899
133	0x00000000	0.0
134	0x41bfb40e	23.962917
135	0x41bef4b5	23.869486
136	0x41c0696b	24.051474
137	0xbd704ffc	-0.05867003
138	0xc192297b	-18.270254
139	0xbd28c1ff	-0.041200634
140	0xbd529c12	-0.05141837
141	0x41beea26	23.86433
142	0x41bdb2c9	23.712297
143	0xbd84455d	-0.064585425
144	0xbd223baf	-0.0396077
145	0x41bdb6a8	23.714188
146	0x41bf0d70	23.881561
147	0x41c5b27e	24.712154
148	0x41bee6af	23.862638
149	0x41c04599	24.033983
150	0x41bfcfef	23.97653
151	0xbd0a855d	-0.03381859
152	0x41c084ed	24.064905
153	0xc1925570	-18.291718
154	0xbd47d191	-0.048783842
155	0x00000000	0.0
156	0x41be8b61	23.818056
157	0xc1914ee8	-18.163528
158	0x41bf15a7	23.885572
159	0x41bede70	23.858612
160	0xc18e8e80	-17.81958
161	0x41bfa82a	23.957111
162	0x41bed9e5	23.856394
163	0xbbfacdec	-0.0076539423
164	0x41be2d7b	23.772207
165	0x41c087c3	24.06629
166	0xbcdd229a	-0.026994038
167	0x41b3e1a7	22.485182
168	0x41bf11be	23.883663
169	0xbd5372ea	-0.051623262
170	0x41be2701	23.769045
171	0xbd0bc675	-0.03412481
172	0x41be37cd	23.777246
173	0x41bef66b	23.870321
174	0x41bea9ba	23.832874
175	0x00000000	0.0
176	0x41c00a0f	24.004911
177	0x41c01be6	24.013622
178	0x41bdaedf	23.710386
179	0x41be33e0	23.77533
180	0x41bf5c8d	23.92019
181	0xbd0613dd	-0.032733787
182	0x00000000	0.0
183	0xc193a00b	-18.453146
184	0x41befd21	23.873598
185	0x41bf8ff6	23.945293
186	0xbce2d533	-0.027689552
187	0xc190f249	-18.118303
188	0x41bf0e54	23.881996
189	0x41be17fe	23.761715
190	0x41c0668f	24.050077
191	0x41bf827b	23.938711
192	0x41bf58f5	23.918436
193	0xbcc1eaa1	-0.02367145
194	0xbbc4c9c9	-0.0060055
195	0x41bea90b	23.83254
196	0x41bda02a	23.703205
197	0xbd9a07ae	-0.07520996
198	0xbd1ab5e6	-0.037771128
199	0x41be51ca	23.789936
200	0x41bf22f4	23.892067
201	0x41bee61d	23.86236
202	0xbbc7bd41	-0.006095559
203	0xc1921953	-18.262365
204	0xbd8cb715	-0.068708576
205	0x41d195bf	26.198118
206	0xbd755204	-0.05989267
207	0xbd418f39	-0.04725573
208	0x41b3927a	22.446522
209	0x41bee94a	23.86391
210	0xc18e7e18	-17.81157
211	0x41bfbb52	23.966465
212	0x41bf14f7	23.885237
213	0xc1920102	-18.250492
214	0x41bbe35d	23.486017
215	0x41c01391	24.009554
216	0x41c0d9a2	24.106266
217	0x41bf747d	23.931879
218	0x41bdbb55	23.71647
219	0x41befe3a	23.874134
220	0x41bf0ee2	23.882267
221	0x41c0f5e9	24.120073
222	0x41bec184	23.84449
223	0xbc2d52bf	-0.01057881
224	0x41bf02ba	23.876331
225	0xbcf028ec	-0.029316388
226	0x41bde2fc	23.735832
227	0xbced3573	-0.02895615
228	0x41c0582d	24.043055
229	0x41bec187	23.844496
230	0x41bfa962	23.957706
231	0x41c19805	24.199228
232	0x41bf1f10	23.890167
233	0x419c4c25	19.53718
234	0x41bfeab0	23.989594
235	0x418a6acc	17.302147
236	0xc192c41b	-18.345755
237	0x41b8d59f	23.104307
238	0x41be63d1	23.798738
239	0x41bebb4e	23.841457
240	0x41bf5464	23.916206
241	0xbd021c3d	-0.03176521
242	0x41be6138	23.79747
243	0x41be78f2	23.809055
244	0x41bd82bb	23.688833
245	0x41c0d00c	24.101585
246	0xbd418c19	-0.04725275
247	0x41bee111	23.859896
248	0xc1950728	-18.628494
249	0xc1928346	-18.314098
250	0x41bed407	23.853529
251	0xc194248f	-18.51785
252	0x00000000	0.0
253	0xc18fbc25	-17.966867
254	0x41c02943	24.020147
255	0xc194c166	-18.594433

fc1.weight f4 [256, 256]
0	0xbd6292cb	-0.055315774
1	0x3d6f3c33	0.05840702
2	0x3d1896ed	0.03725331
3	0xbd3bfca8	-0.04589525
4	0xbd7ab424	-0.06120695
5	0xbb88e29d	-0.004177405
6	0x3d448a81	0.04798365
7	0xbd5e7d7a	-0.054318883
8	0xbcb8d987	-0.022564663
9	0xbd863705	-0.06553463
10	0xbd096ce5	-0.033551116
11	0xbccf6569	-0.02531691
12	0x3c62d91a	0.013845706
13	0x3d30b140	0.04313779
14	0xbcc50849	-0.024051802
15	0xbc8a7814	-0.01690296
16	0xbb1f6456	-0.002432128
17	0x3d093bad	0.033504177
18	0x3cb38707	0.021914972
19	0x3cca65b8	0.024706706
20	0x3d18a9ad	0.03727119
21	0x3d0b151d	0.033955682
22	0x3d1a58ee	0.037682466
23	0x3ba7dd16	0.005122791
24	0xbd1691be	-0.036760084
25	0x3cc68719	0.024234341
26	0x3d4067e9	0.046974096
27	0xbd81cfad	-0.06338439
28	0x3cd052e9	0.02543016
29	0xbb0bf2fd	-0.002135455
30	0x3ca0b127	0.019615723
31	0xbd5a1622	-0.053243764
32	0x3c7b72c4	0.0153471865
33	0x3d53058a	0.051518954
34	0xbd0a66e5	-0.033789534
35	0xbcbe28e8	-0.023212865
36	0x3ca95cae	0.020674076
37	0xbc7b64b4	-0.015343834
38	0xbcdf0a1a	-0.027226496
39	0xbb1369ee	-0.002249356
40	0x3ab0f14f	0.001349965
41	0xbc71cd3c	-0.014758404
42	0x3cda97d2	0.026683722
43	0x3cdda44a	0.027055878
44	0x3cf4f9bb	0.029904237
45	0xbc6cb2fb	-0.014446969
46	0x3d37c750	0.044867814
47	0xbae52c6b	-0.0017484551
48	0xbd7dd67c	-0.061972126
49	0xbcaae7fe	-0.020862576
50	0x3cf28b14	0.029607333
51	0x3d08bf75	0.033385713
52	0xbd6e335b	-0.058154445
53	0x3bcd5f71	0.006267481
54	0xbdca90b1	-0.09890879
55	0xbbfe087b	-0.007752476
56	0x3d288f37	0.041152205
57	0xbb872eac	-0.004125437
58	0xbd2d670f	-0.042334612
59	0xb941e078	-0.00018489535
60	0x3cf3d4c3	0.029764539
61	0x3c2638c7	0.010145373
62	0x3d638113	0.055543017
63	0x3d6013bb	0.054706316
64	0xb9f0def4	-0.0004594248
65	0xbd309a98	-0.043116182
66	0xbc45b040	-0.012065947
67	0xbd297d7f	-0.041379448
68	0x3c9b5866	0.01896305
69	0x3d55f38a	0.05223421
70	0xbd754714	-0.05988224
71	0x3be3674b	0.0069398037
72	0x3d4e8b71	0.05042595
73	0x3a3be218	0.00071671745
74	0xbcdae84a	-0.026722092
75	0x3ce6360b	0.028101942
76	0x3cf7a553	0.0302302
77	0x3bffee6c	0.0078104045
78	0xbd6b4173	-0.057435464
79	0xbc01d77c	-0.007924911
80	0x3c2650ff	0.010151147
81	0xbd00d28d	-0.031450797
82	0x3b7b9e84	0.0038394043
83	0x3d53d23a	0.05171416
84	0xbd117cf6	-0.035519563
85	0xbd428f79	-0.047500107
86	0xbd390548	-0.045171052
87	0xbd675eeb	-0.056487005
88	0x3c916afd	0.017751211
89	0x3c984035	0.018585304
90	0xbd9346c6	-0.07191233
91	0x3d2f0777	0.04273173
92	0xbcbe7898	-0.023250863
93	0x3cd05c49	0.02543463
94	0xbad320e2	-0.0016107822
95	0x3d2a3067	0.041550066
96	0x3b6e74fa	0.0036385641
97	0xbd4cfdc9	-0.050046716
98	0x3d0e2a2c	0.034708187
99	0xbd5e49ea	-0.05426971
100	0x3d73e39c	0.059543237
101	0xbd587a6a	-0.05285112
102	0x3d41de20	0.047330976
103	0x3d1a78f6	0.037713014
104	0x3d3d6340	0.04623723
105	0xbd81efb5	-0.063445486
106	0x3d618abb	0.055063944
107	0xbc3d9c48	-0.011572905
108	0x3d58053a	0.05273936
109	0x3ce5825b	0.02801626
110	0xbd231b1f	-0.039820787
111	0x3d2e1f6e	0.042510442
112	0x3ce57833	0.028011417
113	0x3c9233c6	0.017846953
114	0xbc6057b3	-0.013692784
115	0xbb7a8864	-0.0038228268
116	0x3cb5eabf	0.022206662
117	0x3d15da26	0.036584996
118	0xbd156f1e	-0.036482923
119	0xbd7a6474	-0.061130956
120	0xbcd16202	-0.02555943
121	0x3c7255f4	0.014791001
122	0x3cef096b	0.029179296
123	0x3d59d09a	0.053177454
124	0xbbe46853	-0.006970444
125	0x3d14369e	0.0361849
126	0xbd3379c0	-0.04381728
127	0x3c4d2b18	0.012522481
128	0xbca6492f	-0.020298569
129	0x3c5be3da	0.013421023
130	0xbd2c892f	-0.042123016
131	0xbbcf7121	-0.0063306247
132	0xbd325e27	-0.043546822
133	0x3cf6b644	0.030116208
134	0x3cd8d5d1	0.026469143
135	0x3c9a0ace	0.01880398
136	0xbc84536c	-0.01615306
137	0xbc31108f	-0.0108071705
138	0xbc9b673e	-0.018970128
139	0x3b0677dd	0.0020518221
140	0xbce8110b	-0.02832844
141	0xba1ef566	-0.0006063789
142	0x3cfed07c	0.031105272
143	0xbd75e994	-0.06003721
144	0xbd32f4ef	-0.043690618
145	0x3c97eb0e	0.0185447
146	0x3c055b7c	0.008139487
147	0xbd52d452	-0.051472016
148	0xbcef2653	-0.02919308
149	0x3cfe6894	0.031055726
150	0x3c99607e	0.018722769
151	0xbd64dbf3	-0.055873822
152	0x3c95e8fd	0.018299574
153	0xbd63403b	-0.055481177
154	0xbca79217	-0.020455403
155	0xbd46f541	-0.048573736
156	0xbd737e0c	-0.05944638
157	0x3cb2a220	0.021805823
158	0xbd1d0485	-0.03833439
159	0xbd122fde	-0.03569018
160	0x3d78a1ac	0.060701057
161	0xbbcd0a49	-0.0062573296
162	0xbcd70cca	-0.026251215
163	0xbd1f89d5	-0.038949806
164	0x3d470b21	0.048594598
165	0x3cf2bb84	0.02963043
166	0xbd2a7f4f	-0.041625317
167	0x3acf4240	0.0015812591
168	0x3bf7a93c	0.007558016
169	0x3d623b4b	0.055232327
170	0xbd2bb0c7	-0.041916635
171	0xbd4bf1d1	-0.04979116
172	0xbd8deecd	-0.06930313
173	0xbd786a34	-0.06064816
174	0xbc2f853f	-0.010712921
175	0x3ccd72f9	0.025079237
176	0xbd846dfd	-0.06466291
177	0xbd06ec44	-0.032940164
178	0xbd73c45c	-0.059513435
179	0xbaa680a7	-0.0012703136
180	0xbd8ea1b5	-0.06964437
181	0xbd440421	-0.0478555
182	0xbc76fbcc	-0.0150746815
183	0xbc28b25e	-0.010296432
184	0x3c6cf17a	0.014461869
185	0xbcbd9c48	-0.02314581
186	0x3d14ff66	0.03637638
187	0x3d66aa73	0.056314897
188	0xbd1c8aa6	-0.038218163
189	0xbbe6234b	-0.00702325
190	0xbd75b53b	-0.059987288
191	0xbd4197d1	-0.047263924
192	0xbd00f5b5	-0.031484324
193	0x38df00b9	0.00010633603
194	0x3d57d4ca	0.052693166
195	0xbbc5a169	-0.0060312045
196	0x3cc2b9a9	0.02377017
197	0x3cbdd6e0	0.02317375
198	0x3bb97d98	0.005660724
199	0xbc1fcdcd	-0.009753657
200	0xbd001037	-0.031265464
201	0xbc7f554b	-0.0155843
202	0xbcd3d622	-0.025858942
203	0xbb0fecf5	-0.0021961306
204	0x3d497c21	0.049190644
205	0xbd57149a	-0.05250988
206	0xbba9f8ee	-0.0051871454
207	0xbd102f5e	-0.035201423
208	0x3cbcac70	0.023031443
209	0xbcbd88c0	-0.023136497
210	0x3d70e534	0.058812335
211	0xbd261ca7	-0.04055467
212	0xbd78952c	-0.060689136
213	0x3cf729e4	0.030171342
214	0xbd7c3484	-0.06157352
215	0x3ca649f7	0.020298941
216	0xbc9e7f6e	-0.019347873
217	0xbd47a441	-0.04874063
218	0x3d323d58	0.043515533
219	0xbd32b738	-0.043631762
220	0xbd27c8c7	-0.04096296
221	0x3c86a915	0.016438046
222	0xbd50bad2	-0.050959416
223	0x3c8c0fe4	0.017097421
224	0xbd0eae35	-0.034834106
225	0xbc880c8d	-0.016607547
226	0xbd3283a7	-0.043582585
227	0x3c9383b6	0.01800714
228	0x3bc412f8	0.0059837066
229	0xbd3a3cff	-0.045468327
230	0x3ca96dde	0.020682272
231	0xbd23e18f	-0.04001003
232	0x3be681d3	0.007034519
233	0x3d0f36ed	0.03496449
234	0x3c41c9d1	0.011827902
235	0xbcf4e7c3	-0.029895669
236	0x3d021dcd	0.0317667
237	0x3d2f966f	0.042868074
238	0x3ba432cf	0.0050109397
239	0x3d4e33f1	0.050342504
240	0x3d3bd408	0.045856506
241	0xbcf76abc	-0.030202262
242	0x3cbc74f7	0.023004992
243	0x3cde66d2	0.027148638
244	0xbd8f56f5	-0.069990076
245	0xbc95e9c5	-0.018299947
246	0x3d121b8d	0.035670806
247	0x3d52cd4a	0.05146531
248	0x3d328f60	0.043593764
249	0xbd8c9195	-0.06863705
250	0xbd135bdd	-0.03597628
251	0xbd70dd64	-0.058804885
252	0xbd49a0d9	-0.049225662
253	0xbd4019c9	-0.04689959
254	0x3bf0f344	0.0073532183
255	0xbd47de11	-0.048795763

fc1.bias f4 [256]
0	0xbd921f76	-0.07134907
1	0x41beacdf	23.83441
2	0xbd84c645	-0.064831294
3	0xbd3295a0	-0.043599725
4	0x41bebca9	23.84212
5	0x41bed0e0	23.85199
6	0x41bebe77	23.843
7	0x41bed130	23.852142
8	0x41bef81b	23.871145
9	0xbbcc7e70	-0.0062406585
10	0xbd7d0774	-0.061774686
11	0x41bfc166	23.969433
12	0x41bedeb9	23.858751
13	0x41bef458	23.869308
14	0x41bed9c2	23.856327
15	0xbd9d9126	-0.076937005
16	0x41bea6e7	23.831495
17	0x4178939b	15.5360365
18	0x4177101b	15.441432
19	0x3f8239ec	1.0173926
20	0x41befb22	23.872623
21	0x3e715bf3	0.23570232
22	0x41c2a89a	24.332325
23	0x41be5e5f	23.79608
24	0xbd3b57d0	-0.04573804
25	0x41bef784	23.870857
26	0x41beeb4e	23.864895
27	0x3e6ef902	0.23337176
28	0x41bf00af	23.875334
29	0xbc2e73cf	-0.010647728
30	0x41be9d1f	23.82672
31	0x414cefb8	12.808525
32	0x41bed14c	23.852196
33	0xbd052fbd	-0.03251623
34	0x41bead44	23.834602
35	0x41bee71d	23.862848
36	0x41c1c854	24.222816
37	0x41c1ff4a	24.249653
38	0x41bed51d	23.85406
39	0x41bec796	23.847454
40	0x41bee7c8	23.863174
41	0x41c447de	24.535091
42	0x3e4af190	0.19818711
43	0x41bed499	23.853807
44	0x41bed5e0	23.854431
45	0x40083914	2.1284838
46	0x41bec965	23.848337
47	0x3f95642d	1.1671196
48	0x3df72083	0.12066748
49	0x41bed2d5	23.852945
50	0x41bead04	23.83448
51	0x41be6c60	23.802917
52	0xbd2f5bd7	-0.042812195
53	0xbc0b2c8d	-0.008494508
54	0x417662ab	15.399089
55	0xc0f2025c	-7.562788
56	0x41bed4c2	23.853886
57	0x3f9aa195	1.2080561
58	0xbd021b75	-0.031764466
59	0x3e2a7e86	0.16649827
60	0xbd213b6f	-0.03936332
61	0xbb08721d	-0.002081997
62	0x41bf70b0	23.930023
63	0x41becd5d	23.850275
64	0x41bee036	23.859478
65	0x41c20106	24.2505
66	0x41be85ab	23.815268
67	0x41c1c0d3	24.219152
68	0x41be621e	23.797909
69	0x41bee555	23.861979
70	0x3df9ef43	0.12203839
71	0x41beca38	23.84874
72	0x41be994f	23.824858
73	0xbd97e33e	-0.0741639
74	0xbd38b340	-0.04509282
75	0x41beb6fe	23.839352
76	0xbd2b4a6f	-0.041819032
77	0x41bea6c6	23.831432
78	0x3ee42522	0.4455958
79	0x3e4fd908	0.20297635
80	0x41c40f4a	24.507465
81	0x41beac83	23.834234
82	0x41bee23e	23.86047
83	0x41bed1f8	23.852524
84	0x41beb976	23.840557
85	0x41c19677	24.19847
86	0x41be9aa0	23.8255
87	0x41c0df0d	24.108912
88	0x41c0ce85	24.10084
89	0xbe92c76e	-0.28667778
90	0x41bedd4b	23.858053
91	0x41a3a49e	20.45538
92	0x41beed48	23.86586
93	0x41bed526	23.854076
94	0xbd021c3d	-0.03176521
95	0x41c199fb	24.200186
96	0xbda8e847	-0.082474284
97	0x41bebe93	23.843054
98	0x41beea2e	23.864346
99	0x41bf0055	23.875162
100	0x41becf8d	23.851343
101	0xbefb4e0c	-0.49082983
102	0xbd021c3d	-0.03176521
103	0xbddb23aa	-0.10700162
104	0x41bf074f	23.878569
105	0x41bea7dd	23.831964
106	0xbd84f5ed	-0.06492219
107	0x41492f90	12.574112
108	0xbd90822e	-0.0705608
109	0x41beb5cf	23.838774
110	0x3b9ad2cd	0.0047248364
111	0x41bee17a	23.860096
112	0x41c09c2d	24.076258
113	0x41bebbc3	23.84168
114	0x41bea572	23.830784
115	0xbe7fccd4	-0.2498048
116	0x41519019	13.09768
117	0x41beb290	23.837189
118	0x3f66e1ea	0.9018847
119	0x41bee8bb	23.863638
120	0xbdd3ff8a	-0.103514746
121	0xbd320e78	-0.04347083
122	0x41bececa	23.850971
123	0xbd02178d	-0.03176074
124	0x41bea22e	23.82919
125	0x41bea4a8	23.830399
126	0x41ab5d2e	21.420498
127	0x41bed9c0	23.856323
128	0xbce80eb3	-0.028327322
129	0x41beb4d1	23.83829
130	0x41bec091	23.844027
131	0x41becea3	23.850897
132	0x3e12a125	0.14319284
133	0x41bf07b8	23.878769
134	0xbd928c0e	-0.071556196
135	0x41beb37c	23.837639
136	0x41befef6	23.874493
137	0x41c69236	24.821392
138	0x41beb661	23.839052
139	0x3f76611b	0.9624192
140	0x41beea0d	23.864283
141	0x41bea259	23.829271
142	0x41bece4e	23.850735
143	0x3ea6aa0f	0.3255162
144	0x41c370d3	24.43009
145	0x41beddbe	23.858273
146	0x41beb9b0	23.840668
147	0xbd4125c1	-0.047155146
148	0xbc781da4	-0.015143786
149	0x41bf0964	23.879585
150	0x41bef6e9	23.870562
151	0x41bec8dd	23.848078
152	0x41bee551	23.86197
153	0x41bf0e36	23.881939
154	0x41bedd62	23.858097
155	0xbd8d18bd	-0.06889484
156	0x3f8069aa	1.0032246
157	0xbd0d5fd5	-0.03451522
158	0x415bb819	13.732446
159	0x41c1fcdc	24.248466
160	0xbd923d26	-0.071405694
161	0x3e884a44	0.2661916
162	0x41bf0823	23.878973
163	0x41bee681	23.86255
164	0x41bebb9c	23.841606
165	0x41be4bd8	23.787033
166	0x4159e359	13.618005
167	0x41be4498	23.783493
168	0x41bed7ef	23.855436
169	0x41c2e732	24.362888
170	0x41bea984	23.832771
171	0x41501c39	13.00689
172	0x41bee9e6	23.864208
173	0x41516c29	13.088906
174	0x41bea0e9	23.82857
175	0x41bf3f72	23.90598
176	0x41bed436	23.853619
177	0xbbb14100	-0.00540936
178	0x41be9f1f	23.827696
179	0xc1ac2c58	-21.521652
180	0x41bee638	23.862411
181	0x41bed40a	23.853535
182	0xbdcb3589	-0.099223204
183	0x41be9a36	23.825298
184	0x41be9769	23.82393
185	0x41913b55	18.15397
186	0x41bea25c	23.829277
187	0xbd059165	-0.032609362
188	0x41bea0f7	23.828596
189	0x41becfc6	23.851452
190	0xbd86d40d	-0.06583414
191	0xbd8f2bfd	-0.06990812
192	0xbd0d5bed	-0.034511495
193	0x41beacd8	23.834396
194	0x417e1e5b	15.882411
195	0x41beaaa7	23.833326
196	0xbd98108d	-0.07425032
197	0x41bec76e	23.847378
198	0x41be5bc6	23.794811
199	0x41beabae	23.833828
200	0xbdfac6e4	-0.122449666
201	0x41bee96e	23.86398
202	0x41c388c7	24.441786
203	0xbc2548ef	-0.0100881895
204	0xbd2541e7	-0.040346052
205	0x41becb36	23.849224
206	0xbd91a406	-0.07111363
207	0x41c1c56f	24.221403
208	0x41c60eb3	24.757177
209	0x41bee55d	23.861994
210	0x41bf3052	23.898594
211	0x41be89cd	23.817286
212	0x41bee482	23.861576
213	0x41bee3a5	23.861155
214	0x41bf1022	23.882877
215	0x41beca48	23.84877
216	0x41bebdb6	23.842632
217	0x41be8188	23.813248
218	0x3f627b5a	0.8846947
219	0xbce25c1b	-0.02763181
220	0x41beeb72	23.864964
221	0x41be2cb1	23.771822
222	0xbd7c1abc	-0.061548933
223	0x41bf166a	23.885944
224	0x41c66589	24.799578
225	0xbd739964	-0.059472457
226	0x41bf872b	23.941
227	0xbcdeb682	-0.027186636
228	0xbbc4c9c9	-0.0060055
229	0x41beee02	23.866215
230	0xbf384f40	-0.71995926
231	0x41bf59a5	23.918772
232	0x41bec017	23.843794
233	0x41beebce	23.865139
234	0x3f813fec	1.0097632
235	0xbd8b6bd5	-0.06807677
236	0x4151ff09	13.124764
237	0x41beb749	23.839495
238	0x418b6ef4	17.429176
239	0x41bebe53	23.842932
240	0x41beb8bd	23.840204
241	0x3dcb5a40	0.09929323
242	0x41beaa14	23.833046
243	0x41bec188	23.844498
244	0x41bebafc	23.841301
245	0x41beb398	23.837692
246	0x41bea96e	23.83273
247	0x41befa93	23.87235
248	0x41bfcd15	23.975138
249	0xbd3ff380	-0.04686308
250	0x3db58aa7	0.088643365
251	0x41bec405	23.845713
252	0xbd021c3d	-0.03176521
253	0x41c3f4de	24.494564
254	0x4196f9a5	18.871897
255	0x41bf0663	23.878119

last_fc.weight f4 [1, 256]
0	0xbbcbd67a	-0.006220636
1	0xbe894604	-0.2681123
2	0xbd29291e	-0.041298978
3	0xbca9f057	-0.020744486
4	0xbef2d81a	-0.47430497
5	0xbf03c8d5	-0.5147832
6	0xbf0260bd	-0.5092886
7	0xbeeb0e98	-0.45909572
8	0xbf07b3f6	-0.53008974
9	0x3d229267	0.0396904
10	0x3c940566	0.01806898
11	0xbede5f00	-0.43431854
12	0xbf038360	-0.5137234
13	0xbf0043ca	-0.5010344
14	0xbefdf26c	-0.49599016
15	0xbce0d643	-0.027445918
16	0xbe8feb71	-0.28109315
17	0xbf9455dd	-1.1588703
18	0xc0454858	-3.0825405
19	0xbeaca3be	-0.33718675
20	0xbf0f5293	-0.55985373
21	0xbcc36c91	-0.02385548
22	0xbf6756f9	-0.90367085
23	0xbeab5370	-0.33462095
24	0x3ca19867	0.019725991
25	0xbf0c99cf	-0.54922193
26	0xbf02537d	-0.50908643
27	0xbc99fcbe	-0.018797275
28	0xbf03fccf	-0.5155763
29	0x3cf5cbe4	0.03000445
30	0xbef5c9f6	-0.48005646
31	0xbfa46406	-1.2843025
32	0xbef33483	-0.47501
33	0xbc361b30	-0.01111488
34	0xbef08555	-0.46976724
35	0xbf04fa74	-0.5194466
36	0xbf9648a2	-1.1740916
37	0xbf998cda	-1.199611
38	0xbf0b964d	-0.54526216
39	0xbef62ef4	-0.48082697
40	0xbef87a16	-0.48530644
41	0xbf876206	-1.0576789
42	0x3c6fb86b	0.014631371
43	0xbf0161b8	-0.5053973
44	0xbf08ba51	-0.53409296
45	0xbc375220	-0.011189014
46	0xbefd0cde	-0.4942388
47	0xbee22f92	-0.44176918
48	0xbcee1b23	-0.029065674
49	0xbeff2adb	-0.49837384
50	0xbef15951	-0.47138456
51	0xbeaf22e5	-0.3420631
52	0xbc7da864	-0.015482042
53	0x39a2004e	0.00030899275
54	0xbfee87ba	-1.863517
55	0xbd91f60d	-0.071270086
56	0xbea53e30	-0.32274008
57	0xbf1b6fd5	-0.6071752
58	0x3d01d6b5	0.0316989
59	0x3cd43572	0.025904391
60	0x3c1dd9ce	0.009634448
61	0xbc646dca	-0.013942191
62	0xbe93f903	-0.28900918
63	0xbe96d4a8	-0.2945912
64	0xbf074b44	-0.5284922
65	0xbf7b1a96	-0.9808744
66	0xbeddecf4	-0.43344843
67	0xbf86c873	-1.0529922
68	0xbe9aad0f	-0.30210158
69	0xbf00eb7b	-0.50359315
70	0x3cd3d6ea	0.025859315
71	0xbf0a868f	-0.5411157
72	0xbeda36a9	-0.42619827
73	0x3b1edc65	0.0024240252
74	0x3cb60488	0.022218958
75	0xbef66b44	-0.48128712
76	0x3d1dea36	0.03855344
77	0xbeeeddc5	-0.46653572
78	0xbd87c575	-0.06629459
79	0xbc3355d0	-0.010945752
80	0xbf8d84b2	-1.105612
81	0xbeecfb51	-0.4628549
82	0xbf0c31c4	-0.54763436
83	0xbefc85b5	-0.4932076
84	0xbedd292a	-0.43195468
85	0xbf92ca1e	-1.1467931
86	0xbee3b0b9	-0.44470766
87	0xbf3b8142	-0.73244107
88	0xbf80cd22	-1.0062602
89	0x3ca7176f	0.020396916
90	0xbf077ca0	-0.5292454
91	0xbfcc96a8	-1.5983477
92	0xbf06464c	-0.52451015
93	0xbef47d73	-0.4775196
94	0xbceefc23	-0.029172963
95	0xbf906d8e	-1.1283433
96	0xbc2c8abf	-0.0105311265
97	0xbeed5f4e	-0.46361774
98	0xbf0c4ba3	-0.5480291
99	0xbf11e148	-0.56984377
100	0xbf0a93f9	-0.5413204
101	0x3c0b8a4d	0.00851686
102	0x3cf1f514	0.029535808
103	0xbcab12f7	-0.020883067
104	0xbf007b61	-0.5018826
105	0xbef6572b	-0.4811338
106	0xbce53cd3	-0.027983105
107	0xbf43b150	-0.7644243
108	0xbcbceaf0	-0.023061246
109	0xbe95d83b	-0.29266533
110	0x3b802167	0.003910232
111	0xbef02390	-0.46902132
112	0xbf176301	-0.5913544
113	0xbf00606b	-0.5014712
114	0xbef022db	-0.46901593
115	0x3cd1df02	0.025619034
116	0xbf9bd94d	-1.217569
117	0xbee41aad	-0.44551602
118	0xbe6cb872	-0.23117235
119	0xbf117492	-0.568185
120	0xbca5637f	-0.020189045
121	0xbcb64ec0	-0.022254348
122	0xbef6fbca	-0.48238975
123	0x3cf7534c	0.030191086
124	0xbef75442	-0.4830647
125	0xbeeaf00f	-0.45886275
126	0xbee7cdda	-0.4527424
127	0xbf03d9d8	-0.5150428
128	0x3ce758ab	0.028240522
129	0xbef25fcf	-0.4733872
130	0xbf004e22	-0.5011922
131	0xbefd397b	-0.49457917
132	0xbc35dd78	-0.011100166
133	0xbf10dfef	-0.56591696
134	0xbbdb3f02	-0.0066908607
135	0xbee1502d	-0.44006482
136	0xbea4702d	-0.32116833
137	0xbf3c3cee	-0.7353047
138	0xbeec87d8	-0.4619739
139	0xbe6e9502	-0.2329903
140	0xbf02d34e	-0.51103675
141	0xbef6d1c3	-0.4820691
142	0xbefa8876	-0.48932236
143	0xbe74b434	-0.23896867
144	0xbf6b9306	-0.92021215
145	0xbefac60e	-0.4897923
146	0xbee33820	-0.44378757
147	0x3d01fb6d	0.03173392
148	0xbc47a9b9	-0.012186461
149	0xbf0577cb	-0.52135915
150	0xbebc4e70	-0.36778593
151	0xbeea54b6	-0.45767754
152	0xbeff7d6b	-0.49900374
153	0xbee4df82	-0.44701773
154	0xbefbb15c	-0.49158752
155	0xbbba21a8	-0.0056802817
156	0xbe97e275	-0.2966496
157	0x3bd898e2	0.006610022
158	0xbfb079c7	-1.3787163
159	0xbf970abf	-1.1800154
160	0xbba48d6f	-0.005021743
161	0xbd000abf	-0.03126025
162	0xbefc591a	-0.4928673
163	0xbeb30dd2	-0.34971482
164	0xbefd450c	-0.4946674
165	0xbeb5197d	-0.3537101
166	0xc0090d94	-2.1414537
167	0xbea8eedf	-0.32994744
168	0xbf01def3	-0.5073082
169	0xc18c2e7e	-17.522701
170	0xbef9c552	-0.48783356
171	0xbf944ed5	-1.1586558
172	0xbf0b3b41	-0.5438729
173	0xbf51ad01	-0.8190461
174	0xbee27691	-0.44231084
175	0xbf04dd7e	-0.5190047
176	0xbf012423	-0.50445765
177	0xbc5ba7b2	-0.013406681
178	0xbeec152a	-0.46109897
179	0x3f01e7f0	0.50744534
180	0xbea19f71	-0.31566957
181	0xbf054aba	-0.5206715
182	0xbccce659	-0.025012182
183	0xbeee494f	-0.46540305
184	0xbef3c5ea	-0.47611934
185	0xbfab3ace	-1.3377321
186	0xbeee1ccc	-0.46506345
187	0x3c13f04d	0.00902946
188	0xbee83599	-0.45353392
189	0xbf03b327	-0.5144524
190	0xbdae2bee	-0.08504473
191	0xbbdf3512	-0.0068117464
192	0x3c9ea4ee	0.019365754
193	0xbee65c10	-0.44992113
194	0xbfbb53e7	-1.463498
195	0xbeb71e40	-0.35765266
196	0x3cffe69c	0.031237893
197	0xbe98e3d2	-0.29861313
198	0xbeb22706	-0.34795398
199	0xbef9f85b	-0.48822293
200	0xbcc4a5d9	-0.024004864
201	0xbf0588ee	-0.52162063
202	0xbf645ccb	-0.8920409
203	0x3c44b641	0.012006343
204	0x3cd073ba	0.025445808
205	0xbef4a270	-0.4778018
206	0xbb9438f6	-0.004523392
207	0xbf9d8fa5	-1.2309462
208	0xbf239cd2	-0.63911164
209	0xbf02c122	-0.5107595
210	0xbf1592a8	-0.58426905
211	0xbed70dcd	-0.42002717
212	0xbef8da19	-0.48603895
213	0xbe9a7567	-0.30167696
214	0xbf0783b1	-0.5293532
215	0xbeebe93e	-0.46076387
216	0xbf0193e0	-0.50616264
217	0xbed54923	-0.4165736
218	0xbdffa753	-0.124830864
219	0x3c837b05	0.016049871
220	0xbf0e2953	-0.55531806
221	0xbe9ccaf7	-0.306236
222	0x3ccdf0c1	0.025139214
223	0xbea06031	-0.31323388
224	0xbfe5649a	-1.7921326
225	0xbcfcad9b	-0.0308445
226	0xbe8ed3a0	-0.27895832
227	0xbc2a9dc7	-0.010413594
228	0xbbb90610	-0.0056464747
229	0xbef42120	-0.47681522
230	0xbb5c36a9	-0.0033601916
231	0xbf0b4fe2	-0.54418766
232	0xbea7b1f4	-0.32752955
233	0xbefd4f4c	-0.4947456
234	0xbebce897	-0.36896202
235	0xbcb1fd48	-0.02172722
236	0xbf7cf4b3	-0.9881088
237	0xbef164d3	-0.47147235
238	0xc08b1b5c	-4.34709
239	0xbef90463	-0.4863616
240	0xbeef0e3a	-0.46690542
241	0xbd01bdb5	-0.03167506
242	0xbee8082f	-0.45318744
243	0xbef7a719	-0.48369673
244	0xbef690ea	-0.48157436
245	0xbe8e17ff	-0.27752683
246	0xbef1e78c	-0.4724697
247	0xbf0e193d	-0.5550726
248	0xbea56fff	-0.3231201
249	0xbc922fde	-0.01784509
250	0xbbb15c57	-0.005412619
251	0xbf0076b3	-0.5018112
252	0x3cecc043	0.028900271
253	0xbf761504	-0.9612582
254	0xc0770dc3	-3.860215
255	0xbf10c3c3	-0.5654871
