save_mode/SAC_v_200_target_qf1_network.pth (torch, 329559 bytes, 5 tensors)

fc0.weight f4 [256, 61]
000000 96 7a 14 3d f4 a5 06 3c 7e be 1a 3d 87 88 80 bb
       0.03624972 0.008218277 0.037779324 -0.0039225253
000010 16 8f 1b 3c 06 00 a4 3f a5 1b 89 be 5b 72 f0 3c
       0.009494564 1.2812507 -0.26778904 0.029351404
000020 6b f6 ed bb a4 3c 77 bd 0c 7e f3 3c d1 60 df bc
       -0.0072620413 -0.060360566 0.02972319 -0.027267845
000030 6f 27 b5 bc 44 f4 0d 3d 4c 97 74 be c1 c2 5d 3e
       -0.02211353 0.034656778 -0.2388584 0.21656324
000040 0f 9b 35 3d 85 fd 99 bc 2d 9d 18 3d f0 86 3c 3d
       0.04433733 -0.018797645 0.03725927 0.046027124
000050 53 67 60 bd 36 38 91 be 5c 0f 74 be da b2 5f be
       -0.054786038 -0.28363198 -0.23833984 -0.2184557
000060 21 57 4b bd 65 71 1b bd d4 64 08 3d f8 3f 49 bc
       -0.04964364 -0.03794994 0.033299282 -0.012283318
000070 95 af 07 bd e9 d5 4f be dd e9 0c be 4c a4 76 be
       -0.033126432 -0.20296444 -0.13761087 -0.24086112
000080 da 8f 69 3c ee c6 10 bd 6f 7b 27 ba f4 3f 7e 3d
       0.014255488 -0.035345964 -0.00063889375 0.06207271
000090 b0 78 35 bd 16 24 18 be 7f f3 26 be d2 24 50 be
       -0.04430455 -0.14857516 -0.16303824 -0.20326546
0000a0 ea 14 d2 3c 38 d3 3e 3d 29 34 52 b9 34 1d 09 bd
       0.025644738 0.046588153 -0.00020046592 -0.033475116
0000b0 af 55 a6 3c 29 76 47 be ff 7d 2b be dd b4 80 be
       0.020304529 -0.19478668 -0.16747282 -0.25137988
0000c0 c6 01 ab bb e6 ae 97 3e 27 c4 a1 3e e9 fe 44 bf
       -0.0052187173 0.29625624 0.31594965 -0.7695146
0000d0 d6 ba 1b 3e c0 0e b0 be b1 36 c0 3e bf 15 33 be
       0.15207991 -0.34386253 0.37541726 -0.17488764
0000e0 9a 8b 58 bd f2 fe 5a 3d f9 49 d8 bd ca 26 db be
       -0.05286751 0.05346579 -0.10560984 -0.4280303
0000f0 ba c0 d8 3e a0 25 b4 bc 93 6e 64 3d d5 d6 0e 3d
       0.4233454 -0.021990597 0.055769514 0.03487285
000100 2b 8a 65 3d 2c 36 0c 3b 27 f3 2e bd 66 63 95 bc
       0.05603997 0.0021394594 -0.042712357 -0.018235873
000110 7c 2a 09 3c 94 a6 7c 3c 8c c4 7a 3d 86 a0 1c 3d
       0.0083719455 0.015420575 0.061222598 0.038239025
000120 7a 51 5d 3d 92 f0 df bc 6e ca 9e ba 35 09 84 bd
       0.05403278 -0.027336393 -0.0012114772 -0.064470686
000130 66 5e 9a ba 0d 5e 09 bd e4 e3 71 bd a1 aa d4 3c
       -0.00117774 -0.03353696 -0.059055224 0.025960268
000140 44 83 0b bd 09 b1 45 bd 0e 2a 1a bd ea 7e d1 3b
       -0.03406073 -0.048264537 -0.037637763 0.006393303
000150 24 d8 0d 3d 75 be 9d 3c f7 c2 2f bd f9 60 d0 3c
       0.034629956 0.019255856 -0.042910542 0.025436865
000160 60 49 46 bc fb 90 61 3c a1 f0 c0 bc 93 b9 64 bd
       -0.012102455 0.013767476 -0.02355224 -0.05584104
000170 1f 6f ae bc bf 2f 37 3d 34 18 75 bd 2f 2a a7 bc
       -0.021293221 0.04472327 -0.059837535 -0.020405857
000180 c9 b8 4b 3d 89 a6 4d bc 33 78 e5 bc b1 84 cc bc
       0.04973677 -0.012551912 -0.028011417 -0.024965616
000190 30 c9 32 bd 33 26 62 bc 1b f8 61 bd 7a eb 54 3d
       -0.0436489 -0.013803053 -0.055168252 0.05198238
0001a0 32 22 52 3c 8c b8 fc 3c fa f7 54 bd 72 43 5a bd
       0.012825536 0.030849718 -0.0519943 -0.053286977
0001b0 45 20 8f bd e7 cc ab bc 59 83 50 3c f9 9c 46 3c
       -0.06988577 -0.020971728 0.012726628 0.012122386
0001c0 d9 2f c7 bc fe 41 1c 3c 41 2d c6 bb fe cf ae bc
       -0.024314808 0.009537218 -0.006047875 -0.021339413
0001d0 c0 d8 38 3d 22 97 d1 3c f1 1c d6 3b 54 d0 74 3d
       0.045128584 0.025584761 0.006534212 0.05976899
0001e0 0e f1 16 3d ff 81 a2 bd 4c aa 75 bc 5e 62 14 bd
       0.03685098 -0.07934951 -0.014994215 -0.036226623
0001f0 28 44 47 3c 30 5f cc 3b 08 ec 37 bc 23 09 1b 3f
       0.012162246 0.006236933 -0.011225708 0.60560817
000200 a0 1d e0 3d b7 d7 b3 be e5 b2 0e 3d 33 59 66 3d
       0.109431505 -0.35125515 0.034838576 0.05623741
000210 c3 14 e1 bc 08 d8 b2 3c 4f d5 24 bd f7 c0 cc 3e
       -0.02747572 0.021831527 -0.04024249 0.3999097
000220 4a be 38 3f c4 8f 62 3f 53 b5 6c 3c ec 54 0a 3d
       0.7216536 0.8850062 0.014447528 0.033772394
000230 8d e9 11 bd 02 fd 65 3c b6 99 20 bc 44 26 d7 3f
       -0.035623122 0.014037373 -0.009802273 1.6808553
000240 ba d9 be 3f a3 01 ac 3f 5d 90 04 3d 25 92 08 3d
       1.4910195 1.3438 0.032364238 0.0333425
000250 36 53 19 3c 85 44 0a 3d 56 d7 29 bb 92 4c a3 3d
       0.009358218 0.03375675 -0.0025915704 0.07973589
000260 68 e2 82 3e ab 22 e8 3d 3e 4f 9f bc 40 2e 4a 3d
       0.2556336 0.113347374 -0.019446965 0.049360514
000270 89 de cc 3c c9 c7 d5 3c e6 38 9a bc 32 98 90 be
       0.025008457 0.026096242 -0.01882596 -0.28241116
000280 a4 0a 97 be 21 8f 6b be d5 a9 09 3c 93 3d 68 3c
       -0.29500306 -0.23003818 0.0084023075 0.014174837
000290 eb af 66 bd 99 a5 5c bd 34 0c f7 bc 3d 56 f1 ba
       -0.056320112 -0.053868864 -0.030157186 -0.0018412542
0002a0 4c 82 e0 3d 2b e7 c2 3d 44 c9 c6 bd b8 64 47 40
       0.10962352 0.09516748 -0.09706357 3.1155224
0002b0 bb f1 3b 40 2c 3e a9 c0 dc 68 9a 3e 48 78 61 3d
       2.936629 -5.2888393 0.30158126 0.05504635
0002c0 3f 03 e0 3e 65 d3 00 3f 48 48 85 bf 99 00 d2 3f
       0.43752477 0.5032256 -1.0412683 1.6406432
0002d0 7c c0 26 3f 07 0c 6b c0 b3 1d 35 3f 1e f1 90 3c
       0.6513746 -3.672609 0.7074844 0.017693099
0002e0 21 3b 58 bc 71 63 44 bd 41 8d 4f bc 5c 98 f2 3c
       -0.013197691 -0.047946397 -0.012667955 0.029613666
0002f0 73 66 69 bc a3 f5 ed bb 0b c1 6c bd 0e 10 16 3d
       -0.014245617 -0.007261948 -0.057801288 0.036636405
000300 1a 1a 54 3d 51 86 46 3b dc 87 7b 3d ed 5f 04 3d
       0.051782705 0.003029246 0.061408862 0.032318044
000310 4f 22 ad bd 7f 36 80 bd 8b 0b 6b bb 04 f8 83 3c
       -0.084538095 -0.06260394 -0.0035865034 0.016109474
000320 b4 cd 0f bd 2e 59 9b 3c c0 b4 be 3c 02 4b 59 bd
       -0.035108283 0.018963423 0.023279548 -0.05305005
000330 06 23 9a bb d6 1d 98 bd 37 b0 af bd b3 d5 64 3d
       -0.004703882 -0.07427566 -0.08578532 0.055867862
000340 6c 43 8f 3c 59 50 4c 3c 66 7b aa 3c 18 71 39 bd
       0.017488204 0.012470328 0.020810794 -0.04527387
000350 a1 0f c0 bc e5 96 02 3d 27 0b 2b bd 03 86 64 bd
       -0.023444952 0.031882185 -0.041758683 -0.055791866
000360 50 3f 3d 3d 8e 27 a9 3c cb cc 69 3c 4d f7 16 bd
       0.046202958 0.020648744 0.014270018 -0.03685694
000370 31 ce 46 3d 7a 2a 57 bd b0 e1 30 bd 91 7a 49 bd
       0.048536483 -0.052530743 -0.043183982 -0.049189154
000380 60 5e 36 bd 7a 3d 58 3d 92 49 e6 bc 7f 97 ad bc
       -0.044523597 0.052793004 -0.028111253 -0.021190403
000390 07 93 b1 bc 56 5d 1c 3d d6 f0 ab 3c 41 f7 4e bc
       -0.021676553 0.03817495 0.020988863 -0.012632192
0003a0 ae aa 1c bd c6 ab 17 3d 40 29 4f 3c 4d e0 05 3d
       -0.03824871 0.03702905 0.012644112 0.032684613
0003b0 5d 15 8c bd 69 68 c2 3d 9b f2 fd b9 03 fe e9 3c
       -0.06840012 0.09492571 -0.00048436676 0.028563505
0003c0 5a 14 56 bb 72 e6 5c 3d c1 fd cf 3c 67 dd a2 bd
       -0.003266594 0.053930707 0.025389554 -0.079523854
0003d0 40 95 3d 3d 16 d6 a4 bc 89 59 c5 3b f0 48 be 3b
       0.046284914 -0.020121615 0.0060226363 0.0058070347
0003e0 61 45 4f 3d 34 be 8b 40 ea 87 37 40 db 88 a9 3f
       0.050603274 4.366968 2.8676705 1.324489
0003f0 88 fa bf 3c 97 ca 28 3d 3e 42 1d 3b ec 88 79 bd
       0.023434892 0.04120883 0.0023995782 -0.060921595

fc0.bias f4 [256]
000000 23 37 7a 3d c2 b5 db bc 11 2a 00 42 30 7e 32 bd
       0.06108774 -0.026820067 32.04108 -0.043577373
000010 e0 08 16 c1 b7 a6 01 42 ff 33 e4 c1 f7 aa 01 42
       -9.377167 32.412807 -28.525389 32.416958
000020 80 4a 3e bd c1 02 cb bd 48 de cb 41 35 98 01 42
       -0.046457767 -0.09912635 25.483536 32.39864
000030 07 2e 2d bd eb 08 6d bd e5 fa 02 42 79 77 01 42
       -0.042280223 -0.057869833 32.745014 32.366673
000040 2e 83 94 bd dc fc fd 41 7a 32 00 42 c5 ea 00 42
       -0.07251583 31.748466 32.049294 32.229267
000050 23 82 00 42 57 f8 ff 41 cd 04 02 42 f3 2b 00 42
       32.127087 31.99626 32.50469 32.04292
000060 04 bf ff 41 18 85 00 42 e1 15 ff 41 e5 06 01 42
       31.96827 32.129974 31.885683 32.256733
000070 71 c3 4d bc 8b 66 00 42 04 be 00 42 aa 86 d7 bd
       -0.012558804 32.10014 32.185562 -0.10523732
000080 63 1e 62 bc 28 e7 01 42 c9 c9 c4 bb 35 e9 00 42
       -0.01380119 32.47574 -0.0060055 32.22774
000090 b7 88 27 bd da cc e3 41 3d 3b 01 42 50 b5 01 42
       -0.040901866 28.475025 32.30785 32.427063
0000a0 03 3a 00 42 ef 34 00 42 d5 0d e7 c1 e7 78 00 42
       32.056652 32.051693 -28.881754 32.11807
0000b0 87 56 00 42 90 83 3b bd 80 17 01 42 b3 9f 00 42
       32.0845 -0.045779765 32.27295 32.155956
0000c0 c9 25 ff 41 f9 fa fe 41 2f fd a1 bc 5c ff e5 c1
       31.89345 31.872545 -0.019774048 -28.749687
0000d0 8c 26 c5 c1 aa da ff 41 1e b7 a2 bd 32 8f dd bc
       -24.643822 31.98177 -0.07945083 -0.02704582
0000e0 78 78 ff 41 94 be 00 42 ee 70 ff 41 95 e6 00 42
       31.933823 32.18611 31.930141 32.225178
0000f0 57 31 00 42 d5 0b 02 42 60 7e 39 bd a2 58 51 bd
       32.048183 32.511555 -0.045286536 -0.051109917
000100 38 92 ff 41 fc 68 00 42 d4 8c 00 42 25 9f 0a bd
       31.946396 32.102524 32.137527 -0.03384318
000110 47 5d 22 bd ad 1b 86 bd 98 b5 00 42 79 6e ff 41
       -0.039639737 -0.065482475 32.177338 31.928942
000120 79 65 ff 41 d5 2a 01 42 7a cd c5 c1 5f 08 23 bd
       31.924547 32.29183 -24.72533 -0.039802905
000130 2d 46 01 42 d3 de e3 bd 00 00 00 00 93 3b 00 42
       32.31853 -0.11126485 0.0 32.058178
000140 2d b0 00 42 4a 36 00 42 5d 0c 01 42 41 af 41 bd
       32.172047 32.053017 32.262074 -0.047286276
000150 35 e9 00 42 25 8a 01 42 45 a6 01 42 89 16 00 42
       32.22774 32.384907 32.412373 32.022007
000160 fd 58 fe 41 e5 bb 00 42 04 5e 8c bd c4 a8 f2 bc
       31.793451 32.18349 -0.068538696 -0.02962149
000170 cb 53 00 42 f4 d6 a4 c1 00 00 00 00 43 a4 00 42
       32.08183 -20.604958 0.0 32.16041
000180 f4 8b ff 41 65 34 00 42 ad 60 07 bd c1 61 d0 41
       31.943336 32.051167 -0.03305118 26.047731
000190 79 39 48 bd 52 3c 00 42 1d bb 00 42 6b e2 00 42
       -0.048882935 32.058907 32.182728 32.22111
0001a0 9b 10 e0 bd f6 da 12 bd 0d 25 86 bd f2 ac 57 bc
       -0.10940667 -0.03585335 -0.065500356 -0.013163792
0001b0 a5 52 00 42 ad 7e 02 42 0e 17 00 42 c4 22 99 bd
       32.080708 32.623707 32.022514 -0.07477334
0001c0 d1 f0 ff 41 ad a3 fe 41 cf 92 01 42 00 00 00 00
       31.992586 31.82992 32.393368 0.0
0001d0 bf 55 00 42 00 00 00 00 e3 5a ff 41 cd 2f ff 41
       32.083736 0.0 31.919378 31.89834
0001e0 93 bf ff 41 75 c4 9c bd b3 89 00 42 00 00 00 00
       31.968542 -0.07654659 32.13447 0.0
0001f0 00 00 00 00 23 94 ff 41 04 87 00 42 ea f7 fe 41
       0.0 31.947332 32.13185 31.871052
000200 d2 23 00 42 10 26 01 42 6c 25 fb bc 3d 3b 01 42
       32.03498 32.28717 -0.030657493 32.30785
000210 72 b5 01 42 90 e7 bb be 36 42 c4 c1 4d 62 01 bd
       32.427193 -0.36700106 -24.53233 -0.031587888
000220 3e e3 17 be c0 85 00 42 28 1a 35 bd c4 f4 76 bc
       -0.1483278 32.130615 -0.044214398 -0.015073005
000230 65 28 8a bc 36 fc ff 41 9e 33 01 42 75 9a 0a bd
       -0.016864965 31.99815 32.300407 -0.033838708
000240 4e 2d c6 c1 3c 9e 00 42 35 ca 00 42 30 8a 00 42
       -24.772121 32.154526 32.197468 32.13495
000250 07 63 00 42 25 1b 07 be 44 7b c9 c1 d5 43 01 42
       32.096706 -0.13193949 -25.185188 32.316242
000260 7f 1d 00 42 1b 04 00 42 c3 4c 00 42 65 c8 00 42
       32.028805 32.00401 32.074963 32.195698
000270 00 00 00 00 29 32 01 42 1f 14 20 bc 74 91 ff 41
       0.0 32.298985 -0.009770422 31.946022
000280 5d f3 00 42 b3 89 00 42 2f 54 00 42 5d c9 07 c1
       32.23766 32.13447 32.08221 -8.486661
000290 89 61 00 42 4b 60 00 42 ef 34 00 42 67 28 02 42
       32.09525 32.094036 32.051693 32.539455
0002a0 f4 36 ff 41 3b 08 64 bd 68 48 00 42 72 6d 53 bd
       31.901833 -0.05567191 32.07071 -0.051618047
0002b0 3f fd ff 41 b8 ce 00 42 00 00 00 00 b2 7a c7 c1
       31.998655 32.201874 0.0 -24.93491
0002c0 8d 36 01 42 04 ac ff 41 14 ed 83 bd 4f d7 00 42
       32.303272 31.958992 -0.064417034 32.210262
0002d0 99 c5 c6 c0 a5 e7 00 42 c6 a0 1d bd d3 62 67 bd
       -6.211621 32.226215 -0.038483404 -0.05649073
0002e0 45 ed 0a 42 7f b2 fe 41 ab 50 00 42 f2 d7 54 bd
       34.73171 31.837156 32.078777 -0.051963754
0002f0 e8 3e 32 bd 5c 23 79 bd ec 46 00 42 3d 47 ff 41
       -0.043517023 -0.060824737 32.06926 31.909784
000300 83 f3 01 42 33 19 00 42 3c dd 01 42 03 6c 00 42
       32.487804 32.02461 32.46605 32.10548
000310 13 13 00 42 75 08 01 42 c9 8b ff 41 ed d5 01 42
       32.018627 32.25826 31.943254 32.45891
000320 13 9b 67 bd 6d 56 90 bd 3e 55 1e c1 58 23 c7 bd
       -0.056544375 -0.070477344 -9.895811 -0.09723538
000330 eb 24 00 42 95 6d 00 42 5c 94 fb bb 84 24 01 42
       32.036053 32.107014 -0.007677598 32.28566
000340 f5 78 01 42 a8 1a 37 bd 68 0c 30 bd f8 6d b9 bc
       32.368122 -0.044703156 -0.04298058 -0.022635445
000350 ae 6b 01 42 6d 4c 01 42 cd 11 9d bd 74 ac c7 c1
       32.355156 32.324635 -0.07669411 -24.959206
000360 23 39 00 42 33 d0 e7 bc 48 87 34 bc c1 ea 4e bd
       32.055798 -0.02829752 -0.011018582 -0.050516848
000370 7d f6 00 42 d7 f1 2f bd af 52 01 42 c5 1c 01 42
       32.24071 -0.042955246 32.330746 32.278095
000380 83 78 ff 41 09 d8 ff 41 5f 7e 00 42 88 1e 02 42
       31.933844 31.980486 32.12341 32.529816
000390 cf 4a 00 42 fd a8 ff 41 77 a8 29 bc b3 70 00 42
       32.073055 31.957514 -0.010355107 32.110058
0003a0 df 71 00 42 55 05 01 42 9e 42 00 42 00 00 00 00
       32.111202 32.255207 32.065056 0.0
0003b0 1f 27 21 bd 3e 79 ff 41 98 3f c6 c1 7f 68 00 42
       -0.03934395 31.9342 -24.781052 32.102047
0003c0 87 a1 00 42 5b a0 00 42 15 fb 89 bc f5 37 ff 41
       32.15774 32.156597 -0.016843358 31.902323
0003d0 8f d8 d7 41 46 30 00 42 03 4c ff 41 6d a4 fe 41
       26.980742 32.047142 31.912115 31.830286
0003e0 97 19 00 42 5b a1 64 bd 31 e7 ff 41 96 ce 1f bd
       32.02499 -0.055817943 31.987886 -0.039015375
0003f0 8a a8 ff 41 08 20 c6 c1 ed c2 00 42 ee 12 ff 41
       31.957294 -24.76564 32.190357 31.884243

fc1.weight f4 [256, 256]
000000 03 03 65 3d db 6a eb 3c 42 ff d5 be a7 b1 bb 3c
       0.055911075 0.028737476 -0.4179631 0.02291186
000010 a7 6d 25 3f 67 d9 ab bf fc 7c f5 3d 4e 99 95 bf
       0.6462044 -1.3425721 0.119867295 -1.168741
000020 e1 f7 44 bd af f8 a8 3b 2c 56 76 be 1b ce 68 bf
       -0.04808796 0.0051565985 -0.2405631 -0.9093949
000030 4c 5f 75 bd 72 76 5e 3d 58 5c b1 bf cd 8b 91 bf
       -0.059905335 0.054312177 -1.3856306 -1.1370789
000040 5f c5 a9 3c 16 2e 27 bf 8e 3a 91 bf c7 7a b4 bf
       0.020723997 -0.65304697 -1.1345994 -1.4099969
000050 fa e4 6c bf 71 8a 4a bf 07 3f bf bf 6c ea 88 bf
       -0.9253689 -0.79117495 -1.494111 -1.069654
000060 c3 40 7b bf 69 1a cf be 60 e7 b4 bf 4e 6d 94 bf
       -0.98145694 -0.40449837 -1.413311 -1.1595857
000070 b0 b1 38 3d f3 3f 65 bf a5 f7 8e bf bd 15 01 bd
       0.04509133 -0.89550704 -1.1169325 -0.031514872
000080 87 37 21 bc 67 80 a5 bf 1c 82 7d bd ab f3 7b bf
       -0.009839899 -1.292981 -0.06189166 -0.9841868
000090 5a 65 55 3d 95 cb 93 bf 45 2a 85 bf 1b 25 67 bf
       0.05209861 -1.1546503 -1.0403525 -0.90290993
0000a0 0d 93 95 bf 44 30 84 bf f9 37 42 3d c6 07 aa bf
       -1.1685501 -1.032723 0.04741666 -1.3283622
0000b0 55 4a 82 bf 89 f4 40 bd 75 35 9f bf 21 b9 c3 bf
       -1.0178934 -0.047108207 -1.2438189 -1.5290872
0000c0 be 14 96 bf 9a ad e3 be f5 7a 09 3d aa 55 db 3d
       -1.172508 -0.44468385 0.033564527 0.107096985
0000d0 6e 82 aa 3c f0 ca b9 bf cb 8c 7c 3c 68 e4 3e 3d
       0.020814147 -1.4515057 0.015414427 0.046604544
0000e0 fe 6f 25 bf 6c 67 09 c0 ee 36 a8 bf 3e f4 90 bf
       -0.6462401 -2.1469374 -1.3141763 -1.1324537
0000f0 44 ef 79 bf e7 c2 b5 bf 73 d9 f3 3b d5 38 87 3b
       -0.97630715 -1.4200104 0.0074416935 0.004126648
000100 6e 86 a1 be 76 e8 96 be be be 9b bf 17 36 2e bd
       -0.31547874 -0.2947423 -1.2167585 -0.042532053
000110 b0 e7 48 bc f3 af 63 ba 67 a3 b4 bf 39 7f cc bf
       -0.01226227 -0.0008685581 -1.4112366 -1.5976325
000120 5d ad 14 bf 00 22 b2 bf 16 77 9f 3d 02 d5 5b bd
       -0.5807703 -1.3916626 0.07786386 -0.053669937
000130 fa 8d 6e bf 2e 4d 1d bd 01 dd c9 3b 7a f9 5a bf
       -0.9318539 -0.038403682 0.006160379 -0.8553692
000140 dd a0 94 bf 99 62 4a bf e7 53 a2 bf f0 dd 3a bd
       -1.1611592 -0.790567 -1.2681855 -0.045621812
000150 e6 e6 96 bf 06 ec 9e bf 86 7c a2 bf 6f c5 a3 bf
       -1.1789215 -1.2415779 -1.2694252 -1.2794627
000160 22 de 5a bf fa b4 db bf 0d 8a 8a bc 11 53 c1 3d
       -0.854952 -1.7164605 -0.01691153 0.09439672
000170 1f 2e bd bf df 17 2f 3d 12 78 58 3d bc 48 05 bf
       -1.47797 0.042747375 0.052848883 -0.5206411
000180 0a e7 6e bf 25 3a 86 bf 20 f8 45 bd 22 0a dc be
       -0.9332129 -1.0486494 -0.048332334 -0.4297648
000190 33 8d ee 3d 2b a7 75 bf 55 74 94 bf 64 e5 77 bf
       0.11648025 -0.95958203 -1.1598002 -0.968344
0001a0 1e 81 92 3d 01 3f 42 3c 5c 43 fc ba 8c a2 08 bb
       0.071535334 0.011855842 -0.0019246149 -0.0020848839
0001b0 b5 04 8b bf 32 b6 e3 bf 13 d9 e5 be e2 2d 55 bd
       -1.0860811 -1.7789977 -0.44892177 -0.05204571
0001c0 b9 64 5f bf e5 51 9a bf 96 23 16 c0 5a 22 5c bd
       -0.87263066 -1.2056242 -2.345922 -0.053743698
0001d0 95 ef 8d bf 10 f5 3f 3d 65 c9 04 bf e0 3a be be
       -1.108874 0.04686457 -0.51869804 -0.37154293
0001e0 30 4d 4f bf c8 c4 30 3d d5 cd 9c bf 45 cd 07 3d
       -0.80977154 0.043156415 -1.2250315 0.033154745
0001f0 f3 a5 6d 3d 32 b5 5f be 06 1b 93 bf 52 c4 dd bf
       0.05801959 -0.21846464 -1.1492622 -1.7325537
000200 50 7b cc bf 4b b9 e6 bf 5c f7 f7 bc 7c 8f 8d bf
       -1.5975132 -1.8025297 -0.030269317 -1.1059413
000210 aa 3a d3 bf 87 51 3e 3c 31 c2 48 3d 4c 27 76 bd
       -1.6502278 0.011616117 0.04901332 -0.06009607
000220 8f a3 25 3d 65 bc 9b bf 01 53 47 3c da d5 ee 3c
       0.040439185 -1.2166868 0.012165786 0.029154707
000230 0b 32 6f 3d 6f 68 3f bf af 89 ae bf 36 01 16 3c
       0.058397334 -0.7476873 -1.3635768 0.009155562
000240 13 bb 6a 3d 98 d9 32 bf b6 3a 9b bf 7c 50 8b bf
       0.057307314 -0.6986327 -1.2127292 -1.0883937
000250 8b 0b 6b bf 8f 1d 33 bc 22 3a d4 3d 65 0f 8a bf
       -0.9181449 -0.01093234 0.103626505 -1.0785948
000260 0f 42 af bf bb ef 65 bf dc 80 78 bf 65 fb 84 bf
       -1.3692034 -0.89818925 -0.97071624 -1.038922
000270 8b 86 63 3d b7 0d af bf 6e 01 1a bd 74 05 f5 be
       0.055548232 -1.367606 -0.03759902 -0.47855723
000280 35 84 95 bf 6e 8f ac bf 10 c0 cc bf f3 2f 70 3f
       -1.1680971 -1.3481271 -1.5996113 0.93823165
000290 87 0a b5 bf 7d 4e 03 bf 75 26 95 bf a8 13 b4 bf
       -1.4143838 -0.5129164 -1.1652361 -1.4068499
0002a0 bd 5b 86 bf a6 c4 23 3d a1 84 52 bf 65 b6 03 3c
       -1.0496746 0.03998246 -0.82233626 0.008039092
0002b0 99 ae ce bf 4f 3f a4 bf d7 e8 a4 bc 31 c3 cc 3d
       -1.6147033 -1.283182 -0.020130558 0.09998167
0002c0 c1 99 cf bf b9 c0 58 bf c0 fa 43 3a bd 40 97 bf
       -1.6218797 -0.8466907 0.00074760243 -1.1816632
0002d0 3e 0d aa 3e cf b2 b0 bf 90 fe cc ba 57 d5 a1 bb
       0.33213228 -1.3804568 -0.001563983 -0.004938762
0002e0 f3 c1 60 3e 2b 06 62 bf cb 6e 68 bf d4 80 fb 3b
       0.21948986 -0.8829066 -0.90794057 0.0076752696
0002f0 ee a9 99 3b 4e ca 11 3d 5d 0a 92 bf b4 5a 85 bf
       0.0046894467 0.035593323 -1.1409413 -1.0418305
000300 a6 28 a4 bf 32 a6 6e bf 38 85 b2 bf 61 6e 5d bf
       -1.2824905 -0.93222344 -1.3946905 -0.8649655
000310 dd c8 9e bf 44 c6 84 bf 4e 77 a3 be eb c6 f7 bf
       -1.2405049 -1.0373006 -0.3192696 -1.935758
000320 da 3e d1 3d e4 2f 76 bd 75 09 85 3f af 69 2b 3d
       0.10217066 -0.060104266 1.0393511 0.041848835
000330 46 73 af bf 66 37 ad bf 15 27 0b 3c 92 dc 5a bf
       -1.3707054 -1.3532531 0.008493205 -0.85492814
000340 66 a5 a3 bf 9b ed e9 bb 1e 0e a1 bb 3b 0e 7c 3c
       -1.2784851 -0.0071389205 -0.004915013 0.015384252
000350 7f a1 a3 bf ec 14 84 bf b7 df 3e 3a 79 93 d2 bb
       -1.278366 -1.0318885 0.0007281261 -0.0064262715
000360 9d 82 98 bf c2 f9 58 3d 6b 75 76 bb 65 b6 03 3d
       -1.191486 0.052972563 -0.0037606608 0.032156367
000370 d0 7d bd bf 8d f3 07 bd 57 9f aa bf 7d 09 9b bf
       -1.480402 -0.033191252 -1.3329877 -1.211227
000380 f7 f3 ab be b3 57 79 bf f4 8b 82 bf 87 a1 b9 bf
       -0.33584568 -0.97399443 -1.019896 -1.4502419
000390 05 f0 95 bf 46 6c 2c bf 3d d6 15 bc b5 7a 88 bf
       -1.1713873 -0.6735271 -0.009145317 -1.0662447
0003a0 b4 22 86 bf d5 2a 9a bf 8d dc 0f bf 19 cb dc bc
       -1.047934 -1.2044321 -0.5619591 -0.026952313
0003b0 e0 1a 3b bd 1f f4 35 bf 90 a7 b5 3c 93 75 e7 bf
       -0.045679927 -0.71075624 0.022174627 -1.8082756
0003c0 6e f3 2c bf fc b4 8d bf d8 25 b8 ba d3 05 6a bf
       -0.67558944 -1.1070857 -0.0014049364 -0.9141514
0003d0 03 4a ee bb 8a ba 6b bf ed 27 85 bf 61 88 c8 bf
       -0.0072720065 -0.9208151 -1.0402809 -1.566662
0003e0 31 b6 ca bf 28 78 b6 bb 81 e0 57 bf f9 20 4a 3d
       -1.583685 -0.005568523 -0.8432694 0.04934785
0003f0 b5 d3 0e bd 9e e5 14 3d 8e 28 14 bf f8 c0 40 bf
       -0.03486987 0.036351793 -0.5787438 -0.75294447

fc1.bias f4 [256]
000000 be df 22 40 9d 48 91 3f e5 e0 17 40 92 d3 fe 41
       2.5449061 1.1350285 2.3731015 31.853306
000010 97 c2 a1 bd e5 d5 fe 41 bc e1 fe 41 3d 1c 02 bd
       -0.07898443 31.85444 31.860222 -0.03176521
000020 30 58 04 42 ba bd fe 41 dc ed fe 41 fb 32 79 3e
       33.08612 31.84264 31.866142 0.24335854
000030 40 09 33 bc b4 d1 06 40 ef 2c fe 41 0d d1 fe 41
       -0.010927498 2.1065493 31.77194 31.852076
000040 dd 38 04 42 00 00 00 00 56 ff 1a bd a8 e0 03 42
       33.05553 0.0 -0.037841164 32.96939
000050 d4 d7 fe 41 6f cf fe 41 3f d4 fe 41 8c 6f fe 41
       31.855385 31.851286 31.853636 31.804466
000060 ff 57 29 bd 2d 1b 04 42 10 ec fe 41 d1 1c fe 41
       -0.041343685 33.02654 31.865265 31.76407
000070 e5 c1 18 3f 5e e9 fe 41 9d 32 04 42 a2 48 5c bd
       0.5967086 31.863949 33.049427 -0.053780206
000080 c3 3a fe 41 d9 cc fe 41 3e b3 9f bd cc 95 87 3f
       31.778692 31.850023 -0.077978596 1.0592589
000090 f6 d5 fe 41 f0 d6 fe 41 77 db 3b 3c c6 de 9b c0
       31.854473 31.85495 0.011465899 -4.870944
0000a0 00 00 00 00 48 fd b1 bd a9 57 fe 41 1b d2 fe 41
       0.0 -0.08690888 31.792803 31.85259
0000b0 0d 4e fe 41 d4 4b 08 40 e2 55 fe 41 3d de 9c 3e
       31.78811 2.1296282 31.791935 0.30638304
0000c0 1a c0 fe 41 e0 d7 fe 41 0a c9 03 42 dc d8 fe 41
       31.8438 31.855408 32.946327 31.855888
0000d0 45 7b 04 42 5a e6 fe 41 07 00 bd 3f ca 24 fe 41
       33.12038 31.862476 1.4765633 31.767963
0000e0 c0 56 fe 41 5a 13 52 bd ce 64 04 42 68 cf b5 bc
       31.792358 -0.051287986 33.098442 -0.022193626
0000f0 ef 2d 04 42 20 3f 04 42 9d 44 01 42 cd 2f fe 41
       33.044857 33.061646 32.317005 31.77334
000100 d9 dc 58 3f b0 4d b8 bc 35 94 8a c1 6d 08 04 42
       0.84711987 -0.022497982 -17.322367 33.00823
000110 85 c5 01 c1 8d 80 96 3f 3d 10 04 42 38 5f 04 42
       -8.110723 1.175798 33.015858 33.092987
000120 85 33 fe 41 c1 4d 4b bd 48 e8 fe 41 a4 fa fe 41
       31.775156 -0.0496347 31.863419 31.872383
000130 03 ad fd 41 6a 06 e3 3f d9 e3 db 3f 8d 24 04 42
       31.709478 1.7736332 1.7178909 33.035694
000140 ff 81 bb 3f 4a e3 fe 41 5d 57 01 42 aa dd fe 41
       1.4649047 31.860981 32.335316 31.858234
000150 16 c2 9f bd 70 d6 fe 41 f5 e2 fe 41 11 b8 de 3f
       -0.07800691 31.854706 31.860819 1.7399923
000160 37 2a 01 42 5a e6 fe 41 08 68 fe 41 90 e3 fe 41
       32.291225 31.862476 31.800797 31.861115
000170 59 d6 fe 41 59 79 5a 3f 58 e9 fe 41 bf 00 ff 41
       31.854662 0.8534141 31.863937 31.875364
000180 6a f0 fe 41 8b f8 fe 41 48 de 32 bd 55 0c 01 42
       31.86739 31.871359 -0.043669015 32.262043
000190 85 eb 83 bd 8e 4f 1a bd ad dc 03 42 b3 b1 fe 41
       -0.06441406 -0.037673526 32.965504 31.836767
0001a0 9b c8 fe 41 6e e9 fe 41 e1 a6 5e 3f da e4 fe 41
       31.847952 31.86398 0.86973387 31.861744
0001b0 d6 0b 9b bd e7 24 fe 41 e3 e7 fe 41 e5 00 9b 3f
       -0.07570617 31.768019 31.863226 1.2109648
0001c0 42 94 52 bd 73 72 fe 41 7e 52 13 bc ad 27 04 42
       -0.05141092 31.805883 -0.008991836 33.038746
0001d0 01 f0 fe 41 fe e4 9e bd f2 dd 53 bd 2c df fe 41
       31.86719 -0.077585205 -0.051725335 31.85897
0001e0 20 eb fe 41 57 2e fe 41 ac d7 fe 41 5c 8d f8 c0
       31.864807 31.772627 31.855309 -7.767256
0001f0 d8 eb fe 41 8b a8 ee bb da f1 03 42 f7 36 fe 41
       31.865158 -0.0072832755 32.986183 31.776838
000200 b0 07 ff 41 15 99 91 3f 33 3c ef c0 ac d8 8c 3f
       31.878754 1.1374842 -7.4760985 1.1003623
000210 39 60 fe 41 85 25 81 40 de d0 fe 41 f8 b7 fe 41
       31.796984 4.03583 31.851986 31.839828
000220 3d 1c 82 bd 1d f4 03 42 80 d1 fe 41 fe fd 9e bd
       -0.06353042 32.98839 31.852295 -0.07763289
000230 b8 c9 b1 bd 6d e2 81 bd 53 17 65 bd 70 ce fe 41
       -0.08681053 -0.063420154 -0.055930447 31.8508
000240 df 4e 2a bc 05 e6 fe 41 dd 2b fe 41 a2 23 5e bd
       -0.010394781 31.862314 31.771418 -0.0542332
000250 15 7c 01 42 8a 67 64 3f 04 51 0a 40 5f da fe 41
       32.371174 0.8922049 2.1611948 31.856627
000260 33 ba fe 41 00 00 00 00 cb 1d fe 41 c8 47 c9 3f
       31.840918 0.0 31.764547 1.5725031
000270 8d 36 01 42 b7 d4 fe 41 cb 04 69 bd c6 d3 fe 41
       32.303272 31.853865 -0.056889337 31.853405
000280 b7 ff fe 41 f4 a7 75 bc 03 f4 fe 41 d3 0c ff 41
       31.87486 -0.014993656 31.869146 31.881262
000290 85 48 01 42 e6 b5 1a bd ed 79 fe 41 6b b7 eb 3b
       32.32082 -0.037771128 31.809534 0.007193496
0002a0 4d 62 fe 41 ee 11 fe 41 54 da fe 41 de d6 fe 41
       31.797998 31.758755 31.856606 31.854916
0002b0 14 c0 fe 41 40 bf cf 3e 14 51 84 3f f0 26 04 42
       31.843788 0.405756 1.0337243 33.038025
0002c0 50 a3 3d be 6a 65 e8 3f c5 c5 82 bc 1a d5 fe 41
       -0.1851933 1.8155949 -0.015963444 31.854053
0002d0 f8 f3 c4 3f 25 46 04 42 41 2d fe 41 0f 55 fe 41
       1.5386953 33.0685 31.772097 31.791533
0002e0 75 aa 98 3d 60 0d b7 bc 57 01 a3 bc 7a 0e e4 41
       0.07454387 -0.022345245 -0.0198981 28.507069
0002f0 02 07 dc bd b8 d7 fe 41 71 c9 00 42 4e e8 fe 41
       -0.10743524 31.855331 32.19672 31.86343
000300 e3 38 fe 41 4c 4b fe 41 21 da fe 41 43 df fe 41
       31.777777 31.786766 31.856508 31.859015
000310 e7 a7 2d bd 0b 08 ff 41 1d 26 04 42 1f f2 fe 41
       -0.042396452 31.878927 33.03722 31.868223
000320 26 a7 aa 3f 18 d9 fe 41 f1 da fe 41 59 d9 fe 41
       1.333226 31.856003 31.856905 31.856127
000330 f2 e3 d2 bd f4 e0 fe 41 69 5b 40 be 21 c7 fe 41
       -0.10297383 31.85984 -0.1878487 31.84723
000340 2d 34 04 42 a5 11 ff 41 89 2d dd 3f 2c ea fe 41
       33.050953 31.883615 1.7279521 31.864342
000350 c5 e3 fe 41 8d db fe 41 5d 9d 9f 3c 98 25 fe 41
       31.861216 31.857203 0.019484216 31.768356
000360 b4 4e 87 3f 4d 5f fe 41 40 d1 b3 ba 45 cc 03 42
       1.0570893 31.796534 -0.0013718978 32.949482
000370 b2 28 fe 41 88 c0 b8 bd 1f 08 a2 bc 1f fb b8 3d
       31.76987 -0.090210974 -0.019779263 0.090322725
000380 9b 6d 04 42 5f df fe 41 38 e6 fe 41 7b 67 fe 41
       33.107037 31.859068 31.862411 31.800528
000390 8f df fe 41 6b e9 fe 41 51 27 fe 41 3d 6d 01 42
       31.85916 31.863974 31.769197 32.356678
0003a0 c8 0a b6 bd 51 ea fe 41 bf a0 00 42 75 c4 03 42
       -0.08888775 31.864412 32.15698 32.941853
0003b0 db 0b ff 3f 2c 7d fc bc e0 a4 fe 41 b8 17 ff 41
       1.9925493 -0.030821405 31.830505 31.886581
0003c0 3d d7 fe 41 ae ff 2b 3f 53 e8 fe 41 00 00 00 00
       31.855097 0.6718701 31.86344 0.0
0003d0 3d 1c 02 bd 67 0d 01 42 b5 ec 8e bd a6 ee 9c bd
       -0.03176521 32.26309 -0.06978742 -0.07662706
0003e0 bb 78 64 bd e6 ca fe 41 e5 32 fe 41 b2 6b fe 41
       -0.0557792 31.849072 31.77485 31.802586
0003f0 47 dd fe 41 b5 30 0c bc d8 aa bf bd d5 6f 02 bc
       31.858046 -0.008556535 -0.09358758 -0.007961233

last_fc.weight f4 [1, 256]
000000 6b c3 e9 bb 08 b4 b8 bc 4a 92 60 bc fd fd fb be
       -0.0071338913 -0.022546783 -0.013706753 -0.49217215
000010 99 36 c9 bc c7 5f f6 be f4 5e fa be 44 5f f8 3c
       -0.024562167 -0.48119947 -0.48900568 0.030318864
000020 c8 32 50 bf f1 5b e8 be c6 32 ef be 10 ff b5 3b
       -0.81327486 -0.45382646 -0.46718425 0.0055540875
000030 ac 1f e4 bb 3f 67 b4 be 0c fc 4f bf 7a e7 f6 be
       -0.0069617834 -0.3523502 -0.8124397 -0.48223478
000040 56 a2 03 bf 3b a5 e7 ba b2 09 d4 3c 70 4e 02 bf
       -0.5141958 -0.0017673144 0.02588353 -0.50900936
000050 d3 f5 e5 be e0 16 e5 be c7 f3 e7 be fd 1b 3f bf
       -0.44914111 -0.44744015 -0.45303175 -0.7465208
000060 24 9c 7e bc f0 4e 04 bf 6a 74 f1 be e6 ba 50 bf
       -0.0155401565 -0.5168295 -0.4715913 -0.81535184
000070 b4 66 03 bb ba b2 04 bf 4d 47 02 bf ec 72 85 bc
       -0.002005023 -0.51835215 -0.50890046 -0.01629015
000080 8a e2 54 bf 6a 5e f2 be 34 7c f5 3c a4 15 71 3b
       -0.8315817 -0.47337657 0.029966451 0.003678658
000090 5e 2f fa be 25 06 f8 be fd c9 8b bf 8a 57 6f 3b
       -0.48864263 -0.48442188 -1.0921017 0.0036520683
0000a0 8f c4 ac 3a d7 5d b7 3c 6b 84 4a bf 0e 5a f8 be
       0.0013181138 0.022383614 -0.79108304 -0.48506206
0000b0 bb 45 55 bf 36 9c aa be 25 61 49 bf aa a4 d2 bc
       -0.83309525 -0.33322304 -0.78663856 -0.025713284
0000c0 6f 3d e2 be d4 e7 fb be b0 67 7e bf 11 67 ee be
       -0.44187495 -0.49200308 -0.99376965 -0.46563008
0000d0 3a a4 78 bf be 13 ed be cd dd 14 bd bc 85 41 bf
       -0.9712559 -0.46304125 -0.03634434 -0.7559469
0000e0 fb 11 3f bf 97 03 ac 3a 20 20 0a bf 37 7c a7 bc
       -0.7463681 0.0013123628 -0.5395527 -0.020444972
0000f0 dd a8 0c bf 68 d4 63 bf 44 fd cb bf 11 f1 4c bf
       -0.54945165 -0.8899598 -1.5936666 -0.8005534
000100 21 5b 42 3c 9b a0 61 bc 83 ef fa 3f db 84 04 bf
       0.011862547 -0.0137712015 1.9604343 -0.5176522
000110 f8 37 c2 3f f9 03 53 bc e2 0a d2 be 06 c9 78 bf
       1.517333 -0.012879365 -0.41023928 -0.9718174
000120 f8 ae 4e bf d0 03 30 3c 15 4d 02 bf 7f 7a 02 bf
       -0.8073573 0.0107430965 -0.5089887 -0.50968164
000130 ea c6 0f bf 2d ed 13 bd 7b d6 e4 bd a4 84 03 bf
       -0.56162894 -0.03611486 -0.111737214 -0.5137427
000140 f5 fd 08 bc a0 f3 06 bf b8 ea da bf c0 b7 f9 be
       -0.008361329 -0.5271549 -1.710288 -0.48773003
000150 51 14 40 3c e8 00 02 bf 1e 6c f5 be 7c b5 8f bd
       0.011723594 -0.5078263 -0.4793405 -0.07017037
000160 6d 2b cc bf b5 16 03 bf 57 97 39 bf 4d 70 fa be
       -1.5950752 -0.51206523 -0.7249655 -0.48913804
000170 16 4a f5 be 4c 10 fe bc 9a 32 08 bf bc 30 0e bf
       -0.47908086 -0.03101363 -0.5320221 -0.5554311
000180 a1 a9 06 bf 1a 67 0d bf 4c 52 f3 bc 16 c3 cc bf
       -0.52602583 -0.55235445 -0.029702328 -1.5997036
000190 b8 e2 b1 3c fb ca e8 bc e4 ab 7a bf 97 be e4 be
       0.021714553 -0.028417101 -0.97918534 -0.4467666
0001a0 42 79 fe be 47 b2 fc be c9 6b c3 bc 38 2e ff be
       -0.49701887 -0.49354765 -0.023855107 -0.4983995
0001b0 ab 8c ef bb 19 bf 53 bf 59 39 01 bf 04 23 81 bb
       -0.00731047 -0.82713467 -0.5047813 -0.0039409418
0001c0 fe 0c 90 bc 5f 35 46 bf 01 60 49 bc de 49 05 bf
       -0.01758432 -0.7742519 -0.0122909555 -0.5206584
0001d0 25 6b 05 bf 61 01 d2 3b 53 49 65 3c c0 1e fe be
       -0.52116615 0.006408856 0.013994533 -0.49632835
0001e0 7e 5a 07 bf ae b7 4c bf 13 18 f7 be e7 dc b9 3f
       -0.52872455 -0.7996777 -0.48260555 1.4520539
0001f0 7c 2f 56 bf 77 0c aa bb b2 92 09 bf 6b 31 56 bf
       -0.83666205 -0.005189474 -0.53739464 -0.83669156
000200 81 d2 f5 be e8 14 b9 bb 8c 7b 02 40 ca c6 51 3c
       -0.48012164 -0.005648244 2.0387907 0.012803743
000210 e9 d0 39 bf 98 45 be c0 f7 b0 f4 be e9 9a e6 be
       -0.72584397 -5.9459953 -0.47791263 -0.45040062
000220 e7 f2 ad 3a 4d e8 01 bf 79 17 00 bf d0 99 30 3c
       0.0013271243 -0.5074509 -0.50035816 0.010778859
000230 22 48 da 3c df e9 25 bb 1c 62 fa 3c dd 8f e5 be
       0.026645724 -0.00253164 0.03056436 -0.4483632
000240 ad e5 0e bd bc 4a f2 be 9c a9 4d bf b2 e9 50 bc
       -0.034887005 -0.47322643 -0.8033693 -0.01275103
000250 cc e0 e2 bf 15 6b 08 bd 45 67 98 bd f9 bb f9 be
       -1.7724853 -0.033305246 -0.07441572 -0.48776224
000260 d3 a1 e9 be df 15 27 39 4e fa 49 bf b2 f5 67 bc
       -0.45631275 0.00015934509 -0.7889756 -0.014157699
000270 28 01 cb bf b1 44 ec be 72 0d e3 3b 09 28 f6 be
       -1.5859728 -0.46146157 0.006929093 -0.4807742
000280 24 f6 00 bf b2 de 56 3c b9 8b 06 bf 25 91 11 bf
       -0.5037558 0.013114618 -0.5255695 -0.568621
000290 3c 3c e5 bf 13 b3 e3 3c d0 7e 3e bf b4 21 82 bb
       -1.7909007 0.02779535 -0.7441225 -0.003971303
0002a0 95 05 38 bf 4f e0 48 bf cc 12 e9 be 65 c9 eb be
       -0.7188352 -0.7846727 -0.45522153 -0.4605209
0002b0 b8 85 e7 be 7b 6a f6 3b 5e 7a 10 3b 81 4b 02 bf
       -0.45219207 0.0075200177 0.0022045593 -0.5089646
0002c0 a7 72 b9 3e 2f e6 29 bd 1b fe 60 3c ea 2b fb be
       0.36220285 -0.041479286 0.013732458 -0.4905694
0002d0 70 5e c9 bb be 96 6c bf e0 ec 4e bf 7f 3e 57 bf
       -0.006145291 -0.92417514 -0.8083019 -0.84079736
0002e0 b2 5a d3 bc 20 8a 4f 3b 06 2a 9d bc fe a9 ac bf
       -0.025800083 0.0031668022 -0.019185077 -1.3489377
0002f0 e4 4e 0e 3b cd 31 00 bf d5 05 75 bf 3e 7a f4 be
       0.0021714503 -0.5007599 -0.95712024 -0.47749513
000300 ba f5 52 bf ef b1 2c bf ab e8 eb be 80 b9 fb be
       -0.824062 -0.67459005 -0.4607595 -0.49164963
000310 ff a5 35 bb f8 c8 0d bf f3 d8 08 bf 97 a0 fa be
       -0.002771735 -0.5538478 -0.5345604 -0.48950645
000320 01 4a 55 bd ee b3 ee be b5 69 f5 be c1 2c fc be
       -0.05207253 -0.4662165 -0.4793221 -0.49252895
000330 5d 26 1e 3c 7a 85 f2 be fd 66 01 3d 67 f0 e3 be
       0.009652701 -0.4736746 0.031592358 -0.4451935
000340 75 2f 56 bf 7c da fd be 95 46 8c bc 5c 9f 05 bf
       -0.83666164 -0.49580753 -0.0171235 -0.5219629
000350 3e 5f 05 bf b6 9b 01 bf 57 a3 ba bc 42 a6 51 bf
       -0.52098453 -0.5062822 -0.022782965 -0.81894314
000360 7e 21 97 bc 55 b5 5b bf 3f ae 24 3c 6a d0 fc be
       -0.018448588 -0.85823566 0.010051309 -0.49377757
000370 2f a2 4a bf f7 72 b4 ba 59 de 45 bc df ca bf 3b
       -0.7915372 -0.0013767172 -0.012076938 0.0058530415
000380 f6 e2 07 bf 43 82 f9 be d3 a7 fe be 43 94 3e bf
       -0.5308069 -0.48732194 -0.49737415 -0.7444498
000390 10 48 09 bf 05 12 06 bf 5c ff 48 bf 8e 8b ea bf
       -0.53625584 -0.52371246 -0.7851465 -1.8323839
0003a0 fb 33 64 3c be f2 ef be b1 e8 3a c0 ab 1e 00 bf
       0.013928409 -0.46864885 -2.9204524 -0.50046796
0003b0 8e a3 a5 bd db b1 74 3a 4e d5 a9 be 1a 82 fa be
       -0.08087836 0.0009334364 -0.3317055 -0.48927385
0003c0 46 5c f9 be 56 f1 ad ba b2 cc 04 bf e1 74 c5 b9
       -0.48703212 -0.0013270776 -0.5187484 -0.0003766185
0003d0 1c 86 f4 3c 54 22 35 c0 c6 9d 91 bb 44 73 fd bc
       0.029849105 -2.8302202 -0.004443857 -0.030938752
0003e0 df 9f 29 bc 32 23 f4 be b6 e2 51 bf 7b 7b 4a bf
       -0.010353058 -0.47683102 -0.8198656 -0.79094666
0003f0 ac 4f f7 be 08 a7 4f bb 68 01 36 bc 50 ae b7 bb
       -0.48302972 -0.0031685252 -0.011108734 -0.0056054965
