save_mode/SAC_v_50_qf2_network.pth (torch, 329559 bytes, 5 tensors)

fc0.weight f4 [256, 61]
0	0x3d622b4e	0.05521708
1	0x3d60c5fc	0.054876313
2	0x3d200eaa	0.039076485
3	0x3d2a2d56	0.041547142
4	0xbc6b80f0	-0.014374003
5	0xbebd0b56	-0.3692271
6	0xbeab90b2	-0.3350883
7	0xbeefc9f9	-0.4683378
8	0x3d59ead6	0.053202473
9	0x3ca75be0	0.020429552
10	0x3d7376aa	0.05943934
11	0xbd4fb054	-0.05070527
12	0x3ca2b024	0.019859381
13	0x3df6bdc9	0.120479174
14	0x3f3844dd	0.7198008
15	0x3f70bb13	0.9403545
16	0xbd6be6e4	-0.05759324
17	0xbd4d6a06	-0.05014994
18	0x3d5c86c4	0.05383946
19	0x3cb959d8	0.022625849
20	0x3b39d100	0.0028353333
21	0x3fa511fc	1.2896113
22	0x3f9992f2	1.1997969
23	0x3fa85802	1.3151858
24	0x3c05b078	0.008159749
25	0x3c90d2b0	0.017678589
26	0xbc7425c0	-0.014901578
27	0x3d1d2d18	0.038373083
28	0xbd729764	-0.05922641
29	0x3ef5ba66	0.47993773
30	0xbceab039	-0.028648483
31	0xbca5e641	-0.020251395
32	0x3ceab28c	0.02864959
33	0xbc893f6c	-0.016753875
34	0xbd3884e6	-0.045048617
35	0xbce7e9a4	-0.02830965
36	0xbd7f4118	-0.062317938
37	0x3d92c4ef	0.07166468
38	0xbf1435f3	-0.5789482
39	0xbf2efaaf	-0.6835126
40	0xbcc69b3c	-0.024243943
41	0xbd1e296a	-0.038613714
42	0x3af980c0	0.0019035563
43	0xbd3e7f1e	-0.046507947
44	0xbd157d04	-0.036496177
45	0x3e628fbe	0.22125146
46	0xbe0c73b8	-0.13716018
47	0xbdeb9c4c	-0.11504421
48	0xc06628eb	-3.5962474
49	0x400ba8ea	2.1821847
50	0x4065be95	3.5897572
51	0xc0946dbc	-4.6383953
52	0x404b93e4	3.1809015
53	0xbfec04b6	-1.8438938
54	0x3f6e865c	0.93173766
55	0x405488ec	3.320857
56	0xbfd468e0	-1.6594505
57	0x3f4f398b	0.8094718
58	0x406636be	3.5970912
59	0xc0311a26	-2.767221
60	0x3f9e36f0	1.2360516
61	0xbd26ca6c	-0.04072039
62	0x3ba68530	0.005081795
63	0x3ae7d400	0.0017687082
64	0x3cc4752c	0.023981653
65	0xbcb48cbc	-0.022039764
66	0xbda746e7	-0.081678204
67	0xbd1c8855	-0.038215954
68	0xbd6fcc6e	-0.05854457
69	0xbc959c30	-0.018262953
70	0x3d5152b6	0.05110427
71	0x3c6783d8	0.014130555
72	0xbd59bba8	-0.05315748
73	0xbd5ede36	-0.054411136
74	0xbc114b43	-0.008868041
75	0x3b909dce	0.004413343
76	0xbd032c9f	-0.032024976
77	0xbb968490	-0.0045934394
78	0x3cbd6cec	0.023123227
79	0xbcb57c98	-0.022154137
80	0xbcc3910c	-0.023872875
81	0x3d428354	0.047488526
82	0xbdafa55f	-0.08576464
83	0xbc2861a1	-0.010277183
84	0xbd08549a	-0.033283807
85	0xbd684d72	-0.056714483
86	0x3bae3eb0	0.0053175315
87	0x3d6c59f4	0.057702973
88	0x3d0e2542	0.0347035
89	0x3d3087a4	0.043098107
90	0xbd4e135f	-0.050311442
91	0xbdaabc7c	-0.08336732
92	0xbc9c4784	-0.01907707
93	0x3d036734	0.032080844
94	0x3d45d720	0.048300862
95	0xbd6582a4	-0.05603279
96	0xbce568a8	-0.028004006
97	0xbd0bac5e	-0.03409993
98	0xbd922932	-0.07136764
99	0xbce301a6	-0.027710747
100	0xbd12fa07	-0.035882976
101	0x3d4135ea	0.047170557
102	0xbd799de6	-0.0609416
103	0x3d1f06a2	0.038824685
104	0xbc935588	-0.01798512
105	0xbceb3078	-0.028709635
106	0xbd7d52c1	-0.0618465
107	0xbd8a978e	-0.06767188
108	0xbd8b7c06	-0.06810765
109	0x3db5a6c8	0.088697016
110	0x38bb3233	8.926205e-05
111	0x3db77ad4	0.089589745
112	0x3d09cac9	0.033640657
113	0x3d9b94a7	0.075967126
114	0x3ce46ffa	0.027885426
115	0x3d82e4be	0.06391285
116	0x3cc5a492	0.024126325
117	0x3cba2295	0.022721568
118	0x3d8628bb	0.065507375
119	0xbd17d36b	-0.03706686
120	0x3ce10026	0.027465891
121	0x3cd218aa	0.025646526
122	0x3cf9b2a8	0.030480698
123	0xbd20aff4	-0.039230302
124	0xbd08e21c	-0.03341876
125	0xbcebb4ac	-0.028772675
126	0xbcebbce4	-0.028776594
127	0x3ee58e6a	0.44835216
128	0xbd5c5420	-0.053791165
129	0xbea02300	-0.31276703
130	0xbd3e960a	-0.046529807
131	0x3c8ddd8c	0.017317556
132	0xbd5578de	-0.05211722
133	0x3d759efa	0.059966065
134	0x3cb80894	0.022465028
135	0x3e8de8e0	0.27716732
136	0x3f353125	0.70778114
137	0x3f5cae8a	0.86203825
138	0x3be7bf20	0.0070723444
139	0x3c487ee0	0.012237281
140	0x3d713f9a	0.058898546
141	0x3c0c0680	0.008546472
142	0x3cddcd7c	0.027075522
143	0x3fe340e8	1.7754183
144	0x3fd4f83d	1.6638256
145	0x3fddf680	1.7340851
146	0xbcb2b6f4	-0.021815754
147	0x3d26b85c	0.040703163
148	0x3d75a2ec	0.059969828
149	0xbd2b6e30	-0.04185313
150	0xbc9d88ac	-0.01923021
151	0x3e4acfd6	0.19805846
152	0x3e2222e8	0.15833628
153	0x3e9fa5d9	0.3118122
154	0xbd37284e	-0.044716172
155	0xbd77a0ce	-0.06045609
156	0x3d7a4b92	0.061107226
157	0xbcb35ec8	-0.021895781
158	0xbcf419f4	-0.029797532
159	0xbe1fb6ee	-0.15597126
160	0xbec5817d	-0.38575354
161	0xbed68bd8	-0.41903567
162	0xbd37e3ba	-0.04489491
163	0xbcc1cb8c	-0.023656629
164	0x3d5f8cfc	0.054577813
165	0x3be7e820	0.007077232
166	0xbcf18a38	-0.029484853
167	0x3d4a6dc5	0.04942109
168	0x3dc01d1b	0.093805514
169	0x3e1b5eb1	0.1517284
170	0xc023cb91	-2.5592997
171	0x3feba450	1.8409519
172	0x404ab58d	3.167331
173	0xc08308aa	-4.0948076
174	0xbe028940	-0.12747669
175	0xbe5a52e8	-0.21320689
176	0x3e922f6f	0.28551814
177	0x3f39870c	0.7247169
178	0x3d89391a	0.067003444
179	0xbe220052	-0.15820435
180	0x3f2b5e20	0.669405
181	0xbdd321ca	-0.10309179
182	0xbd29857b	-0.041387063
183	0x3c7e0268	0.015503503
184	0x3cfcc42c	0.03085526
185	0x3cb0282c	0.02150353
186	0x3d6d25e0	0.05789745
187	0x3c228268	0.009918787
188	0xc0007f16	-2.0077567
189	0xbec81475	-0.39078107
190	0xbf90c9c1	-1.131157
191	0x3a9b0200	0.0011826158
192	0x3d488632	0.048956104
193	0xbd3e0404	-0.04639055
194	0x3b144280	0.0022622645
195	0xbcef3d7c	-0.029204123
196	0xbb2712ea	-0.0025493451
197	0x3f10d579	0.56575733
198	0x3eb9af88	0.36266732
199	0xbc8a5c98	-0.016889855
200	0xbc460e60	-0.012088388
201	0xbd096ba6	-0.033549927
202	0x3d04284e	0.032265
203	0x3c07ff58	0.008300625
204	0x3fa6a51e	1.301914
205	0x3f8afa65	1.0857664
206	0x3fa56f17	1.2924527
207	0xbc89df28	-0.016830042
208	0x3ce8ffd8	0.028442308
209	0x3c057f68	0.008148052
210	0x3cccee20	0.02501589
211	0x3cab859c	0.020937733
212	0x3e1d7159	0.1537527
213	0x3e548c35	0.2075661
214	0x3e8836bc	0.2660426
215	0x3ce67518	0.028132007
216	0xbd5ce5e6	-0.053930186
217	0x3d685584	0.05672218
218	0xbd6eb818	-0.058281034
219	0x3d568444	0.052372232
220	0xbe7c79a5	-0.24655779
221	0xbeedae9b	-0.46422276
222	0xbf08cb3e	-0.5343512
223	0xbd774328	-0.06036678
224	0xbd18ab34	-0.037272647
225	0x3d04b482	0.03239871
226	0xbd13ca2e	-0.036081485
227	0x3cf18478	0.029482111
228	0x3e04f0e5	0.12982519
229	0x3e0d0a49	0.13773455
230	0x3e15b62b	0.14620273
231	0xc01b86ae	-2.4300952
232	0x3ff43910	1.9079914
233	0x40595b29	3.396189
234	0xc08a76b1	-4.3269887
235	0xbc8836c5	-0.016627679
236	0xbf042883	-0.51624316
237	0x3f1ef1a7	0.6208748
238	0x3f5a9880	0.85388947
239	0xbf965c45	-1.1746908
240	0xbd2e0170	-0.04248184
241	0x3fe23f82	1.7675631
242	0xbdfe7f55	-0.124266304
243	0x3e386634	0.18007737
244	0xbc0dec50	-0.008662298
245	0xbc0a9030	-0.008457229
246	0x3d740582	0.059575565
247	0xbd19c374	-0.037539914
248	0x3d626784	0.0552745
249	0x3ec2109f	0.37903306
250	0xbdc78170	-0.09741485
251	0xbea8ddad	-0.32981625
252	0x3cd4ce6c	0.025977336
253	0xbce59ee8	-0.028029874
254	0xbcbb5308	-0.02286674
255	0x3d76f4d8	0.060292095

fc0.bias f4 [256]
0	0x41f0a272	30.079319
1	0xbd0714cb	-0.032978814
2	0x41f4609c	30.547173
3	0x41f2521c	30.290092
4	0x41f5cdbd	30.725458
5	0x41efeed1	29.99161
6	0x41f4d550	30.604156
7	0x41f420de	30.516048
8	0x41f34092	30.406528
9	0x41f2534e	30.290676
10	0x41f3ec46	30.490368
11	0x41f615a6	30.76057
12	0x41f2a66c	30.33126
13	0x41f18fcf	30.195219
14	0x41df7efd	27.937006
15	0x00000000	0.0
16	0xbd7baf35	-0.061446387
17	0xbd576fca	-0.052596845
18	0xbcbb5fff	-0.022872923
19	0x41f3a100	30.453613
20	0xbbde1f85	-0.0067786598
21	0x41f4f62c	30.620201
22	0xbceb384a	-0.028713364
23	0x41f44a03	30.536139
24	0x41d1e33b	26.235952
25	0x41f0b8af	30.090178
26	0x41f33c56	30.40446
27	0x41f38752	30.441074
28	0x41f01942	30.012333
29	0x41f30812	30.37894
30	0x41f3007a	30.375233
31	0x41f18391	30.189241
32	0xbd3b520f	-0.045732554
33	0x41f32b3e	30.396114
34	0x41f437c9	30.527239
35	0x41f1737c	30.181389
36	0x41f708b9	30.87926
37	0x41f09314	30.071815
38	0x00000000	0.0
39	0xc1ade78d	-21.738062
40	0x41f521d3	30.641516
41	0x41f4228a	30.516865
42	0x41f4721e	30.555721
43	0x41f1b742	30.214481
44	0x41f29adf	30.32562
45	0x41f1e27b	30.235586
46	0x41e6fc34	28.873146
47	0x41dc227f	27.516844
48	0x41dc5518	27.54155
49	0x41f1eb3c	30.23986
50	0x41f6196d	30.762415
51	0x41f1ce52	30.225742
52	0xbddd8895	-0.108170666
53	0xbd8df50d	-0.06931505
54	0x41d34e54	26.413246
55	0x41a95d04	21.170418
56	0x41ee1e4c	29.764793
57	0xbd6ed36d	-0.0583071
58	0x41f26ac7	30.302137
59	0x41f325ae	30.393398
60	0x41f665d3	30.799719
61	0xbd10bf0e	-0.035338454
62	0x41cbed08	25.490738
63	0x41f3c7b0	30.472504
64	0x41c94559	25.158861
65	0xbd140448	-0.036136895
66	0x41f099aa	30.075031
67	0x41e04f8e	28.038845
68	0x41f3e285	30.485605
69	0x41e3e7b6	28.48814
70	0xbcb3ef37	-0.021964652
71	0x41f693b3	30.822119
72	0xc1ae5f26	-21.79646
73	0x41d6de94	26.85868
74	0x41f2ab00	30.333496
75	0xc1ad7f63	-21.6872
76	0x41f30d9e	30.381649
77	0xbd859911	-0.06523336
78	0x41f45a74	30.544167
79	0xc197f825	-18.996164
80	0x41f136c5	30.151743
81	0xc1ae9f98	-21.827927
82	0x41f0dc4b	30.107565
83	0x41eeaa68	29.833206
84	0x41edca4c	29.723778
85	0x41f4a9a9	30.582842
86	0x41f116e6	30.13618
87	0x41f1a5ab	30.205893
88	0x41f404bf	30.502317
89	0x41f4b851	30.589998
90	0x41f17c83	30.185797
91	0x41f2f7ae	30.370937
92	0x41f1d651	30.229647
93	0x41e75e61	28.921083
94	0xbccdb0d0	-0.025108725
95	0x41f0f6aa	30.120441
96	0xbd63cd1a	-0.055615522
97	0x41a3296e	20.39523
98	0x41f4d0a1	30.60187
99	0x41d8ddf5	27.108377
100	0x41f218cf	30.262114
101	0x00000000	0.0
102	0x41f21659	30.260912
103	0x41f80410	31.001984
104	0xbc5a3869	-0.013319113
105	0x41f6968d	30.823511
106	0xbcf14584	-0.029452093
107	0x41f3565d	30.41717
108	0xbcc1eb2b	-0.023671707
109	0x41f01dce	30.014553
110	0x41f1f1b2	30.243015
111	0xbd126526	-0.035740994
112	0xbd82a109	-0.06378371
113	0x41f50462	30.62714
114	0xbd39d3fb	-0.045368176
115	0x41f2540b	30.291037
116	0xbd0003c3	-0.031253587
117	0x41d16c61	26.17792
118	0xbcdcb6a7	-0.026942564
119	0x41f1ca9a	30.223927
120	0x41efefd6	29.992107
121	0x41f278bb	30.30895
122	0xbd18f6ba	-0.03734467
123	0xbbe2f239	-0.006925848
124	0xbcffb834	-0.031215765
125	0xbd10c25a	-0.035341598
126	0x41ef7ba0	29.935364
127	0x41f5e8fe	30.738766
128	0xbc33cf4d	-0.010974717
129	0x41f38976	30.44212
130	0x41f469f1	30.55173
131	0x41f4f5b1	30.619967
132	0x41f41853	30.511877
133	0xbce3efdf	-0.02782434
134	0xbbb62752	-0.0055588866
135	0x41f198be	30.199581
136	0x41fb389c	31.402641
137	0x41f0a72b	30.081625
138	0xc0acc5f5	-5.3991647
139	0x41f0aa3a	30.083118
140	0x41f74d43	30.912725
141	0xbcb3ef38	-0.021964654
142	0xbd8eb131	-0.0696739
143	0x41f33556	30.401043
144	0x41f212eb	30.259237
145	0x41f14e46	30.16322
146	0xbd4f3661	-0.05058897
147	0xbd0b1f1a	-0.033965208
148	0x41f0c0aa	30.094074
149	0xc1b5890d	-22.69192
150	0xbcf72e37	-0.030173404
151	0x41f4b9c5	30.590708
152	0x41f08ae1	30.067812
153	0xbca924d9	-0.020647453
154	0xc1aac450	-21.345856
155	0x41f0d9d0	30.106354
156	0x41f4f542	30.619755
157	0x41f05215	30.04008
158	0x41d4412e	26.531826
159	0xbd04bf2f	-0.03240889
160	0xbd65e21c	-0.056123838
161	0x41f4120b	30.50881
162	0xbdad3f3d	-0.08459327
163	0x41f0ae83	30.08521
164	0xc1a81082	-21.00806
165	0x41f24f1f	30.288633
166	0x41f0baa4	30.091133
167	0x41f4f560	30.619812
168	0x41f2b805	30.339853
169	0x41c49272	24.571507
170	0x41f27177	30.305403
171	0x41f11f34	30.140236
172	0x41f12e44	30.14759
173	0x41f194de	30.19769
174	0x41f23dd5	30.280191
175	0xbd86eae5	-0.06587771
176	0xbd0ce8d1	-0.03440172
177	0x00000000	0.0
178	0x41f17fb3	30.187353
179	0x41f35267	30.415236
180	0x41f1d429	30.228594
181	0x41f5f31d	30.743708
182	0xbd1b1f63	-0.03787173
183	0xbcd8af0f	-0.026450662
184	0x41f3f9f3	30.497046
185	0xbdcd387e	-0.10020541
186	0x41f1c867	30.222853
187	0x41ef3c81	29.904543
188	0x41f3d511	30.479036
189	0x41f30cb2	30.381199
190	0x41f5c841	30.72278
191	0xbd250088	-0.04028371
192	0xbeeb3dd7	-0.45945618
193	0x41f27376	30.306377
194	0x41f3fa1a	30.49712
195	0x41f1d754	30.23014
196	0x00000000	0.0
197	0xbc07f6b5	-0.008298566
198	0x41f519f5	30.637674
199	0x41f036a3	30.026678
200	0x41f22cc3	30.271856
201	0x41ef99fd	29.95019
202	0x41f50fd1	30.632723
203	0x41f5097a	30.629627
204	0x41f4c1bf	30.594603
205	0x41f1bf05	30.218271
206	0x41f38935	30.441996
207	0xbc0a7c4d	-0.008452487
208	0xbcc1eb28	-0.023671702
209	0x41f120e6	30.141064
210	0x41f0ec26	30.115307
211	0xbcda97ca	-0.026683707
212	0x41f37241	30.430788
213	0x41f0f577	30.119856
214	0xbd48a7b2	-0.04898805
215	0x41f21784	30.261482
216	0xbcb4085a	-0.021976639
217	0x41f1a703	30.206549
218	0x41f3bcbe	30.46716
219	0x41f1536f	30.16574
220	0x41cfe070	25.984589
221	0x41f4507f	30.539305
222	0x41f13e63	30.155462
223	0xbd84995d	-0.06474564
224	0x41f080a2	30.062809
225	0x41f2860f	30.315458
226	0x41f041ab	30.032064
227	0x41f178fa	30.18407
228	0xbd0b8c6a	-0.034069456
229	0xbd70191d	-0.0586177
230	0x41f1992f	30.199797
231	0x41f0e868	30.11348
232	0x41f43e1f	30.530333
233	0xc1aad246	-21.352673
234	0x41eff886	29.99635
235	0x41f4abbd	30.583857
236	0xbd880fff	-0.06643676
237	0x41f2604c	30.29702
238	0x41f496f8	30.573715
239	0x41f24671	30.284395
240	0x41f187f8	30.191391
241	0x41f35d6c	30.420616
242	0x41db20b7	27.390974
243	0xbd6dd9a4	-0.058068886
244	0x00000000	0.0
245	0x41f2c542	30.346317
246	0x00000000	0.0
247	0x41dd8c4c	27.693504
248	0x41f4cd39	30.600206
249	0xbd38618e	-0.04501491
250	0xbd2c236a	-0.04202596
251	0x407905a6	3.8909698
252	0x41cfaa27	25.958082
253	0xbd418387	-0.047244575
254	0x41f248b8	30.285507
255	0x00000000	0.0

fc1.weight f4 [256, 256]
0	0x3f043ab1	0.51652056
1	0xbcb15c0c	-0.021650337
2	0x3eb9e6c0	0.3630886
3	0x3f3a6cd1	0.7282229
4	0x3f0438a6	0.5164894
5	0x3d8e7f50	0.06957877
6	0x3ee31c3f	0.44357488
7	0x3f9d4296	1.2285945
8	0x3e63b741	0.22237875
9	0x3ea70c48	0.32626557
10	0x3eb562d8	0.35426974
11	0x3ee6fb93	0.4511381
12	0x3e8da69f	0.27666184
13	0x3e70ef0c	0.23528689
14	0x3dda4b9e	0.10658954
15	0xbd5f250a	-0.054478683
16	0xbc9c3bf3	-0.019071555
17	0x3c8f3739	0.017482387
18	0xbc69283b	-0.014230783
19	0x3ea72ba0	0.3265047
20	0x3cee7466	0.029108237
21	0x3fd27ba8	1.6443987
22	0x3bf6a9e2	0.007527576
23	0x3e923d63	0.2856246
24	0x3f17ea6d	0.5934208
25	0x3ebfe3c3	0.37478456
26	0x3e9b55ae	0.30338806
27	0x3eaa73f4	0.3329159
28	0x3e530d9c	0.2061066
29	0x3e914404	0.28372204
30	0x3e88e61c	0.2673806
31	0x3e43f741	0.19137289
32	0xbd1495d0	-0.036275685
33	0x3f3dffac	0.7421825
34	0x3ed4528e	0.41469234
35	0x3e93c1e9	0.2885888
36	0x3f1c445a	0.61041796
37	0x3e5a09b5	0.21292765
38	0xbd2a9f40	-0.04165578
39	0xc011d5c9	-2.2786734
40	0x3ed81e63	0.42210683
41	0x3ee83bf5	0.45358244
42	0x3ec8e6df	0.3923864
43	0x3e410fca	0.1885368
44	0x3e707d4a	0.23485294
45	0x3e7301dd	0.2373118
46	0x40264e21	2.5985186
47	0x3ed393ee	0.413238
48	0x3f61b8df	0.88172716
49	0x3e6c2700	0.23061752
50	0x3f1ddd61	0.6166592
51	0x3ebf384a	0.37347633
52	0xbc6273a1	-0.013821513
53	0x3d1662df	0.036715385
54	0x3e88be44	0.2670766
55	0x3eec26c5	0.4612333
56	0x3cb4f43b	0.022089114
57	0xbc36d24d	-0.011158538
58	0x3e96b546	0.29435176
59	0x3e8dd820	0.27703953
60	0x3ef42120	0.47681522
61	0xbd663ca4	-0.056210175
62	0x3f580cd8	0.843946
63	0x3eb430be	0.35193437
64	0xbef2ef83	-0.47448358
65	0x3dae0f88	0.08499056
66	0x3dffac51	0.124840386
67	0xbd0f0033	-0.0349123
68	0x3e9a488f	0.30133483
69	0x3ee9344d	0.45547715
70	0xbc4885bf	-0.012238919
71	0x3f2371c4	0.6384547
72	0xc00f35aa	-2.2376504
73	0x3e0cd582	0.13753322
74	0x3eb11d43	0.34592637
75	0xc01a6eda	-2.4130158
76	0x3ea8f3a7	0.32998392
77	0xbd8a4fdd	-0.06753514
78	0x3ebd0dba	0.36924535
79	0xc078e29d	-3.8888314
80	0x3e314a3c	0.17313474
81	0xbff9f76c	-1.9528632
82	0x3e70b638	0.23507011
83	0x3db7c4a4	0.08973053
84	0x3f305a00	0.6888733
85	0x3ec0e1bf	0.3767223
86	0x3e7e4dc6	0.24834356
87	0x3e36be49	0.17846026
88	0x3ea1327b	0.31483826
89	0x3ebabff7	0.36474583
90	0x3eca55d2	0.395186
91	0x3e860944	0.26178944
92	0x3e970367	0.29494783
93	0x3e534f0e	0.20635626
94	0x3da29790	0.079390645
95	0x3df77a38	0.12083858
96	0x3d4256b2	0.04744596
97	0x3e8c4c89	0.27402142
98	0x3eeff633	0.46867523
99	0x3f35bdfa	0.70993006
100	0x3e82addc	0.2552327
101	0xbc3bb768	-0.011457302
102	0x3e7f7c10	0.2494967
103	0x4058e3cb	3.3889034
104	0x3d254fbf	0.040359255
105	0x3f24b08d	0.64331895
106	0xbb3595f2	-0.0027707783
107	0x3f2cb334	0.6746094
108	0x3c93413e	0.017975446
109	0x3daa4474	0.08313838
110	0x3e9a88a0	0.30182362
111	0xbadedbde	-0.0017002781
112	0xbda3c579	-0.07996649
113	0x3ebf2587	0.3733332
114	0xbd0fab10	-0.035075247
115	0x3ea3805a	0.31933862
116	0x3b39924b	0.0028315957
117	0x3edea9a9	0.43488815
118	0xbcb65e56	-0.02226178
119	0x3e516025	0.20446832
120	0x3e0a1f3d	0.13488479
121	0x3e913439	0.28360155
122	0x3d605d82	0.054776676
123	0xbd3c09d3	-0.045907807
124	0x3d930ca6	0.07180147
125	0xbd675c92	-0.056484766
126	0x3e930e2f	0.2872176
127	0x3f0f821c	0.56057906
128	0x3d1cb528	0.0382587
129	0x3ec9cceb	0.39414153
130	0x3ebbc3da	0.3667286
131	0x3e9c7827	0.3056042
132	0x3eb4c0ff	0.35303494
133	0xbc112ab4	-0.008860279
134	0xbb704b6e	-0.0036666053
135	0x3e24527d	0.16047092
136	0xbe135136	-0.14386448
137	0x3e50e339	0.20399179
138	0xc006450c	-2.0979643
139	0x3e57526b	0.21027534
140	0x3fbb37f2	1.4626448
141	0x3c9e2dce	0.01930895
142	0x3d36e2a3	0.04464973
143	0x3e6a8eec	0.22906083
144	0x3e5b743f	0.21431063
145	0x3ec923af	0.39285037
146	0x3bba948a	0.005693977
147	0xbdc075fd	-0.093975045
148	0x3e84334d	0.2582039
149	0xc013bfc9	-2.3085806
150	0xbd891590	-0.06693566
151	0x3eb0f5fd	0.34562674
152	0x3e8e6376	0.27810258
153	0xbd40a597	-0.04703292
154	0xc095c72e	-4.680564
155	0x3ebc7de7	0.36814806
156	0x3ef2eaa7	0.4744465
157	0x3e5d6180	0.21619225
158	0x3ee95a68	0.45576787
159	0xbcdbde5f	-0.026839433
160	0x3d6921bf	0.05691695
161	0x3eb08d1b	0.34482655
162	0x3ca35d69	0.019942002
163	0x3e3bc703	0.18337636
164	0xc13fd3b2	-11.989183
165	0x3ec56f2b	0.38561377
166	0x3e3c788f	0.18405364
167	0x3ec7bdfb	0.3901213
168	0x3e40acf4	0.18815976
169	0xbea2dfce	-0.31811374
170	0x3e439cd9	0.19102801
171	0x3e4eb1e7	0.20185052
172	0x3eccff95	0.40038744
173	0x3eaabcfe	0.33347315
174	0x3e9f9069	0.31164864
175	0x3daa1eee	0.083066806
176	0xbb0f1b45	-0.0021836322
177	0x3bb13e00	0.0054090023
178	0x3e130ce1	0.14360382
179	0x3ea86f08	0.3289721
180	0x3ec90a5a	0.3926571
181	0x3f17e2fb	0.5933072
182	0xbc688a1b	-0.014193083
183	0xbd7ad0fc	-0.06123446
184	0x3ea60c71	0.32431367
185	0xbd4d1466	-0.05006828
186	0x3ea0693b	0.31330284
187	0x3e16b304	0.14716727
188	0x3eb711fe	0.35755914
189	0x3efe4632	0.4966293
190	0x3ef036c9	0.46916798
191	0x3cd172e4	0.02556748
192	0xbe66e461	-0.22548057
193	0x3f690cd4	0.910352
194	0x3e81c27d	0.25343695
195	0x3ebe4bca	0.37167197
196	0xbd5d9010	-0.054092467
197	0xbd1d32d7	-0.038378563
198	0x3ef6854c	0.48148572
199	0x3e0c1f71	0.13683869
200	0x3ea443bf	0.32082936
201	0x3e441082	0.19146922
202	0x3ef35803	0.47528085
203	0x3e9adc03	0.3024598
204	0x3ed5429d	0.41652384
205	0x3eae14a7	0.3400013
206	0x3ea1631a	0.3152092
207	0xbd45b19c	-0.048265085
208	0x3cb76ccf	0.022390751
209	0x3e3618ee	0.17782947
210	0x3d1c74d2	0.038197346
211	0x3c389c9b	0.011267806
212	0x3ea0fbf0	0.31442213
213	0x3e5cf55c	0.21577972
214	0xbd2c6001	-0.042083744
215	0x3e56e9dd	0.2098765
216	0x3ce7afd0	0.028282076
217	0x3e5048e8	0.20340312
218	0x3ed66326	0.4187252
219	0x3e5898e2	0.2115207
220	0x3ec6149c	0.386876
221	0x3e8aef9f	0.2713594
222	0x3e6c6980	0.2308712
223	0x3d86f85d	0.0659034
224	0x3e4d6207	0.20056926
225	0x3ea9da09	0.3317416
226	0x3e4b5db3	0.19859962
227	0x3e6ef324	0.23334938
228	0x3c73e31b	0.014885689
229	0xbe27f89b	-0.16403429
230	0x3e4d13ba	0.20027056
231	0x3e6022fd	0.21888347
232	0x3eaf657d	0.34257117
233	0xc07317c2	-3.798325
234	0x3e2669e0	0.16251326
235	0x3ebc6751	0.36797574
236	0xbd851784	-0.06498626
237	0x3e837585	0.25675598
238	0x3ecb5d2d	0.39719525
239	0x3e897012	0.26843315
240	0x3f15b827	0.5848412
241	0x3ea23f79	0.3168905
242	0x3e9ebd1b	0.3100365
243	0xbd4a5b65	-0.049403567
244	0x3d39d454	0.045368508
245	0x3ebdf9a6	0.3710453
246	0xbcd39e24	-0.025832243
247	0x3fa285c6	1.2697074
248	0x3eb4c1c9	0.35304096
249	0xbd02ac12	-0.03190238
250	0xbd325503	-0.043538105
251	0x402814d2	2.6262708
252	0x3f87be4b	1.0604948
253	0xbd1705bb	-0.0368707
254	0x3e95e344	0.29274952
255	0xbc60e670	-0.013726816

fc1.bias f4 [256]
0	0x41f22fa9	30.273272
1	0x41f1fd9d	30.248835
2	0xbd8e10fe	-0.06936835
3	0x41cd38b5	25.652689
4	0xc1c49aa3	-24.575506
5	0x41f2055d	30.252619
6	0x41f1fe95	30.249308
7	0xbc021d4b	-0.007941554
8	0xbe6249df	-0.22098492
9	0x41f25045	30.289194
10	0x41f1c5b7	30.22154
11	0x41f20b1a	30.25542
12	0xbced6997	-0.028981013
13	0x41f21a23	30.262762
14	0xc1bcc4cd	-23.596094
15	0xbd1adcd4	-0.037808254
16	0xbcf00491	-0.029299052
17	0x41f21a16	30.262737
18	0x00000000	0.0
19	0x41e28af9	28.317858
20	0x41f431f8	30.524399
21	0x41f1e8b1	30.238619
22	0x41fd4380	31.657959
23	0x41f17eb1	30.186861
24	0x41f1fc0d	30.248072
25	0x41f20926	30.254467
26	0x41f216a1	30.26105
27	0x41f41a78	30.512924
28	0x41bc2409	23.517595
29	0x41f0c5e4	30.096626
30	0x41f1edc0	30.241089
31	0x41f656b1	30.79233
32	0xbc2636ee	-0.010144932
33	0x41f20daf	30.256681
34	0x41f22287	30.26686
35	0x41f2464b	30.284323
36	0x408f7980	4.4835815
37	0x3b7c2a12	0.0038477224
38	0x41f21e4c	30.264793
39	0x41f1f8b7	30.246443
40	0xbc8ca17b	-0.017166844
41	0x41f1df5c	30.234062
42	0x41993f85	19.156015
43	0x3fbbf524	1.4684186
44	0x41f22d9e	30.272274
45	0x3f8cf983	1.1013645
46	0xbd17117e	-0.036881916
47	0x41f223e8	30.267532
48	0x41f1f0c6	30.242565
49	0x41f187ef	30.191374
50	0x41f1ded4	30.233803
51	0xbbf4a12c	-0.0074655022
52	0x41f22401	30.26758
53	0x41f1f61d	30.245173
54	0x41f1e8d8	30.238693
55	0x41f41988	30.512466
56	0xbd7203d3	-0.05908568
57	0x41f1df69	30.234087
58	0xbc6c5869	-0.0144253755
59	0xbd0a02fa	-0.033694245
60	0x41d3e9d9	26.489183
61	0x406fd9a4	3.7476587
62	0x41f21fc6	30.265514
63	0x405fe271	3.498196
64	0xbbfcbdac	-0.0077130403
65	0xbd8d0165	-0.068850316
66	0x41f82c2e	31.021572
67	0x41f22205	30.266611
68	0x41f20b71	30.255587
69	0x41f242e9	30.282671
70	0xbc75d938	-0.015005402
71	0x419c8f44	19.569954
72	0xbd5330e9	-0.051560316
73	0x41f220fe	30.26611
74	0xbceeb918	-0.029140994
75	0xbd021cdd	-0.031765807
76	0x41f1f578	30.244858
77	0x41f21c0c	30.263695
78	0x41f1f99b	30.246878
79	0x419e0610	19.75296
80	0x41f211b3	30.258642
81	0x41f1fad6	30.247478
82	0xc1c9fb03	-25.247564
83	0xbcfeec0c	-0.031118415
84	0x41f1ff66	30.249706
85	0x41f20627	30.253004
86	0x41f1efc9	30.242083
87	0x41e64c3c	28.787224
88	0x41f226f3	30.269018
89	0x41f25e5c	30.296074
90	0xc1c7122a	-24.88387
91	0xbd53bcc7	-0.051693704
92	0x41ae068e	21.7532
93	0x41f436b2	30.526707
94	0x41b6c4af	22.846037
95	0x41ff57cb	31.917868
96	0x41f1e1ee	30.235317
97	0xbd1ade7c	-0.037809834
98	0x41d061e7	26.047804
99	0x41f1f808	30.246109
100	0xbc555add	-0.013022152
101	0x41f208e7	30.254347
102	0x41f20b83	30.255621
103	0x41f3d06f	30.476774
104	0x41f20f38	30.257431
105	0x41f1f4dd	30.244562
106	0x41e81d19	29.014208
107	0x41f1b5b0	30.213715
108	0x403c1bbb	2.9391925
109	0x41f263d3	30.298742
110	0x41f1f0b7	30.242537
111	0xbda1eef1	-0.079069026
112	0x41f3eccd	30.490625
113	0x41f200a2	30.250309
114	0x41f25749	30.29262
115	0xbd7a71e4	-0.06114377
116	0x41f1ed2e	30.24081
117	0x41f229cd	30.27041
118	0x41edb391	29.712679
119	0x4064b2bf	3.5734098
120	0xbd1ab618	-0.037771314
121	0x41f19ee6	30.202587
122	0xbcd95e8c	-0.026534341
123	0x404c7d3f	3.1951444
124	0xbb0ac063	-0.00211718
125	0x41f21741	30.261354
126	0x41f1f7a0	30.24591
127	0x408e8371	4.453545
128	0x41f21518	30.2603
129	0xbeae404e	-0.34033436
130	0x41f1fd02	30.248539
131	0x41f1e0dd	30.234797
132	0x41f211da	30.258717
133	0x41f8c7f4	31.097633
134	0x41f22bab	30.271322
135	0x41f24618	30.284225
136	0x41f23637	30.276472
137	0x41f2311a	30.273975
138	0x41f22c7f	30.271727
139	0x40c161d4	6.043192
140	0x41f1f8d3	30.246496
141	0x41dbf4bc	27.4945
142	0xbc35a880	-0.011087537
143	0xbcf734ba	-0.03017651
144	0xbbc4c9d9	-0.0060055074
145	0x3f8bbf7d	1.0917813
146	0x41f208b0	30.254242
147	0xbd600d32	-0.054700084
148	0x41e81505	29.010263
149	0x400aa6bc	2.1664267
150	0xbbf9d1ca	-0.0076238858
151	0xc1cdb5cc	-25.713768
152	0xbd222948	-0.03959015
153	0x41d44091	26.531527
154	0x41e427ae	28.519375
155	0x41f1c23a	30.219837
156	0xbbc4c9d7	-0.0060055065
157	0x41f78571	30.940157
158	0x41ddfdd9	27.74895
159	0x41f1e73a	30.237904
160	0x00000000	0.0
161	0xbd709464	-0.058735266
162	0x3fde8754	1.7385049
163	0x41f1dc78	30.23265
164	0x41f1c1f2	30.2197
165	0x41f22cf7	30.271955
166	0x41f2277e	30.269283
167	0xbd821cdb	-0.0635316
168	0x41f22f88	30.273209
169	0x41f21cb2	30.264011
170	0x41f1e3a0	30.236145
171	0x41f228f4	30.269997
172	0x00000000	0.0
173	0xbe35331c	-0.17695278
174	0x41f21d2c	30.264244
175	0xbd7f091f	-0.062264558
176	0x41d296b4	26.323586
177	0x406df989	3.7183554
178	0x41f1d40f	30.228544
179	0xbcfb0c99	-0.030645655
180	0x3ec20027	0.3789074
181	0x41f233cd	30.275293
182	0x41f21b47	30.263319
183	0x41f25f43	30.296515
184	0x41f1e53d	30.236933
185	0x41f20aab	30.255209
186	0x41f24e10	30.288116
187	0x41f22002	30.265629
188	0x41f22d68	30.272171
189	0xb9f470f2	-0.00046623457
190	0x41f1b081	30.211184
191	0x41f20da8	30.256668
192	0x41f1e24a	30.235493
193	0x41e84e22	29.03815
194	0x41f1ec3a	30.240345
195	0x41f188fe	30.19189
196	0xbd3a3eec	-0.045470163
197	0x41f1d321	30.22809
198	0x41f2385d	30.277521
199	0x41f3f43c	30.494255
200	0x3fb7c9c1	1.4358445
201	0xbd021cdc	-0.031765804
202	0xbbddeff5	-0.00677299
203	0x41f1ff62	30.249699
204	0x41f241d3	30.28214
205	0x41f24341	30.282839
206	0xbd4e839b	-0.050418478
207	0x41e5b863	28.715033
208	0x41f1ea0f	30.239286
209	0x41f2120b	30.25881
210	0x41f3d316	30.47807
211	0x419b611c	19.422417
212	0x41f1f369	30.243853
213	0x41f1ac10	30.209015
214	0x41f20992	30.254673
215	0xbd021b45	-0.031764288
216	0x40404c95	3.0046742
217	0x4209fa31	34.494328
218	0x41f206c3	30.253302
219	0x4076d810	3.8569374
220	0x40a656e5	5.1981072
221	0xbc9d6058	-0.01921098
222	0x41f1f910	30.246613
223	0x41f25752	30.292637
224	0x4072c858	3.793478
225	0x41f1f2ea	30.24361
226	0xbd348f0b	-0.04408173
227	0xbd152cf5	-0.036419827
228	0xbe1503d7	-0.14552246
229	0x41f40829	30.503984
230	0x41a7d3dd	20.978449
231	0x41f20d23	30.256414
232	0xbd2c3803	-0.042045604
233	0xbd1db5f3	-0.0385036
234	0x41f1f690	30.245392
235	0x41f25191	30.289827
236	0x41f214ee	30.26022
237	0x41f1fa19	30.247118
238	0x41f34d4b	30.41274
239	0x41f238bb	30.2777
240	0x41f3d95e	30.481136
241	0x3fa92bb5	1.3216463
242	0xc1c953fc	-25.166008
243	0xbd021cda	-0.031765796
244	0x41f3889d	30.441706
245	0xc1a06cc6	-20.053112
246	0x41f231bb	30.274282
247	0x41f40a10	30.504913
248	0x41f2211e	30.26617
249	0x41f1e8a1	30.238588
250	0xbc521a2d	-0.012823624
251	0x41f219a1	30.262514
252	0x41f5af6d	30.710657
253	0x41f204da	30.252369
254	0xbcc97195	-0.024590293
255	0x41f2c0b4	30.344093

last_fc.weight f4 [1, 256]
0	0xbf14d793	-0.5814144
1	0xbee20f70	-0.44152403
2	0x3cd30416	0.025758784
3	0xc02585fa	-2.5863023
4	0x3e4f6b5a	0.20255795
5	0xbf165fa0	-0.5873966
6	0xbf00278d	-0.5006035
7	0xbbd8fd8f	-0.0066220234
8	0x3c945214	0.018105544
9	0xbf221122	-0.6330739
10	0xbec2543c	-0.3795489
11	0xbf0d9012	-0.5529796
12	0xbcdaecf5	-0.026724318
13	0xbf08be92	-0.5341579
14	0xbe062267	-0.13099061
15	0x3cdbc5e4	0.02682776
16	0xbcd97568	-0.026545241
17	0xbf18e0c2	-0.59717953
18	0xbaa6f785	-0.0012738561
19	0x3d0ee6ac	0.034887955
20	0xbf36f549	-0.71468025
21	0xbed7a77f	-0.42119977
22	0xbf93e85e	-1.1555288
23	0xbe920aae	-0.28523773
24	0xbef82191	-0.4846311
25	0xbeaa45f8	-0.33256507
26	0xbf0f904a	-0.5607954
27	0xbebf42ea	-0.3735574
28	0xbeb3fdca	-0.35154563
29	0xbeb10cf3	-0.34580192
30	0xbee9e298	-0.4568069
31	0xbeeb7e3a	-0.4599474
32	0x3ae12b3b	0.0017179021
33	0xbf060225	-0.5234702
34	0xbefbd022	-0.4918223
35	0xbf1c8238	-0.611362
36	0xbe3c76f0	-0.18404746
37	0x3c1d3390	0.009594813
38	0xbf16fe4d	-0.5898178
39	0xbefb67da	-0.4910267
40	0x3c9d315e	0.01918858
41	0xbef84363	-0.48488912
42	0x3c8dc001	0.017303469
43	0xbbd415ff	-0.0064723487
44	0xbf1785ee	-0.59188735
45	0x3bbe9b84	0.0058168788
46	0x3cdd270d	0.02699616
47	0xbf0deb61	-0.55437285
48	0xbee85189	-0.45374706
49	0xbe890d70	-0.26768064
50	0xbee0ac49	-0.43881443
51	0xbbfe8c12	-0.0077681625
52	0xbf15378b	-0.58287877
53	0xbf0c9880	-0.54920197
54	0xbee4e7f9	-0.4470823
55	0xbeddc2e1	-0.43312743
56	0xbc293649	-0.010327884
57	0xbedc0daa	-0.42979175
58	0x3ba415a1	0.005007461
59	0xbd054ad1	-0.032542054
60	0x3e4da70c	0.20083255
61	0xbd741622	-0.05959142
62	0xbf108c7e	-0.56464374
63	0xbd9c7c29	-0.07640869
64	0xbbb3864c	-0.005478656
65	0xbc8a970c	-0.016917728
66	0xbf8fa4c2	-1.1222155
67	0xbf103b99	-0.5634094
68	0xbf0920c1	-0.53565603
69	0xbf143001	-0.5788575
70	0x3c6eba1e	0.014570741
71	0xbea3e43d	-0.3201007
72	0x3b3ddf13	0.0028972074
73	0xbf11ec88	-0.57001543
74	0x3bca26a7	0.0061691585
75	0x3cfbe2d5	0.03074781
76	0xbef2fd6b	-0.47458968
77	0xbefee719	-0.4978569
78	0xbef0ac93	-0.47006664
79	0xbec6dd95	-0.3884093
80	0xbf04571a	-0.51695406
81	0xbf0ae542	-0.5425607
82	0x3e1fc142	0.15601066
83	0x3cd18006	0.025573742
84	0xbf060327	-0.5234856
85	0xbf1acc0d	-0.60467607
86	0xbedd1946	-0.43183345
87	0x3b5e78b7	0.0033946463
88	0xbf1f178b	-0.621453
89	0xbee4b48b	-0.44668993
90	0x3e818608	0.2529757
91	0xbb9ddbe5	-0.0048174732
92	0xbdf7cb35	-0.120993055
93	0xbecf6486	-0.4050638
94	0xbf2569b7	-0.64614433
95	0xbf8beeb2	-1.0932219
96	0xbee4417a	-0.44581205
97	0x3ce4ba41	0.027920844
98	0xbf053c9a	-0.52045596
99	0xbee08edc	-0.43858993
100	0xbc30e1fe	-0.010796068
101	0xbf089ec6	-0.5336727
102	0xbef3b8ca	-0.4760192
103	0xbf2d8452	-0.6778003
104	0xbf04435e	-0.51665294
105	0xbefb042e	-0.49026626
106	0xbf9d276a	-1.2277653
107	0xbea7222c	-0.3264326
108	0xbe536077	-0.20642267
109	0xbf113fd2	-0.5673801
110	0xbedccee1	-0.43126586
111	0x3a386ab9	0.0007034946
112	0xbeb1449f	-0.34622666
113	0xbefef84c	-0.4979881
114	0xbeff409c	-0.4985398
115	0x3cd6caae	0.026219692
116	0xbeeba197	-0.4602172
117	0xbf141c45	-0.57855636
118	0xbeca7f89	-0.39550427
119	0xbe06de7c	-0.13170809
120	0x3ce82bad	0.028341139
121	0xbe90f185	-0.28309265
122	0x3b23aa30	0.0024973266
123	0xbde4ad6c	-0.1116589
124	0xbcf1e95f	-0.029530225
125	0xbf09108e	-0.53540885
126	0xbee559b0	-0.4479499
127	0xbe1c8512	-0.15285137
128	0xbf02b8d6	-0.5106329
129	0x3c82c18a	0.015961427
130	0xbeffb31e	-0.49941343
131	0xbeb5a73d	-0.35479155
132	0xbeef7ee9	-0.46776512
133	0xbf314d11	-0.6925822
134	0xbf19d3b7	-0.60088676
135	0xbf0fef41	-0.5622445
136	0xbf0d1544	-0.55110574
137	0xbef17699	-0.47160795
138	0xbf0bf0f8	-0.54664564
139	0xbfaf46e6	-1.3693511
140	0xbf095be2	-0.5365583
141	0xbfc6580b	-1.5495619
142	0xbc130de6	-0.008975482
143	0xbc804012	-0.015655551
144	0xbb7eb827	-0.0038867088
145	0x39930e34	0.00028048607
146	0xbf038615	-0.5137647
147	0xbafa5210	-0.0019097943
148	0xbfa16e73	-1.2611831
149	0xbdadf9bf	-0.08494901
150	0xbbb0adb3	-0.0053918003
151	0x3e04978b	0.12948434
152	0x3cd8c705	0.026462087
153	0xc00061ab	-2.0059612
154	0xbc26876a	-0.010164121
155	0xbec49f24	-0.38402665
156	0xbb941505	-0.0045191073
157	0xbef73393	-0.48281536
158	0xbfd88e11	-1.6918355
159	0xbeddcba3	-0.43319425
160	0xbb2e6a75	-0.0026613746
161	0x3bbd1a6d	0.0057709725
162	0x3ae894c6	0.0017744533
163	0xbef671c2	-0.48133665
164	0xbeca573d	-0.39519683
165	0xbf102d79	-0.56319386
166	0xbf15c3c6	-0.5850185
167	0x3a8d8328	0.0010796534
168	0xbf20414b	-0.6259963
169	0xbef3dc4f	-0.4762902
170	0xbeecc8e7	-0.46247026
171	0xbf156acc	-0.58366084
172	0xbaede4d1	-0.0018149858
173	0xbc8800f9	-0.016602026
174	0xbf1ff0ca	-0.6247679
175	0xbbc92036	-0.006137873
176	0xc02b03f4	-2.6721163
177	0xbd7e2e97	-0.06205615
178	0xbedbc542	-0.42923933
179	0x3c6c67ed	0.014429075
180	0xbf0a1f34	-0.5395386
181	0xbf012d54	-0.5045979
182	0xbf0e7efe	-0.55662525
183	0xbef4c04f	-0.4780297
184	0xbeed7d60	-0.46384716
185	0xbf04fa17	-0.51944107
186	0xbf08900d	-0.53344804
187	0xbf177b67	-0.5917267
188	0xbf13f991	-0.57802683
189	0xbcbf5c38	-0.023359403
190	0xbea69fab	-0.32543692
191	0xbf0a0ca4	-0.5392554
192	0xbeef4cf2	-0.46738392
193	0xbff605fb	-1.9220575
194	0xbef4b5bb	-0.477949
195	0xbe9612fa	-0.29311353
196	0x3cec7ee6	0.028869104
197	0xbed0bda1	-0.40769675
198	0xbf10f719	-0.5662704
199	0xbf295d7d	-0.66158277
200	0xbc0aedf6	-0.008479586
201	0x3cee6667	0.029101564
202	0xbb855b25	-0.004069703
203	0xbf05076e	-0.5196446
204	0xbf115ca0	-0.5678196
205	0xbf12d1eb	-0.5735156
206	0xbccb2bca	-0.024801154
207	0xbfa1a6d5	-1.2629038
208	0xbf01cfab	-0.507075
209	0xbf02fae4	-0.5116408
210	0xbf2f3bfb	-0.684509
211	0xbeb1e059	-0.34741476
212	0xbed1351c	-0.40860832
213	0xbe82f0c1	-0.25574306
214	0xbef6ef86	-0.48229617
215	0xbcfa1ec6	-0.030532252
216	0xbcfef9c5	-0.031124959
217	0xc112ebd7	-9.182578
218	0xbf00f404	-0.5037234
219	0xbd906265	-0.07050017
220	0xbf8e4594	-1.1114984
221	0xbca6a837	-0.020343883
222	0xbf1514f7	-0.58235115
223	0xbf1fc233	-0.624057
224	0xbe17e38f	-0.148329
225	0xbf06353f	-0.52425
226	0x3a8bd702	0.0010668936
227	0x3d176cc0	0.036968946
228	0x3c54f952	0.012998896
229	0xbecbd80a	-0.39813262
230	0xbdf61d4d	-0.120173074
231	0xbf02607f	-0.5092849
232	0xbd035c67	-0.032070544
233	0x3ce5b947	0.028042449
234	0xbf0a23dd	-0.53960973
235	0xbf1a95e9	-0.60384995
236	0xbf086933	-0.5328552
237	0xbf012bb6	-0.5045732
238	0xbdfc4b20	-0.123190165
239	0xbf0e1c7e	-0.55512226
240	0xbe8b8492	-0.2724958
241	0xbc2ea564	-0.010659549
242	0x3dc3a12f	0.09552228
243	0xbcf47c89	-0.02984454
244	0xbe3c8f72	-0.18414095
245	0x3c74fb4c	0.014952492
246	0xbf1c5559	-0.6106773
247	0xbeca6f5a	-0.3953808
248	0xbef54ff8	-0.47912574
249	0xbee4da43	-0.4469777
250	0x3c4fafe1	0.01267621
251	0xbf00ecb6	-0.5036119
252	0xbf921f9f	-1.14159
253	0xbee1df62	-0.4411574
254	0xbcb1ee42	-0.021720055
255	0xbd310e76	-0.04322668
