save_mode/SAC_v_200_qf2_network.pth (torch, 329559 bytes, 5 tensors)

fc0.weight f4 [256, 61]
00000000: 8cc8 763d e0ec 073c c0b8 9aba 90c2 463d
00000010: 5085 6d3d 83d0 963e bd6e c8bd 358b 35bf
00000020: e015 483b 6a91 48bd 84d0 003d e084 8d3c
00000030: fcb7 903c 013e e33e 2f0b 793f c5f3 b53f
00000040: 3aa8 5f3d c29f 69bd f0b7 6abc f69a 373d
00000050: 8013 60bb 0810 8240 8c48 5840 15d0 2040
00000060: 208c 3d3d de13 55bd 68d6 373c c04e 333d
00000070: bc72 3dbd 87f7 9c3d 927c 493e 79a3 6c3e
00000080: d480 ebbc 5c66 1bbd aa1f 2f3d d600 15bd
00000090: b0d0 1ebd 0cf4 e4be 7d0e 06bf c79c c5be
000000a0: 58ed 773c fcb4 7cbd bcaf 873c d09b cbbc
000000b0: c036 193d a581 0a3d 029f 1dbd 3530 593d
000000c0: 5869 06c0 e533 e93f ba27 0440 5897 c7c0
000000d0: 966c c83e c822 a7be 724f 66bd ff0d bc3e
000000e0: cd1c 453f 7e39 a4bf 4071 4d3f eebb 0c40
000000f0: 3afc 1ebf 78df cb3c f03d a83b a80c 483c
00000100: 1a09 203d 0055 feb9 6bab d3be 8e0e cebe
00000110: 44f7 2abf 4c7c e1bc 008b fd3a 686c 1b3c
00000120: 9a34 273d 98c9 60bc 69c9 fa3e be02 ff3e
00000130: 0002 443f 70e5 8d3c 5050 133c ec55 ff3c
00000140: 2e69 793d 9045 b4bc 6466 3b40 3663 4040
00000150: d40d 8040 7842 2cbc a0ac af3b 6696 573d
00000160: 20a5 673b e470 473d aa92 85be bde9 39bf
00000170: 9201 97be 004d d53b f08a 0fbc 8054 6fbc
00000180: f8bd 073c acb9 2ebd 46f6 9dbe 4158 2cbe
00000190: ddb7 b43e 805c 2e3b 30d2 87bb 2045 ad3c
000001a0: 7440 bb3c 789f a03c df9c bdbd a816 6cbf
000001b0: ce31 b3be ae5b a4bf 16e3 fdc0 6b1f f8c0
000001c0: 6814 1241 5f5b 843f 6e43 14bf f82c 1cbe
000001d0: 52fd 503f 079d 88be 9676 0d3f 5799 903f
000001e0: 2149 4bc0 7dbd e2bf f82e 7d3d 5a34 1b3d
000001f0: 96eb 35bd a42e 18bd 746a 2f3d 5050 dfbd
00000200: 596b 923b 9434 69bc 74ad 84bc 20be 6b3c
00000210: b8d5 05bd 1c3e 913c 480d 1b3d 3105 6cbc
00000220: 4c35 0bbc b809 d0bd 5a83 75bd d443 163d
00000230: 489c 023d 6098 a53c 1010 c63b e1a2 6bbb
00000240: c221 95bd 21d0 65bd 403a 103b 1ae2 073d
00000250: 88d3 693d 9ebc 73bd 00a5 2b3b 1da7 91ba
00000260: 766b c5bd 8e70 f6bb d414 7c3d 7a11 3e3d
00000270: 3098 dfbb 284a 143d 803e eaba b156 1cbd
00000280: 8966 0bbd 4207 cbbd 08bf 5c3c b0c9 5fbd
00000290: 86aa 43bd 5ae7 28bd f8f7 593d 3ef0 d9bd
000002a0: bf67 4fbd 0fbd a8bd aa7c 9bbc d078 323c
000002b0: b0a8 3c3c 2356 84bd 90fa 823d bf0f 04bd
000002c0: 5b58 073c ce6e 9a3c 6c3c 23bd 24b3 47bb
000002d0: 5cad bcbd 9267 a3bd 8316 093c 40f1 653d
000002e0: 6c53 ba3c 787e 47bd 007c 393d cad8 6ebd
000002f0: ef80 23c0 d7bc f13e 99db 0a3d a0f8 d93b
00000300: 0034 d9bc 0ee3 27bd 4cb8 21bd 407d c9ba
00000310: 7f09 7bbe 9e74 273e 6c54 693f 8468 97bc
00000320: 96d3 66bd 582a 6dbc d0e4 d73b 5477 2ebd
00000330: d2fc 6540 0331 4240 63bb 0540 acec 8f3c
00000340: 5e5d 2bbd 181d 9dbc d065 d6bb 8808 83bc
00000350: 4258 4a3e c005 293e e038 873e 00b1 ac3b
00000360: 08e4 633d 00d6 4fbd e020 53bd 00e3 7aba
00000370: f95f 5ebe ebf1 00bf 295e dfbe 1c03 83bc
00000380: d8cd 1bbc 7aea 7fbd ce64 1cbd 0056 723d
00000390: 473e 423d acd7 973d 0339 2b3e 3f5c 42be
000003a0: 010f 2140 0432 2740 8e85 b6c0 a87f 963f
000003b0: e77d adbe 2839 abbf b4d4 e53e 3cc9 ad3f
000003c0: 67e3 39c0 294b 893f 8d71 1640 a0b6 afbf
000003d0: c8aa 57bd 082d 1a3c da36 60bd 8026 da3c
000003e0: f81a 0ebc 3a22 0e3e 055c 27be 2a10 33bf
000003f0: 7c27 f73c 0c9e 6d3d c8d8 a33c e0d3 60bb
0.06024985 0.0082962215 -0.0011804327 0.048525393 0.057988465 0.29455957 -0.09786747 -0.7091554
0.0030530617 -0.048966803 0.031448856 0.017275274 0.017665856 0.44383243 0.9728269 1.4215018
0.054603793 -0.057037123 -0.014326081 0.044825517 -0.003419131 4.064457 3.379428 2.5127003
0.04627621 -0.0520209 0.011220552 0.043776274 -0.046251997 0.076643996 0.19676426 0.23109235
-0.028747953 -0.037939414 0.042754807 -0.03637775 -0.03877324 -0.44717443 -0.5236586 -0.38596174
0.015132271 -0.061696038 0.016563289 -0.02485457 0.03740573 0.033815045 -0.03848172 0.05302449
-2.1001797 1.8218962 2.0649247 -6.2372246 0.39145344 -0.32643723 -0.05622811 0.36729428
0.7699707 -1.2830045 0.8025093 2.1989703 -0.6210362 0.024886832 0.0051343367 0.012210049
0.03907118 -0.00048509985 -0.4134172 -0.4024548 -0.6678355 -0.02752509 0.0019343793 0.009486295
0.04082165 -0.013719939 0.4898179 0.4980678 0.7656555 0.017321318 0.008991316 0.0311689
0.060891323 -0.022005826 2.9281244 3.0060554 4.001688 -0.010513894 0.0053611547 0.052633666
0.0035346225 0.048691645 -0.26088458 -0.7262228 -0.29493386 0.0065094233 -0.008761153 -0.014607549
0.008285038 -0.04265754 -0.30851954 -0.16830541 0.35296527 0.0026605427 -0.0041449293 0.021151125
0.022857882 0.01960729 -0.092584364 -0.9222207 -0.34998935 -1.2840478 -7.9339705 -7.753835
9.129982 1.0340384 -0.5791539 -0.15251529 0.81636536 -0.26682302 0.5525907 1.1296796
-3.1763384 -1.7714077 0.06181237 0.037891723 -0.044414125 -0.037153855 0.04282613 -0.1090399
0.0044683632 -0.014233727 -0.01619599 0.014388591 -0.03267452 0.017729811 0.037854463 -0.014405535
-0.008496594 -0.10158104 -0.05993972 0.03668578 0.031887323 0.02021426 0.0060443953 -0.0035955238
-0.072818294 -0.05610669 0.0022007376 0.03317461 0.057086498 -0.05950605 0.0026190877 -0.0011112426
-0.09639637 -0.007520742 0.0615433 0.046403386 -0.006823562 0.036203533 -0.001787141 -0.038168613
-0.034033332 -0.09913494 0.01347328 -0.054635704 -0.047770046 -0.04123626 0.053214997 -0.10641526
-0.05063605 -0.08239185 -0.018980343 0.010893062 0.011514828 -0.06461742 0.06395447 -0.03224158
0.008260812 0.018851664 -0.039852545 -0.0030471766 -0.09212753 -0.07978739 0.008367184 0.056138277
0.022744857 -0.048704594 0.04528427 -0.058312215 -2.5547445 0.47214386 0.03390083 0.006651953
-0.026514053 -0.04098802 -0.0394824 -0.001537241 -0.24515341 0.1635308 0.9114444 -0.018482454
-0.056354128 -0.014475428 0.006588556 -0.04259427 3.593556 3.0342414 2.0895622 0.017568909
-0.04183709 -0.019178912 -0.0065428987 -0.015995279 0.1976023 0.165061 0.2641058 0.0052701235
0.05563739 -0.050741196 -0.051545024 -0.0009570569 -0.21716298 -0.5036914 -0.43626526 -0.015992694
-0.009509526 -0.062479474 -0.038182072 0.059164047 0.047422674 0.07414183 0.16720967 -0.18980502
2.5165408 2.6124277 -5.703803 1.1757708 -0.33885118 -1.3376818 0.44888842 1.3577037
-2.9045045 1.0726062 2.3506806 -1.3727608 -0.052653104 0.00941015 -0.05473981 0.026629686
-0.008673422 0.13880244 -0.16343696 -0.6994654 0.030170195 0.058012053 0.02000083 -0.0034305975

fc0.bias f4 [256]
00000000: 3cf6 0742 22b5 ccc1 35fa 4cbd d5f5 0342
00000010: da66 0742 d5ad 6ebd 9e89 0342 ff12 ccc1
00000020: 685e 0242 dd9d 0842 c507 0742 a2ab 0942
00000030: cc99 5fc1 0000 0000 47ed 42c1 95bc 0242
00000040: 95ed 0742 9922 0842 be5d 50bd 8081 0342
00000050: a3ff 1bbd a22b 0842 4a20 cdc1 30ce 0842
00000060: 1b43 0842 3e9e 83bd 8b6d ccc1 0c1d 0942
00000070: 321d 0742 f02e 0942 52e2 0abd 3264 0842
00000080: 027d 0842 9896 ccc1 effd 0742 0b77 eabc
00000090: 3a9f 0342 0cff cbc1 8a7d fbbc 1469 0742
000000a0: 644f b9bc 0000 0000 a61f 0642 088b 0942
000000b0: 749b 62bd 3664 ecbc df89 0842 3b3b eebc
000000c0: 55c0 0642 eb96 0842 e30e 0942 7134 0742
000000d0: 85eb 173e 9472 0242 8a0a 49bc 2601 0842
000000e0: 1db9 1cbd 67fe 0242 1183 0742 0000 0000
000000f0: 6a27 0842 c83b 0442 0e62 cbbc 8779 34bd
00000100: 8b42 0742 6136 0242 d9f2 3abd 3c8f ddbc
00000110: 9bb1 82bd 0ce2 0342 d2fc 0842 764d 0ebd
00000120: b3d6 01bd a5e3 ce41 8d4a cdc1 4c73 0942
00000130: 2871 ccc1 898b 0842 fb89 0842 e39e 0742
00000140: 2948 f8bc bd21 0842 e8ba 0742 74fa 32bd
00000150: f05d 0842 d3ec 0242 d0b6 aec1 ec20 3ec1
00000160: 9b80 0942 e85c 0242 17c6 0742 eac2 0342
00000170: 0a9f ccc1 7833 0842 250b dbc1 f00e 0842
00000180: d880 0342 f5f6 0742 848c 0242 3d03 dbc1
00000190: 8e27 0642 2d8c 0842 bbcc 1ebd 16a7 0442
000001a0: 8a78 0842 93dd 0842 fe09 38bd 35aa 0642
000001b0: 0bc4 4dbc f363 0742 d5e0 c4c1 a0dc 81c1
000001c0: 0000 0000 e799 0742 74dd 0842 49ef cbc1
000001d0: fd7e ccc1 d581 0242 a94e 0342 b5ef 19bd
000001e0: 2dc0 0742 9c51 0342 9c68 0742 d24b 7fc1
000001f0: 3325 0742 412a 0342 1e1f 8cbc 63a0 0942
00000200: 89b7 0342 9bdb 0242 735e ea41 82f3 cbc1
00000210: b693 a8c0 d820 0242 97cc 0742 408c 0642
00000220: d3c3 0342 4349 0942 0000 0000 aec8 98bc
00000230: bcb8 0242 3320 0742 b28f 0742 fdac c6c1
00000240: fa23 0342 d08c 0342 faad 0342 b418 0842
00000250: c7d9 0942 e062 0342 93db 60bd a769 18bd
00000260: 06d2 2fbe bddb 8fc1 f245 79bb 0e4e 0542
00000270: 388f ddbc 39af cf41 6831 0842 3a4f 0842
00000280: 2ef9 0642 05de 0942 411e 0842 5a97 ccc1
00000290: 3008 dbc1 1a86 0942 9979 ccc1 de02 0742
000002a0: 6e89 0242 2bf9 67bd aa07 0842 f576 0842
000002b0: 52dc 0342 4692 0742 abe7 0842 ca2b 0342
000002c0: 190d 0342 f081 0342 3284 0942 fa45 58bd
000002d0: 0000 0000 1d15 0342 915d 0a42 fb60 0342
000002e0: 0000 0000 d247 0742 6f9e a841 b623 cdc1
000002f0: 65be 0842 8072 21bc abba 00bd ccfc 01bd
00000300: 0000 0000 96b3 0842 486e 0442 085a 0842
00000310: d73c e441 8ea3 0842 841e ccc1 ebbe bfc1
00000320: 6e9e dac1 1e39 2ebe a216 50bc 13bc 0e3e
00000330: bd25 0242 3b1e 0742 bf56 0342 8685 0942
00000340: 98f1 0242 fe78 d7bc 408f 0342 5732 0abd
00000350: 2598 ccc1 e06c 0942 3027 ccc1 184f 0842
00000360: 1a53 e6c0 fb5c 0342 1749 7abc cf98 d6bc
00000370: c825 0842 0e84 0242 2619 0842 460d 0942
00000380: 9b3f 0342 f81c 0742 973f 093e 867f 133e
00000390: 8928 ccc1 c856 0742 a4c5 0242 0000 0000
000003a0: d894 0842 06e1 0242 b51e 0842 8c52 86bd
000003b0: bc03 0742 6680 0942 3604 0942 8ed0 dac1
000003c0: 0000 0000 6c68 0ebd 7ee5 0642 aec2 0842
000003d0: 6f4b 0a42 cca8 0442 857b 00bd 0000 0000
000003e0: 39ef b3bc d0d3 0842 e3bb dbbc a982 0742
000003f0: 6b5b 42bd 2185 0842 f06f 0842 0000 0000
33.990463 -25.588444 -0.050043304 32.99007 33.85044 -0.058271248 32.88439 -25.509275
32.592194 34.154163 33.757587 34.41761 -13.975048 0.0 -12.182929 32.684162
33.982014 34.033787 -0.05087065 32.876465 -0.03808559 34.04261 -25.640766 34.201355
34.065533 -0.06426667 -25.553488 34.278366 33.77851 34.295837 -0.033907242 34.097847
34.122078 -25.573532 33.997982 -0.028621217 32.905495 -25.499535 -0.03069951 33.852615
-0.022620864 0.0 33.530907 34.385773 -0.055324033 -0.028856378 34.13464 -0.029080978
33.687824 34.14738 34.264538 33.801212 0.14835937 32.611893 -0.012270579 34.00112
-0.038262475 32.74844 33.877995 0.0 34.03849 33.05838 -0.02482703 -0.04406121
33.814983 32.553104 -0.045641754 -0.027045839 -0.06381532 32.97075 34.246895 -0.03474184
-0.031698894 25.861155 -25.661402 34.362595 -25.555252 34.136265 34.134747 33.905163
-0.030307846 34.032948 33.932526 -0.043695882 34.091736 32.731274 -21.839264 -11.883038
34.37559 32.59073 33.943447 32.940346 -25.577656 34.050262 -27.380442 34.014587
32.875824 33.99117 32.637222 -27.376581 33.538628 34.13689 -0.038769465 33.16317
34.117714 34.21638 -0.044931404 33.666218 -0.012558947 33.847607 -24.609781 -16.232727
0.0 33.900295 34.216263 -25.491838 -25.562006 32.62679 32.826817 -0.037582118
33.93767 32.829697 33.852158 -15.956011 33.786327 32.791264 -0.017104682 34.406628
32.929234 32.71446 29.296118 -25.4939 -5.268031 32.532074 33.949795 33.636963
32.941235 34.321545 0.0 -0.018650379 32.680405 33.781445 33.890327 -24.834467
32.785133 32.887512 32.9199 34.024124 34.462673 32.846558 -0.054896902 -0.037210133
-0.17169961 -17.982294 -0.0038036075 33.326225 -0.027045831 25.960558 34.04825 34.07737
33.74334 34.466816 34.029545 -25.573902 -27.378998 34.38096 -25.559374 33.7528
32.63421 -0.05663411 34.007484 34.11617 32.965157 33.892845 34.22624 32.792763
32.76279 32.876892 34.379097 -0.05280111 0.0 32.77062 34.591373 32.844707
0.0 33.820137 21.07736 -25.642437 34.185932 -0.009853959 -0.03142802 -0.031735227
0.0 34.175377 33.107697 34.08792 28.529707 34.15972 -25.5149 -23.968222
-27.327358 -0.17013976 -0.012700709 0.13938932 32.536854 33.779522 32.834713 34.380394
32.73593 -0.02630281 32.889893 -0.033739414 -25.57429 34.356323 -25.519135 34.07724
-7.197644 32.8408 -0.015276215 -0.026195912 34.036896 32.62896 34.02456 34.262962
32.812115 33.77829 0.13403164 0.14404115 -25.519793 33.834747 32.69301 0.0
34.145355 32.71975 34.029987 -0.06558713 33.753647 34.37539 34.254112 -27.351833
0.0 -0.034767553 33.724113 34.190117 34.573666 33.16484 -0.031367797 0.0
-0.021964656 34.20685 -0.02682299 33.877598 -0.047450464 34.13001 34.109314 0.0

fc1.weight f4 [256, 256]
00000000: 3d54 e8bb 7f87 2ac0 53d8 9c3c 1920 c83e
00000010: e6e1 13be e164 a8bd 0adc 95be 253e 1cc0
00000020: 63b8 a0bd ec20 46bc b09b 423d c1a1 c43c
00000030: 1685 a3c1 a832 ebbc 0e37 0dc0 7587 74bd
00000040: 9e47 b1bd b1e0 abbe 8cf9 eb3c be78 8cbe
00000050: fa1b bdbb 66dd 02be c895 33c0 faf2 1ebd
00000060: 877f 17be 305b 0ebd 225d 2dc0 f7ee 6f3d
00000070: f7fd ccbe d013 8b3d 6eef dd39 c2df 74be
00000080: f209 cfbc 1013 33c0 58ab 90bc 20a4 413c
00000090: 3969 84be 3b39 31c0 d030 96bb 7305 68be
000000a0: ab99 fd3c eec6 2e3d cabc 9dbe 9fcf d43b
000000b0: 2115 6cbd 6a95 74bd e64b ccbd 674f c2bc
000000c0: 6f66 8bbe 1dbf 55be 1882 c43c 991e a5bd
000000d0: 5476 b43e f46a 26bd 0eb2 373c dd45 49be
000000e0: 53b1 043c a9f1 84bd ba15 47be f00c 9bbc
000000f0: 44f2 4dbd 38b1 7d3f 14e4 62bb 50d1 11bd
00000100: 294e 16be fbd1 a4bc 99f5 7bbc ba09 b4bd
00000110: 8e43 023f 36e6 16be ecdb 923c df4e 74bd
00000120: 1cae 92bc f50d ba3d 65b6 32c0 9da6 bc3d
00000130: d040 0cc0 af32 f4bc 5685 6fbd d7b1 b83b
00000140: 2456 263d ab27 d4bd a07c 60be 8e85 0cbd
00000150: 552d 6d3d 6456 88bc 162d 53be 17a4 61c1
00000160: 7c4a e3bc 5b7f e1bc 4728 2fbe 0ae1 bdbd
00000170: 43c6 33c0 15bd 97be 9824 cebf 62cd e7bd
00000180: bf9e f7bd ddb6 96be 6fc3 22bd 629b c5bf
00000190: 828f 7fbe 3ec8 3ebe 09b3 a43c 480a a5be
000001a0: 5601 b9bb 022e 6fbc 7ce5 c9bc 3f0b b4be
000001b0: deb0 49bb b1d4 31be f730 84be 1e8f adc1
000001c0: a083 0dbb 6272 4dbe 5e03 c1bd 6dec 27c0
000001d0: b452 34c0 133b aabb 9fce 99bd df5c 193c
000001e0: 9c2b 95be 6ec5 d8bd 99bf 5bbe 400d 62be
000001f0: 9626 aebe 9204 a4bd 19ed 81bb fadb abbd
00000200: 1732 59be 9fa9 4dbe a13a 1ebf 4008 43c0
00000210: 722f dfbf fb2b b2bd c4a9 bcbe c434 9dbe
00000220: 5662 103e 63a8 383d 9caf 26bd eb60 00bc
00000230: 64f9 a4bd 8329 31be a7c2 aabe bfb2 c4bf
00000240: 7996 9b3d 6da1 23bd 391a 803d ddb0 2fbe
00000250: 319d 8d3e e4e9 8bbe 8e31 7abc b129 0bbd
00000260: dc6e 9abd 9033 52bd f62c 873d 901f 66be
00000270: 7005 19bb 2f5e 7b40 7d0c 1bbe c017 08be
00000280: 2579 89be 422b 66bd 22ed 1abe c7b8 34c0
00000290: cf41 d2bf 24f2 b43d a5d5 30c0 a87d 4bbe
000002a0: d1d2 7ebd 6e2f 55bd 1dcd 0dbd 59a1 45bd
000002b0: 9b96 4dbe 69c4 95be 0f13 a2bd 7d17 64be
000002c0: 0e4a 56bd aa00 1ebc b87f 853d 8cc4 80bd
000002d0: 00a0 60b9 5709 aebe 3845 cb3d 53cf 89be
000002e0: c0ac 74bd 1e09 c1be 84cc a93f b3e2 36c0
000002f0: e8e6 cebb be66 4f3c 5f3d bebd 3253 f5bb
00000300: 6ea2 183d 351e a43d 1aed b13e 238a fcbd
00000310: d619 363f 2871 21bd c9e9 33c0 373e e0bf
00000320: 11dd c9bf 6122 b53b 7751 963c a232 b83e
00000330: ef8f 6dbd d124 a0be 49b4 3f3f fcb6 073e
00000340: e453 e1be ae93 4fbb b4fb bb3d 371d a0bb
00000350: b75a 4ec0 9e61 863d de2e 4ac0 d421 9bbd
00000360: f014 6dbf 3668 97bd d799 aa3c 3362 6cbc
00000370: 8da0 71be 48ad 32bc 627b 92be 38fd 5cbd
00000380: 79f1 afbe 5b31 10be 29a3 953e 7af2 b93e
00000390: 2e92 1dc0 b9e2 cebd 2e18 373a 0021 adb9
000003a0: 0720 14be 43fd d0bd f75b f0bc e7b2 c9bb
000003b0: 793b d4be b364 303e c2c1 95bd 09b4 c8bf
000003c0: 5627 6a3d 4190 0e3d 8ab4 63be 5839 01be
000003d0: 2c6e 4b3e 99cb 87be f3ab 80bd b85a 093c
000003e0: 6041 a93b 4df5 2ebd 3cfd 01bd 61ab b8bc
000003f0: 1349 a23c b510 f93c f759 68bb 687e f33c
-0.00709012 -2.66452 0.01914612 0.3908699 -0.14441642 -0.08222366 -0.2926944 -2.441293
-0.07847669 -0.01209281 0.047511756 0.024002912 -20.439983 -0.028710678 -2.2064853 -0.059699494
-0.08656238 -0.33569863 0.028805517 -0.2743587 -0.0057711573 -0.1277977 -2.806017 -0.03880594
-0.14794742 -0.034754932 -2.7088094 0.058577504 -0.4003751 0.06790888 0.00042330794 -0.23913482
-0.025273297 -2.7980385 -0.017659828 0.011818916 -0.2586153 -2.769118 -0.0045834556 -0.22658329
0.030957064 0.042670183 -0.30808097 0.006494477 -0.057637338 -0.059712805 -0.09975414 -0.023719503
-0.27226588 -0.20873685 0.023987815 -0.08062477 0.35246527 -0.040629342 0.011211885 -0.19655557
0.008098918 -0.064914055 -0.19441882 -0.018927068 -0.05027987 0.9909854 -0.0034620808 -0.035600007
-0.14678253 -0.020119658 -0.015378379 -0.08790918 0.5088433 -0.14736256 0.017927133 -0.05964553
-0.017905287 0.09084693 -2.7923825 0.092114665 -2.1914558 -0.029809324 -0.05847677 0.0056364345
0.040609494 -0.103591286 -0.2192254 -0.034307055 0.05790456 -0.016642757 -0.20622668 -14.102561
-0.027745478 -0.027526548 -0.17105208 -0.092714384 -2.808976 -0.29636446 -1.6104918 -0.113184705
-0.12090825 -0.2943639 -0.03973716 -1.5438044 -0.24957088 -0.18631074 0.020104902 -0.32234406
-0.005645911 -0.014598371 -0.02464556 -0.3516483 -0.0030775587 -0.17366292 -0.25818607 -21.694881
-0.0021593347 -0.20063165 -0.0942447 -2.6238053 -2.8175478 -0.0051950305 -0.07510113 0.009360521
-0.29134834 -0.10584532 -0.21459807 -0.22075367 -0.34013814 -0.08008684 -0.003965032 -0.083915666
-0.21210514 -0.20084237 -0.6180821 -3.0473785 -1.7436354 -0.08699795 -0.3684827 -0.3070432
0.14100012 0.04508246 -0.040694818 -0.007835607 -0.0805538 -0.17300992 -0.33351633 -1.5367049
0.0759706 -0.03994887 0.062550016 -0.17157312 0.2765899 -0.27326882 -0.015270604 -0.033975307
-0.07540676 -0.051318705 0.066003725 -0.22472978 -0.0023349188 3.9276235 -0.15141483 -0.1329031
-0.26850238 -0.056193598 -0.15129521 -2.823778 -1.6426333 0.08835247 -2.7630398 -0.19872153
-0.06221277 -0.052047186 -0.03461944 -0.048249576 -0.20076983 -0.29251412 -0.079137914 -0.22274585
-0.052316718 -0.009643713 0.06518501 -0.06287488 -0.0002142191 -0.339915 0.09925312 -0.26915988
-0.05973506 -0.37702268 1.3265538 -2.8575866 -0.0063141473 0.012658773 -0.09289049 -0.0074867243
0.03726428 0.08013574 0.34751207 -0.12331035 0.7113317 -0.039414555 -2.811144 -1.7518986
-1.5770589 0.00552778 0.018349392 0.3597613 -0.057998594 -0.3127809 0.7488447 0.13253397
-0.44009316 -0.0031673717 0.09178868 -0.004886295 -3.2242868 0.06561588 -3.1591105 -0.075748116
-0.92610073 -0.073929235 0.02082531 -0.014427709 -0.23596402 -0.010905571 -0.2860976 -0.053952426
-0.34363917 -0.14081328 0.29226044 0.36317807 -2.462047 -0.10101838 0.0006984499 -0.00033021718
-0.14465342 -0.10204556 -0.029340727 -0.00615536 -0.41451624 0.17225914 -0.07312347 -1.5679942
0.05716642 0.03480554 -0.22236839 -0.12619531 0.19866246 -0.2652252 -0.06282797 0.008383445
0.005165264 -0.042714406 -0.031735644 -0.022542657 0.019810235 0.030403474 -0.0035454014 0.029723361

fc1.bias f4 [256]
00000000: 91bb fc41 9fe2 0442 48ca 0442 e750 0542
00000010: 34ef 19bd 2f6d 0442 c116 76c0 a3c0 0942
00000020: 7657 0942 4bfc 0442 a252 0542 474c 0542
00000030: 635f 71c1 3d71 9ec1 c675 df41 c960 0542
00000040: 13fc 0942 6924 1bbd 37ca 0942 b6d3 0942
00000050: cdc3 0942 e2be bcbd 94ea 0442 ba21 2cbd
00000060: 4844 0042 563f 0a42 ac58 adbc e85d cbc0
00000070: c6f9 0542 4fb3 1cbc 0553 0542 bb00 0a42
00000080: 2308 0a42 d676 0942 a66c 76c1 3dce 0442
00000090: 90d4 0b42 9bf8 5dc1 8704 0a42 8fa7 0442
000000a0: 54e9 6bbd 6d0c 0542 d813 b341 21c0 cabb
000000b0: d41c 82bd eece bdbd 30ae e641 d157 0542
000000c0: 2bca 0642 57e4 c241 c0f6 6ec1 c3ad 8abd
000000d0: 296f 93bd bfd0 0442 f618 fb41 641c df41
000000e0: 805b 28bd ef7c 97be 2dd8 0442 25c4 0942
000000f0: 8bd3 0442 fd79 ed41 12fb 0442 926f cbc0
00000100: 6672 5ebd 8559 0542 a279 0442 9f4d 0542
00000110: 2dd3 0442 c7e1 18bd 81fb 0442 e387 0442
00000120: 19a0 0542 a58e 0a42 8510 0242 477c 80c1
00000130: 7cd6 0a42 dc1c 02bd 1c0e cfc0 cb92 cdc0
00000140: 0994 0442 a853 7fbd e633 0642 cc88 47bd
00000150: cafb 0442 7453 0542 3705 92bc a937 dfc0
00000160: 52f6 0942 31cd 4f3f 71f4 0442 f64c 0542
00000170: 1e9a 0942 cd8f 0442 2a47 99be dee8 3bbc
00000180: ed26 0542 42ee 0442 d074 21bc 4b8b a8bd
00000190: 34c6 0442 e38a 38bd 8be6 0442 4abe 0542
000001a0: 9056 0542 75b2 d5bb 1eb7 ec41 49cb 0942
000001b0: 24b9 0a42 20e0 0442 5534 0a42 b520 0542
000001c0: 9b06 0a42 3481 54bd fa4c 0442 f6f4 2abd
000001d0: b682 0442 4e4f 0542 e9c9 a741 0f47 0542
000001e0: f4e4 fc41 8ea9 0942 2d71 39bc 5c1a fd41
000001f0: 900b e141 2d4f 0542 82e9 0442 0493 0442
00000200: 47ca 0942 f257 3bbd 15bf fc41 5552 0542
00000210: d499 c3c1 9a8c abbd 3320 84c0 74ac 53bd
00000220: 3fc0 0b42 ebf1 333f 2115 fc41 4d92 6ac1
00000230: 42a0 6cbd ddcf 0942 1c6f 3bbd e52a 9dbd
00000240: a4ca 0442 4622 f841 6942 92bd 2d00 0542
00000250: a8f2 0442 98e0 0442 fc15 0542 1d96 0442
00000260: 1ada 0942 19d3 0442 cd7a 0442 4ff9 4cbd
00000270: c3b3 0942 7898 e241 5302 4bbd 7c4f 0542
00000280: 5fe3 0442 a1e2 0442 cec7 1cbd 7e9f 0442
00000290: d7f7 0942 3909 0a42 0000 0000 5f5b 0542
000002a0: 6503 b441 e39e 0442 049f 803f 42ba 49bd
000002b0: ec81 0442 71da 0942 1653 0542 4a44 0542
000002c0: 3ea4 5abd c8fd 0442 32d0 0842 a0f6 70c1
000002d0: 6679 0542 ef59 0942 40e6 0442 a599 df41
000002e0: 0fcc 0a42 dc28 67bd a450 ddbc becd fc41
000002f0: ff2f 94bd da65 0942 5006 f041 51d1 26bd
00000300: 6911 a23f 4978 0c42 31de 53bd 0be0 0442
00000310: db48 0542 0c8e b5bc f0f4 0442 ce31 0542
00000320: 86d1 e041 d5d0 cd41 0726 0542 23eb 0442
00000330: 4ecd 0942 1d7c 3ebc 2aad bebc d99e 0942
00000340: 95c3 0442 21e1 0442 dc55 0542 2a0b 0542
00000350: e684 0442 d552 d5bd a2ed cdc0 6b8f 0442
00000360: e7d7 0442 2439 0542 a6f7 0442 6f05 fa41
00000370: a1fb 0442 18ea c6bc 6c87 c1bd 72b7 c7c1
00000380: 4e0b f541 66cd 0942 55ea 0842 22d0 0442
00000390: c03b 98bd 8b04 a9bd d3c6 0942 07a8 fc41
000003a0: dc1c 02bd b411 0a42 593d 02bc d38d 63bd
000003b0: 62b1 0442 871a 0642 dc1c 02bd 40e3 0842
000003c0: accb 0442 df4b 0542 9a4a 0542 96d2 1bbd
000003d0: 1474 0442 d7c9 c4bb 90c1 0a42 3bf1 0442
000003e0: 74bb 0942 4150 19bd fd9e 7cbc 0715 0942
000003f0: 09f8 35bd 1401 0542 c01b 3cbd 806b 0542
31.591585 33.22131 33.19754 33.329006 -0.037581638 33.106625 -3.8451388 34.43812
34.33541 33.24638 33.330696 33.32449 -15.085788 -19.805292 27.932507 33.344517
34.496166 -0.03787652 34.447475 34.45675 34.44121 -0.092160955 33.22908 -0.04202435
32.06668 34.56185 -0.021160446 -6.355213 33.49392 -0.009564235 33.331074 34.500713
34.507946 34.36605 -15.4015255 33.201405 34.95758 -13.873195 34.50442 33.16363
-0.057595566 33.262135 22.38469 -0.0061874543 -0.06353155 -0.09267984 28.835052 33.33576
33.69743 24.361494 -14.935242 -0.06771424 -0.071989365 33.203854 31.387188 27.888863
-0.041102886 -0.29587504 33.21111 34.441547 33.206585 29.684565 33.245186 -6.3573694
-0.054308318 33.33742 33.118782 33.3258 33.206226 -0.037324693 33.24561 33.1327
33.406345 34.6393 32.516132 -16.060682 34.709457 -0.031765804 -6.4704723 -6.424169
33.144566 -0.06233564 33.550682 -0.048714444 33.245888 33.331497 -0.017824752 -6.9755445
34.490547 0.8117247 33.238712 33.325157 34.400505 33.14043 -0.29937106 -0.011469094
33.288013 33.232674 -0.00985451 -0.08229693 33.193558 -0.045054328 33.22514 33.43583
33.334534 -0.006521518 29.589413 34.44852 34.6808 33.218872 34.551105 33.28194
34.50645 -0.05188103 33.075172 -0.04173752 33.127647 33.327446 20.973589 33.319393
31.611794 34.41558 -0.011318487 31.63787 28.130646 33.32732 33.228035 33.14357
34.447536 -0.045738168 31.593302 33.330402 -24.450111 -0.08376427 -4.1289306 -0.051678136
34.93774 0.7029101 31.510317 -14.660718 -0.05777002 34.45299 -0.04576026 -0.07674197
33.19789 31.016735 -0.07141573 33.25017 33.23697 33.21933 33.27147 33.146595
34.46299 33.20615 33.119923 -0.050042447 34.42555 28.324448 -0.049562763 33.32762
33.222042 33.221317 -0.038276486 33.155754 34.49203 34.509007 0.0 33.33923
22.501657 33.155163 1.0048528 -0.049249895 33.126877 34.46332 33.33114 33.31669
-0.05337929 33.247833 34.203316 -15.060211 33.368553 34.337826 33.224854 27.950022
34.699276 -0.05643545 -0.027015992 31.60046 -0.07235717 34.349464 30.003082 -0.040726963
1.2661563 35.117466 -0.05172557 33.218792 33.321148 -0.02216246 33.239197 33.298637
28.102306 25.726969 33.287136 33.229626 34.450493 -0.011626271 -0.02327593 34.405125
33.190998 33.219852 33.333847 33.260902 33.129784 -0.104161896 -6.435258 33.140057
33.210842 33.3058 33.241844 31.252653 33.24573 -0.024281546 -0.09449658 -24.964573
30.63052 34.450584 34.22884 33.203255 -0.074332714 -0.0825282 34.444164 31.582045
-0.031765804 34.51729 -0.007949197 -0.055555176 33.173225 33.525906 -0.031765804 34.221924
33.1989 33.324093 33.322853 -0.038042627 33.113358 -0.0060055065 34.689026 33.235577
34.43306 -0.03743005 -0.015418765 34.270535 -0.044425998 33.251053 -0.045924902 33.35498

last_fc.weight f4 [1, 256]
00000000: 9335 60bf 5bd0 d3be 42c2 cabe aa9a dcbe
00000010: adb4 c53c 66be 983e 9d9d 31bf 31cd 40be
00000020: 38a0 86bf e360 ddbe 9574 f8be 4773 fdbe
00000030: b375 eabc ea1b 973c dec1 55bf 1820 04bf
00000040: f9bd 39be 1c11 4dbc c8bd 67be 6086 ebbd
00000050: 275f c3bd c5eb 4a3c 0adc d7be 9207 833c
00000060: 9592 cd3f 0f38 5ebe dd41 c73b a7da 033d
00000070: d2eb 183e 71bf 00bc 0411 08bf b4dc 58be
00000080: 6514 4ebe 8a06 94bf 45f6 463e a7af a8be
00000090: 639b 24bf 1c7d c13d 93cd 38be 676e 90be
000000a0: eac4 9939 fb50 b5be 1c59 a9bf 863d 6bbb
000000b0: 72b1 d5ba 5599 fc3b dd65 21bf 833b f9be
000000c0: e736 15bf 4ee6 e7c0 5b99 853d 5f63 d63c
000000d0: fab8 d3bc 8037 2dbf 9178 25bf ebcd 34bf
000000e0: 35d4 df3c 4b8f 813e 9e17 cabe c556 53be
000000f0: ece4 cabe e7cd 86bf 463f c4be 51d7 253d
00000100: d1cd 52bc a8bd fdbe 2be9 44be a2b1 05bf
00000110: a04f abbe f91d d93c e039 d9be 6864 5bbe
00000120: f980 403e f585 1bbf 1609 a2bf 4695 143e
00000130: 9577 29bf f62e fdbc 2b08 973b 69f7 48bb
00000140: e5c7 86be 337c d83c 38ae 2ebf d4ca 1a3c
00000150: 27f7 e6be e77a fdbe d07a 863c 3c6c fc3c
00000160: dab4 5abe 48fd e8be 28c5 d1be ca08 02bf
00000170: badb c7bf 2c9b 79be b66d 45bb a616 ab3c
00000180: edd5 fdbe c722 cdbe dc58 183c d412 5abc
00000190: 5264 54bd b771 b4bc 6e87 c0be 6c7a 08bf
000001a0: b542 f5be 99ec 76bb e6b1 f4be 4b35 5dbe
000001b0: 7d35 0fbf d608 c8be db25 a7bf 85f3 e5be
000001c0: bff5 4ebe 16f8 013d 9690 96be 3cec 96bc
000001d0: 2838 97be 1055 02bf 5391 0dc0 5f2c 02bf
000001e0: dbdb 3ebf eee4 97bf ddf6 bf39 4d76 1dbf
000001f0: b528 86bf ccea 01bf 4d15 e4be 5128 6ebe
00000200: 2dc5 9abf c2a8 98bc 35bd 37bf a181 05bf
00000210: 3104 d03e b4b3 523b 58fe 8cbf 66f1 8c3c
00000220: 5cf9 59bf 8d8f 40be aa1f 3bbf 974c 5e3e
00000230: aa67 e33c 7ec3 42be 1d93 b63c b7af b6bc
00000240: 7f21 c3be d553 8abf d284 003d 852e dabe
00000250: 72ec e1be cab8 cdbe 158e e5be 7b61 95be
00000260: 17a1 3ebe 814a cdbe 1d9e 60be f111 e0bc
00000270: 22e0 ddbd 5ea1 f9c0 1ae2 b3bc 72a8 07bf
00000280: 87e7 d7be 5312 c3be d671 d53c f089 8dbe
00000290: a2ce 3fbe a2d8 f0bd c911 43bb 573e 03bf
000002a0: e765 0dbf 026c 99be 6adb f2bf 50e1 8fbc
000002b0: 6586 98be 01c3 50be 46b3 febe 6c63 01bf
000002c0: 5dab 00bd f823 dfbe 0646 9fbf 642e 183e
000002d0: 0c87 16bf 4af1 8ebf 3cef c8be 8060 59bf
000002e0: eb3e 28bf 1eb6 87bc 2a0d 4a3c 7a21 62bf
000002f0: fba3 b7bb 88eb d1bd eb0e 3fbe 1234 f43c
00000300: 25ff 56c0 fca9 07c0 6554 693c 899d d3be
00000310: 1a51 f6be 8892 18bc bd45 dbbe 203e 0cbf
00000320: a216 5ebf b8a2 acbe 9a1c ebbe 4c8b dabe
00000330: 68b0 42be e0f3 e33b 6e0c 79ba 8bb9 17be
00000340: 56c1 bdbe 30de dabe 3189 d2be 9b74 dfbe
00000350: e452 87be fb3c 843b 4202 ecbb 6bdf 84be
00000360: dcf0 d1be 470c ddbd 5b63 d9be d10a 7ebf
00000370: 59d5 09bf 0a6a ef3c 8748 c4bc 9e32 93be
00000380: 5062 d1bd e366 0cbe 9fe3 6ebf ecf1 d5be
00000390: 9aa0 233b 7005 debc 374e cabf ba83 11bd
000003a0: 7002 f0bc 05ce 66be a70d 97bb 1379 ca3b
000003b0: 9d26 8dbe be90 8abe 74f1 febc 71d1 2abf
000003c0: 300d cbbe e86b 03bf 5747 03bf 1fb0 593a
000003d0: 26ce 88be c283 aebb de59 19bf 248d d9be
000003e0: 2571 e5bd 71a2 cc3c d6eb 743c 8f97 80bf
000003f0: 7ab1 a5bc 20c3 e0be 95a8 e03c f316 08bf
-0.8758175 -0.413699 -0.39601332 -0.4308675 0.024134004 0.29832762 -0.69381124 -0.18828274
-1.0517645 -0.4323798 -0.48526445 -0.49502012 -0.028620576 0.018445928 -0.8349894 -0.5161147
-0.18138875 -0.012516286 -0.2263099 -0.11500239 -0.09539633 0.012385313 -0.42160064 0.01599482
1.6060358 -0.21701072 0.0060808496 0.032190945 0.14933708 -0.007858143 -0.53150964 -0.21177942
-0.20124967 -1.1564496 0.19429882 -0.32946512 -0.642996 0.09447691 -0.1804717 -0.2820923
0.00029329146 -0.35413346 -1.3230319 -0.0035894825 -0.0016303493 0.0077087083 -0.63046056 -0.48678216
-0.582869 -7.2468634 0.06523391 0.02617043 -0.02584504 -0.6766281 -0.64637095 -0.70626706
0.027322868 0.25304636 -0.39471143 -0.20638569 -0.3962778 -1.0531586 -0.38329524 0.040488545
-0.012866453 -0.4955876 -0.19229572 -0.5222417 -0.33459187 0.02650355 -0.42426968 -0.2142502
0.18799199 -0.6075128 -1.2659023 0.14510068 -0.6619809 -0.030906182 0.004609128 -0.0030665046
-0.26324382 0.02642641 -0.68234587 0.009447772 -0.45110437 -0.4950783 0.016415983 0.030813329
-0.21358052 -0.45505738 -0.4097073 -0.5079466 -1.561393 -0.243756 -0.0030125207 0.020884823
-0.49577275 -0.40065596 0.0092985295 -0.013310153 -0.051853485 -0.02202688 -0.37603325 -0.533118
-0.47902456 -0.0037677644 -0.47791976 -0.21602361 -0.5594099 -0.3906924 -1.3058428 -0.44912353
-0.20210932 0.031730734 -0.29407185 -0.018423192 -0.2953503 -0.50911045 -2.211995 -0.50848955
-0.7455422 -1.1866739 0.00036614286 -0.6150864 -1.0481173 -0.50748897 -0.445475 -0.23257567
-1.2091423 -0.018635157 -0.7177308 -0.52150923 0.40628198 0.0032150568 -1.101512 0.017204951
-0.8514612 -0.1880476 -0.7309519 0.21708904 0.027759392 -0.19019887 0.022286946 -0.022300584
-0.38111493 -1.0806834 0.031376667 -0.42613617 -0.44125706 -0.40180045 -0.44834962 -0.29175934
-0.18616138 -0.40095904 -0.21935315 -0.027352305 -0.108337656 -7.800948 -0.0219584 -0.529914
-0.4216883 -0.38099918 0.026055258 -0.276443 -0.18731168 -0.117600694 -0.002976524 -0.51267
-0.55233616 -0.29965216 -1.897321 -0.017563492 -0.29790035 -0.20386888 -0.4974615 -0.5054233
-0.031413425 -0.4358213 -1.2443244 0.14861447 -0.58799815 -1.1167386 -0.3924502 -0.8491287
-0.65721005 -0.016566332 0.01233224 -0.8833233 -0.005604265 -0.10250002 -0.18658035 0.029809985
-3.3593228 -2.11975 0.014241313 -0.41331127 -0.4810875 -0.0093122795 -0.42826644 -0.54782295
-0.86753285 -0.33717895 -0.4592026 -0.426844 -0.19012606 0.0069565624 -0.00095004484 -0.14816873
-0.37061566 -0.4274764 -0.41120294 -0.4364365 -0.26430428 0.0040355898 -0.0072024176 -0.25951704
-0.41004074 -0.10793357 -0.42458615 -0.99235255 -0.5384117 0.029225368 -0.023960365 -0.28749555
-0.1022383 -0.13711123 -0.9331607 -0.41786134 0.0024967552 -0.027102202 -1.5805119 -0.035526015
-0.029298037 -0.22539528 -0.004609782 0.006178984 -0.27568522 -0.27063555 -0.031120993 -0.6672583
-0.396585 -0.51336527 -0.5128073 0.0008304137 -0.2671978 -0.0053257653 -0.5990275 -0.42490494
-0.11203221 0.024979802 0.014948806 -1.0046252 -0.020226229 -0.4389887 0.027424136 -0.5316002
