save_mode/SAC_v_1000_target_qf2_network.pth (torch, 329559 bytes, 5 tensors)

fc0.weight f4 [256, 61]
00000000: 0353 f93b 89c9 433d 7003 bbbc b774 3b3a
00000010: 8a4c 5c3d 59d2 c7be a264 683d 48ca df3f
00000020: 6eef 9cbc b2d8 d73c 1031 b63c 60bc 373c
00000030: 1631 1abc 7aac d2be 90d2 b2be 36c6 a33f
00000040: b773 b7bc a5d1 0c3d b906 45bd 0194 d1bc
00000050: 5342 fbbc d2f7 4abe 8dea 953d edd9 113e
00000060: b4a2 f9bc 2d47 053d 0e77 a2bc 8a5f 5d3d
00000070: 51d0 423d 4289 d8bd 671c a5bd 028a 5bbe
00000080: 04a3 0dbc 8f1b 2b3d 06a4 2abd 543b f83c
00000090: c340 62bd 43b3 eabe 57b7 26bf b0a5 3abf
000000a0: 3fe4 b43b f64b 15bd 0819 3d3d d0b6 403d
000000b0: a7f6 bc3c 695b 40be 2964 4abe bce0 74be
000000c0: 0ae6 ea3f 00fe 3740 d60b 9b40 50eb b1c0
000000d0: 432e 633f 5e16 29c0 3307 7c3f 2da7 0ec0
000000e0: 667b aabf e6c0 143e 61b9 c4bf 5d7c 983f
000000f0: e7d0 2240 ec23 8e3c fe9f 1dbd 31ca 4fbc
00000100: 8322 66bc 59e4 44bd cc3d 27bf 8306 0840
00000110: 50ed 1e3e 2798 393b e315 f23c ec83 fe3c
00000120: 184e 43bd ebae 62bd 39a7 423f f904 233e
00000130: e362 293f cc97 f6bb a6da 173d c994 d13c
00000140: c907 433d 7d09 9b3c c82a ee3f 5229 d43f
00000150: 94fc c73f 9e5b 2bbc 71c0 41bc ba63 db3c
00000160: a630 123d f3b6 e6bc 8a1f 99be 234b 22bf
00000170: 08dd 25be f5f1 8a3c 103e 38bd 74e8 7dbd
00000180: 00b5 bf3c ec62 f73c db4d 4a3d b530 f1bd
00000190: 8875 953e 4317 6bbc c847 303d 41fc 49bc
000001a0: ce45 a5bc 0819 bd3c eda2 4fbe a45f 14bf
000001b0: 88c3 8fbd d0e8 0a41 3c67 81c0 10ad afc0
000001c0: 30dc d940 3957 0840 f30b 1ebf deff 4fbe
000001d0: 749c 6bbe 258c bb3f 3a9c 8e3d 5da9 a2be
000001e0: f8bc 063e 84dc c4be 4629 1abd bce1 f83c
000001f0: a0da 333d 0817 b5bc 0667 17bd b717 b9be
00000200: cbe2 08c0 092e 72bf 840e 7abb ad7d 17bc
00000210: 9b52 6e3d 6892 bbbc 156f 183d f53c bb3e
00000220: 6112 053e 9aa0 21be 367d abba 0110 4ebd
00000230: 3aad d5bb bee1 913b 8c71 0cbd eccf 943f
00000240: 0275 bd3f de5f b33f 39f6 4d3c afbf 25bd
00000250: ec1e 7a3d 5cba fd3c 8f96 bcbc 5330 323e
00000260: 665d 313e 4ff0 723e 6ea4 1cbd 3895 c0bc
00000270: f3f4 64bd 22dc d23c f04e 3d3d 068d 11be
00000280: 6162 c1be 0552 80be 9f55 ac3c 647a 8d3a
00000290: 7d9f 1b3b d01c 303c 64d1 723c 3b8f b03b
000002a0: 1c56 9f3d 4049 cd3d 75a1 6ac0 932d 5440
000002b0: 4200 8640 0336 bcc0 3923 9e3f 501a edbf
000002c0: cd9b 873e b63f d43f c893 62bf 7447 29bf
000002d0: 6b2a f33e a0de a4bd 662c b73d 1843 b03c
000002e0: 00da bd3c 56f2 183c 8a04 68bb b20f 53bd
000002f0: d0b3 b4bb 5e78 21bd 1789 35bd ceb3 9bbc
00000300: 163b 10bc 6434 08bd d888 4dbc f6a9 2fbc
00000310: 8f73 2dbd ce66 2cbc 756e 093c 29c9 4e3d
00000320: 9a45 ecbb 1fdf 2c3d b793 3a3b 48e1 3e3d
00000330: 5ab9 60bd 743c f03c 88d8 34bd 6f9c 2e3d
00000340: fff3 28bd e2e9 d7bc f613 afbc 27c5 253d
00000350: 2686 a3bc d856 34bd ee0c 16bd 27e1 313c
00000360: 0682 1f3b efae 2dbd a75c 2cbd 3973 cebc
00000370: 3463 f53c d9c5 47bd 316c cebc 22a3 68bc
00000380: 5d77 043c 7ee8 93bb 6bd5 663d f0cf 34bd
00000390: f001 4e3a 1f09 26bc b018 c53b 0819 3dbd
000003a0: ddf3 9bbb 1cda 7f3d e2be 5abd 7293 d53b
000003b0: 6b11 f63b 85b9 1c3d 4c30 01bc 5e89 1a3d
000003c0: 8883 3e3d b42c 7cbd 0b10 e43c ae21 1e3d
000003d0: 5f46 21bd af5a a1bb e3f4 6a3d c6eb 1dbd
000003e0: b4a8 783d d95d 7b3e 595e 2a3e fa5c f43d
000003f0: 357f 1abd eea2 16bc 4b2e f9bc 6130 df3c
0.0076087727 0.04779962 -0.022828788 0.0007150876 0.05378393 -0.3902767 0.056736596 1.7483606
-0.019157138 0.026348446 0.022240192 0.011214346 -0.009411117 -0.41147214 -0.3492627 1.2794864
-0.022394044 0.03437962 -0.048102114 -0.02558327 -0.030671274 -0.19821098 0.07320128 0.14243288
-0.03047309 0.03253858 -0.01983216 0.05404619 0.047561947 -0.10573055 -0.08062058 -0.21439365
-0.008644823 0.04177433 -0.04166033 0.030301727 -0.055237543 -0.4583989 -0.65123504 -0.7290907
0.005520373 -0.036449395 0.04616645 0.047049344 0.023066832 -0.1878487 -0.1976477 -0.23913854
1.8351452 2.874878 4.845195 -5.5599747 0.88742465 -2.6419902 0.98448485 -2.2289536
-1.3318908 0.1452671 -1.5369073 1.1912953 2.5440004 0.017351113 -0.03848266 -0.0126824835
-0.014046314 -0.04806933 -0.6532867 2.1253974 0.15520215 0.002831945 0.029551452 0.031068765
-0.047681898 -0.055342596 0.7603641 0.15919866 0.66166514 -0.00752542 0.037073754 0.025583642
0.047614846 0.018925423 1.8606806 1.657511 1.5623956 -0.010458855 -0.011825667 0.026780952
0.035690926 -0.028163409 -0.29906875 -0.633959 -0.16197598 0.016961077 -0.044981062 -0.061989263
0.023401737 0.030198537 0.049390655 -0.11776868 0.29191232 -0.014348808 0.043037206 -0.012328208
-0.020174887 0.023083225 -0.20276995 -0.57958436 -0.070197165 8.681839 -4.043852 -5.489876
6.8081284 2.1303236 -0.61736983 -0.2031245 -0.23008901 1.4652144 0.069633916 -0.3176984
0.13158023 -0.3844949 -0.037637018 0.030381076 0.04390967 -0.022105709 -0.036963485 -0.36150905
-2.1388423 -0.94601494 -0.0038155625 -0.009246272 0.058184247 -0.02289696 0.03721531 0.36569944
0.12995292 -0.15783921 -0.001308358 -0.05030823 -0.0065208944 0.0044519594 -0.034287974 1.1625953
1.4801333 1.4013631 0.012570911 -0.040466007 0.061064646 0.030972652 -0.02302101 0.17401247
0.17320785 0.23724483 -0.03824275 -0.023508653 -0.055897664 0.025739733 0.04621786 -0.14213952
-0.3777037 -0.25062576 0.021036921 0.0010793922 0.0023746185 0.010749057 0.01482043 0.005388168
0.07780096 0.10023737 -3.6661046 3.3152816 4.1875315 -5.881593 1.2354499 -1.8523655
0.26486054 1.6581943 -0.88506746 -0.66124654 0.474933 -0.08050275 0.08944015 0.021516368
0.02317524 0.009335121 -0.0035403096 -0.05152864 -0.0055145994 -0.03942143 -0.044320192 -0.019006636
-0.00880315 -0.03325309 -0.012544833 -0.010721674 -0.042346533 -0.010522557 0.008388151 0.05048481
-0.0072104456 0.042204972 0.0028469393 0.046601564 -0.054864265 0.029325701 -0.044151813 0.042629655
-0.041248318 -0.026356641 -0.021371823 0.040471222 -0.019961428 -0.044028133 -0.036633424 0.010856903
0.0024338975 -0.042403158 -0.042080548 -0.025201427 0.02995453 -0.048772667 -0.025198074 -0.01419905
0.008085099 -0.004513799 0.056355875 -0.044143617 0.0007858565 -0.010134011 0.006014906 -0.04616645
-0.0047592954 0.062463865 -0.053404696 0.006517821 0.0075094006 0.038262863 -0.00788505 0.03772866
0.046512157 -0.06156607 0.027839681 0.03860634 -0.03937375 -0.0049241404 0.05736245 -0.03855493
0.060707763 0.24547519 0.16637553 0.11931796 -0.03771897 -0.009194119 -0.030417582 0.027244749

fc0.bias f4 [256]
00000000: 337b 7141 2773 5fc1 6f26 c441 0000 0000
00000010: 542a c241 57e0 be41 46e3 14be 8f2c bf41
00000020: 951d 9741 cb8e bf41 596d be41 d78b be41
00000030: 23a1 00be 4281 be41 e777 bd41 fa3c bd41
00000040: 02da d6c0 d3cf 7241 b158 cbbf 30c4 bf41
00000050: f950 42be 56db a041 764c 97be eaaa bf41
00000060: 16e4 bd41 2d1e bf41 16b9 ad41 c184 bd41
00000070: 3fb9 c041 15f2 d141 e90c 4bbd f0c3 36bf
00000080: 6631 ae41 d39e bd41 de25 1cbd ede6 be41
00000090: cd88 9e41 d58b 8ebc 5df0 bd41 415d 5741
000000a0: 2d31 acc1 ab06 fd40 143c bf41 d408 bf41
000000b0: 2f28 b841 618b be41 2e1f bf41 1016 bc41
000000c0: 4f84 a5c1 1703 c041 a50d 9c41 613b 98c1
000000d0: c6f3 a441 e721 a241 1d8c c141 1b1b be41
000000e0: 0000 0000 edfb 83bd ffb4 26c1 1691 a341
000000f0: 6b20 c241 7df0 01bd e44a bf41 bd6c 98c1
00000100: f5bd be41 6d1a 01bd 3417 f1bc 204c 38bd
00000110: 3e81 bc41 011a 44bd 3f94 9ac0 06f3 bf41
00000120: 3a81 6d41 c5c8 b741 651b 08c1 c650 c041
00000130: 66fa 19bd 02e0 bc41 2ada bc41 9725 c341
00000140: 0000 0000 9521 be41 48b5 3dbe a7a5 98c1
00000150: 9db3 bd41 0000 0000 296f bf41 9ebd a341
00000160: 04a7 8441 3eb9 1ebd 22fc 41c1 a6fa 1abd
00000170: 3ad7 be41 0000 0000 0000 0000 e3d2 bc41
00000180: b5d0 bd41 a539 04c1 6b11 7641 eb44 63bd
00000190: d0b4 38bd dd8c 8fbd df27 24bf 32f0 bf41
000001a0: 12fe bc41 17e3 a6be 19ed cebc 9a1a bf41
000001b0: 0000 0000 6f21 bd41 061c 97be 68b6 c741
000001c0: c6e9 ae41 b678 99bc 72c8 be41 0000 0000
000001d0: 6f9b 2abd 6176 be41 3bb7 7d41 51e6 be41
000001e0: 1f8b a1be dffe 2ebd 85e5 84bd 295f be41
000001f0: b320 e5bc 58cf be41 2edf a641 f9b5 46bd
00000200: f0ee b3bc 505d b8bf 0cbd 7541 9dae bf41
00000210: 90c1 39bc b30d bf41 2c6a fbbd 00ef 27c0
00000220: 44b3 be41 0d63 9d41 7020 32bd 4c11 3b41
00000230: 68e9 be41 6e2f a341 ff42 bf41 2c63 bd41
00000240: 3f75 4a41 520e 5abd 0000 0000 1c2d be41
00000250: ec3f bf41 5526 c041 1fae bd41 5a7b bf41
00000260: a6e8 bd41 e6bd 9bc1 3a8f 5a41 a81e be41
00000270: 946e be41 3a7b 6e41 4fcb 9541 3573 03bc
00000280: 6bb1 bd41 0000 0000 fb94 bf41 bed8 be41
00000290: b02e bf41 e41c 8e41 8c18 8641 6e3e ad41
000002a0: 9554 9241 8069 3dbc 4dfe 9941 0000 0000
000002b0: 9612 9d41 401c 34bd b96f bd41 b04f bf41
000002c0: c549 9f41 5ebb bf41 2652 bc41 f01a bd41
000002d0: 2ebd 1bbd 1865 3bbd 2db0 9941 8f46 28bd
000002e0: 148a be41 c43d 8841 bb68 6fc1 8fdd 2cbd
000002f0: 64f5 8541 e05a 9ac1 3e51 e0c1 5f55 abbb
00000300: e15c c9bf 766e a241 8f74 be41 ba1f debb
00000310: fd72 bd41 76e0 a841 da8f c141 cc06 bf41
00000320: fe5b be41 af53 a1c1 6c79 bb41 c255 be41
00000330: 6f2f 3c41 0000 0000 55c7 82bd a8ca bbbc
00000340: 3371 bf41 2786 23bd 0ee7 a041 323b 52bd
00000350: 63a6 bd41 434e be41 9a2b 6841 182e bf41
00000360: bcb4 f3bf a452 9fc1 e205 bf41 efb0 b541
00000370: a7dc a341 a67c 16c1 ac9e 8541 9671 a241
00000380: 7828 abc1 9474 fcbc acdd 8741 7c77 be41
00000390: 0a09 c041 6be8 a8c1 e811 a241 17f7 be41
000003a0: bd65 be41 f514 83c1 ed21 06be 5d15 c041
000003b0: 6f11 be41 a3a5 3ac1 4a65 80c1 96bc a241
000003c0: 0000 0000 0e2b 9e41 0a51 55bd a6ae 16bd
000003d0: 0000 0000 ac9a be41 2cfb 7441 940f be41
000003e0: 8159 c441 db02 c141 9449 bd41 cd40 98c0
000003f0: 06dd ad41 a5f4 02bd f74f 25bd 29c7 be41
15.092578 -13.965613 24.518766 0.0 24.270668 23.85954 -0.14539823 23.896757
18.889444 23.944723 23.803392 23.818281 -0.12561469 23.813114 23.683546 23.654774
-6.7141123 15.175738 -1.5886441 23.970795 -0.18976201 20.107098 -0.29550523 23.958454
23.73637 23.889734 21.715374 23.689821 24.090452 26.243204 -0.04957286 -0.71392727
21.77412 23.70255 -0.03812205 23.862757 19.816797 -0.017400661 23.742365 13.460267
-21.524012 7.907064 23.904335 23.87931 23.01962 23.818056 23.890224 23.510773
-20.689604 24.001509 19.506662 -19.028994 20.61903 20.266554 24.193415 23.763235
0.0 -0.064445354 -10.4191885 20.445843 24.26583 -0.031723488 23.911568 -19.053095
23.842752 -0.031519342 -0.02943001 -0.044994473 23.563107 -0.04787636 -4.8305964 23.993664
14.844049 22.973032 -8.506688 24.03944 -0.037592314 23.609379 23.606525 24.393354
0.0 23.766397 -0.18526185 -19.080885 23.712702 0.0 23.929277 20.467587
16.58155 -0.03875088 -12.124056 -0.037836693 23.855091 0.0 0.0 23.602972
23.726908 -8.264073 15.379252 -0.055485647 -0.04509431 -0.070092894 -0.6412334 23.992283
23.624058 -0.3259513 -0.025259541 23.887989 0.0 23.641325 -0.29513568 24.964066
21.864147 -0.018734317 23.847874 0.0 -0.04165214 23.807802 15.857234 23.86246
-0.31551453 -0.042723533 -0.0648909 23.796465 -0.027969694 23.851242 20.858974 -0.048513386
-0.02196452 -1.4403477 15.358654 23.96026 -0.011337653 23.88169 -0.1227611 -2.6239624
23.837532 19.673365 -0.043487966 11.691723 23.863968 20.398159 23.907713 23.673424
12.653625 -0.053236313 0.0 23.772026 23.906212 24.018717 23.71002 23.93523
23.738598 -19.467724 13.659967 23.764969 23.803993 14.905085 18.724272 -0.008023073
23.71163 0.0 23.947744 23.855831 23.897797 17.764107 16.761986 21.655483
18.2913 -0.011560798 19.24917 0.0 19.634075 -0.043972254 23.679552 23.91391
19.91102 23.966488 23.540112 23.638153 -0.038022213 -0.045750707 19.211023 -0.041082915
23.817421 17.030159 -14.963069 -0.042203482 16.74482 -19.294373 -28.039669 -0.005228683
-1.5731469 20.303936 23.806913 -0.0067786844 23.681147 21.1096 24.19524 23.878319
23.794918 -20.165861 23.434288 23.791874 11.76158 0.0 -0.06385676 -0.022923782
23.930273 -0.03992286 20.11282 -0.051325984 23.706244 23.788214 14.510645 23.897507
-1.9039531 -19.915352 23.877872 22.711393 20.48274 -9.405432 16.702477 20.305462
-21.39476 -0.030817308 16.983238 23.808342 24.004414 -21.113485 20.258743 23.87065
23.799677 -16.385233 -0.13098879 24.010431 23.758512 -11.665439 -16.049458 20.342083
0.0 19.771023 -0.052079238 -0.03678765 0.0 23.825523 15.311321 23.757607
24.543703 24.126394 23.660927 -4.7579103 21.732922 -0.031971592 -0.040359464 23.847246

fc1.weight f4 [256, 256]
00000000: 558e 183f 5440 45bf 72d0 dd3f 9e4f 943c
00000010: e6a4 f53e 2471 fd3e 04d4 09bf 8f49 ce3e
00000020: d421 8f3c f666 fc3e da69 8b3e c90d d93e
00000030: 8150 56bf 397b ae3e ff48 bc3e cc5d b43e
00000040: db42 fabf 1bf6 f23f 45e5 9c3f 8631 143f
00000050: 7418 0fc0 6f34 b7be 6b19 fdbf 1d8b 663f
00000060: f3fd aa3e 2cf8 fe3e cd23 1a3f 9c99 a83e
00000070: 91ee db3e 8022 9440 005a 4a3d be5d a7bf
00000080: 4c2d 0e3f d854 ae3e caf0 e3bc 6420 043f
00000090: 4c32 093e bf43 bc3c 9c55 cb3e a6f3 973f
000000a0: 2b34 89bf 9ecf a03e ac2d fc3e 6814 b13e
000000b0: 6ef9 923e 0cf2 be3e 1bba 003f bff5 9c3e
000000c0: ef25 2fc0 2db9 2b3f 47d3 b83e ce64 62c0
000000d0: 8897 433d ea80 593e 4ce9 473e 511a 9a3e
000000e0: 000b 3a3c e15b 5e3c 41c9 c5c0 08cc 4d3f
000000f0: ae6d 1b3f 9360 f73b 0db9 0a3f db07 50c0
00000100: 828a 093f ba48 d33c dc45 063c ed65 1cbc
00000110: 6111 073e 79c2 c63b aef4 12bf 121a 273f
00000120: b5a4 9a3f 0f8f ccbe 420a 50c0 44fe 0e3f
00000130: 0eb1 10bd 5e89 393e d5bf 8c3e 6e0f 223f
00000140: cf52 a73c 6a88 b13e 7ce7 0fbf 54b9 6ec0
00000150: 599a 023f 7009 3a3d 5306 c93e 9aad 63be
00000160: 581d 48bc 768c 9dbd c15a 93be 522b 513d
00000170: e0d0 003f df34 3fbd eeff ac3c 16e6 8e3e
00000180: db07 823e 6389 65ba 061b 933f 6f2f 3cbd
00000190: 0a70 edbc ad49 8fbd 12f7 60bf 529c 063f
000001a0: 7f85 0640 acfb 82bf 25e3 87bd b60f f83e
000001b0: 113a 413d 5339 ab3e e9a4 d3be 78d6 9a40
000001c0: 6ba2 fb3d a95d 49bd be06 d53e 1141 5dbc
000001d0: de24 983c d11c e23e 632a f93e aec4 fd3e
000001e0: d8cb c6be 5cf4 04bd 0466 7abd 0ae1 c63e
000001f0: c2b5 dbbc 8c3f ef3e dc3e 033f 1db9 11bd
00000200: 24af 7fbc b63d a7bf 52bd da3f 11f1 023f
00000210: b11b 513c 7188 ea3e 62c3 6cbf a429 25bf
00000220: 1d61 d73e 8d3c 993c d25d ec3a c14f a340
00000230: a754 f73e ca61 663f 1c88 113f 4cf9 e43e
00000240: 1f3d 6e40 f5f7 09bd 668c 23bd cfb8 a13e
00000250: 391e dd3e 747e 363f 658d 7f3e ef75 ec3e
00000260: 77be a03e 1ceb 33c0 75f7 873f 0e68 a63e
00000270: 704f ec3e f906 5f3f fea8 0abf 627a 5bbd
00000280: f014 b13e f8c5 bb3c 3393 fe3e a263 ee3e
00000290: 10e4 0c3f dbd8 7a3f 8d54 953e 224b 663e
000002a0: be97 2e3e 41e4 4d3d ff92 b43d 649a 773d
000002b0: 743c f03e 8fd9 b5bb 0e8e a23e 9e9b f13e
000002c0: bd40 173e c236 a83e 4e2e 953e cf95 753e
000002d0: 9464 87bb d031 39bd cfb5 bc3d 4db7 10bc
000002e0: e0ae ec3e 9433 0b3f 3242 6ec1 e906 4c3d
000002f0: 6811 443f ed7c 70c0 c7bf e0bf 7692 9c3a
00000300: 66a7 ab3f e744 313e 58a1 dc3e 6181 453d
00000310: f951 a43e 13a1 ff3b 34ed fa3e 4349 ad3e
00000320: 9523 d23e 52fa f4bf 3869 d33d 73b7 b13e
00000330: fb7d f93e ce80 17bd 57fe afbc 3aff 583c
00000340: 94b6 0f3f 3cb1 fe3c f013 cb3d a29b 63bc
00000350: b453 c63e 0e5e ab3e 741e 8e3f 6cd2 ff3e
00000360: d89a cabd ce00 17c0 9722 023f 2ff3 abbd
00000370: 0a2c e1be f6a2 93c0 9608 a73c 1b65 6d3e
00000380: 7879 d7be 9700 a03b c9ee 5b3f 6372 c03e
00000390: 8c0f c83e 4709 cebf 8137 a13f 9a2e 0c3f
000003a0: fb99 dd3e 4a3b 88bf 5002 c3bf 7e40 ee3e
000003b0: 7547 703e 4378 ec3e 9ce1 38bf 4e03 2e3e
000003c0: 334e 6cbc cc34 7a3f 78a0 3b3c 25b2 8bb9
000003d0: 84ed 723d 7a65 db3e c2ba 563f f0df cc3e
000003e0: f384 d03f 779f 9c3e 1e8e ac3e 546b 7fc0
000003f0: 1d0b 153f 152e 8e3d cf3e bb3c b670 db3e
0.5959218 -0.7705128 1.7329237 0.01810437 0.4797737 0.49500382 -0.53839135 0.40290496
0.017472185 0.49297303 0.27229196 0.4239333 -0.8371659 0.34078386 0.36774442 0.3522781
-1.9551653 1.8981355 1.2257468 0.57888067 -2.2358675 -0.3578219 -1.9773382 0.9005602
0.33396873 0.49798715 0.6021088 0.32929695 0.4295545 4.6292114 0.049402237 -1.3075483
0.5553787 0.34049106 -0.027824778 0.51611924 0.13398093 0.022981523 0.39713752 1.1871231
-1.0719045 0.314084 0.49253595 0.3458588 0.28705925 0.37294042 0.50283974 0.3065624
-2.7366903 0.6707943 0.36098692 -3.5374026 0.047751933 0.21240583 0.1952259 0.30098203
0.011355162 0.01357171 -6.180817 0.8038945 0.6071423 0.0075493543 0.54188615 -3.2504795
0.5372697 0.025791515 0.008195367 -0.009545785 0.13190223 0.0060656634 -0.574046 0.65274155
1.2081515 -0.39952895 -3.250626 0.5585673 -0.035325103 0.18118808 0.27490106 0.63304794
0.020425228 0.34674388 -0.5621259 -3.7300615 0.51016766 0.045419157 0.39262637 -0.22234192
-0.012214027 -0.076928064 -0.28780177 0.051066704 0.5031872 -0.04668128 0.02111813 0.27909917
0.25396618 -0.0008756129 1.1492622 -0.045943674 -0.028984088 -0.069964744 -0.87877 0.52582276
2.101898 -1.0233054 -0.06635121 0.48449486 0.047174517 0.33442172 -0.41336754 4.8386803
0.12286838 -0.049161587 0.41606706 -0.013504283 0.018572267 0.4416261 0.4866515 0.49564117
-0.38827395 -0.0324596 -0.061132446 0.38843566 -0.026820067 0.4672817 0.5126779 -0.03557693
-0.015605722 -1.3065708 1.7089026 0.5114909 0.01276295 0.45807222 -0.9248563 -0.64516664
0.4206628 0.01870563 0.0018033332 5.1034856 0.48306772 0.89992964 0.5684831 0.44721448
3.7224805 -0.033683736 -0.039928816 0.3158631 0.4318712 0.712867 0.24956281 0.46183726
0.31395313 -2.811225 1.0622393 0.32501262 0.46154356 0.87120014 -0.5416411 -0.05358351
0.34586287 0.022921547 0.4972168 0.4656039 0.55035496 0.97987145 0.2916607 0.22489598
0.17050073 0.050266508 0.088171 0.060449973 0.46921122 -0.0055496166 0.31749004 0.4718904
0.1477079 0.32854277 0.2913689 0.23982929 -0.004131863 -0.04521352 0.09214365 -0.008832765
0.4622717 0.54375577 -14.891161 0.049811278 0.7658906 -3.7576249 -1.7558526 0.0011945504
1.3410461 0.1731144 0.43091846 0.04821909 0.3209379 0.007801184 0.49009097 0.33844957
0.41042772 -1.9138892 0.10322803 0.34710273 0.48728928 -0.036988072 -0.021483583 0.0132444445
0.5613797 0.031090371 0.09915912 -0.013892086 0.38735735 0.33470196 1.1103044 0.49965227
-0.09892815 -2.359424 0.5083403 -0.08395993 -0.43978912 -4.6136427 0.020389836 0.231831
-0.4208486 0.004882883 0.8591123 0.3758727 0.3907436 -1.6096581 1.2595063 0.5475861
0.4328154 -1.0643094 -1.5235081 0.4653358 0.23464759 0.46185502 -0.7221925 0.16993448
-0.014422941 0.9773681 0.011451833 -0.00026644874 0.059308544 0.42850858 0.8387872 0.400146
1.6290573 0.30590412 0.33702177 -3.9909258 0.5822008 0.06942383 0.022857098 0.4285943

fc1.bias f4 [256]
00000000: 3439 c141 74c6 8b3e 5342 62bd 4130 c141
00000010: ea0b 0041 74a3 c041 6f1a b3bb 612b c141
00000020: d83c 493e 348e 8b3c 53b6 c041 48ca c041
00000030: ed35 8bc0 dd81 c041 6c7f 0541 76be 1dbd
00000040: 7e48 1dbd 4568 c141 c339 7841 6f36 c141
00000050: fbb9 c041 7e37 c141 3f2f c141 f433 c141
00000060: 2138 4cbd 2821 c141 e598 c241 7840 c141
00000070: 2a39 e640 4ca2 c041 9ba3 c041 37fe c241
00000080: 3d1c 02bd 07a8 c141 0000 0000 90e6 37bd
00000090: 4c5c 0241 68c7 c041 459c c041 26c7 c041
000000a0: baeb c041 023a c141 3d82 c941 141a f0bc
000000b0: 1182 4ebd 52a3 c041 796d c041 5fc6 c041
000000c0: 56fa c041 5dce c041 a89e 3abd 79c6 c041
000000d0: bd09 1c41 11c1 c041 b92d 4bbd 59b4 4c41
000000e0: 59c9 c041 bf29 c141 75b1 c041 20ba c041
000000f0: 6293 c141 f5bd c041 0bfc f740 1c86 c041
00000100: 3560 82bb 4d24 c141 0000 0000 0000 0000
00000110: 8534 c141 4296 5abd 55ed c841 2504 8fc0
00000120: 4e14 c141 7723 c141 6cdf 0e41 7556 c141
00000130: fbd7 eabc d8bd 4041 70c2 c141 1a39 53bc
00000140: 05c2 8cc0 8b96 c041 b72a c141 2315 c141
00000150: e12a c141 6594 c041 3d1c 02bd c5c2 8fbc
00000160: f598 c841 64df c041 f5ef 02bd 8a50 d3bc
00000170: 50b3 b2bb 7e1b 98bc 7e3a 97bd 9120 c141
00000180: fe0c 90c0 656d c041 eb8b c141 771c c141
00000190: 7a18 c141 d623 c141 aa8a 6741 7a31 c141
000001a0: 2217 c141 39a7 c041 d7be c041 15c9 c041
000001b0: 54e5 c141 07b5 233d 08c2 c041 fa02 e840
000001c0: a6a9 c041 1b6a e8c0 8d39 c141 1bd8 c041
000001d0: 0000 0000 c168 d340 31a4 c041 f34a c141
000001e0: 1429 c141 de80 91c0 d6e7 ab41 d7b7 28bd
000001f0: f612 c141 fe26 14bd 5f31 c141 6c87 f3bd
00000200: 9949 c041 b1e5 d940 3178 c041 811d c141
00000210: 3d1c 02bd cdc9 0fbd 2129 c141 de33 c041
00000220: 36be c041 ed7c 1441 fd13 c141 e66b 1ebc
00000230: 6daa c041 85c2 0ebc 5870 cf40 825b c141
00000240: e988 c041 77e3 c041 c3bd fb40 97b2 c041
00000250: 7749 c141 074c c141 d999 5f41 999a c9bd
00000260: e58c 8cbd f374 f140 d094 b5bc 746c 0141
00000270: fa05 dbbb 252f 0cbd ea73 57bc 9f9d 80bc
00000280: 9433 c141 d823 30bd 44d5 f5bc 77b3 c041
00000290: 3328 c141 a789 c041 5851 37bd 92e1 55bc
000002a0: cdd0 c041 0652 c141 3e54 c041 d5ba c041
000002b0: 633f c141 fd0b c141 5146 c0bb afb4 c041
000002c0: b638 c141 9179 45bd 5358 c041 b331 c141
000002d0: e32a c141 6ddc 02bc f8d5 b0c0 8d6e c041
000002e0: 0000 0000 7390 c041 9bff 66c0 71c3 4dbc
000002f0: 1050 ce40 4e56 9cbd 9031 c141 4a45 c141
00000300: f4e3 0441 2e56 c341 3679 1bbd 2f28 c141
00000310: 8224 c141 aec7 c041 1860 4041 eedd c241
00000320: cde0 87bd 8163 5741 3d1c 02bd e528 c141
00000330: 75ca c041 3a54 c041 3528 1c41 0ecf c041
00000340: 3d1c 02bd ae6b c041 9648 ce41 0a9f e140
00000350: 5d11 1541 a5fa 01bd 49c8 c041 5431 0241
00000360: 9598 8fbc 3b63 c141 47dd c041 94c7 0341
00000370: 5dbb 01bd e80d c141 31f7 c041 ef90 b241
00000380: ef21 c141 d0b8 d041 e92b c141 1fbe be41
00000390: cfd7 c041 c68a 90c0 47a8 c041 7453 0141
000003a0: f163 46bd 6104 c141 2ac3 c041 ca3f 5bbc
000003b0: 4d3a c141 7f23 c141 9ea2 1bbd 0829 c141
000003c0: 495f c3bb 09d3 c041 d3d7 e0bb 071f c041
000003d0: f0c1 c041 b9be c041 4524 c141 3080 3abd
000003e0: 7521 01bd ce0e 11bd 35c0 8bbd c308 e3bc
000003f0: 1026 c141 53bb c041 773e c241 3abf c041
24.152931 0.27299845 -0.055239033 24.148561 8.002909 24.079811 -0.0054657976 24.146181
0.19652116 0.017035581 24.089025 24.09877 -4.3503327 24.06341 8.343609 -0.038511716
-0.038399212 24.175913 15.514102 24.151579 24.09081 24.152096 24.14807 24.150368
-0.049858216 24.14119 24.324656 24.156479 7.194478 24.079247 24.079885 24.374128
-0.03176521 24.207045 0.0 -0.044897616 8.147533 24.097366 24.076303 24.09724
24.1151 24.153324 25.188593 -0.02930931 -0.05041701 24.079746 24.053453 24.09686
24.122234 24.100763 -0.045561463 24.09691 9.7523775 24.09427 -0.04960415 12.79403
24.098314 24.145384 24.086649 24.090881 24.196964 24.092752 7.749517 24.065483
-0.003978754 24.142725 0.0 0.0 24.150644 -0.053365953 25.115885 -4.469256
24.134914 24.142317 8.929546 24.167215 -0.02866744 12.046349 24.21994 -0.012892032
-4.398684 24.073507 24.145857 24.13532 24.145937 24.072458 -0.03176521 -0.017548928
25.074686 24.109077 -0.031967122 -0.02579524 -0.0054535046 -0.018567797 -0.073842034 24.140902
-4.501586 24.053415 24.19332 24.138899 24.136951 24.142498 14.471354 24.149158
24.136295 24.081652 24.093184 24.098185 24.236977 0.039967563 24.094742 7.2503633
24.082836 -7.2629523 24.153101 24.10552 0.0 6.6065373 24.080172 24.161596
24.145058 -4.546981 21.488201 -0.04119095 24.134258 -0.03617 24.149107 -0.11891064
24.035936 6.8092885 24.058687 24.139406 -0.03176521 -0.03510456 24.145082 24.025326
24.092876 9.280499 24.13476 -0.00966928 24.083216 -0.008713369 6.482464 24.169682
24.06685 24.111067 7.8669143 24.087202 24.160872 24.162123 13.97506 -0.0984394
-0.06862811 7.545526 -0.022165686 8.088978 -0.006684062 -0.034224648 -0.013150195 -0.01570016
24.150185 -0.043002933 -0.03000892 24.08763 24.144629 24.067213 -0.04475531 -0.013054268
24.101954 24.16505 24.041134 24.091227 24.15595 24.130854 -0.0058677574 24.088224
24.15269 -0.048211638 24.043127 24.149267 24.14594 -0.007987124 -5.526119 24.05398
0.0 24.070532 -3.609351 -0.012558804 6.4472733 -0.07633649 24.1492 24.158833
8.305653 24.41708 -0.037957393 24.14462 24.142826 24.0975 12.02346 24.358364
-0.06634674 13.461793 -0.03176521 24.144968 24.098856 24.041126 9.759816 24.1011
-0.03176521 24.052578 25.785442 7.050664 9.316739 -0.031733174 24.097795 8.137043
-0.017528811 24.173452 24.108046 8.236225 -0.031672824 24.13179 24.120699 22.320768
24.14157 26.09024 24.14644 23.842833 24.105375 -4.51694 24.082167 8.082874
-0.048435155 24.127138 24.095295 -0.013381908 24.153467 24.142332 -0.03799688 24.145035
-0.0059622866 24.103045 -0.0068616658 24.01515 24.094696 24.093126 24.14271 -0.045532405
-0.031526048 -0.03541451 -0.0682377 -0.027714139 24.143585 24.091467 24.2805 24.093372

last_fc.weight f4 [1, 256]
00000000: eccf d3bf ddc2 06bc 24f2 f83c 991c 38bf
00000010: ca58 db3c 5c0e 8dbe 6422 f23c 9ae0 d6bf
00000020: 74b1 02ba eaa8 63bb 1019 24bf ced8 48bf
00000030: 9cd8 793a 4531 e9be 1e34 233e 0a0e dc3c
00000040: 8ab5 d73c 630f dbbf 5712 35bf a1aa ddbf
00000050: 530a f8be 08dd d3bf 2ddc 47bf 7c93 d8bf
00000060: 8be0 6dbc 802e d8bf 66b2 e7be b115 d6bf
00000070: 519f 5f3e 06ce 6fbe 34eb 98be 9afa 37c0
00000080: 6ccb f0bc 83cc d2bf a148 43bb 4f3e 00bd
00000090: f4ef 823d de8a 0dbf 1af1 e4be 0d59 48bf
000000a0: 8441 91be 5a09 d6bf 42ac a5bf b29b 5d3c
000000b0: fab3 d73c 32f7 2cbf af50 e0be ec70 dbbe
000000c0: f3c9 71bf 453a 5abf 1690 9fbc 0f9a babd
000000d0: e75a 3ec0 ab01 45bf 085e bebc 758f 1040
000000e0: 8536 36bf 2c93 cabf ca32 2ebf e0a3 16bf
000000f0: 8d06 debf 8185 2abf 1afa 693e 28a8 f6bd
00000100: cbb1 613c ec56 d3bf 8e8b 90ba 1e24 15bb
00000110: 976b dabf 8708 adbc 797c 82c0 4783 a4bb
00000120: 3c62 cfbf a6f5 d1bf ff88 3ebf 49bb d9bf
00000130: b737 a8bc a192 d8bf ec12 99bf 581f 37bc
00000140: f2b9 593c 72cd bbbe 26b9 dcbf d64f dabf
00000150: 68dc d5bf 9dd4 e5be bcc1 f53c 7401 7e3c
00000160: 2c23 d1c0 ee8d 52bf 9428 f8bc 9cf6 743c
00000170: ee70 163c 4484 763c 7250 5cbc f2cd cebf
00000180: e45d 7fbc 3bb9 bbbe 75ca 6cbe 4aa6 cbbf
00000190: 0037 d2bf 9ec5 d2bf 14a5 0f3f c477 d5bf
000001a0: 1266 d4bf 6210 fabd 1d03 21bf b1b9 38bf
000001b0: c44d 04bf 6535 8c3c f2b7 c3be 1bc4 723e
000001c0: 1957 26bf b913 c7bc f850 d7bf 2789 3cbf
000001d0: a012 33bb 66fc a13e b05f f5be 7d2e ddbf
000001e0: 4f1b dfbf eb18 62bc bdc5 bb3f 4172 c73c
000001f0: 82c2 c5bf f528 063d 0653 d7bf 664b 193e
00000200: 12e6 22c0 77b2 b83f b072 c8be fe98 d3bf
00000210: 34ad f13c ad1a 023d 3963 d0bf c76d 8c3e
00000220: 84a4 39bf d7ba b43f 972d d2bf abcf e8bc
00000230: ca18 11bf 5b38 e93b 1b56 fc3f d9d1 d9bf
00000240: d2ba 05bf 45de 77bf d26a ee3a 9278 ee3c
00000250: e786 dabf 582e d4bf 962f 2dbf 2cfa fcbc
00000260: 4382 eebc 6452 833f 8f3a aabc c344 723f
00000270: b530 8cbb e9ad 45bc 51c0 4dbc c1d7 cd3c
00000280: 0f4d d8bf b5cb 873c ecec f9bc 7231 d7be
00000290: 45bf c9bf 3c3d 03bf 4f61 af3c e23f 52bc
000002a0: e7a3 4cbf 5c53 d8bf c978 81be 441a 13bf
000002b0: 4fb5 dbbf 2488 7fbf 680e b8bb 0f18 2bbe
000002c0: 95da d7bf 15b4 80bc 74de adbe 8fb3 d5bf
000002d0: efdc d3bf ce73 95bb 53df e53b 4885 e1bd
000002e0: bf6c 31ba 4c35 0ebf 44b0 f7bc 577f 273c
000002f0: b35a 6c3c e863 b0bc 6361 d4bf 03fb 95bf
00000300: b86f 403e 00fa 1ac0 a305 63bc 7d30 d5bf
00000310: dfcb d5bf 1665 55bf f3f2 f53d c586 19c0
00000320: cb7b eabb 5fc5 29c0 05bf 00bd 88c9 d4bf
00000330: 3cc8 5cbf e9d1 9bbe 3c3c 05c0 e87e e3be
00000340: aca1 f8bc eeab 97be 50c0 08c1 41d2 503f
00000350: 6c4c 81c0 ad01 023d d5a0 8abe 3fba bbbe
00000360: c45d 72bc 0e10 82be 49fa 7fbf e830 45bf
00000370: de11 97bc 3154 cfbf 0231 8abf 4d0b 1c3f
00000380: 9e94 ddbf 8a6d 9bc0 0610 bcbe cb77 f3bd
00000390: 321f 33bf 8b02 e03a 8670 a9be 4044 be3b
000003a0: edac 8cbc a474 edbe 1974 4ebf 217a da3a
000003b0: 4b2d dabf d18d c8bf b2ad dabc 4fb4 debf
000003c0: 700d b1bb 1f1a 85bf 3138 c63c 27ba 843e
000003d0: 8944 50bf a9a4 40bf e63b d4bf dedb 1f3c
000003e0: f4d2 f2bc b09f bb3c bcb4 f33c 1a1b d8bc
000003f0: eeac d6bf 320c c5be 0ec7 03c0 aecd 33bf
-1.6547828 -0.00822517 0.0303889 -0.71918637 0.026775736 -0.27550018 0.029557414 -1.6787293
-0.0004985549 -0.0034738132 -0.6410074 -0.7845582 0.00095308735 -0.45545402 0.1593785 0.026862163
0.026331682 -1.7114071 -0.7073111 -1.7317697 -0.48445377 -1.6551828 -0.78070337 -1.6920009
-0.014518867 -1.6889191 -0.45253295 -1.672537 0.21838118 -0.23418435 -0.29866946 -2.8746705
-0.029393874 -1.6468662 -0.002979793 -0.031309422 0.06393424 -0.5529002 -0.44715196 -0.7826088
-0.28370297 -1.6721604 -1.2943194 0.01352589 0.026330937 -0.6756469 -0.43811557 -0.4285959
-0.94448775 -0.8524516 -0.019477885 -0.091114156 -2.9742982 -0.7695567 -0.023238197 2.258756
-0.7117694 -1.5826163 -0.6804625 -0.58843803 -1.7345749 -0.6660996 0.22849312 -0.12043792
0.013775299 -1.6510901 -0.0011027919 -0.0022757123 -1.7064084 -0.02112223 -4.0776944 -0.0050205323
-1.6201854 -1.6403091 -0.7442779 -1.701028 -0.02053438 -1.6919748 -1.19589 -0.0111769065
0.013288962 -0.3668018 -1.7244003 -1.7055614 -1.6707888 -0.44888774 0.029999606 0.015503276
-6.5355434 -0.8224782 -0.030292787 0.014951374 0.009182198 0.015046183 -0.013446914 -1.61566
-0.01558635 -0.36664757 -0.23124106 -1.5910122 -1.6423035 -1.6466558 0.56111264 -1.6677175
-1.6593649 -0.12210156 -0.62895375 -0.7215834 -0.5168116 0.017115304 -0.38226277 0.23707621
-0.6497665 -0.024301397 -1.6821585 -0.7364678 -0.0027324334 0.31637877 -0.47924566 -1.7279812
-1.7430209 -0.013799886 1.466972 0.024346473 -1.5449984 0.032753903 -1.6822212 0.14970168
-2.5452924 1.4429463 -0.3915 -1.6531065 0.029501535 0.03176372 -1.628028 0.27427503
-0.72516656 1.4119519 -1.6420163 -0.028419336 -0.5667845 0.007117314 1.9713777 -1.7017165
-0.5223819 -0.9682353 0.0018189794 0.029110227 -1.7072419 -1.6576643 -0.67650735 -0.03088101
-0.029114848 1.0259519 -0.020779876 0.9463617 -0.0042782673 -0.012065389 -0.012558059 0.025127294
-1.6898516 0.016576627 -0.030508481 -0.4202991 -1.5761496 -0.5126531 0.021408705 -0.012832614
-0.79937595 -1.6900439 -0.25287464 -0.57461953 -1.7164706 -0.9981711 -0.0056169517 -0.16708396
-1.6863581 -0.01571087 -0.3395878 -1.6695422 -1.6551799 -0.004560924 0.0070151477 -0.110117495
-0.00067682186 -0.55550075 -0.030235417 0.010223231 0.014425921 -0.021532014 -1.659222 -1.1717228
0.18792617 -2.4215088 -0.013856324 -1.6655422 -1.6702842 -0.8335737 0.120092295 -2.3988507
-0.0071558706 -2.6526716 -0.03143217 -1.6624002 -0.86243033 -0.30433586 -2.0818014 -0.4443276
-0.030350529 -0.2962336 -8.546951 0.8157082 -4.040579 0.03173988 -0.2707583 -0.36665532
-0.014792863 -0.25402874 -0.9999128 -0.7702775 -0.018441137 -1.6197568 -1.0796206 0.60954744
-1.7310979 -4.8571215 -0.36730975 -0.11888083 -0.69969475 0.0017090602 -0.3309366 0.005806476
-0.017172301 -0.46378052 -0.806459 0.0016668477 -1.7045072 -1.5668279 -0.026694153 -1.7398776
-0.005403213 -1.0398597 0.024196716 0.25923273 -0.81354576 -0.7525125 -1.658078 0.00975701
-0.029641606 0.022903293 0.029749267 -0.02638011 -1.6771524 -0.38485867 -2.0590243 -0.7023572
