save_mode/SAC_v_200_policy_network.pth (torch, 342351 bytes, 8 tensors)

hidden1.weight f4 [256, 48]
-0.03559404 -0.054503463 0.015577264 -0.059749015 0.031546235 -0.032507 0.004902743 0.040471666
0.039252914 0.019323518 -0.08051608 0.06162455 0.05294603 -0.053854343 -0.016860569 0.032286815
-0.0064577013 0.005503878 0.0044390624 0.043255515 0.060331665 0.053114854 0.01603315 0.0033805072
-0.060738496 0.057483025 -0.034250174 0.017615521 0.058149107 0.05353663 0.014404528 -0.027977144
-0.057120927 0.012080938 -0.044946924 -0.030034196 -0.017231315 -0.051634766 0.013885573 0.015924755
0.035225682 0.034228683 0.03264203 -0.04437723 -0.018625436 0.03237567 -0.037187353 -0.032226782
0.0112507045 -0.01383316 -0.035295457 0.04259623 0.043880768 -0.049149476 0.058550008 -0.01423832
0.053126298 -0.00011959522 -0.02277638 -0.012076937 0.053717464 0.011975365 -0.037828997 0.0052715912
-0.061133705 0.0016696006 -0.04335081 0.049045444 -0.024522573 -0.011888407 -0.01033524 -0.020824037
-0.002933763 -0.04284911 -0.053963568 0.04000404 -0.06086105 0.027740858 -0.033469964 -0.052495006
-0.016082197 -0.022845574 0.015350208 -0.015431786 -0.06205727 0.0408253 -0.037726313 0.017429948
-0.06915648 -0.007855974 -0.017311774 -0.018209003 -0.013611208 -0.028952047 0.034053773 0.04685293
-0.04754816 -0.0068155006 -0.0038551167 0.055592358 0.056702547 -0.04908345 0.04548963 -0.028094158
-0.012865491 -0.03644468 -0.033672966 0.037538715 -0.013440087 -0.025190674 -0.061034814 -0.05776164
0.03922808 0.012942426 -0.0108984485 0.044166386 -0.036599085 0.05336345 -0.031316794 -0.0036710575
0.054066367 0.059474237 -0.0036714599 0.033250548 -0.03360325 0.0392903 0.041471474 0.033447206
-0.03356936 -0.023548283 -0.008951902 -0.048629552 -0.004448518 0.03295193 -0.037860535 -0.02403123
0.047386467 -0.03733164 0.060504213 0.03467729 0.050378338 -0.041774943 0.056624576 -0.029797643
0.009488009 -0.19637318 0.004047066 0.0614758 0.0069000274 -0.078574225 -0.03363523 -0.061652064
-0.041443005 -0.15115137 -0.010163664 -0.029773407 -0.059552386 -0.019863684 -0.09619566 0.025845774
-0.0035730079 0.029059947 0.026045633 0.013609655 0.042692713 0.058978617 -0.09125995 -0.01969339
0.05877155 -0.0043026507 0.13186735 -0.0691289 0.0018612072 -0.0099922195 -0.08146175 -0.06807391
0.044738412 -0.016791195 0.030292273 -0.12087631 0.0031889752 -0.04365053 -0.034947917 -0.19022696
0.029303465 -0.022640713 -0.035535283 0.1381287 -0.055058118 -0.036340117 -0.024002694 -0.046545435
0.029510401 -0.04979831 0.012690067 0.04436131 0.016304962 -0.046719577 0.036951512 0.0015133023
-0.008999512 -0.067664005 -0.068426296 0.060705975 0.059316948 -0.0054220585 -0.012633053 -0.011568472
-0.0027111694 0.0018514097 0.005924973 0.04692536 0.05516258 0.04124464 -0.057700947 -0.034920745
-0.054406807 -0.02922324 -0.069548935 0.035742763 0.030642614 -0.018827036 -0.03620112 0.026236147
-0.023919806 0.034254864 0.02680803 0.0043818294 0.011328362 0.029442757 -0.012469187 -0.055220682
-0.011627593 0.029201113 -0.042409964 -0.026193932 0.015593068 0.004841566 -0.052470364 -0.048059452
-0.02883806 -0.064191766 0.031910807 -0.015881464 0.055667274 0.01136294 -0.0026421696 0.033416018
0.010793202 -0.12798397 -0.024567544 -0.059887655 -0.037710205 -0.018243082 -0.023113566 -0.058951907
00000000: 0ecb 11bd 063f 5fbd c837 7f3c 62bb 74bd
00000010: a036 013d 0f26 05bd 30a7 a03b 9ec5 253d
00000020: aac7 203d 5b4c 9e3c 9de5 a4bd 066a 7c3d
00000030: f0dd 583d 5f96 5cbd 2d1f 8abc 2e3f 043d
00000040: 209b d3bb e059 b43b 8e75 913b b22c 313d
00000050: 561e 773d f68e 593d f457 833c 808b 5d3b
00000060: eec8 78bd 5273 6b3d e949 0cbd 6d4e 903c
00000070: c22d 6e3d 3a49 5b3d f800 6c3c 5330 e5bc
00000080: a2f7 69bd 20ef 453c 441a 38bd 460a f6bc
00000090: b028 8dbc fa7e 53bd 5080 633c a274 823c
000000a0: ce48 103d 6033 0c3d a6b3 053d e6c4 35bd
000000b0: 5f94 98bc 5a9c 043d c451 18bd 3b00 04bd
000000c0: e054 383c 7aa4 62bc f891 10bd 6279 2e3d
000000d0: 52bc 333d f650 49bd 22d2 6f3d d847 69bc
000000e0: f69a 593d 32cf fab8 8895 babc 58de 45bc
000000f0: d806 5c3d 5234 443c 94f2 1abd 50bd ac3b
00000100: 5667 7abd 80d6 da3a 9e90 31bd e0e3 483d
00000110: 90e3 c8bc 98c7 42bc 2355 29bc 2c97 aabc
00000120: 6044 40bb 8c82 2fbd e708 5dbd 47db 233d
00000130: 7049 79bd cc40 e33c cd17 09bd 0105 57bd
00000140: d0be 83bc a426 bbbc 707f 7b3c 9ad5 7cbc
00000150: c42f 7ebd 6e38 273d e886 1abd 40c9 8e3c
00000160: eaa1 8dbd 58b6 00bc 6cd1 8dbc 0c2b 95bc
00000170: 8b01 5fbc d82c edbc f87b 0b3d dce8 3f3d
00000180: dcc1 42bd 9054 dfbb 20a6 7cbb d0b4 633d
00000190: ee40 683d ba0b 49bd 5653 3a3d b825 e6bc
000001a0: c8c9 52bc 0447 15bd aaec 09bd 32c2 193d
000001b0: d033 5cbc ac5c cebc a4ff 79bd 7897 6cbd
000001c0: a0ad 203d 780c 543c 688f 32bc d0e7 343d
000001d0: ece8 15bd a293 5a3d 0a46 00bd 2096 70bb
000001e0: b274 5d3d 429b 733d e09c 70bb ba31 083d
000001f0: 90a3 09bd deee 203d fedd 293d f0ff 083d
00000200: 0680 09bd 54e8 c0bc 00ab 12bc c82f 47bd
00000210: e0c4 91bb 9af8 063d a613 1bbd 24dd c4bc
00000220: 5018 423d 10e9 18bd 44d3 773d c609 0e3d
00000230: 8459 4e3d 341c 2bbd 2cef 673d 301a f4bc
00000240: 9873 1b3c 0d16 49be 409d 843b 0cce 7b3d
00000250: a019 e23b 86eb a0bd 18c5 09bd e086 7cbd
00000260: 24c0 29bd 6dc7 1abe 7f85 26bc 5ce7 f3bc
00000270: 34ed 73bd 2ab9 a2bc 3b02 c5bd 84ba d33c
00000280: 2029 6abb 200f ee3c a75d d53c 08fb 5e3c
00000290: 8ede 2e3d 9093 713d 7fe6 babd 0854 a1bc
000002a0: 70ba 703d 40fd 8cbb 3c08 073e 7493 8dbd
000002b0: c0f3 f33a 68b6 23bc 6bd5 a6bd 566a 8bbd
000002c0: a03f 373d b08d 89bc 8027 f83c 008e f7bd
000002d0: 20fe 503b e6ca 32bd 8c25 0fbd dbca 42be
000002e0: d20d f03c 0479 b9bc 728d 11bd 9c71 0d3e
000002f0: 9f84 61bd 60d9 14bd 4ca1 c4bc 6da6 3ebd
00000300: ccbf f13c 50f9 4bbd 00ea 4f3c 34b4 353d
00000310: fc91 853c 075d 3fbd 785a 173d 005a c63a
00000320: b072 13bc 6d93 8abd 1623 8cbd d4a6 783d
00000330: 54f6 723d 86ab b1bb ddfa 4ebc b089 3dbc
00000340: e0ad 31bb 00ab f23a 4726 c23b ce34 403d
00000350: 28f2 613d 24f0 283d d457 6cbd 0e09 0fbd
00000360: acd9 5ebd 9465 efbc ac6f 8ebd 0167 123d
00000370: 3806 fb3c 283b 9abc a047 14bd 30ed d63c
00000380: 78f3 c3bc d44e 0c3d 849c db3c 7395 8f3b
00000390: 989a 393c f031 f13c 904b 4cbc 152f 62bd
000003a0: a981 3ebc 2c37 ef3c 12b6 2dbd a894 d6bc
000003b0: 117a 7f3c 00a6 9e3b 2aeb 56bd fdd9 44bd
000003c0: cc3d ecbc f976 83bd e8b4 023d d819 82bc
000003d0: 5e03 643d a02b 3a3c 4028 2dbb 3cdf 083d
000003e0: f8d5 303c 3b0e 03be e041 c9bc c24c 75bd
000003f0: 0476 1abd 8472 95bc a958 bdbc 8e77 71bd

hidden1.bias f4 [256]
-0.024432594 0.017985936 0.0 -0.051952664 -0.012105276 -0.06674093 -0.04501306 0.00103485
-0.008297162 -0.029827485 0.015036401 -0.016406834 -0.021517087 -0.015730852 -0.14477105 0.0052313316
0.018794583 -0.16801958 -0.012543304 -0.011335146 0.06644852 -0.002967873 0.004913634 -0.06656285
0.027006425 0.0090555465 -0.056955334 -0.004502718 0.026824517 -0.062024854 -0.4534161 0.015272695
-0.09730181 -0.04507107 -0.0749113 -0.021735193 -0.12945025 -0.07749795 -0.030457586 -0.010821505
-0.058225084 -0.4593396 -0.020533133 -0.024813017 -0.2606283 -0.0033465824 -0.061701685 -0.026546093
-0.055868074 0.006071536 0.0044477046 -0.018482603 -0.042760707 0.010336034 0.0 -0.072836146
0.08432074 0.0 0.006142359 -0.007896783 0.095612414 -0.03490449 -0.019875752 -0.050765116
0.0 0.057672184 -0.026158478 -0.3739132 -0.03052894 0.0038746463 -0.06627 0.014869194
0.02956164 -0.02582038 -0.43377048 -0.05312887 -0.003490633 -0.0043468596 -0.016085593 -0.009787606
-0.037600596 -0.022976786 -0.027051965 -0.50335133 -0.009841143 -0.034302566 0.027088134 -0.017151259
-0.022922505 -0.047815923 -0.0043800715 -0.04800049 0.013129907 -0.016628586 -0.02821551 -0.062126428
-0.040574882 -0.63292146 -0.0015894459 -0.024546217 -0.027536117 0.04388491 -0.021709388 0.0
-0.017320378 0.007886511 -0.72939515 -0.052341398 -0.0168755 -0.035285268 -0.0075202966 -0.007883309
0.0 -0.04317951 -0.053417657 -0.043674532 -0.035328064 -0.019999221 -0.10073182 -0.14618684
0.13570851 -0.06246031 0.010472716 -0.04172996 -0.012299986 -0.008632244 -0.004364718 -0.054233756
0.00021920427 -0.012795458 -0.051209513 0.022376137 0.00888482 -0.03244089 -0.00043606362 0.006268681
0.0 -0.28329548 -0.0022733277 -0.040028382 -0.07214018 0.19285929 0.029461673 -0.0016691478
-0.00059028686 0.01745304 -0.05689731 -0.023685802 -0.037602298 0.016611174 -0.020334555 0.01285167
0.016307084 4.484946e-05 0.024102952 0.0 0.0171353 0.025048314 -0.007947523 0.0015355749
-0.010030732 0.06649069 -0.0062443917 -0.033458494 -0.048047088 0.05093108 0.025439102 0.0035817164
-0.04235354 0.12915593 -0.035290685 -0.00799796 -0.0131782405 -0.01820053 0.018277291 -0.02950344
-0.024471896 -0.006957046 -0.059507184 -0.043490753 -0.0073418464 -0.020167356 -0.08211113 -0.00045973648
-0.017133202 -0.03154914 -0.020133255 -0.020963253 -0.021259429 -0.013221141 -0.005669779 0.0067627546
0.124640316 -0.109588526 0.018289808 -0.0035459734 -0.018155498 0.023265475 -0.040616933 0.0
-0.036964826 0.0 -0.038497254 0.017420094 0.0 -0.045788992 0.0 -0.08141396
0.01562856 0.012856182 -0.064992756 -0.43023935 0.0030073328 -0.01134601 0.012319479 0.019938648
-0.019540276 0.0046212175 -0.3410891 -0.0010992801 0.105567805 0.009000486 0.0 -0.37015224
0.027401254 -0.020909943 -0.015447173 -0.050860904 0.005561585 0.07106374 0.0071258848 -0.005902755
-0.024676578 -0.01295264 0.027069604 0.0654243 0.013328167 -0.017949464 -0.043391965 -0.0322756
-0.081394196 0.0 -0.029485539 0.02076637 -0.0019395647 0.031133613 0.009891259 0.11726899
-0.059860766 -0.021801192 -0.044092562 -0.017088898 -0.024544265 -0.05369155 -0.020255202 0.0
00000000: dd26 c8bc 3e57 933c 0000 0000 51cc 54bd
00000010: 3555 46bc 78af 88bd 9d5f 38bd cea3 873a
00000020: d2f0 07bc c558 f4bc 3d5b 763c a067 86bc
00000030: 9a44 b0bc fddd 80bc dd3e 14be 976b ab3b
00000040: 19f7 993c 530d 2cbe 6e82 4dbc 0cb7 39bc
00000050: 2916 883d a580 42bb 8d02 a13b 1a52 88bd
00000060: 943c dd3c b75d 143c ff49 69bd 898b 93bb
00000070: 17bf db3c c60d 7ebd 2826 e8be 533a 7a3c
00000080: 2c46 c7bd 719c 38bd 186b 99bd 010e b2bc
00000090: 9b8e 04be 3fb7 9ebd 3082 f9bc af4c 31bc
000000a0: 6d7d 6ebd 8f2e ebbe 1a35 a8bc ab44 cbbc
000000b0: 1371 85be 5652 5bbb e8ba 7cbd 3177 d9bc
000000c0: ecd5 64bd bcf3 c63b 0dbe 913b d468 97bc
000000d0: da25 2fbd 7858 293c 0000 0000 1e2b 95bd
000000e0: 5ab0 ac3d 0000 0000 d845 c93b 8261 01bc
000000f0: 71d0 c33d 03f8 0ebd 79d2 a2bc 15ef 4fbd
00000100: 0000 0000 ab39 6c3d 4e4a d6bc 8d71 bfbe
00000110: d417 fabc c7ed 7d3b 91b8 87bd eb9d 733c
00000120: 412b f23c 4385 d3bc 2a17 debe a89d 59bd
00000130: 1bc3 64bb 1a70 8ebb efc5 83bc 325c 20bc
00000140: 1503 1abd d039 bcbc 159c ddbc a2db 00bf
00000150: bf3c 21bc d980 0cbd efe7 dd3c cc80 8cbc
00000160: fac7 bbbc a1da 43bd b486 8fbb 299c 44bd
00000170: d21e 573c ac38 88bc 3724 e7bc 4878 7ebd
00000180: d931 26bd 2407 22bf f454 d0ba 2615 c9bc
00000190: 6c93 e1bc aac0 333d e3d7 b1bc 0000 0000
000001a0: 77e3 8dbc 6d36 013c a4b9 3abf ef63 56bd
000001b0: 7d3e 8abc 4987 10bd d26c f6bb ff28 01bc
000001c0: 0000 0000 ffdc 30bd 79cc 5abd 11e4 32bd
000001d0: 29b4 10bd 68d5 a3bc 7c4c cebd 01b2 15be
000001e0: 2cf7 0a3e 62d6 7fbd c195 2b3c 09ed 2abd
000001f0: e185 49bc 416e 0dbc e905 8fbb 3724 5ebd
00000200: 33da 6539 0aa4 51bc 11c1 51bd 294e b73c
00000210: a391 113c bde0 04bd 789f e4b9 8269 cd3b
00000220: 0000 0000 1b0c 91be 1cfc 14bb cdf4 23bd
00000230: 3bbe 93bd e87c 453e 9b59 f13c 4ec7 daba
00000240: 7bbd 1aba aef9 8e3c 270d 69bd ba08 c2bc
00000250: de04 1abd 2814 883c a794 a6bc d08f 523c
00000260: 6f96 853c be1c 3c38 8e73 c53c 0000 0000
00000270: 545f 8c3c 1f32 cd3c 5436 02bc 5845 c93a
00000280: f057 24bc 452c 883d c19d ccbb c60b 09bd
00000290: 06cd 44bd 1c9d 503d aa65 d03c 3bbb 6a3b
000002a0: e87a 2dbd 7441 043e f78c 10bd e009 03bc
000002b0: 8ce9 57bc 4719 95bc 42ba 953c 33b1 f1bc
000002c0: 4979 c8bc eff7 e3bb cebd 73bd 5c23 32bd
000002d0: df93 f0bb 0336 a5bc e129 a8bd c908 f1b9
000002e0: ee5a 8cbc ac39 01bd 7fee a4bc 21bb abbc
000002f0: 4128 aebc 7c9d 58bc 8ec9 b9bb 199a dd3b
00000300: 6c43 ff3d f36f e0bd 82d4 953c 9063 68bb
00000310: d7ba 94bc 3d97 be3c f15d 26bd 0000 0000
00000320: 6e68 17bd 0000 0000 4caf 1dbd 96b4 8e3c
00000330: 0000 0000 3d8d 3bbd 0000 0000 5dbc a6bd
00000340: 7707 803c bca2 523c ec1a 85bd 5548 dcbe
00000350: ac16 453b 9de4 39bc a4d7 493c 6056 a33c
00000360: ee12 a0bc 956d 973b 3ba3 aebe b815 90ba
00000370: ef33 d83d c676 133c 0000 0000 9884 bdbe
00000380: 9878 e03c 544b abbc 2416 7dbc 8653 50bd
00000390: f53d b63b de89 913d 4180 e93b e66b c1bb
000003a0: 8926 cabc 4f37 54bc 13c1 dd3c 2dfd 853d
000003b0: 625e 5a3c c10a 93bc c6bb 31bd 6b33 04bd
000003c0: 00b2 a6bd 0000 0000 a88b f1bc 3c1e aa3c
000003d0: fe38 feba eb0b ff3c f20e 223c b92a f03d
000003e0: 9030 75bd 6a98 b2bc 679a 34bd 04fe 8bbc
000003f0: 0e11 c9bc aceb 5bbd 3dee a5bc 0000 0000

hidden2.weight f4 [256, 256]
0.03264385 0.054036815 -0.003915563 -0.0012390085 0.058607545 -0.04576287 0.04618265 -0.021612812
-0.03572213 0.087825656 0.026154842 -0.027840378 0.055579413 0.0555451 -0.13173617 0.033776626
-0.04096398 -0.12501906 0.0018094247 -0.042787563 -0.021308756 0.011000686 -0.038367026 -0.032632723
0.010747894 0.04039433 -0.03762122 0.0015624526 0.045059912 -0.04342881 -0.08727679 0.009562018
0.032906175 -0.0017949559 0.047854874 -0.084556594 0.14552186 -0.066927366 -0.04409312 0.036317937
0.03458221 -0.028549602 -0.020930579 0.05686975 -0.21108504 -0.10645692 -0.092406966 -0.0049558454
-0.048016954 -0.052783486 0.0683727 -0.041945007 0.012376682 -0.0631574 0.029642075 -0.02344928
-0.015894417 -0.045411557 -0.0685519 -0.03853544 -0.06845651 0.043421853 -0.0066395397 -0.022715706
0.0040708855 -0.05138234 -0.011112555 -0.48002058 0.008882519 0.025742339 -0.021006929 -0.011456224
-0.0508871 -0.023455586 0.0052671093 -0.0033199314 -0.034249913 0.006753884 -0.0551633 0.020726012
-0.024961006 -0.015530736 -0.04101198 -0.33873925 0.027143514 -0.040961266 0.04723936 -0.07105774
-0.007779371 -0.06378382 -0.027622722 -0.02288191 -0.019071583 -0.044619914 0.028275335 0.06724474
0.007209212 -0.24395591 0.0058945366 -0.040313285 0.014627 0.04953932 -0.053540725 0.015206464
-0.024527738 0.02825557 -0.1398528 -0.044277746 0.033864804 0.08480875 -0.0027661643 0.03919542
0.035486385 0.040885225 -0.014340328 0.0030272258 -0.023898209 0.020852325 0.04617947 0.11732336
-0.06423551 -0.09282067 0.09999678 0.0077968673 -0.055258527 -0.05919177 0.064606614 -0.05324105
-0.0062205493 -0.013821165 0.010746553 0.00014057031 -0.0005771319 -0.010990135 -0.0013944003 0.06644326
-0.0138998255 0.13555856 -0.008713674 -0.017206889 0.062020615 -0.013866166 0.025639396 -0.05583375
0.015678428 -0.016210616 0.02007034 -0.020039381 -0.037535466 0.03118282 -0.025169594 0.014795437
0.03230925 0.0031909938 -0.052116543 0.028082468 -0.052027147 -0.04928838 0.006322539 -0.016576713
-0.038917117 0.037380204 -0.043339137 0.07136186 0.01198538 0.06545791 -0.037850216 0.020869544
-0.050404157 0.001476562 -0.0069228928 -0.0574562 0.009521363 0.044850454 -0.07584383 -0.049855057
-0.02171537 0.020287752 0.015344606 -0.0017865521 -0.01837186 0.007316052 0.098382905 0.03749403
-0.01180865 -0.08337019 -0.05348268 0.1011103 0.046911858 0.0970157 -0.03422647 0.027090563
-0.2547561 0.0011157403 -0.05301459 0.019724429 0.01582458 -0.11659346 0.033730328 -0.0058310702
0.04674882 -0.04800219 -0.0023867565 -0.00254464 -0.04825955 0.0057329303 0.026991986 0.069483675
-0.010073112 0.121110104 -0.038597897 -0.28727975 -0.235074 0.01594937 0.060010083 -0.009072489
0.032573752 0.028477626 -0.02175337 0.030588442 -0.0049163564 0.05196582 0.052835897 -0.07038364
0.05081559 0.029136294 -0.011966921 -0.05059061 -0.037008308 -0.044456758 0.02016035 0.02018232
0.010832238 -0.038528733 0.0050114444 -0.12111581 0.030704493 0.0513354 -0.024200711 -0.07171401
-1.649234 0.056916974 0.01289968 -0.03744076 -0.011022953 0.12786876 0.06118077 0.03002628
0.007444188 -0.004188083 0.005606891 -0.03953964 -0.052409444 0.023760535 -0.11250285 0.059221305
00000000: 8fb5 053d b555 5d3d 204e 80bb 3a66 a2ba
00000010: 770e 703d d971 3bbd 052a 3d3d 5a0d b1bc
00000020: 5e51 12bd f0dd b33d ae42 d63c 8111 e4bc
00000030: 3da7 633d 4283 633d d9e5 06be 5c59 0a3d
00000040: d9c9 27bd ff04 00be 382a ed3a 0342 2fbd
00000050: b38f aebc 393c 343c be26 1dbd e4a9 05bd
00000060: ef17 303c 8674 253d b518 1abd 36cb cc3a
00000070: be90 383d 68e2 31bd 2cbe b2bd 03aa 1c3c
00000080: a0c8 063d ba44 ebba 7903 443d 022c adbd
00000090: af03 153e 3711 89bd fd9a 34bd 1ec2 143d
000000a0: 13a6 0d3d dbe0 e9bc 9b76 abbc 41f0 683d
000000b0: ad26 58be 1606 dabd dd3f bdbd a564 a2bb
000000c0: 6dad 44bd 7f33 58bd fc06 8c3d 87ce 2bbd
000000d0: 91c7 4a3c ab58 81bd f0d3 f23c b418 c0bc
000000e0: 0235 82bc 7801 3abd f064 8cbd 56d7 1dbd
000000f0: ed32 8cbd 1ddb 313d 7f90 d9bb 4a16 babc
00000100: 1065 853b 4a76 52bd 6f11 36bc 42c5 f5be
00000110: fc87 113c 99e1 d23c b916 acbc e3b2 3bbc
00000120: fe6e 50bd ee25 c0bc b797 ac3b 3593 59bb
00000130: a349 0cbd af4f dd3b eaf2 61bd 99c9 a93c
00000140: 067b ccbc a174 7ebc 2efc 27bd 3b6f adbe
00000150: 135c de3c 00c7 27bd 0f7e 413d b886 91bd
00000160: 18ea febb 17a1 82bd 0c49 e2bc d872 bbbc
00000170: 023c 9cbc 5fc3 36bd ada1 e73c 9cb7 893d
00000180: 413b ec3b 94cf 79be f526 c13b 8b1f 25bd
00000190: 16a6 6f3c bee9 4a3d 854d 5bbd 8824 793c
000001a0: 65ee c8bc 3a78 e73c 9335 0fbe 955c 35bd
000001b0: d2b5 0a3d 36b0 ad3d 8948 35bb 608b 203d
000001c0: 2c5a 113d 4477 273d b2f3 6abc 6c64 463b
000001d0: 2dc6 c3bc 7fd2 aa3c af26 3d3d 3b47 f03d
000001e0: e88d 83bd c318 bebd 1dcb cc3d dd7c ff3b
000001f0: c456 62bd 1273 72bd 7950 843d 4a13 5abd
00000200: c0d5 cbbb 2b72 62bc 4f12 303c 0e66 1339
00000210: ab4a 17ba f80f 34bc 4fc4 b6ba 6713 883d
00000220: 18bc 63bc ddcf 0a3e ccc3 0ebc 76f5 8cbc
00000230: 5409 7e3d ea2e 63bc b609 d23c eeb1 64bd
00000240: 0c70 803c 20cc 84bc 8e6a a43c a129 a4bc
00000250: cabe 19bd 1d73 ff3c 7730 cebc 9068 723c
00000260: b456 043d fe1f 513b 2878 55bd 340d e63c
00000270: 6b1a 55bd 9de2 49bd 4d2d cf3b e3cb 87bc
00000280: 8e67 1fbd fc1b 193d 6184 31bd 2b26 923d
00000290: 545e 443c cc0e 863d d408 1bbd 9bf6 aa3c
000002a0: 9774 4ebd 3389 c13a 6fd9 e2bb 3157 6bbd
000002b0: 7eff 1b3c 1cb5 373d 0354 9bbd d134 4cbd
000002c0: 6ee4 b1bc 8032 a63c f167 7b3c be2a eaba
000002d0: 9580 96bc 7ebb ef3b fa7c c93d 5793 193d
000002e0: 1179 41bc fdbd aabd a810 5bbd eb12 cf3d
000002f0: a626 403d 2bb0 c63d 0e31 0cbd 07ed dd3c
00000300: 646f 82be 083e 923a d425 59bd 2095 a13c
00000310: 8da2 813c 8dc8 eebd d028 0a3d 9012 bfbb
00000320: b17b 3f3d f29d 44bd 216b 1cbb fac3 26bb
00000330: ceab 45bd 4edb bb3b 4c1e dd3c 754d 8e3d
00000340: b209 25bc 9308 f83d d418 1ebd 5516 93be
00000350: 3db7 70be 41a8 823c 22cd 753d c7a4 14bc
00000360: 0e6c 053d e949 e93c 2034 b2bc 9d94 fa3c
00000370: 6319 a1bb 1dda 543d 746a 583d 4c25 90bd
00000380: 0224 503d 3daf ee3c e810 44bc 1938 4fbd
00000390: 0696 17bd 4a18 36bd 5127 a53c 6555 a53c
000003a0: b379 313c 4ed0 1dbd 0b37 a43b 910b f8bd
000003b0: fd87 fb3c 1245 523d 9240 c6bc cbde 92bd
000003c0: 1a1a d3bf c621 693d 2e59 533c 7b5b 19bd
000003d0: 9e99 34bc 07f0 023e b098 7a3d acf9 f53c
000003e0: 60ee f33b 303c 89bb 03ba b73b 51f4 21bd
000003f0: 49ab 56bd 74a5 c23c e567 e6bd 0a92 723d

hidden2.bias f4 [256]
0.08175201 -0.03596374 -0.05943438 -0.03893904 -0.022487195 -0.050279457 0.007899021 0.02399212
0.000825987 -0.04831683 -0.06549095 0.0071471184 -0.045255654 -0.069959596 0.15983675 -0.089815065
-0.051179364 -0.052135017 -0.11889398 -0.09387219 0.00800975 -0.07997016 0.15294658 -0.058711614
-0.036593024 -0.07574177 0.039359484 -0.02092631 0.011137395 -0.022344371 -0.09206725 -0.03415923
0.05985471 0.07365909 -0.08043956 0.0071772453 -0.031322327 0.2194365 -0.0024906553 -0.057787187
0.17006247 -0.032302674 0.006930952 -0.05588934 -0.037708748 0.02871559 -0.044711333 0.060354166
-0.0041282745 -0.011854433 -0.04018906 -0.070810966 -0.031747326 -0.051308643 -0.049822036 -0.031851463
-0.011405139 0.2785423 -0.08510933 -0.046759628 0.02374005 -0.03171074 -0.028752865 -0.008674509
0.020819943 0.090848625 -0.013815848 -0.069869205 0.13256654 0.03653162 -0.078805506 0.011516321
0.04177353 -0.0009450526 -0.04582223 -0.060462907 0.06456564 -0.06695816 -0.041953914 0.21164666
0.1293937 -0.029128635 0.010944789 -0.00608977 0.011824913 -0.061722655 0.03381425 -0.057328235
0.064636014 0.35570943 0.28952318 -0.038129225 -0.015965318 -0.04979438 -0.06280233 -0.01837289
-0.031121247 -0.027212843 -0.111396894 -0.0058215163 -0.04306915 -0.10479164 -0.051940784 -0.028282212
-0.015053541 -0.0058116857 -0.058173075 0.6617677 0.02890342 0.020498056 -0.043103095 -0.08404187
-0.027271345 0.03279894 0.056323294 -0.059432704 0.034237564 -0.08548984 -0.01687556 -0.08457239
0.083898924 -0.05777046 -0.011819173 -0.050131314 -0.015507859 -0.041135196 -0.06522056 0.029679518
0.06341476 -0.06617222 -0.03336889 0.122719355 -0.08632521 0.08214204 -0.008160197 -0.014766071
-0.06473542 0.020401614 0.0018695039 -0.031980842 -0.059198875 -0.023990428 0.23575926 0.09116275
-0.12425967 -0.013579793 0.017882405 -0.031508602 -0.00030919083 -0.019345585 -0.025942206 0.9843311
-0.0081936335 0.04349829 0.021643847 0.019536695 0.0009879015 -0.037262507 0.01459463 -0.003186821
-0.0038999575 -0.020186132 -0.02789097 -0.01845744 -0.006294548 -0.06514735 -0.031944774 -0.028628033
-0.034688793 -0.0077966037 0.032693706 -0.047176342 0.006927342 -0.024789674 0.15771647 -0.017811902
0.5271201 -0.022983445 -0.013011473 -0.03656127 -0.07086454 -0.041434783 -0.037155177 -0.08601026
0.026875993 0.024038961 -0.086047396 0.017965386 0.028005283 -0.02414103 -0.0473611 0.0052174134
-0.07771833 0.09583919 0.045046635 0.038387764 0.037092548 -0.06145398 -0.072617196 -0.12955175
0.28357896 -0.031792965 0.04269427 0.093354374 0.15031186 0.37809572 -0.036038578 -0.029059066
-0.036464367 -0.02661877 -0.050711513 -0.05263634 -0.048042472 -0.012040275 -0.061267175 -0.014646301
-0.037546974 -0.032359667 -0.19587 -0.025315102 -0.06592442 0.009956333 -0.03630418 0.33314246
-0.084177144 -0.0055678226 -0.0456628 -0.016237294 -0.03946218 -0.020234214 -0.056631953 -0.007092562
-0.03638787 -0.04880938 0.15126781 -0.02200824 -0.101968594 -0.05068748 -0.0055939886 -0.009380805
-0.091992706 -0.029786559 -0.014128968 -0.06354748 -0.046131205 0.055090293 0.039173976 -0.05180818
0.015625514 -0.0060791434 -0.034712516 -0.011546314 -0.0865812 -0.05647501 0.0765423 -0.009590933
00000000: 996d a73d b74e 13bd 7771 73bd 8b7e 1fbd
00000010: 1137 b8bc d5f1 4dbd e56a 013c 1f8b c43c
00000020: 0d87 583a dee7 45bd 1f20 86bd 6032 ea3b
00000030: fe5d 39bd fa46 8fbd 3fac 233e f6f0 b7bd
00000040: 74a1 51bd 878b 55bd b07e f3bd 1040 c0bd
00000050: 543b 033c 65c7 a3bd 079e 1c3e 977b 70bd
00000060: 91e2 15bd 801e 9bbd 6937 213d a76d abbc
00000070: 9f79 363c 8b0b b7bc c18d bcbd 8cea 0bbd
00000080: 362a 753d 94da 963d 7fbd a4bd 192f eb3b
00000090: d74b 00bd f6b3 603e 433a 23bb 42b2 6cbd
000000a0: db24 2e3e cf4f 04bd 0a1d e33b 38ec 64bd
000000b0: 7d74 1abd f53c eb3c 3b23 37bd ee35 773d
000000c0: 7a46 87bb 1939 42bc 499d 24bd 5705 91bd
000000d0: 7c09 02bd 0329 52bd 3112 4cbd ae76 02bd
000000e0: 9fdc 3abc 199d 8e3e cd4d aebd 0687 3fbd
000000f0: 7e7a c23c 1fe3 01bd 218b ebbc 871f 0ebc
00000100: 968e aa3c d80e ba3d de5b 62bc 9617 8fbd
00000110: 86bf 073e 2ea2 153d c864 a1bd f4ae 3c3c
00000120: b91a 2b3d 68bd 77ba 17b0 3bbd f4a7 77bd
00000130: fe3a 843d 5c21 89bd ded7 2bbd e7b9 583e
00000140: c87f 043e 2d9f eebc c651 333c b18c c7bb
00000150: 48bd 413c e5d0 7cbd d080 0a3d 03d1 6abd
00000160: e35f 843d 8c1f b63e 623c 943e 642d 1cbd
00000170: b3c9 82bc 31f5 4bbd 829e 80bd be82 96bc
00000180: fcf1 febc 78ed debc 0e24 e4bd 6bc2 bebb
00000190: 4769 30bd 009d d6bd dcbf 54bd 19b0 e7bc
000001a0: 21a3 76bc f46f bebb e446 6ebd 9c69 293f
000001b0: ddc6 ec3c 8aeb a73c df8c 30bd 251e acbd
000001c0: 2868 dfbc 2e58 063d 41b3 663d b56f 73bd
000001d0: b03c 0c3d 4c15 afbd 9d3e 8abc 4a34 adbd
000001e0: 33d3 ab3d b8a0 6cbd 34a5 41bc 7e56 4dbd
000001f0: ad14 7ebc 617d 28bd 5b92 85bd 7622 f33c
00000200: 99df 813d 4d85 87bd d1ad 08bd 4954 fb3d
00000210: 46cb b0bd 163a a83d 59b2 05bc 64ed 71bc
00000220: 0194 84bd 4921 a73c 240a f53a 58fe 02bd
00000230: 857a 72bd 9387 c4bc e06a 713e 89b3 ba3d
00000240: db7b febd c87d 5ebc 1f7e 923c 2a0f 01bd
00000250: e41a a2b9 a27a 9ebc c084 d4bc 1ffd 7b3f
00000260: 973e 06bc 432b 323d 704e b13c 6b0b a03c
00000270: 797c 813a 92a0 18bd 511e 6f3c fcd9 50bb
00000280: 6e96 7fbb 635d a5bc 9b7b e4bc 0f34 97bc
00000290: 7f42 cebb f96b 85bd 86d8 02bd 5685 eabc
000002a0: d615 0ebd a77a ffbb d6e9 053d fb3b 41bd
000002b0: c2fe e23b b713 cbbc 6d80 213e 44ea 91bc
000002c0: 58f1 063f c747 bcbc 132e 55bc 45c1 15bd
000002d0: 6e21 91bd 85b7 29bd 0730 18bd 2626 b0bd
000002e0: 0b2b dc3c 5bed c43c 9e39 b0bd 252c 933c
000002f0: 566b e53c 69c3 c5bc b6fd 41bd d6f6 aa3b
00000300: ca2a 9fbd 5647 c43d d282 383d 7d3c 1d3d
00000310: 5bee 173d 2bb7 7bbd 53b8 94bd 37a9 04be
00000320: 4331 913e 5739 02bd 30e0 2e3d 9430 bf3d
00000330: 5aeb 193e c395 c13e 309d 13bd 470d eebc
00000340: a95b 15bd 9b0f dabc e0b6 4fbd 3499 57bd
00000350: 2fc8 44bd 9344 45bc 4af3 7abd 0af7 6fbc
00000360: dbca 19bd 928b 04bd 2592 48be 9e61 cfbc
00000370: 6203 87bd e31f 233c b1b3 14bd a691 aa3e
00000380: 1165 acbd 4872 b6bb eb08 3bbd 1304 85bc
00000390: 18a3 21bd 39c2 a5bc e8f6 67bd b968 e8bb
000003a0: 720b 15bd 58ec 47bd f3e5 1a3e a04a b4bc
000003b0: e9d4 d0bd ad9d 4fbd c74d b7bb f3b1 19bc
000003c0: ac66 bcbd f102 f4bc 307d 67bc 2e25 82bd
000003d0: 13f4 3cbd 5ca6 613d e474 203d d034 54bd
000003e0: 1401 803c 8d33 c7bb b62e 0ebd c02c 3dbc
000003f0: 7c51 b1bd 5752 67bd 36c2 9c3d 4a23 1dbc

last_mean.weight f4 [13, 256]
0.07589768 -0.14697535 -0.43214473 -0.109809555 -0.084437355 -0.0034103226 0.0054624905 0.008227474
0.045831155 -0.06628642 0.009359672 0.037761703 0.24388693 -0.029722976 -0.20903885 -0.35607177
0.04130079 0.101361796 0.04671232 -0.14699216 0.026896566 -0.2013947 -0.042343747 -0.008888723
0.092283994 -0.13941488 0.012849314 -0.35713288 -0.007319676 0.002305832 -0.1767177 0.016279127
-0.018509291 0.056947 -0.08338741 -0.067205936 0.007437659 -0.02648797 0.021988293 0.12188191
-0.009325742 -0.02400311 -0.0009344716 0.03341355 -0.043014314 -0.26074266 -0.3154611 -0.08040381
-0.063430205 0.058571294 -0.011590452 -0.10803923 0.02849392 -0.003690655 0.015100338 0.029505124
-0.1249278 -0.046028335 -0.301485 -0.023043446 -0.042225517 0.22957596 -0.051968157 0.07532706
-0.09693928 -0.018121695 -0.022826124 -0.038947392 -0.14211121 0.050631955 0.013132608 -0.085154414
-0.07335383 0.021608071 0.04824688 -0.51202077 -0.16683087 -0.27485594 -0.014317742 0.004003541
0.2643115 0.026349274 0.17770918 0.035830565 0.027745113 0.09357909 0.06810081 -0.018574707
0.13048613 0.09094325 0.15743218 0.015989449 -0.010120575 0.022285553 -0.045185253 0.0012846295
0.0036596814 -0.001229614 0.29484797 0.035813212 -0.022355508 -0.15390994 -0.101025335 0.074649006
-0.33473086 -0.1120328 0.11912891 -0.077369705 -0.16791627 -0.10109203 0.05830562 -0.012586386
0.0060485103 0.0043440782 -0.26136556 -0.029464368 0.09096155 0.09522201 0.038100157 0.12028153
-0.32751682 0.019849895 0.06433495 -0.00028710318 -0.009722859 -0.09791071 0.1686349 -0.26819503
-0.066394106 0.13633496 -0.046781894 -0.1273446 -0.052273016 0.070653655 0.010048794 -0.0036448329
-0.009314954 0.0776936 -0.1851992 0.0023849683 0.03434062 -0.045190614 0.07598279 -0.15175463
0.07206014 0.02977844 0.1445666 0.057529174 -0.057861198 0.014049854 0.08842427 0.02441212
0.20247361 -0.04741965 -0.06721346 -0.67615753 -0.06788564 0.09790476 0.04058245 -0.084875815
-0.09038424 -0.051169578 0.01803952 -0.015171137 0.02397182 0.022791682 0.0067489417 -0.0057438985
-0.028307168 -0.07430656 -0.1586938 0.0027853847 -0.29642832 0.0074243764 0.064622305 0.019683119
0.5082262 0.0088779 0.018355308 -0.27951032 0.0658452 -0.10515861 0.023771295 0.18235266
-0.07841265 -0.15262435 0.016897932 0.23274209 -0.03606243 -0.013932864 0.07373729 -0.037591346
0.021026205 -0.05256078 -0.1726842 0.62907845 -0.004246308 -0.46426445 0.019927854 -0.0257678
-0.12537703 0.0067925924 0.6264771 0.44860825 0.099654235 -0.18520914 -0.027253522 0.05489151
-0.016115768 -0.09034817 0.0007870307 0.008327787 -0.049559344 0.043102033 -0.050820116 0.016552221
-0.0037573485 -0.43725353 -0.047511574 0.05569031 -0.036813673 -0.14367382 -0.0513941 -0.025060343
-0.021225473 -0.011819292 0.024508044 0.018628513 -0.04107142 -0.032462858 0.18656754 -0.028827308
-0.034592815 0.013486898 -0.23656951 -0.047202274 -0.111042395 -0.07381363 0.0052713 -0.02266707
-0.003761121 0.06697534 0.021160834 0.15776516 -0.00423913 0.16395235 0.05380444 -0.033167154
-0.22097844 -0.003948998 -0.11639955 0.35740474 -0.13708371 0.009836855 0.09112376 0.027405981
00000000: 3e70 9b3d b580 16be 1342 ddbe d5e3 e0bd
00000010: 7eed acbd b87f 5fbb b1fe b23b 87cc 063c
00000020: 73b9 3b3d 2dc1 87bd 4f59 193c 04ac 1a3d
00000030: 7fbd 793e 997d f3bc 480e 56be 0a4f b6be
00000040: 042b 293d c696 cf3d 6b55 3f3d 1d85 16be
00000050: 3056 dc3c 6a3a 4ebe a370 2dbd 02a2 11bc
00000060: 64ff bc3d c6c2 0ebe ee85 523c 1fda b6be
00000070: e5d9 efbb 711d 173b 7cf5 34be ce5b 853c
00000080: cca0 97bc 4241 693d 05c7 aabd 44a3 89bd
00000090: 9bb7 f33b 4dfd d8bc cb20 b43c 399d f93d
000000a0: ffca 18bc 2ca2 c4bc 54f7 74ba a6dc 083d
000000b0: c72f 30bd 1080 85be 1e84 a1be c1aa a4bd
000000c0: b2e7 81bd 74e8 6f3d e1e5 3dbc ac43 ddbd
000000d0: 156c e93c ebde 71bb 6867 773c bbb4 f13c
000000e0: 25da ffbd 3588 3cbd 3e5c 9abe 9cc5 bcbc
000000f0: aaf4 2cbd f615 6b3e 90dc 54bd 1345 9a3d
00000100: 1a88 c6bd f373 94bc dafd babc 4d87 1fbd
00000110: 9a85 11be 7463 4f3d 262a 573c 7065 aebd
00000120: 883a 96bd 6903 b13c 859e 453d cb13 03bf
00000130: b6d5 2abe ebb9 8cbe f694 6abc 2330 833b
00000140: d653 873e 6fda d73c 65f9 353e 12c3 123d
00000150: b849 e33c 65a6 bf3d 7078 8b3d fc29 98bc
00000160: 289e 053e 7440 ba3d e735 213e 4efc 823c
00000170: c5d0 25bc 3190 b63c 2c14 39bd 0361 a83a
00000180: 44d7 6f3b 002b a1ba 50f6 963e e0b0 123d
00000190: e622 b7bc 919a 1dbe 5fe6 cebd 94e1 983d
000001a0: d861 abbe 7471 e5bd dcf9 f33d 0274 9ebd
000001b0: 3ef2 2bbe 5709 cfbd e0d1 6e3d 2137 4ebc
000001c0: 9532 c63b c558 8e3b b5d1 85be 425f f1bc
000001d0: 0d4a ba3d c203 c33d e90e 1c3d 2a56 f63d
000001e0: 49b0 a7be 3f9c a23c 0bc2 833d 5686 96b9
000001f0: a04c 1fbc 6985 c8bd a1ae 2c3e dc50 89be
00000200: a2f9 87bd 649b 0b3e 5f9e 3fbd 9f66 02be
00000210: 3b1c 56bd ddb2 903d b2a3 243c 26de 6ebb
00000220: c09d 18bc d21d 9f3d dca4 3dbe 214d 1c3b
00000230: c0a8 0c3d cb19 39bd dd9c 9b3d 9165 1bbe
00000240: 4494 933d eaf1 f33c 4409 143e b6a3 6b3d
00000250: ddff 6cbd 5c31 663c c917 b53d edfb c73c
00000260: 3e55 4f3e 1b3b 42bd 36a7 89bd a918 2dbf
00000270: a007 8bbd 4a82 c83d c839 263d 5fd3 adbd
00000280: 5f1b b9bd 3197 51bd 9ec7 933c 5c90 78bc
00000290: 8d60 c43c 9fb5 ba3c 3a26 dd3b 5037 bcbb
000002a0: 6fe4 e7bc 0a2e 98bd a180 22be 008b 363b
000002b0: 74c5 97be 2f48 f33b b358 843d 7e3e a13c
000002c0: 1d1b 023f 9d74 113c df5d 963c fa1b 8fbe
000002d0: d9d9 863d 665d d7bd 05bc c23c a8ba 3a3e
000002e0: d096 a0bd 8f49 1cbe 886d 8a3c f153 6e3e
000002f0: 33b6 13bd ab46 64bc 9403 973d 62f9 19bd
00000300: 263f ac3c f949 57bd 20d4 30be 490b 213f
00000310: 9d24 8bbb 12b4 edbe bd3f a33c fe16 d3bc
00000320: d662 00be 6594 de3b ce60 203f fbaf e53e
00000330: 8517 cc3d 77a7 3dbe c742 dfbc ecd5 603d
00000340: 3705 84bc 7608 b9bd bc50 4e3a 4571 083c
00000350: bdfe 4abd c28b 303d c128 50bd 8698 873c
00000360: d93d 76bb b2df dfbe 7f9b 42bd 861b 643d
00000370: efc9 16bd 3b1f 13be 9f82 52bd 594b cdbc
00000380: 0be1 adbc b4a5 41bc 18c5 c83c d39a 983c
00000390: 813a 28bd c6f7 04bd 900b 3f3e 3f27 ecbc
000003a0: 32b1 0dbd 26f8 5c3c 473f 72be 2c57 41bd
000003b0: 326a e3bd 9a2b 97bd dfba ac3b 4bb0 b9bc
000003c0: 247d 76bb 5e2a 893d 7c59 ad3c 318d 213e
000003d0: 66e8 8abb 20e3 273e 0b62 5c3d 48da 07bd
000003e0: 2c48 62be 9966 81bb e362 eebd c1fd b63e
000003f0: ac5f 0cbe c32a 213c 189f ba3d 8282 e03c

last_mean.bias f4 [13]
-0.03588391 -0.61879677 -0.63238233 0.7714323 -0.0780233 0.0969699 -0.10771358 -0.10676013
0.049582206 -0.051117156 -0.03666844 0.046000604 -0.076241955
00000000: 02fb 12bd 7769 1ebf cfe3 21bf 967c 453f
00000010: aeca 9fbd 2898 c63d f098 dcbd 0ea5 dabd
00000020: b616 4b3d 3960 51bd a531 16bd 216b 3c3d
00000030: be24 9cbd

last_fc_log_std.weight f4 [13, 256]
0.061441798 0.031195182 0.18272732 0.04748385 -0.013950831 0.0067323986 -0.0055905157 0.014479017
0.01883833 0.023632668 0.052407525 0.060890265 0.1607321 0.0055208434 0.16897054 0.057194054
0.027024515 0.023043538 0.06093689 0.01598479 0.03339115 0.11123506 0.047835983 -0.003235798
0.0665168 0.09974734 0.02085643 0.16685866 -0.0027160335 -0.009726567 0.032635063 0.04456443
0.03743551 0.06606471 0.054331325 0.020617204 -0.044174243 0.038737398 0.03216756 0.03791271
0.05425917 0.012134962 0.010121692 -0.018481445 0.01729696 0.012635434 0.10510054 -0.023097347
0.04076349 0.024825517 0.017998576 0.07534198 0.00791297 0.07477566 0.049018864 0.0805643
-0.0069438876 0.22389457 0.10762417 0.0014308139 0.07522564 0.07622084 0.041416153 0.030707834
-0.023243353 0.059340496 -0.0007041064 0.14305584 0.06123042 0.03692627 0.054025736 0.059245203
0.10202243 0.033104792 0.020587688 0.062481165 0.13773574 0.07454561 0.07589921 0.07009969
0.05397115 0.064341545 0.1577396 -0.059648823 0.013744107 0.10378252 0.00066473853 0.059229475
0.0061808657 0.0673304 -0.009491072 -0.009595796 0.042644843 0.08803354 0.021030031 0.043322988
0.021922868 0.03521526 0.16392691 0.06573377 -0.0063314275 0.1152872 -0.009236364 0.090288654
0.13890955 -0.03587709 0.05825977 -0.04220792 0.1384751 -0.010073559 0.014184623 0.061946087
0.031434238 -0.0034665512 -0.0396005 0.05095835 0.0941897 0.04055542 4.3518397e-05 0.0018914876
-0.08162449 0.03732101 0.14815995 0.073652096 -0.009969629 0.14778711 0.14094427 0.017457634
0.08061081 0.15385234 -0.02574208 0.14607225 0.062670894 0.021469142 -0.027557116 0.011162582
0.021630822 0.07289567 0.042953 0.01423328 0.048093613 0.019287283 0.016420798 0.07428889
0.0113236355 0.067863554 0.05511761 -0.0067021926 0.061349086 0.020471476 0.0014359739 0.008231513
0.0009465686 -0.014703032 0.022024367 0.49915144 0.029900918 0.12465487 -0.0036913743 0.096120074
0.1893593 0.010007186 0.03466822 0.031882536 0.032208674 0.14496304 -0.0011030594 0.027511818
0.035465155 -0.018995332 -0.029742144 0.009341658 0.04201148 -0.01641259 0.06932646 0.03690342
-0.1053398 -0.008098024 0.0063970853 0.12136436 0.060240284 0.02812853 0.18123995 0.174492
0.049533617 0.24166101 0.3106013 0.040895127 0.005808736 0.05324544 0.016238537 0.026944079
-0.01001704 0.002622425 0.06726506 0.063106366 -0.006717228 0.29793715 0.012784685 0.016820863
-0.0159605 0.011472178 -0.0012780225 0.08684287 0.05138205 -0.03339136 0.0641043 0.00014971106
-0.0033710613 0.075980425 0.038706217 0.033224143 0.11475413 0.11430962 0.07497808 0.009184967
0.005626934 0.14805308 0.088904686 -0.040281475 0.028955782 0.101352885 0.035539836 0.0028441546
0.021427365 0.0013869418 0.046911832 0.07086275 0.060789585 0.032281887 0.020588456 -0.0053458107
-0.027711317 0.090647526 0.06881618 0.06269489 0.07311814 0.062863074 0.006212219 -0.005967251
0.01912862 0.038707636 0.018309753 0.08460095 -0.0009523778 0.15581156 -0.008295904 0.0063929264
0.070794895 0.019277135 0.08531633 0.075424656 0.097044244 0.006800943 -0.028996378 0.020821663
00000000: 65aa 7b3d 0a8d ff3c df1c 3b3e 6d7e 423d
00000010: 0792 64bc 749b dc3b a530 b7bb 6639 6d3c
00000020: d752 9a3c 4c99 c13c 46a9 563d 1268 793d
00000030: f596 243e 31e8 b43b 9d06 2d3e 5044 6a3d
00000040: 8462 dd3c cdc5 bc3c f698 793d 89f2 823c
00000050: 29c5 083d 35cf e33d aaef 433d af0f 54bb
00000060: f639 883d 5548 cc3d 1bdb aa3c ffdc 2a3e
00000070: 7bff 31bb 2e5c 1fbc 58ac 053d 3189 363d
00000080: fa55 193d ef4c 873d 868a 5e3d 69e5 a83c
00000090: 0df0 34bd 1bab 1e3d 22c2 033d 5c4a 1b3d
000000a0: dd3e 5e3d b8d1 463c 74d5 253c 6666 97bc
000000b0: 5bb2 8d3c da04 4f3c f43e d73d a636 bdbc
000000c0: 9ef7 263d e25e cb3c c071 933c e54c 9a3d
000000d0: 67a5 013c fb23 993d 01c8 483d e5fe a43d
000000e0: 8d89 e3bb 9e44 653e 106a dc3d 268a bb3a
000000f0: e60f 9a3d ac19 9c3d fca3 293d ff8e fb3c
00000100: d868 bebc 050f 733d c893 38ba 3b7d 123e
00000110: c0cc 7a3d 0040 173d 174a 5d3d 19ab 723d
00000120: 23f1 d03d e498 073d 83a7 a83c 40ec 7f3d
00000130: 990a 0d3e 5eab 983d 0c71 9b3d 6d90 8f3d
00000140: da10 5d3d 80c5 833d 7d86 213e 5352 74bd
00000150: f72e 613c ee8b d43d d941 2e3a 9b9a 723d
00000160: dc88 ca3b 85e4 893d 7180 1bbc af37 1dbc
00000170: 5cac 2e3d ee4a b43d 2c47 ac3c 7273 313d
00000180: 9697 b33c e03d 103d 75dc 273e 6d9f 863d
00000190: dd77 cfbb b21b ec3d 1e54 17bc 42e9 b83d
000001a0: 4e3e 0e3e dbf3 12bd cca1 6e3d 36e2 2cbd
000001b0: 6bcc 0d3e 920b 25bc 9f66 683c 2ebb 7d3d
000001c0: 30c1 003d 142f 63bb 2234 22bd b4b9 503d
000001d0: 88e6 c03d 711d 263d 8687 3638 cbeb f73a
000001e0: be2a a7bd eadd 183d 3eb7 173e e9d6 963d
000001f0: a857 23bc 8155 173e b253 103e 5003 8f3c
00000200: 4817 a53d 788b 1d3e 0ee1 d2bc f793 153e
00000210: 9959 803d 0ee0 af3c 76bf e1bc 43e3 363c
00000220: 1f33 b13c 534a 953d 7cef 2f3d b432 693c
00000230: cffd 443d 5d00 9e3c e984 863c c624 983d
00000240: c586 393c 0cfc 8a3d 01c3 613d 119e dbbb
00000250: 2e49 7b3d ccb3 a73c 4a37 bc3a 78dd 063c
00000260: 2523 783a fce4 70bc 726c b43c c790 ff3e
00000270: c5f2 f43c 0d4b ff3d fcea 71bb 9ada c43d
00000280: 68e7 413e 2ef5 233c 4300 0e3d 4397 023d
00000290: 3eed 033d 3171 143e 8894 90ba 7760 e13c
000002a0: e943 113d 199c 9bbc cca5 f3bc c10d 193c
000002b0: 3b14 2c3d b273 86bc 08fb 8d3d 0a28 173d
000002c0: 65bc d7bd 93ad 04bc a49e d13b e18d f83d
000002d0: 84be 763d ce6d e63c f796 393e 08ae 323e
000002e0: c3e3 4a3d fc75 773e 2207 9f3e a681 273d
000002f0: 3657 be3b e417 5a3d ae06 853c d4b9 dc3c
00000300: 831e 24bc fedc 2b3b 44c2 893d e93d 813d
00000310: 311c dcbb 388b 983e db76 513c e8cb 893c
00000320: 98bf 82bc cdf5 3b3c 5283 a7ba adda b13d
00000330: fc75 523d 61c5 08bd 1e49 833d c2fb 1c39
00000340: 06ed 5cbb a09b 9b3d 698a 1e3d 0a16 083d
00000350: 3704 eb3d 291b ea3d 1c8e 993d 8b7c 163c
00000360: 2562 b83b 3a9b 173e a913 b63d 30fe 24bd
00000370: ad34 ed3c 1a92 cf3d 3892 113d ff64 3a3b
00000380: 7188 af3c 0bca b53a 9f26 403d 7d20 913d
00000390: 80fe 783d 033a 043d 1fa9 a83c e92b afbb
000003a0: d802 e3bc 69a5 b93d 7fef 8c3d 2e66 803d
000003b0: f7be 953d 5bbe 803d df8f cb3b ee88 c3bb
000003c0: a0b3 9c3c e68b 1e3d 56fe 953c 4343 ad3d
000003d0: fea8 79ba 118d 1f3e 8beb 07bc c17b d13b
000003e0: eafc 903d 15eb 9d3c 54ba ae3d 3e78 9a3d
000003f0: 22bf c63d 72da de3b d089 edbc 3192 aa3c

last_fc_log_std.bias f4 [13]
-0.120786384 -0.36525428 -0.36466274 -0.37913087 -0.14747271 -0.14025445 -0.15338759 -0.14496109
-0.13237478 -0.1500743 -0.13832414 -0.12419895 -0.15276293
00000000: da5e f7bd 9c02 bbbe 13b5 babe 711d c2be
00000010: 1603 17be dd9e 0fbe a311 1dbe ae70 14be
00000020: 418d 07be 14ad 19be d8a4 0dbe 055c febd
00000030: e36d 1cbe
