save_mode/SAC_v_1000_target_qf1_network.pth (torch, 329559 bytes, 5 tensors)

fc0.weight f4 [256, 61]
000000 9e e1 1d 3d 06 52 a7 bb 23 45 67 bd 00 fd 33 3d
       0.038545243 -0.0051062135 -0.05646242 0.04394245
000010 e6 50 16 bd 8a 64 d8 be 71 54 53 3f 46 d0 13 bf
       -0.036698245 -0.42264205 0.8255072 -0.57739675
000020 54 27 f3 3c 4e 15 12 bc 9d 44 01 bd d5 50 1c 3d
       0.029681839 -0.008916212 -0.031559575 0.038163025
000030 fe d1 9d 3b cc 3f 8d 3d d6 9c 00 3e ab 9b 00 be
       0.004816293 0.06896934 0.12559828 -0.12559383
000040 fa 0f d1 bc 00 12 3d 3d 98 e1 39 bd eb ec 60 bb
       -0.025520314 0.046159744 -0.04538116 -0.0034320902
000050 04 db 73 3d 5f b0 39 3e e3 c4 f2 3e 28 32 4a 3c
       0.05953504 0.18133686 0.47415838 0.01234106
000060 bf 82 25 bd 5d 7d 03 3d 51 05 cf 3c be ca 99 bc
       -0.040407892 0.032101978 0.02527109 -0.018773433
000070 e4 d1 f4 bc a6 95 16 be e3 3f 6b be 31 8a 49 be
       -0.02988524 -0.14705524 -0.2297359 -0.19681622
000080 9d e3 0c 3d 07 14 29 3c 94 7b 7f 3d 82 a2 d9 3c
       0.034396756 0.010319716 0.062373713 0.026566748
000090 2c 83 7b 3d bd a7 0a bf a6 33 05 bf 3c d0 fd bd
       0.061404392 -0.541622 -0.52031934 -0.12393233
0000a0 03 92 62 bd cc ee 74 bd a3 97 6c 3d f0 01 b5 bc
       -0.05531503 -0.059798047 0.0577618 -0.02209565
0000b0 95 f5 0c 3d b7 51 2c be 38 0e b1 be 77 2f 80 be
       0.034413893 -0.16828047 -0.3458116 -0.25036213
0000c0 c7 23 b6 3f c4 a2 f3 3f 11 5a 44 40 15 f5 8a c0
       1.4229668 1.9034047 3.0679972 -4.3424172
0000d0 16 99 11 bf a0 0c 4d 40 6a 41 55 3e 9b 9f 76 be
       -0.56874216 3.2038956 0.20825735 -0.24084322
0000e0 5d f1 11 3e f0 ad 42 bf df 26 00 bf 63 be 71 3f
       0.14252229 -0.7604666 -0.5005931 0.9443113
0000f0 84 f4 8e be 52 40 5a 3c 2f 31 2a bc a2 a4 55 3d
       -0.27920926 0.013320999 -0.010387703 0.05215896
000100 ba cc d6 bb 72 79 d1 bc 1a 55 05 3f bd 9f 77 3f
       -0.006555167 -0.025570605 0.5208298 0.96728116
000110 ea a2 4c 3f df b9 2d 3d 3b 01 61 bc 49 2f 4b bd
       0.7993609 0.04241359 -0.0137332035 -0.04960564
000120 11 c7 cf bc e4 b2 0e 3d 9d 1f 13 3e 19 af 93 3d
       -0.025363477 0.034838572 0.14367528 0.072111316
000130 fc e6 c1 3e 4c e1 70 3d 5e a0 2b bc 22 27 d3 3c
       0.3787154 0.05880861 -0.010475246 0.025775496
000140 a8 e3 3b 3d 11 8e cc 3b f7 25 13 3f 26 4f 2b 3f
       0.045871407 0.0062425216 0.57479805 0.66917646
000150 3d 5c 23 3f 90 3f be bc 28 25 48 bd f4 a6 f1 3c
       0.6381262 -0.023223668 -0.04886356 0.029498555
000160 bb eb 6e 3d 06 34 93 bc 82 31 57 3d 4d d6 81 3e
       0.05833028 -0.017969143 0.05253745 0.2535881
000170 ac 50 e1 3d 40 0c 3f 3d ee cd 13 3d ce c4 14 bd
       0.11001715 0.046642542 0.03608506 -0.0363205
000180 20 8a 36 3c 9b 77 ec bc 85 ab 6d be 60 f7 83 be
       0.01114133 -0.028865626 -0.23209961 -0.2577467
000190 5b 8f d5 be 42 8e ec ba bd 04 88 bc 10 2a cc bc
       -0.41710934 -0.0018047767 -0.016603822 -0.0249224
0001a0 35 7b 0a bd e4 e5 79 3d 5d fd 04 bd 50 d8 09 3e
       -0.033808906 0.061010256 -0.03246819 0.13461423
0001b0 a9 ba 64 3d 20 20 39 be fe 26 6a 40 f9 2b 7e 40
       0.055842075 -0.18078661 3.65863 3.9714339
0001c0 83 e2 c2 c0 36 01 9f bf 8e 4a 06 40 9e 31 ef be
       -6.0901504 -1.2422245 2.0983005 -0.46717542
0001d0 16 08 cd 3e db 9f 31 3f 19 4d 8c bf e8 17 c9 bf
       0.40045232 0.69384545 -1.0961028 -1.5710421
0001e0 7c 78 ef 3f 9d 37 82 bf c4 e3 fd 3c 25 eb 0e bd
       1.8708644 -1.0173222 0.030992396 -0.03489222
0001f0 64 e5 77 3d 05 99 97 3c 04 fb 0f bd 66 b1 d3 3e
       0.0605215 0.018505583 -0.035151497 0.41346282
000200 3b 63 9f 3f 2b 32 b3 3e 2f 76 2b bd 87 b3 b6 3c
       1.2452158 0.34999213 -0.041860756 0.022302402
000210 c8 28 31 bd 92 f6 5e bd 5f b1 24 3d 80 04 97 3d
       -0.043251783 -0.054434367 0.040208217 0.07373905
000220 50 40 c0 3c 1f eb 2f 3e 5e cd 17 bd df 2f 2b 3d
       0.023468167 0.17179535 -0.037061088 0.0417937
000230 88 62 b7 bc b9 2c 47 3c 91 cd d0 bc b2 e5 1f 3f
       -0.02238585 0.012156659 -0.025488647 0.6245986
000240 fa e8 65 3f 15 ad 4d 3f 97 82 34 bb 75 3b 1e bd
       0.8980862 0.8034223 -0.0027543658 -0.03863092
000250 dd 15 0e 3d 2f 13 af 3c 6f be a0 bc 11 00 fb 3e
       0.03468882 0.021371452 -0.019622056 0.49023488
000260 c9 82 40 3f ef d1 bc 3e 27 b6 b4 3c c4 00 75 bc
       0.7519956 0.36878917 0.022059513 -0.014953796
000270 1a 88 e3 bb d4 93 7c 3d 42 45 db bb f3 9a c6 3d
       -0.006943715 0.061664417 -0.006691606 0.09697523
000280 7c 58 c4 3d 82 f6 0a be 4e 5c 1b 3d ce 6f 1e 3c
       0.095871896 -0.13570598 0.037929825 0.009670211
000290 34 06 f8 3c 7c 98 ff bc 24 7d ff bc a8 8b c1 3e
       0.030276395 -0.03120064 -0.031187601 0.37801862
0002a0 01 fc 34 3f c7 cd 94 3e bd af 05 bf 5e ea 6a 40
       0.7069703 0.29063246 -0.5222128 3.6705546
0002b0 cb f4 7d 40 d8 69 c4 c0 1d 27 88 bf 8c 0b d5 3f
       3.968066 -6.1379204 -1.0636936 1.6644149
0002c0 12 7f 24 bf 88 c9 f1 3e 18 e9 cf 3e 6d 8e 97 bf
       -0.64256394 0.4722407 0.40607524 -1.184034
0002d0 fb 79 c6 bf bc e0 cf 3f fb 75 6b bf a5 df 92 bc
       -1.5505975 1.6240458 -0.919769 -0.017928908
0002e0 a4 7a 75 3d 62 dc d3 bc 69 68 42 3d 1b 70 67 bb
       0.059931412 -0.025861923 0.047462855 -0.0035314623
0002f0 a1 83 4e c0 84 a2 8b 3e 4c 1a 0d 3f f2 eb 59 bd
       -3.226784 0.27272427 0.5511825 -0.05320353
000300 91 6d c7 3c ea 3d 60 3d 5d fc 0b bd ad 6c 05 bc
       0.024344238 0.054746546 -0.03417622 -0.008143586
000310 49 a4 dd 3d 66 e6 14 bf 85 3f 8f bf dd 20 88 3c
       0.108223505 -0.5816406 -1.119126 0.016617233
000320 ec 48 73 bd 86 e5 1d 3d 61 91 d3 bb ce d2 1a bd
       -0.059395716 0.03854897 -0.0064565395 -0.037798695
000330 da 6a 6b 3f cf ae b9 3e db 1b 74 3f 25 aa 04 bd
       0.9195992 0.3626618 0.95355004 -0.032388825
000340 0e b5 20 bd 2c a8 79 3d 62 dc d3 3c ef b8 a3 3c
       -0.039235167 0.060951397 0.025861923 0.019985644
000350 bc c0 71 be b3 80 ee be 78 62 bd be ac 87 0d bb
       -0.23608679 -0.46582565 -0.36989188 -0.002159576
000360 1f 3d ae 3c 97 ee 22 3d 06 7b 1c bc 10 46 3f bd
       0.02126938 0.03977832 -0.009550815 -0.046697676
000370 52 5a 5e bc c5 42 03 bf 00 61 34 bf d9 e3 42 bd
       -0.013571339 -0.5127376 -0.7046051 -0.047580574
000380 36 35 1e bd 70 cf b2 3c e9 ba 47 3d 5b 5e 6b bd
       -0.038624965 0.02182743 0.048762236 -0.05746303
000390 5b d4 68 be 3e a5 99 be 99 e0 ce be 77 04 23 40
       -0.22737257 -0.30008882 -0.4040573 2.5471475
0003a0 57 f3 b5 bf 9e f6 26 c0 e8 32 4d 40 97 97 24 bf
       -1.4214886 -2.6088023 3.206232 -0.6429381
0003b0 1b 06 68 bf e9 72 53 be 9e 82 18 3f 2f c3 33 be
       -0.90634316 -0.20649303 0.59574306 -0.17554925
0003c0 42 08 e1 bd ee ee 1a 3f 72 02 50 3e 93 28 f8 bd
       -0.10987903 0.6052083 0.20313433 -0.12117114
0003d0 de b0 22 bd d1 5f 42 bd e1 a9 51 bd f7 f8 a6 bc
       -0.039719455 -0.04745466 -0.0511874 -0.020382388
0003e0 94 65 f2 bc dc b7 d2 3e 1c f5 84 3f c1 69 4e 3f
       -0.029589452 0.411559 1.0387301 0.8063012
0003f0 04 4d 7a 3d c3 42 6a 3d 0a e0 eb bc fd 42 07 bd
       0.061108604 0.057192575 -0.028793354 -0.03302287

fc0.bias f4 [256]
000000 40 40 47 41 f0 85 c6 41 15 6a c7 41 7c e9 fe c0
       12.453186 24.8154 24.926798 -7.9660015
000010 4b 14 c8 41 b5 dd 9d 41 00 00 00 00 cb 3f c7 41
       25.009909 19.733255 0.0 24.906149
000020 82 a4 c7 41 85 f2 9f 41 18 6d c2 41 47 cb b1 41
       24.955326 19.993418 24.303268 22.224257
000030 ac 2e 87 41 41 2e ac 41 1b 1f c8 41 14 d6 8b 41
       16.897789 21.522585 25.015188 17.47953
000040 0c e4 c6 41 ee c9 1c bd 50 a6 30 bc 24 dc 84 41
       24.861351 -0.038278513 -0.0107818395 16.60749
000050 b9 0b 40 bd 43 64 c7 41 68 d3 c7 41 85 58 8f bd
       -0.04688618 24.923956 24.978226 -0.06999306
000060 f4 b8 87 41 bc e3 80 41 41 97 c6 41 04 7d 8b 41
       16.96531 16.111198 24.823854 17.436043
000070 89 7d c8 41 05 2a 9d 41 36 a8 c8 41 95 3f 89 be
       25.061296 19.645517 25.082134 -0.26806322
000080 7f 27 c5 41 27 26 c8 41 14 cc c8 41 1d 15 8b 41
       24.644285 25.01863 25.099648 17.38531
000090 18 03 c3 41 ff 5b 20 bd e7 0d b6 41 7d 5c c7 41
       24.37651 -0.039150234 22.756788 24.92016
0000a0 9d 27 c6 41 02 99 65 41 d9 c9 c7 41 07 28 b8 c1
       24.769342 14.349855 24.973558 -23.019545
0000b0 9a 28 dc be 00 00 00 00 cc c1 88 41 0d a6 96 41
       -0.42999727 0.0 17.094627 18.83108
0000c0 b7 04 24 bd 04 45 8c 41 b1 17 c7 41 68 e9 c5 41
       -0.04004356 17.533699 24.886568 24.738968
0000d0 1b 99 75 41 6c 29 8b 41 20 3d a8 c1 49 d2 4d bd
       15.349879 17.395226 -21.029846 -0.05024937
0000e0 29 1d c8 41 9c 2b 81 41 db 7d ec bc 15 8e 97 41
       25.014238 16.146294 -0.028868606 18.944376
0000f0 e9 7f c6 41 be f8 a2 41 b2 4e 6e 41 b5 0e 81 bd
       24.812456 20.371456 14.894213 -0.06301633
000100 23 46 eb be b4 e5 8b 41 78 21 33 bd bb 19 c8 41
       -0.45951948 17.48716 -0.04373309 25.012564
000110 30 c2 95 c1 13 6b 6f bd e8 eb c3 41 15 f4 06 c1
       -18.719818 -0.058451723 24.490189 -8.43459
000120 46 fb 90 bd c8 a3 c2 41 db 78 c7 41 10 88 c6 41
       -0.070791766 24.329971 24.934011 24.816437
000130 0e b6 c7 41 eb e0 7b 41 42 e0 6f 41 7d a9 c8 41
       24.963894 15.742412 14.99225 25.082758
000140 54 0c c8 41 68 4f c7 41 9d 68 94 41 fd 8f 8f 41
       25.00602 24.913773 18.55108 17.945307
000150 70 d6 35 c1 76 a9 ad 41 ba bc c6 41 c6 89 a5 41
       -11.364853 21.707745 24.842152 20.692272
000160 00 09 b2 be e9 09 c5 41 4c b3 80 41 67 33 c7 41
       -0.3477249 24.629839 16.087547 24.900099
000170 8f 4b 23 bd 11 c2 54 41 04 63 87 41 0e 1f 80 41
       -0.03986698 13.2973795 16.923347 16.015163
000180 00 00 00 00 45 42 9a 41 be 33 ae 41 4e 0a 98 bd
       0.0 19.282358 21.775265 -0.074238405
000190 92 47 c7 41 2e 73 1f bd 00 00 00 00 5c fa 83 41
       24.909946 -0.038928203 0.0 16.497246
0001a0 9d 1d c6 41 d7 39 24 bd d7 e1 c6 41 7e c6 a1 41
       24.76446 -0.040094223 24.860273 20.22192
0001b0 a2 d4 b6 c1 1b 02 c8 41 6d c9 01 bd 00 00 00 00
       -22.853825 25.001028 -0.031686235 0.0
0001c0 42 9b c7 41 fe 0d 14 bd 85 0c 0b bc 00 00 00 00
       24.95081 -0.036146156 -0.008486872 0.0
0001d0 13 28 76 41 bc 36 88 41 2b e2 67 bd 7e fa c6 41
       15.384784 17.026726 -0.056612175 24.87231
0001e0 1f a5 c7 41 4d e3 91 41 26 f0 a2 41 00 00 00 00
       24.955626 18.235987 20.36726 0.0
0001f0 3f db 29 bd 12 31 68 41 29 bb 48 bf ca 42 a0 c1
       -0.041468855 14.51198 -0.78410584 -20.032612
000200 ec e2 83 41 01 c3 c5 bc 93 ad c7 41 8c 45 8b 41
       16.485802 -0.024140837 24.959753 17.408958
000210 1a 77 c6 41 fa 4b 80 41 4d 60 34 41 2b 2f c7 41
       24.808155 16.037098 11.273511 24.898031
000220 6e 6d c8 41 4d 37 9d 41 29 6b c7 41 77 75 be 41
       25.053432 19.652002 24.927324 23.807356
000230 4c 01 8d 41 1f 34 23 bd 83 5a 7e 41 97 25 c3 41
       17.625633 -0.03984463 15.897098 24.393354
000240 80 5d c6 41 e5 3f 9d 41 6c b6 c6 41 b9 98 4e bf
       24.795654 19.656199 24.839073 -0.80701786
000250 2e d7 c6 41 36 5f c6 41 6f 46 c9 41 b0 24 c3 41
       24.855068 24.79649 25.159391 24.392914
000260 76 f2 a5 41 3b 45 c7 41 58 92 c1 41 48 07 c1 41
       20.74339 24.908804 24.196457 24.128555
000270 93 c0 67 bd 15 e6 c6 41 3d 76 c6 41 7c b0 ca 41
       -0.056580137 24.862345 24.807734 25.336174
000280 0c 44 85 41 57 b9 2e c1 e0 c9 c6 41 00 00 00 00
       16.658226 -10.920249 24.848572 0.0
000290 62 26 50 be fc ea 84 41 b3 bc e4 bb fe 84 95 bc
       -0.20327142 16.614738 -0.0069805025 -0.018251892
0002a0 c4 7d 8e 41 06 3c 1a bc ec ba c5 41 fb a9 e1 be
       17.811409 -0.009413725 24.71627 -0.44074997
0002b0 fc f7 86 41 20 c1 c6 41 e1 3c c8 41 53 7a 7a 41
       16.871086 24.8443 25.029726 15.654864
0002c0 5e 71 1e bd cb c8 c6 41 6f e3 c6 41 19 70 c7 41
       -0.038682334 24.848043 24.861052 24.929735
0002d0 7e 8a 12 bd b5 91 99 41 4a 56 d1 bc 51 46 c6 41
       -0.035776608 19.196146 -0.025553841 24.784334
0002e0 30 53 3f 40 f7 6e b9 41 00 00 00 00 62 b6 c6 41
       2.9894524 23.179182 0.0 24.839054
0002f0 3d e9 96 41 1c db 83 41 bc 65 c7 41 39 64 c7 41
       18.863886 16.481987 24.924675 24.923937
000300 cd b9 01 bd 5a 16 5e bf c4 2f 82 41 ad 4e 0a bd
       -0.031671334 -0.86752856 16.273323 -0.033766437
000310 39 12 41 c1 2c 32 c7 41 25 58 c8 41 69 eb c5 41
       -12.066949 24.899498 25.04304 24.739946
000320 9d f5 c5 41 67 a9 c4 41 8d e2 8e c1 f2 94 5b bd
       24.744928 24.582716 -17.86062 -0.053608842
000330 04 19 d4 41 51 28 45 bd 01 15 c7 41 94 72 c6 41
       26.512215 -0.04813415 24.885256 24.805946
000340 7a e7 6f c1 97 b3 b0 41 9c c3 89 41 94 0c c8 41
       -14.994013 22.08769 17.220512 25.006142
000350 e3 fa 69 bd c9 31 81 c1 1d eb 91 41 ab ca ed bc
       -0.05712403 -16.14931 18.239801 -0.029027304
000360 27 8c c6 41 ff c9 2f c1 03 0a e8 bb 67 db 99 c1
       24.818434 -10.986815 -0.0070812716 -19.23213
000370 3b 97 e1 c0 f4 12 79 41 d5 6b c6 41 05 63 c7 41
       -7.0497108 15.567127 24.802652 24.92335
000380 76 64 ac 41 34 59 c7 41 d0 8b c3 41 e2 e2 b0 c1
       21.549053 24.918556 24.443268 -22.110783
000390 68 d6 38 bd 0c ff 83 41 68 6d 3d c1 9d ad 95 41
       -0.04512635 16.499535 -11.8392105 18.709772
0003a0 11 cd 4e 3f ce b1 ac 41 ec 01 83 41 47 0a 34 3e
       0.80781657 21.586819 16.375938 0.17582045
0003b0 ab 3f c7 41 2e bb ac 41 b0 83 a5 c1 90 ec c8 41
       24.906088 21.591396 -20.6893 25.115509
0003c0 6e 5b c6 41 9d b8 0f c0 fd 5e 93 41 e8 3a c7 41
       24.794643 -2.245643 18.421381 24.903763
0003d0 f3 28 6d be 28 69 c7 41 e1 ec c5 41 3f f3 be 41
       -0.23160152 24.926346 24.740664 23.868773
0003e0 8e ef a9 41 8b 45 72 41 0c 68 cb 41 34 f0 83 41
       21.24197 15.141978 25.425804 16.492287
0003f0 e8 eb c3 41 2f 27 c8 41 24 14 84 41 29 b0 c7 41
       24.490189 25.019133 16.509834 24.961016

fc1.weight f4 [256, 256]
000000 51 6c c2 bd 30 45 8c 3e 71 69 1b 3f af 67 bc be
       -0.09493316 0.27396536 0.60707766 -0.36797854
000010 c0 fc d0 3e 3f d3 bb 3e 90 a9 3d 3d 76 3c 0f 3e
       0.40817833 0.36684605 0.046304286 0.13987908
000020 30 d8 2e 3e e8 2d a0 3d fc f1 07 3f b7 62 3e 3e
       0.17074656 0.07821256 0.53103614 0.18592344
000030 b0 84 cc 3e e0 63 b5 3e 42 de e1 3e ec a0 0e 3e
       0.39944983 0.3542776 0.44114882 0.13928574
000040 98 5d f9 3d 3c 4d fe 3c b4 20 7e bd cc 18 07 3f
       0.12176055 0.031042688 -0.062042907 0.5277221
000050 06 86 96 bd 2a f8 aa 3e c3 3e 05 3f 4d 8a 0b bd
       -0.07349782 0.3339246 0.5204889 -0.03406744
000060 57 1e 33 3e 10 b8 de 3d 0b 04 b3 3e aa 3f e7 3e
       0.17492042 0.10874951 0.34964022 0.4516576
000070 d4 9c fa 3e 58 48 45 3d 5b b9 df 3e 0b 48 7c bf
       0.48947775 0.048164696 0.43696102 -0.9854743
000080 d7 db 8f 3d 24 0f ea 3e 90 ab 42 3f c8 07 43 3e
       0.07024353 0.45714676 0.76043034 0.19045937
000090 6f 0f 39 3e ee ed 16 bd 70 97 cc 3e 2a c8 cb 3e
       0.18072294 -0.036848 0.39959288 0.3980115
0000a0 d5 c0 2e 3e 7b e2 7b 3f aa 47 d9 3e 0b cb 7d 3f
       0.17065747 0.98392457 0.42437488 0.99137944
0000b0 fc 6e 88 bf 7b 71 60 bd 2c 88 0f 3f 25 fb 03 be
       -1.065887 -0.054795723 0.56067157 -0.12888773
0000c0 35 f1 87 3d 5f 60 be 3d 29 69 3e 3e 47 46 84 3e
       0.066378035 0.09295725 0.18594803 0.25834867
0000d0 a1 3a d6 3c 64 6e 0f 3e 5c 50 52 c0 71 0f d2 bb
       0.026151003 0.14006954 -3.2861547 -0.006410532
0000e0 2f 37 30 3f b0 0e 4f 3e a5 42 8f bd 0d ef 0e be
       0.68834203 0.20220447 -0.06995133 -0.13958378
0000f0 4a 87 8c 3e 76 2c 2d 3f ef 96 31 3e 32 12 dd bd
       0.27446967 0.67645967 0.17342733 -0.10794486
000100 5c 4c 87 bf cc 2c 8c 3d 6a ca d3 bb ef 08 ce 3e
       -1.0570178 0.06844482 -0.0064633386 0.4024119
000110 70 a3 4a c1 7d 65 14 3d 83 02 63 bd f1 2b c7 be
       -12.664902 0.0362296 -0.055422317 -0.38900712
000120 82 c8 5b bc 0c f1 fd bd dc 71 24 3e d1 14 e9 3d
       -0.013414504 -0.12399492 0.16059059 0.113809235
000130 36 41 95 3e c6 c0 a0 3f 71 97 cc 3e 82 3f 92 3e
       0.29151314 1.255883 0.3995929 0.28564078
000140 9b 2c a4 3e 33 96 25 3f 9c 91 89 3e dd 1c 11 3f
       0.3206528 0.6468231 0.26868904 0.56684667
000150 8d ba 84 c0 15 b3 95 3d 2c eb 7e 3e 66 1d 90 bd
       -4.1477723 0.07309548 0.24894398 -0.07036857
000160 70 75 c1 be e1 cb 8f 3d 80 7f 31 3f 54 8f a3 3e
       -0.3778491 0.07021309 0.69335175 0.31945288
000170 d8 67 46 bd 91 9b d0 3e 9d 0b 97 3e a5 20 9d 3e
       -0.048438877 0.40743688 0.29501048 0.30688968
000180 3f db 29 3d 8b a8 ee 3e 2c 3d 8f 3e 5f f1 aa bd
       0.041468855 0.46612963 0.27976358 -0.08346819
000190 2f 0b 42 3e 1c d7 0c bd 41 ee 43 3d b6 51 ac 3e
       0.18949579 -0.03438483 0.04783464 0.3365609
0001a0 20 4c eb 3d d9 62 4b bd 7c bf 03 3f 3e c9 2c 3d
       0.11489129 -0.049654815 0.51464057 0.042184107
0001b0 67 e1 73 bf 40 0e 69 3e ef 37 ac bd d8 6e c9 3b
       -0.9526581 0.22759342 -0.08409106 0.006147247
0001c0 fa 07 06 3f 28 c9 35 3d 14 5b fa 3c 68 1f b1 3a
       0.5235592 0.04438129 0.030561008 0.0013513388
0001d0 5c 38 82 3e 40 8a 43 3f 7a d5 60 3a 0a 34 d9 3e
       0.25433624 0.7638283 0.00085767324 0.42422515
0001e0 93 01 b4 3e 0c 8e 81 3e d4 65 8c 3e c0 24 bd 3c
       0.3515745 0.25303686 0.2742144 0.023088813
0001f0 8e 5a 14 3d 76 18 28 3e 7e ee 2b bf 2b 63 bf c0
       0.036219172 0.16415581 -0.67160785 -5.9808555
000200 c2 bd 62 3e 96 85 27 bd ea 0e a8 3e 01 38 58 3f
       0.221427 -0.04089888 0.3282388 0.84460455
000210 21 d9 7e 3e 4d 1e 9d 3f 2d 99 79 be 26 74 d3 3e
       0.24887516 1.2274872 -0.24374838 0.41299552
000220 b9 a1 3f 3f 2e 22 00 3f 64 e8 38 3f e1 d7 5a 3e
       0.74856144 0.50052154 0.722296 0.21371414
000230 4e 93 af 3c 79 eb 54 bb be 7a 1e 3f 25 bc fb 3e
       0.021432545 -0.0032488985 0.6190604 0.4916698
000240 75 4f 95 3e 2d e6 10 3f 2d d5 24 3e 51 59 41 bf
       0.29162183 0.5660122 0.16096945 -0.7552691
000250 9f b7 c5 3d 7f 33 58 3e b8 6a 15 3f 6a 98 ec 3d
       0.096541636 0.21113394 0.58365965 0.11552508
000260 ff 75 a4 bc 34 04 64 3e fd c8 92 3d 50 8d c9 3e
       -0.020075796 0.22267228 0.07167242 0.39365625
000270 e2 7b e1 3c 66 d3 86 3e dc 64 fe 3e 05 9b 1c 3f
       0.027524892 0.2633316 0.49686325 0.6117404
000280 ea 76 63 3f b0 a7 c2 bf 3a c1 70 3e aa 26 e7 bc
       0.88853323 -1.5207424 0.2351121 -0.028216679
000290 24 dd 88 bf a4 c8 01 3f ce 29 19 bd 8d 28 94 3c
       -1.0692487 0.5069678 -0.037393384 0.018085742
0002a0 19 2e 59 3e 76 56 26 3d 2c 35 5b bd 2d d7 9f bf
       0.21208991 0.0406098 -0.053517506 -1.2487541
0002b0 f4 ad 74 3e 73 63 77 3e 05 a9 0a 3f 22 92 6f 3e
       0.23894483 0.2415903 0.54164153 0.23395589
0002c0 86 8d 9b 3c e9 47 65 3e 09 39 a5 3e 03 02 b5 3e
       0.018988382 0.22390713 0.32270077 0.35353097
0002d0 a9 2b 49 3d df a9 38 3e 17 7c 33 bd f7 ac 8d 3e
       0.049113903 0.1803355 -0.043819513 0.27671024
0002e0 73 45 0e be 93 24 a8 3e f4 89 fa bc dc 78 a5 3e
       -0.1389368 0.32840404 -0.03058336 0.3231877
0002f0 51 ea 5f 3f 3c 75 88 3e 4f 84 8c 3e 0f b0 94 3e
       0.87466913 0.26651943 0.27444693 0.29040572
000300 27 bb 2f bd 3e 7d 28 c0 19 dc d5 3e 9d 2b 81 bc
       -0.04290309 -2.6326442 0.41769484 -0.015767867
000310 11 ba 4d 40 33 30 7e 3e 1a 57 bb 3e f0 cd 27 3e
       3.2144816 0.24823074 0.3658989 0.16387153
000320 52 a7 33 3e e5 3c 3e 3f fd a2 90 c1 74 66 02 3d
       0.17544296 0.7431167 -18.079584 0.03183599
000330 7a 2a d8 40 5d 96 83 3c 2f 05 a3 3e cd f5 1f 3e
       6.755185 0.01606291 0.31839892 0.1562111
000340 40 6b 97 be 64 02 08 3f 3f ea b3 3e 42 f1 ee 3e
       -0.29574013 0.5312865 0.35139653 0.4666844
000350 84 42 02 3c ef 48 cd bf be 38 90 bd 38 37 bf bd
       0.007950429 -1.6037883 -0.07042073 -0.09336704
000360 e0 c2 99 3d 82 09 66 c0 97 47 29 3d 1f 29 ad c0
       0.075078726 -3.5943303 0.04132804 -5.4112697
000370 c6 ef 94 bf 9a cd e6 be 7b 74 93 3e ff a2 b2 3e
       -1.1635673 -0.45078737 0.28799805 0.3488998
000380 bf d1 35 3f dc 05 ef 3e e1 0e d6 3d 5c d3 07 c0
       0.7102317 0.46684158 0.10452057 -2.1222754
000390 4d ff 84 3d 79 c7 5a 3e d4 91 0d c1 a7 73 bd 3d
       0.06494007 0.21365155 -8.848103 0.092505746
0003a0 4d 2b 1f 40 a2 2d 6d 3e 6a 58 66 3f f8 0c 45 40
       2.4870179 0.23161939 0.8997866 3.0789165
0003b0 34 6d 27 3f f5 e8 98 3e ce 37 b2 3f f5 d1 15 3f
       0.65401006 0.29865232 1.392328 0.58523494
0003c0 98 4e 09 3e 5b ff 7e 3e 5e 16 a9 3c c7 3e 52 3e
       0.13408887 0.24902098 0.020640548 0.2053176
0003d0 50 1d 4b bf bf 93 a7 3e 7f 5f de 3d b7 67 b9 3e
       -0.793416 0.3272991 0.10858058 0.3621194
0003e0 47 f2 37 3f 1d af 1b 3c dd 32 b9 3f 46 f3 a2 3e
       0.7185406 0.0095021995 1.4468647 0.31826228
0003f0 70 b0 33 bd a2 b7 0f 3f 64 78 85 3e d2 76 83 3e
       -0.043869436 0.56139576 0.26068413 0.2567659

fc1.bias f4 [256]
000000 09 e5 cc 41 83 f7 e8 bb 0b 57 c9 41 b5 81 0b bd
       25.611834 -0.007109584 25.167501 -0.034059245
000010 43 5b e8 bc bb d6 e5 c0 4b ce ef bb e4 56 c9 41
       -0.02836383 -7.182462 -0.007318293 25.167427
000020 0d 7e cf 41 59 3b c9 41 ea 2d c9 41 32 54 c9 41
       25.936548 25.153978 25.147419 25.166111
000030 72 29 c9 41 9f 3f c9 41 75 64 c9 41 50 5d 38 bd
       25.145237 25.156065 25.174051 -0.045010865
000040 db 3f c9 41 c7 57 c9 41 d8 92 43 41 e9 41 57 41
       25.15618 25.16786 12.223351 13.453591
000050 3d 2e cf 41 3b 6b c9 41 91 3a 43 bd 1d fb 9f 41
       25.897577 25.177359 -0.047663275 19.997614
000060 b3 24 c9 41 50 42 c9 41 de 1d 2e 3c 9b 76 ce 41
       25.14292 25.15738 0.010627238 25.807913
000070 e4 55 c9 41 97 73 c9 41 b7 36 c9 41 a8 3b c9 41
       25.166939 25.18144 25.151716 25.154129
000080 dd 47 c9 41 b3 4b c9 41 a7 6f ad bd 50 f9 37 bd
       25.16009 25.161963 -0.084685616 -0.044915497
000090 53 16 7a 41 9b 4a e7 c0 c6 97 92 bd 36 d0 19 bd
       15.63045 -7.227857 -0.07157855 -0.03755208
0000a0 2b a9 7d 41 b5 37 c9 41 5d 57 c9 41 34 97 1b 41
       15.853801 25.1522 25.167658 9.724415
0000b0 7c 45 c9 41 50 5d 38 bd 2d 34 c9 41 8e 77 24 41
       25.158928 -0.045010865 25.150476 10.279188
0000c0 6e 08 9d ba fc 3c c9 41 a2 5a c9 41 0e 4f c9 41
       -0.0011980662 25.154778 25.169254 25.1636
0000d0 e0 54 c9 41 be 82 a5 3b 1d 39 c9 41 42 62 c9 41
       25.166443 0.005050986 25.152887 25.172977
0000e0 b1 27 ce 41 d4 2d c9 41 0e be cf 41 c6 66 c9 41
       25.76938 25.147377 25.9678 25.175182
0000f0 c2 f6 65 41 14 43 7e bc 1f 5b c9 41 fc 6b c9 41
       14.372744 -0.015518922 25.169493 25.177727
000100 bb 34 c9 41 e5 1f 01 bc af 49 c9 41 b6 78 cc 41
       25.150747 -0.007881139 25.160978 25.55894
000110 bd 2f c9 41 87 5c c9 41 f9 57 c9 41 7d 67 03 be
       25.14831 25.17018 25.167955 -0.12832446
000120 dc 3e c9 41 5b 5d c9 41 0a 2a c9 41 9f 3b c9 41
       25.155693 25.170584 25.145527 25.154112
000130 39 33 97 41 9e 99 90 bd 77 46 c9 41 f7 20 9d 40
       18.900011 -0.0706055 25.159407 4.910274
000140 f2 34 c9 41 ce c2 25 41 1e 5e c9 41 7f f9 25 bd
       25.150852 10.36006 25.170956 -0.04052114
000150 c9 c9 c4 bb 94 7e 72 bd 18 5f c9 41 81 61 cf 3a
       -0.0060055 -0.059202746 25.171432 0.0015821905
000160 3d 47 c9 41 cc 5d c9 41 b9 84 c9 bc c2 30 d4 bb
       25.159784 25.1708 -0.02459942 -0.006475539
000170 46 2c c9 41 a6 3f c9 41 fb 4f c9 41 54 38 c9 41
       25.146618 25.156078 25.164053 25.152504
000180 c8 37 c9 41 ec d2 0e 41 9d 3c c9 41 84 fa 0d 41
       25.152237 8.926495 25.154596 8.873661
000190 ae 2d 1c c1 de d6 24 41 21 6a 4c bd fe e7 11 c1
       -9.761152 10.302458 -0.0499059 -9.119139
0001a0 11 ad fa 3f c2 4e c9 41 f6 41 c9 41 77 c7 c8 41
       1.9584066 25.163456 25.157207 25.097395
0001b0 7c 42 cb 41 ea 84 50 bc d7 1f a0 be 5e c7 98 bd
       25.407463 -0.012727002 -0.31274292 -0.07459901
0001c0 ca 87 cc 41 6c 3d 77 bd 8b 22 c9 41 2d 4f c9 41
       25.566303 -0.06036131 25.141867 25.16366
0001d0 dd 62 c9 41 85 49 c9 41 9b 47 c9 41 39 5a c9 41
       25.173273 25.160898 25.159964 25.169054
0001e0 ca b4 d4 be 19 4e c9 41 e5 39 c9 41 20 64 c9 41
       -0.4154418 25.163134 25.153269 25.17389
0001f0 64 2a f9 c0 71 5d c9 41 bf a7 23 bd 78 52 d0 41
       -7.7864246 25.170626 -0.039954897 26.040268
000200 00 d4 3e bd e6 6b ce 41 fb 08 e7 bc d0 fd ca 41
       -0.046588898 25.802685 -0.028202524 25.373932
000210 a2 46 c9 41 76 00 d5 41 00 3a c9 41 20 5b c9 41
       25.159489 26.625225 25.15332 25.169495
000220 2e bd cc 41 0c 60 c9 41 2b 3e c9 41 cb 6c 00 c1
       25.592373 25.171898 25.155355 -8.026561
000230 87 7d a6 c0 ec 52 cd 41 a7 3b c9 41 4d f5 0e bd
       -5.202823 25.66549 25.154127 -0.034901906
000240 c3 40 c9 41 ef 47 c9 41 61 5f c9 41 8f 01 a7 c0
       25.156622 25.160124 25.171572 -5.2189403
000250 f6 3a c9 41 01 61 c9 41 d8 f9 c8 41 b6 08 1b bd
       25.15379 25.172365 25.121994 -0.037850104
000260 83 5d c9 41 18 49 c9 41 3a 66 c9 41 b9 63 c9 41
       25.17066 25.16069 25.174915 25.173693
000270 b1 44 c9 41 07 92 2d bb 2e bd 1b bd e1 67 43 bc
       25.15854 -0.0026484744 -0.038022213 -0.011926622
000280 ae 3b c9 41 52 2a c9 41 4b 39 c9 41 90 47 45 41
       25.15414 25.145664 25.152975 12.329971
000290 b8 01 cc 41 96 a6 15 c1 af fd 23 bd f2 92 ec c0
       25.50084 -9.35317 -0.040036853 -7.3929377
0002a0 8e 68 1a be 3f f9 24 c1 8a 43 51 bd 70 3c c9 41
       -0.15078947 -10.310851 -0.0510898 25.15451
0002b0 09 49 c9 41 ae 48 24 41 80 94 c9 41 6b de cb 41
       25.160662 10.267744 25.19751 25.483603
0002c0 f3 87 c9 41 00 00 00 00 55 51 c9 41 d8 20 bd bb
       25.191381 0.0 25.164713 -0.0057717375
0002d0 eb 12 c8 41 fe 32 c9 41 33 4c c9 41 92 56 c9 41
       25.009237 25.149899 25.162207 25.16727
0002e0 0b 39 c9 41 00 00 00 00 64 0b ca 41 80 4d c9 41
       25.152853 0.0 25.255562 25.162842
0002f0 81 44 c9 41 46 fc 14 bd 2b e7 e2 bc bc 4b c9 41
       25.15845 -0.0363734 -0.02769812 25.16198
000300 ce 56 c9 41 2d d2 8b bc ce 7a 18 bd ae 59 1d bd
       25.167385 -0.017067993 -0.03722649 -0.038415603
000310 27 0d b3 3c 01 b6 c3 bc 85 5e c9 41 3a 0a ca 41
       0.021856857 -0.023890497 25.171152 25.254993
000320 1f 3c c9 41 af ab 20 bd 07 9d cd 41 63 49 c9 41
       25.154356 -0.03922623 25.701674 25.160833
000330 56 b4 1a bd 9c 56 c9 41 49 46 c9 41 60 ff c9 41
       -0.037769638 25.16729 25.159319 25.249695
000340 f4 07 7f bd 3e 2d c9 41 e7 85 22 bc d0 c7 39 bd
       -0.062263444 25.14709 -0.00991962 -0.04535657
000350 0b d9 68 3c 86 3d ca 41 eb b5 65 be 5c 42 c9 41
       0.014211903 25.28004 -0.22432677 25.157402
000360 c3 39 c9 41 29 30 c9 41 20 22 c9 41 14 17 fd be
       25.153204 25.148516 25.141663 -0.4943167
000370 77 4f c9 41 04 fb f6 c0 df d0 3e 41 7d c1 8d 3c
       25.163801 -7.7181416 11.925994 0.017304176
000380 89 5b c9 41 1d 49 c9 41 9c 4e 77 bc bc 7c 0d c1
       25.169695 25.1607 -0.0150944255 -8.842953
000390 a6 f4 1b bd d0 46 c9 41 c5 3c c9 41 c2 4d c9 41
       -0.03807511 25.159576 25.154673 25.162968
0003a0 7c 70 0e 3d 9b 0d cb 41 ac 57 c9 41 1d bd 88 c0
       0.034775242 25.381643 25.167809 -4.273085
0003b0 44 e2 77 bc 10 48 c9 41 00 4e c9 41 87 50 c9 41
       -0.0151296295 25.160187 25.163086 25.16432
0003c0 25 78 04 c1 4f 3e c9 41 58 5e c9 41 2d 41 c9 41
       -8.279332 25.155424 25.171066 25.156824
0003d0 fa 4f c9 41 61 6b c9 41 76 40 c9 41 86 ea ca 41
       25.164051 25.177431 25.156475 25.364513
0003e0 c7 3d 21 bd e8 42 c9 41 b6 aa 19 c1 8d 5e c9 41
       -0.039365556 25.15767 -9.604177 25.171167
0003f0 3b bb c6 41 ea 84 50 bc 4f c7 c9 41 a2 2d 54 bd
       24.841421 -0.012727002 25.222319 -0.05180133

last_fc.weight f4 [1, 256]
000000 db 34 2c c0 55 b5 1e bb 88 a9 aa bf 89 8a c1 3c
       -2.690726 -0.002421697 -1.3332987 0.023625629
000010 ce 10 99 3c bd 09 83 3c 67 47 a2 bb 34 db a8 bf
       0.01868477 0.015995855 -0.0049523595 -1.3191895
000020 cf 69 57 c0 78 05 a8 bf a8 24 a4 bf 8a ec ab bf
       -3.365833 -1.3126669 -1.2823687 -1.3431561
000030 6f 50 a3 bf 11 f5 ac bf 42 59 ab bf f7 54 a0 3c
       -1.2758921 -1.3512288 -1.3386614 0.019571764
000040 b8 00 a7 bf f5 40 a3 bf 70 e2 b3 bd 44 f8 04 c0
       -1.3047094 -1.2754198 -0.08783424 -2.077653
000050 cb 3f 26 c0 aa 9e a9 bf 24 35 f2 bc e1 5c c9 3b
       -2.5976436 -1.3251545 -0.029566355 0.006145105
000060 0c 01 a3 bf a9 26 a7 bf 1d 3d 95 be 88 1f 5c c0
       -1.2734694 -1.3058673 -0.29148188 -3.4394245
000070 d8 bf a9 bf cc eb ab bf 0d ae a4 bf 49 5c a9 bf
       -1.3261671 -1.3431334 -1.2865616 -1.3231288
000080 c8 40 a4 bf 1a e5 ad bf 85 b9 03 bc 97 0a af 3c
       -1.283227 -1.3585541 -0.008039837 0.021367354
000090 07 6a 3c be 44 39 76 3a 5a d6 57 3b cc 7b 03 3b
       -0.18399821 0.00093926885 0.003293416 0.0020062802
0000a0 fa 21 67 bf b9 45 ab bf 17 1a a8 bf 45 09 ac bf
       -0.9028622 -1.3380653 -1.3132962 -1.3440329
0000b0 ef 78 a9 bf 6e f5 9b 3c 72 7a a9 bf 2d 9c 14 be
       -1.3240031 0.019037928 -1.3240492 -0.14512701
0000c0 c9 8c ca bb 03 9a a5 bf 16 c6 8e bf 4c 95 ac bf
       -0.0061813337 -1.2937626 -1.1154201 -1.3483062
0000d0 59 17 a9 bf 12 2e dc bc 2c ff 9c bf e3 f6 a4 bf
       -1.321025 -0.026877437 -1.2265372 -1.2887844
0000e0 7b 3f 08 c0 e7 c4 9e bf 1c f9 d9 bf d5 a9 aa bf
       -2.1288745 -1.240384 -1.7029147 -1.3333079
0000f0 6a a3 e6 bf ae ce 96 bc ef a0 a9 bf ad fb aa bf
       -1.801862 -0.0184091 -1.3252238 -1.3358055
000100 7d 3c a1 bf 04 61 7f bb b2 8e a8 bf cc a0 a8 bf
       -1.2596585 -0.0038967738 -1.3168547 -1.3174071
000110 cc 52 94 bf 69 3f a9 bf 91 d6 a7 bf 07 95 00 bd
       -1.1587768 -1.3222476 -1.3112355 -0.031392124
000120 1f ef a6 bf 20 29 94 bf f0 ad a2 bf ff d9 a3 bf
       -1.3041724 -1.157505 -1.2709332 -1.2800902
000130 51 d0 cf bf 31 0e cd bc f5 ca a0 bf 1f 8c 03 c0
       -1.6235448 -0.025031181 -1.2561938 -2.0554273
000140 ab 0c a1 bf 84 f9 09 bf a8 5b a9 bf ac 18 fa 3c
       -1.2581991 -0.53896356 -1.3231096 0.030529343
000150 38 36 a2 bb 7c d5 79 bc 6a 53 94 bf 89 07 c2 bc
       -0.004950311 -0.015248653 -1.1587956 -0.023685234
000160 cd 86 a7 bf 89 91 a0 bf cf f5 a9 3c d1 96 56 bb
       -1.3088013 -1.2544414 0.020747093 -0.0032743702
000170 55 e6 a8 bf 32 67 a4 bf 9f 75 a9 bf 38 a5 a9 bf
       -1.3195292 -1.2843993 -1.323902 -1.3253546
000180 c9 fe a7 bf f7 54 39 bf 15 72 a8 bf 4c 91 0e bf
       -1.3124629 -0.7239527 -1.3159815 -0.55690455
000190 4b c2 71 3c 09 14 db be 3f 3f aa bb b8 1b 35 bb
       0.014755796 -0.42788723 -0.005195528 -0.002763493
0001a0 9a f7 86 c1 57 89 ab bf fe 10 a8 bf 8f e5 1a be
       -16.8709 -1.3401288 -1.3130186 -0.15126632
0001b0 a8 47 37 c0 bf 32 2a 3c 8c 8b f7 3c 73 d5 e3 3c
       -2.8637486 0.010388075 0.030217908 0.027811741
0001c0 44 06 d5 bf a7 4d a2 bb c0 a6 9b bf 53 fb a9 bf
       -1.6642537 -0.0049531045 -1.2160263 -1.3279823
0001d0 c9 5a 17 bf c6 46 ad bf 06 e4 a4 bf fb e2 a4 bf
       -0.591229 -1.3537223 -1.2882087 -1.2881769
0001e0 7d d7 01 bc 44 c6 aa bf 8a 32 9f bf 74 66 ab bf
       -0.007924912 -1.3341756 -1.2437298 -1.3390641
0001f0 88 9f 31 3c 27 b0 a7 bf 22 53 d4 3c a4 35 8d bf
       0.010841258 -1.3100632 0.025918547 -1.1031995
000200 7c e2 fb 3c 83 c5 65 c0 5f 99 a8 3c 34 a9 49 c0
       0.030747645 -3.5901802 0.020580946 -3.1509523
000210 70 59 a5 bf 96 6b c7 c0 75 09 a2 bf c5 db ab bf
       -1.2917919 -6.231883 -1.2659136 -1.3426443
000220 2b 97 5d c0 d6 a0 a4 bf 10 74 a7 bf 52 ee d6 bb
       -3.4623516 -1.2861583 -1.3082294 -0.0065591717
000230 e0 f4 38 3b a0 72 a0 bf 39 51 a7 bf 30 6c b5 3c
       0.0028222129 -1.2534981 -1.3071662 0.022146314
000240 8a a1 a7 bf dc 62 a6 bf 78 f9 a8 bf 9e af 9d bc
       -1.3096173 -1.299892 -1.3201132 -0.01924878
000250 2f 62 a3 bf 0a 49 aa bf 28 43 f1 bf 8a db d9 3c
       -1.2764338 -1.330354 -1.884862 0.026593942
000260 ce 2f a5 bf ee 3c a7 bf 1b 63 a1 bf 15 d1 a7 bf
       -1.2905214 -1.3065469 -1.260837 -1.3110682
000270 14 a7 a9 bf 3b 9f 68 bc 3d 56 89 bc a7 ab 23 3c
       -1.3254113 -0.01419812 -0.016764754 0.009989656
000280 1d 10 93 bf 88 4b e6 bf 21 3c a5 bf 70 df c0 bf
       -1.1489292 -1.79918 -1.2908975 -1.5068188
000290 38 80 36 c0 64 de 0d 3c 0c 93 fc bc ec 5c f8 bb
       -2.8515759 0.008658979 -0.030831836 -0.0075794365
0002a0 2b 2d e8 bc c8 c9 44 3c 1f 05 af b9 b4 a8 ac bf
       -0.02834185 0.012010999 -0.00033382417 -1.3488984
0002b0 56 b0 a4 bf 7b 5e f8 be 23 0e f8 bf 9d f1 c3 bf
       -1.2866313 -0.48509583 -1.9379314 -1.530811
0002c0 e5 ee ae bf 66 2d 1e 3b ba b7 a9 bf 7b eb 6d 3c
       -1.3666655 0.0024135946 -1.3259194 0.014521475
0002d0 d1 5a 2f c0 b2 57 a2 bf af 03 9b bf 3d 81 9f bf
       -2.739918 -1.2683012 -1.2110499 -1.2461315
0002e0 69 88 ab bf ab cc f5 ba 6b 26 f6 bf 11 c1 aa bf
       -1.3401004 -0.0018753012 -1.9230474 -1.3340169
0002f0 7e 69 ab bf bb 5f e4 3c c5 8d 83 bc 75 55 ae bf
       -1.3391569 0.02787768 -0.016058812 -1.361983
000300 fc a9 a2 bf dd 63 01 bd 3e c2 90 3c 7f 18 25 ba
       -1.2708125 -0.031589378 0.017670747 -0.00062979007
000310 0e 6f 9b 3c 5e 76 99 bc e4 3b aa bf 40 c9 f8 bf
       0.018973853 -0.0187332 -1.3299527 -1.9436417
000320 e6 65 ab bf 90 50 b7 bc 89 d4 b0 bf 35 25 a9 bf
       -1.3390472 -0.022377282 -1.381486 -1.321448
000330 ca db da 3c b6 26 a8 bf 7f 9f a6 bf ef 32 32 c0
       0.026716132 -1.3136814 -1.3017424 -2.7843587
000340 89 47 48 bb 44 32 a3 bf 7a 49 56 3b 5f 33 20 bc
       -0.0030560216 -1.2749715 0.0032697604 -0.009777873
000350 9b c0 64 bc 8f db a4 bf 37 d8 39 3b 5c 5e 93 bf
       -0.013961936 -1.2879504 0.0028357634 -1.1513171
000360 31 f3 a4 bf c6 b3 a5 bf 0b 53 94 bf 94 27 f4 3c
       -1.2886716 -1.2945487 -1.1587843 0.029804029
000370 1e da a7 bf 35 66 81 3c 64 eb 8f bf 56 48 ac bb
       -1.3113439 0.015795806 -1.124371 -0.0052576466
000380 c6 8f a8 bf 2b a9 a3 bf 64 25 fe bc fe 2e 1b bc
       -1.3168876 -1.2786001 -0.031023689 -0.009471653
000390 f2 9b de 3c 9b a1 ab bf a0 43 a6 bf 8b ed a0 bf
       0.02717397 -1.3408693 -1.2989388 -1.2572492
0003a0 34 f7 06 ba 6b 8d 2a c0 52 e6 9b bf 4d 2b 86 3c
       -0.00051485305 -2.6648815 -1.2179663 0.01637807
0003b0 23 2c 67 3c a4 ef a6 bf 4a ed aa bf 22 11 a4 bf
       0.014109644 -1.3041883 -1.3353665 -1.2817729
0003c0 f5 ab 05 bd 61 a5 a6 bf 51 a3 a9 bf a5 13 a1 bf
       -0.032634694 -1.301922 -1.3252965 -1.258412
0003d0 d4 df 9e bf cf 1f ac bf a6 44 ae bf 67 be 0c c0
       -1.2412057 -1.3447207 -1.36147 -2.1991212
0003e0 5e 72 a2 b9 ef 82 a4 bf 15 86 10 3d dc a0 aa bf
       -0.00030984258 -1.2852458 0.03528412 -1.333034
0003f0 6e 05 da be a1 12 4c 3c 88 2b e4 bf 59 48 45 bc
       -0.42582268 0.012455613 -1.7825785 -0.012041175
