save_mode/SAC_v_100_target_qf1_network.pth (torch, 329559 bytes, 5 tensors)

fc0.weight f4 [256, 61]
-0.047953848 -0.054628827 0.060254768 0.048115525 -0.04341495 0.51351017 -0.06518577 -0.07306343
-0.029875182 0.026916925 0.050273214 0.031050138 -0.03430362 0.29660103 0.59210205 0.7577268
0.023463206 -0.058621597 -0.03530275 0.042950775 -0.034924258 1.9688308 1.9914153 2.1109014
0.009331396 -0.018783864 -0.0064783324 -0.03243353 -0.03350343 0.11833975 0.16202077 0.12383689
0.017150693 0.0011080538 0.041010644 -0.01430727 -0.037426166 -0.21231474 -0.35353082 -0.35815215
-0.052066572 0.05739225 -0.059038088 -0.014594117 0.04401025 0.060007315 0.102532975 0.13128594
0.36054644 1.4840981 2.2886908 -3.183576 -1.4150372 0.050759748 -0.7442886 0.95745724
0.03885189 -0.8465882 1.0244122 0.2187736 -0.7244629 -0.044811934 0.024475366 -0.04766551
0.02767018 0.046305776 -1.1821374 -0.8369255 -0.8654276 -0.03182854 -0.035000253 -0.061192796
0.033794004 0.054829996 -0.06039584 0.9229354 1.0391884 -0.0020497267 0.00906988 -0.04096296
-0.022281913 0.04681167 2.099834 1.6845629 1.9439455 0.019520352 0.033702362 -0.039076474
-0.01023776 0.00074021006 0.016079687 0.27966928 -0.2148005 0.021039901 -0.060500637 0.013600582
-0.036410652 0.00818978 -0.08508121 -0.07520442 -0.6644862 0.03813695 0.05501477 -0.059376344
-0.03759604 -0.024981262 -0.01578136 0.20833975 -0.25694096 5.598077 1.1445776 1.6084839
-2.4834893 -0.25119364 0.9435806 0.22688283 -0.07465053 0.06577869 0.28810227 0.09518504
0.72975355 0.99024826 -0.009217029 -0.0037245254 -0.022565035 0.007768402 0.03123901 0.3599505
-0.068151556 -0.19739176 -0.04614782 0.048563305 0.030765899 -0.048789058 -0.056726914 0.2528796
0.64878106 0.8885162 -0.041737076 0.009282408 0.054296527 -0.05201889 -0.062001184 1.8695505
1.7016286 1.9288961 -0.04596901 0.026490752 0.054473855 0.032937933 0.027265612 0.048042435
0.18133694 0.18013978 -0.029918022 0.006008387 0.05052579 -0.052653678 -0.04496318 -0.2177256
-0.28187376 -0.43336278 -0.030235417 0.044390976 0.024353923 0.009281104 -0.050384972 -0.072579354
-0.007968474 0.08345147 0.53763413 1.689581 2.1972907 -3.0712771 -1.3493847 0.08876171
-0.5245649 0.54992086 0.010340959 -0.67115724 0.87509143 0.3016577 -0.6082179 -0.011923456
0.0395399 -0.050142083 -0.0013869851 -0.040917512 0.5769891 -0.12451677 -0.16307971 -0.024515228
0.050113767 -0.003864457 -0.039374493 0.033332814 0.30487204 0.575925 0.77728534 0.050820835
-0.02382605 -0.02211465 0.019692091 0.03356676 1.8572625 1.7768087 2.0047517 -0.04209694
0.054698866 -0.045315593 0.030370645 -0.024120348 0.1329093 0.17417909 0.22134723 -0.047541086
-0.052961387 0.0016121559 0.03354143 -0.053316034 -0.2330649 -0.3092904 -0.37388808 0.0062590055
-0.047697548 -0.013952623 -0.0022087966 -0.030197792 0.0900207 0.067908436 0.07282465 0.18837804
1.6514693 2.2463746 -3.1200418 -1.5054816 -0.100642346 -0.5743802 0.7531 -0.022225942
-0.77794755 0.9601241 0.21363515 -0.7961914 -0.0135873575 -0.028197307 0.026942257 0.053260155
0.047222946 -0.029510103 -0.04899693 -0.111103915 -0.02554192 -0.036203526 0.03187399 -0.04643318
00000000: 416b 44bd 7ac2 5fbd b4cd 763d c914 453d
00000010: e0d3 31bd 6775 033f 1e80 85bd 48a2 95bd
00000020: ccbc f4bc e280 dc3c 49eb 4d3d dc5c fe3c
00000030: f481 0cbd 17dc 973e 0094 173f 62fa 413f
00000040: e935 c03c 331d 70bd 9e99 10bd 27ed 2f3d
00000050: bd0c 0fbd a602 fc3f b2e6 fe3f 0219 0740
00000060: b6e2 183c 9ee0 99bc 3148 d4bb 05d9 04bd
00000070: e53a 09bd 1c5c f23d c6e8 253e 329e fd3d
00000080: 9c7f 8c3c 1e3c 913a c7fa 273d 0a69 6abc
00000090: 2e4c 19bd 0969 59be fe01 b5be b85f b7be
000000a0: c243 55bd 2314 6b3d ecd1 71bd 2a1c 6fbc
000000b0: 1844 343d 3bca 753d cffc d13d d26f 063e
000000c0: 8b99 b83e edf6 bd3f e979 1240 b6bf 4bc0
000000d0: f01f b5bf 74e9 4f3d b389 3ebf eb1b 753f
000000e0: 2923 1f3d 01ba 58bf f01f 833f 3006 603e
000000f0: 6776 39bf b88c 37bd 9080 c83c e93c 43bd
00000100: 93ac e23c 20ab 3d3d 4750 97bf c040 56bf
00000110: aa8c 5dbf a55e 02bd 6d5c 0fbd 4ca5 7abd
00000120: 956b 0a3d 6b95 603d a161 77bd 7f45 6c3f
00000130: 2004 853f b554 06bb d599 143c c7c8 27bd
00000140: 8f88 b6bc 98bd 3f3d ae63 0640 c29f d73f
00000150: 35d3 f83f 25e9 9f3c 7d0b 0a3d a70e 20bd
00000160: 47bc 27bc a80a 423a 8cb9 833c d030 8f3e
00000170: aaf4 5bbe df5b ac3c 84cf 77bd fad4 5e3c
00000180: 5623 15bd 6d2e 063c 0f3f aebd c604 9abd
00000190: c51b 2abf 7e35 1c3d 2b57 613d 9c34 73bd
000001a0: 4efe 19bd 81a5 ccbc e947 81bc 0457 553e
000001b0: c48d 83be 7223 b340 8581 923f cde2 cd3f
000001c0: 7df1 1ec0 749c 80be 808e 713f f953 683e
000001d0: 61e2 98bd fab6 863d 2482 933e 60f0 c23d
000001e0: 21d1 3a3f e980 7d3f 0603 17bc 2b17 74bb
000001f0: 4fda b8bc 148e fe3b f4e8 ff3c 6f4b b83e
00000200: 0b93 8bbd 1121 4abe 7f05 3dbd 51ea 463d
00000210: c408 fc3c 09d7 47bd 7b5a 68bd 6f79 813e
00000220: 8416 263f cc75 633f 7ff4 2abd 3e15 183c
00000230: 0966 5e3d c211 55bd f4f4 7dbd 6e4d ef3f
00000240: f7ce d93f 11e6 f63f 004a 3cbd 2203 d93c
00000250: fa1f 5f3d ede9 063d 225c df3c 25c8 443d
00000260: 64b0 393e 9076 383e a416 f5bc 01e2 c43b
00000270: 21f4 4e3d 62ab 57bd 502b 38bd 76f3 5ebe
00000280: c251 90be bae1 ddbe 44b0 f7bc 50d3 353d
00000290: e181 c73c c60f 183c 7960 4ebd 7ca4 94bd
000002a0: 348e 02bc 9be8 aa3d 64a2 093f 3144 d83f
000002b0: 69a0 0c40 ce8f 44c0 a3b8 acbf b3c8 b53d
000002c0: e349 06bf 9dc7 0c3f 206d 293c f6d0 2bbf
000002d0: fe05 603f e172 9a3e 2bb4 1bbf 995a 43bc
000002e0: 97f4 213d c961 4dbd 7fcb b5ba 1f99 27bd
000002f0: 8fb5 133f a602 ffbd 5efe 26be 29d4 c8bc
00000300: 1844 4d3d d442 7dbb 2647 21bd fd87 083d
00000310: 3018 9c3e d26f 133f 2cfc 463f 8229 503d
00000320: d92e c3bc c829 b5bc 4f51 a13c 4d7d 093d
00000330: c7ba ed3f 786e e33f da4d 0040 d76d 2cbd
00000340: eb0b 603d d89c 39bd dccb f83c 0998 c5bc
00000350: 6019 083e 015c 323e d9a8 623e 71ba 42bd
00000360: 0aee 58bd fa4e d33a bd62 093d ea61 5abd
00000370: 91a8 6ebe 505b 9ebe 426e bfbe 5818 cd3b
00000380: 815e 43bd 8b99 64bc 75c1 10bb 5c61 f7bc
00000390: c65c b83d 9413 8b3d 1725 953d 2ce6 403e
000003a0: 5963 d33f 9ac4 0f40 c4ae 47c0 9fb3 c0bf
000003b0: 931d cebd 950a 13bf 29cb 403f 2e13 b6bc
000003c0: 9227 47bf b1ca 753f 2cc3 5a3e 33d3 4bbf
000003d0: 829d 5ebc 0afe e6bc 02b6 dc3c 5227 5a3d
000003e0: d96c 413d 2cbf f1bc 01b1 48bd 738a e3bd
000003f0: 4a3d d1bc 264a 14bd 4d8e 023d b830 3ebd

fc0.bias f4 [256]
23.097727 23.948376 23.007023 22.964914 -0.073865876 23.369692 -16.948105 23.000645
0.0 22.968891 -16.990513 22.890703 -0.025034534 -0.047763858 23.054722 23.042828
-0.057111364 23.03456 -0.05005789 23.060162 23.01899 -17.894617 23.055649 23.001411
23.041855 -0.04202765 -18.435493 20.274563 23.100407 22.988045 23.145592 -17.260372
-0.029676996 -18.77616 23.224165 23.24105 0.0 0.0 22.96864 -0.03176521
-17.336367 -17.095707 23.236246 23.716158 22.977278 22.94995 22.928396 23.14247
22.921673 -0.03231432 -0.05730955 23.014006 -0.012558804 18.794077 22.939842 23.133375
23.038475 -0.00833935 23.052698 -18.10554 -18.013365 -18.093033 -0.012558804 0.0
22.970686 23.205223 -0.037956648 -18.238266 23.666592 0.0 23.243511 23.111984
23.063715 23.201279 23.023806 0.0 -8.87576 -0.04384038 22.994156 -7.721098
22.976719 -0.03848117 -0.035702102 4.932074 23.306616 23.333866 23.043192 23.042881
-18.602068 22.979717 -15.529854 22.97925 23.004805 -18.209667 23.141104 23.139547
23.153818 23.063877 23.015892 22.987543 11.234008 23.042152 22.96426 24.22359
23.283604 -18.607193 22.973179 -16.831871 23.068644 22.906555 -17.96657 -0.043756187
22.971077 23.080347 -18.663134 -17.464169 23.080362 -18.65142 25.128286 23.18797
23.115446 -18.638458 23.919569 -0.008621913 23.185299 23.072582 -18.620022 -14.601245
23.03091 23.045582 -0.025034534 22.852627 -17.07879 23.497927 23.306921 23.172358
0.0 23.123806 -0.012558804 -0.041550066 -18.460629 23.346008 23.047802 23.130138
23.129442 0.0 -0.062352106 22.966549 23.175478 22.947662 -16.287058 23.11921
23.293736 0.0 -16.827744 -13.423889 23.383175 23.057392 23.21154 22.94838
23.00253 -17.220974 22.90592 -18.683584 -0.008994443 -0.02728163 22.970783 23.007238
23.11146 23.269947 22.99906 22.982838 22.95596 -18.523216 23.047943 23.364891
-17.763231 -0.04617688 23.145626 23.031593 22.94814 23.153221 23.037855 23.11762
23.44843 22.920288 23.169552 -0.04637134 22.82417 23.082615 -0.0105501255 -17.003143
23.029848 23.281435 -0.05750997 23.011103 23.030094 23.015322 23.02804 22.971277
23.35262 22.984661 23.094599 22.96854 -17.614983 -17.642038 -0.072307214 22.96259
0.0 23.052378 0.0 -0.037938766 23.3077 -0.040287193 23.096617 22.994097
23.232096 22.969639 22.948812 23.040945 22.97458 -0.044107854 -0.031338852 23.096592
23.067314 -17.038172 22.952166 23.239609 23.129051 -0.04086983 23.019062 -0.050127182
23.127876 -0.042127486 23.14552 23.16899 23.10714 23.159685 23.071093 -18.652735
23.079573 -0.028441316 0.0 23.038961 -18.624413 -0.03546592 23.010075 0.0
23.138939 20.563337 23.096113 -0.066512145 18.63871 22.993729 23.003748 23.19738
00000000: 25c8 b841 4696 bf41 620e b841 25b8 b741
00000010: fe46 97bd 21f5 ba41 b895 87c1 5201 b841
00000020: 0000 0000 4ac0 b741 92ec 87c1 2920 b741
00000030: 3915 cdbc 09a4 43bd 1270 b841 b657 b841
00000040: 9bed 69bd c746 b841 8109 4dbd 367b b841
00000050: e426 b841 2d28 8fc1 f871 b841 e402 b841
00000060: b855 b841 2f25 2cbd e47b 93c1 4e32 a241
00000070: a2cd b841 84e7 b741 2c2a b941 3e15 8ac1
00000080: 2c1d f3bc 9335 96c1 17cb b941 aced b941
00000090: 0000 0000 0000 0000 c6bf b741 3d1c 02bd
000000a0: e1b0 8ac1 02c4 88c1 d5e3 b941 b1ba bd41
000000b0: 77d1 b741 7f99 b741 5b6d b741 c723 b941
000000c0: 965f b741 055c 04bd 6bbd 6abd af1c b841
000000d0: 71c3 4dbc 455a 9641 cc84 b741 2711 b941
000000e0: cc4e b841 c5a1 08bc ed6b b841 25d8 90c1
000000f0: 5f1b 90c1 88be 90c1 71c3 4dbc 0000 0000
00000100: f7c3 b741 4ca4 b941 6e78 1bbd f8e7 91c1
00000110: 2e55 bd41 0000 0000 b6f2 b941 58e5 b841
00000120: 7d82 b841 389c b941 c130 b841 0000 0000
00000130: 1d03 0ec1 f891 33bd 08f4 b741 3c13 f7c0
00000140: 52d0 b741 6e9e 1dbd 5e3c 12bd 8dd3 9d40
00000150: f373 ba41 c2ab ba41 7558 b841 d257 b841
00000160: 09d1 94c1 76d6 b741 487a 78c1 81d5 b741
00000170: d709 b841 66ad 91c1 fb20 b941 cb1d b941
00000180: 053b b941 d282 b841 8c20 b841 7de6 b741
00000190: 7fbe 3341 5456 b841 ceb6 b741 eac9 c141
000001a0: d244 ba41 88db 94c1 12c9 b741 aca7 86c1
000001b0: 958c b841 a040 b741 89bb 8fc1 b039 33bd
000001c0: c4c4 b741 8da4 b841 194e 95c1 9eb6 8bc1
000001d0: 95a4 b841 1c36 95c1 bb06 c941 f680 b941
000001e0: 6fec b841 901b 95c1 475b bf41 ed42 0dbc
000001f0: 7e7b b941 a694 b841 cef5 94c1 b39e 69c1
00000200: 4e3f b841 5a5d b841 3915 cdbc 2ed2 b641
00000210: 5da1 88c1 c1fb bb41 9374 ba41 fd60 b941
00000220: 0000 0000 8efd b841 71c3 4dbc 6730 2abd
00000230: 5eaf 93c1 a0c4 ba41 e661 b841 860a b941
00000240: 1909 b941 0000 0000 ec64 7fbd 7ebb b741
00000250: 6167 b941 d094 b741 e54b 82c1 24f4 b841
00000260: 9259 ba41 0000 0000 389f 86c1 40c8 56c1
00000270: be10 bb41 8a75 b841 3cb1 b941 4896 b741
00000280: 2e05 b841 8ec4 89c1 533f b741 fb77 95c1
00000290: 6e5d 13bc ba7d dfbc 2ac4 b741 d30e b841
000002a0: 45e4 b841 da28 ba41 13fe b741 dadc b741
000002b0: cea5 b741 8c2f 94c1 3062 b841 4ceb ba41
000002c0: 191b 8ec1 f823 3dbd 3e2a b941 b440 b841
000002d0: ca95 b741 cc39 b941 874d b841 e3f0 b841
000002e0: 6296 bb41 c05c b741 3e5b b941 e0ef 3dbd
000002f0: e697 b641 32a9 b841 6fda 2cbc 7006 88c1
00000300: 213d b841 6140 ba41 938f 6bbd bd16 b841
00000310: a23d b841 611f b841 6d39 b841 2dc5 b741
00000320: 2ad2 ba41 96e0 b741 bdc1 b841 92bf b741
00000330: 7ceb 8cc1 e522 8dc1 ce15 94bd 62b3 b741
00000340: 0000 0000 456b b841 0000 0000 ae65 1bbd
00000350: 2b76 ba41 2f04 25bd dfc5 b841 e9f3 b741
00000360: 55db b941 d2c1 b741 2b97 b741 db53 b841
00000370: f1cb b741 70aa 34bd 2b5d 00bd d2c5 b841
00000380: dc89 b841 2d4e 88c1 099e b741 b8ea b941
00000390: 4c08 b941 1f67 27bd 0a27 b841 2952 4dbd
000003a0: e405 b941 df8d 2cbd 062a b941 175a b941
000003b0: 6cdb b841 0947 b941 9991 b841 cd38 95c1
000003c0: f7a2 b841 c3fd e8bc 0000 0000 cb4f b841
000003d0: ccfe 94c1 b644 11bd a214 b841 0000 0000
000003e0: 8c1c b941 b781 a441 d7c4 b841 8537 88bd
000003f0: 141c 9541 28f3 b741 ad07 b841 3c94 b941

fc1.weight f4 [256, 256]
0.023636803 -0.00018998563 0.051907875 0.02279265 0.0095409425 -0.005349103 -0.05146084 -0.033982504
-0.023397267 0.033019885 0.036013536 -0.056747776 0.04729894 0.030656375 0.025972934 -0.030959986
-0.045103252 -0.025108293 0.0020182014 -0.06175606 -0.052470393 0.05282206 -0.0032757206 0.015037615
0.0005645392 0.020697547 -0.055582505 -0.054569222 0.017420776 -0.0039117686 -0.050553355 0.04665744
-0.0020311002 0.017978827 0.038276277 0.009584157 0.044592887 -0.009851634 -0.025212603 0.049504314
-0.0602652 -0.010727262 0.013679931 -0.368515 -0.06525747 0.030586338 -0.015612613 0.012491003
-0.020981787 -0.062391594 0.02659655 0.031237518 0.052589603 -0.005406752 -0.04133549 0.035858564
0.008059767 -0.0111214 -0.0026679856 -0.054241396 0.028019613 0.001861215 -0.023014305 -0.04257452
-0.016686896 -0.022776634 -0.029131612 -0.022627622 0.009483946 -0.03253262 -0.0047893776 -0.021548778
-0.048705608 -0.009974568 -0.053445674 0.05261866 0.049989346 0.013594622 -0.018901955 -0.40516594
-0.04480374 -0.055273306 -0.04462865 -0.6083315 0.00033426651 -0.017442757 -0.038071387 0.032850012
0.0039289277 -0.045778275 0.050157726 -0.019595234 0.014964039 -0.0074399244 -0.01702925 -0.06594441
-0.017171182 0.031680275 0.013627777 0.0087424265 -0.01284677 0.017530674 -0.053483672 0.05467576
0.0062989593 0.033314187 -0.04983214 0.026069049 0.020346995 0.03425594 -0.053647585 0.0066328393
0.0041611996 -0.072573945 0.037742067 -0.035761707 0.014322544 0.010308354 0.0036379122 -0.043046147
-0.025794122 0.026020246 -0.019052457 0.015595662 -0.051287986 0.031136565 -0.054194458 0.059684798
-0.03546666 -0.007715689 0.019586664 -0.002722887 0.033579424 0.033434138 -0.009149974 0.01141104
0.032475248 -0.009555657 0.046688735 0.013440022 -0.009242548 -0.03079272 0.0038598003 0.003680055
-0.053341366 -0.024527894 0.043379933 0.0070730755 0.015829705 -0.04088771 0.010462022 0.015363949
-0.04882184 -0.04493487 0.020968376 0.039188232 -0.05932717 -0.041376468 -0.04431647 0.007635409
-0.05887343 0.028870096 0.03495629 0.0018928334 0.06236179 0.04560244 -0.008368779 0.047996316
-0.016337836 0.029381579 -0.049353812 0.046186566 -0.06615005 0.02151972 0.008242679 -0.04685265
0.049643636 0.023662137 -0.0072551495 -0.019617584 -0.05804641 0.009082173 0.039592054 -0.001046563
0.05370868 -0.023747444 -0.0065569365 -0.020764228 -0.06363771 -0.05474357 -0.039492216 -0.038598888
-0.03695305 -0.052526273 -0.0347745 -0.056055617 0.044351485 -0.05541412 0.027906734 -0.03860634
-0.08501344 -0.0006601279 -0.045321554 -0.0056924815 0.010120785 -0.057291668 -0.0050740833 0.03750365
-0.041611906 -0.030779682 0.017181987 0.025628345 -0.0037773782 0.011028453 0.002512967 -0.019748341
0.04574102 0.04583564 -0.03979769 -0.005186587 -0.004585138 0.0143810315 -0.0068725618 -0.031077333
-0.035833232 -0.065342404 0.00068951113 -0.04410711 0.021795765 -0.0012660294 -0.028870096 0.019541962
0.001839585 0.0115894815 -0.04377258 -0.049211506 0.042699687 0.03275837 0.0181826 0.03779944
-0.044374585 -0.025294932 -0.002859512 0.012807467 -0.018571895 0.032284517 0.046177622 0.005413923
-0.054920148 -0.010799535 -0.021673203 0.00037484898 0.010170331 0.027736489 -0.032645866 -0.029751875
00000000: f8a1 c13c e136 47b9 5a9d 543d a7b7 ba3c
00000010: 9d51 1c3c 8747 afbb 9ac8 52bd 3d31 0bbd
00000020: a0ab bfbc dc3f 073d ee82 133d 5b70 68bd
00000030: 89bc 413d 1423 fb3c 31c5 d43c cc9f fdbc
00000040: 30be 38bd e8af cdbc cd43 043b ecf3 7cbd
00000050: 32eb 56bd f25b 583d 79ad 56bb 5460 763c
00000060: 96fd 133a e78d a93c 7baa 63bd fa83 5fbd
00000070: 04b6 8e3c 4b2e 80bb 0911 4fbd df1b 3f3d
00000080: 351c 05bb 5548 933c 96c7 1c3d de06 1d3c
00000090: 08a7 363d bf68 21bc a98a cebc 09c5 4a3d
000000a0: a4d8 76bd 66c1 2fbc ca21 603c 00ae bcbe
000000b0: b5a5 85bd 3390 fa3c 0ccc 7fbc 10a7 4c3c
000000c0: ffe1 abbc 548e 7fbd 02e1 d93c d3e5 ff3c
000000d0: 3268 573d 202b b1bb 674f 29bd 6ee0 123d
000000e0: 1d0d 043c 8836 36bc 5fd9 2ebb 3a2c 5ebd
000000f0: 6389 e53c 03f4 f33a 7f88 bcbc 9f62 2ebd
00000100: f5b2 88bc 1096 babc 6ba5 eebc 905d b9bc
00000110: 8d62 1b3c ed40 05bd 36f0 9cbb 1087 b0bc
00000120: 887f 47bd 5f6c 23bc dae9 5abd aa86 573d
00000130: a1c1 4c3d fabb 5e3c 46d8 9abc e971 cfbe
00000140: 2084 37bd 4366 62bd 88cc 36bd 9dbb 1bbf
00000150: 7e40 af39 1de4 8ebc bef0 1bbd bc8d 063d
00000160: 3cbe 803b 0082 3bbd 3072 4d3d 2f86 a0bc
00000170: bb2b 753c 9cca f3bb ed80 8bbc dd0d 87bd
00000180: 94aa 8cbc 2dc3 013d 0a47 5f3c 653c 0f3c
00000190: 427b 52bc 7d9c 8f3c b211 5bbd b1f3 5f3d
000001a0: 8067 ce3b 7574 083d c91c 4cbd c28e d53c
000001b0: beae a63c f54f 0c3d 92bd 5bbd 4a58 d93b
000001c0: ac5a 883b a6a1 94bd 6d97 1a3d de7a 12bd
000001d0: 1ba9 6a3c 5fe4 283c 0a6a 6e3b 2851 30bd
000001e0: 324e d3bc 6928 d53c e613 9cbc f384 7f3c
000001f0: 5a13 52bd 1c12 ff3c 02fb 5dbd 0c78 743d
00000200: 7d45 11bd e4d3 fcbb 3674 a03c 7772 32bb
00000210: 948a 093d 3cf2 083d c6e9 15bc 5ff5 3a3c
00000220: c404 053d 558f 1cbc b03c 3f3d 8a33 5c3c
00000230: 0e6e 17bc 0441 fcbc b4f4 7c3b 142d 713b
00000240: 7a7c 5abd b9ee c8bc 28af 313d 42c5 e73b
00000250: 4cad 813c df79 27bd e768 2b3c 13b9 7b3c
00000260: 69f9 47bd a00d 38bd dfc5 ab3c d783 203d
00000270: 0c01 73bd 5f7a 29bd 3085 35bd 7432 fa3b
00000280: 4425 71bd fb80 ec3c 542e 0f3d f318 f83a
00000290: 146f 7f3d a0c9 3a3d 341d 09bc c997 443d
000002a0: edd6 85bc a3b1 f03c 3927 4abd 202e 3d3d
000002b0: ad79 87bd 204a b03c 4d0c 073c 90e8 3fbd
000002c0: 2057 4b3d 19d7 c13c 9bbc edbb 0eb5 a0bc
000002d0: 13c2 6dbd 65cd 143c 472b 223d d42c 89ba
000002e0: a2fd 5b3d 008a c2bc 92db d6bb be19 aabc
000002f0: 7d54 82bd cb3a 60bd 97c2 21bd de19 1ebd
00000300: 155c 17bd ca25 57bd b56f 0ebd 939a 65bd
00000310: e7a9 353d ebf9 62bd aa9c e43c ae21 1ebd
00000320: 871b aebd 6f0c 2dba 18a3 39bd ff87 babb
00000330: a6d1 253c abaa 6abd 7f44 a6bb 6d9d 193d
00000340: 3f71 2abd ac25 fcbc 3dc1 8c3c 89f2 d13c
00000350: e48d 77bb afb0 343c 97b0 243b 46c7 a1bc
00000360: f05a 3b3d 27be 3b3d e702 23bd 3ff4 a9bb
00000370: ed3e 96bb 6b9e 6b3c 3a33 e1bb e495 febc
00000380: dec5 12bd 3dd2 85bd 4fc0 343a a8a9 34bd
00000390: 088d b23c e6f0 a5ba fb80 ecbc 7716 a03c
000003a0: 3b1e f13a cfe1 3d3c e04a 33bd 0192 49bd
000003b0: dee5 2e3d a42d 063d adf3 943c 96d3 1a3d
000003c0: 20c2 35bd 5137 cfbc a766 3bbb 69d6 513c
000003d0: 1624 98bc c53c 043d bf24 3d3d 4767 b13b
000003e0: f3f3 60bd 88f0 30bc 008c b1bc 6187 c439
000003f0: 76a1 263c a237 e33c acb7 05bd 34ba f3bc

fc1.bias f4 [256]
0.08769267 22.915302 22.898842 22.878174 23.704481 22.894222 22.900576 -0.03291707
23.481836 -4.9050856 23.109215 2.3023865 -4.691844 19.423883 -0.05569203 22.853867
22.871824 22.871748 19.082468 23.681593 22.864935 22.895893 -0.04372862 14.03705
22.850658 15.013614 22.870531 2.2493143 2.3397229 -0.018435176 22.843134 16.43621
11.439812 23.212229 -0.0627917 22.86203 -0.08965814 22.9301 -0.029722072 22.87462
22.875988 -0.058937505 22.867163 23.20054 1.8950123 22.892115 13.3095875 12.850105
24.649065 23.54692 -0.054843407 22.890026 2.3827813 -0.05596472 -0.12456563 -0.019434672
15.47195 22.882393 -0.012727002 -0.09529675 -0.059044793 -0.059023187 22.824776 22.82643
23.341219 22.871033 23.012625 17.690865 -0.10750677 23.676958 22.874771 2.2645733
16.203896 14.127649 22.901085 0.0362594 23.675642 2.2539876 22.880596 23.678448
22.871647 -0.07442318 23.20265 -0.043037206 22.876047 23.300463 23.247728 22.849995
23.318434 -0.06278127 23.243658 22.893698 23.251265 13.445772 12.918198 -0.02789407
-0.07696681 -0.035911463 23.320229 22.88077 22.849895 -4.920535 25.021194 -0.15273556
22.87202 22.887098 -0.07173203 -0.04694057 12.364877 22.897358 22.875164 22.880243
22.898697 14.184107 21.196957 22.856876 22.871773 13.191712 23.292463 23.242895
22.864473 -0.0896194 22.871033 -0.08193337 -0.08065485 23.328205 2.2799752 -0.051054783
22.875473 23.290833 22.84101 22.86465 -0.04461673 19.813745 22.9222 -0.0797727
-0.06953708 22.859339 23.323864 2.327945 22.855286 23.693975 0.73342985 22.88624
23.265926 22.877733 23.759686 -0.04668948 -0.18304455 -0.03176521 13.800157 -0.063309886
22.88065 22.888897 -0.028132116 22.864973 23.278416 -0.05700482 0.43477753 -0.07389568
-0.057070386 22.868036 22.860914 -0.031764466 -0.09324485 24.256308 22.907629 22.885143
-0.09529675 22.860157 14.145388 -0.1890855 23.302788 22.845812 12.370408 22.88568
22.845606 -0.105173245 22.83747 -0.017053092 15.099826 23.295181 -0.08058631 22.83357
20.05331 23.74068 23.670563 23.158854 -0.12001631 23.283627 22.901606 22.879295
22.884026 22.81395 22.883734 23.296148 -0.029387914 23.27387 22.876232 22.855618
22.919334 22.87245 23.717463 0.69800085 22.877361 -0.06953708 -0.021165071 13.776887
22.878872 22.85788 -0.03523495 23.256987 22.884325 22.87697 23.184818 2.3337624
22.861519 22.901182 22.88242 22.844353 22.87471 22.8511 22.834543 23.316658
22.888718 22.881187 -0.06769828 -0.08847499 2.3382447 19.915216 22.87676 22.86646
22.872152 22.883049 22.861164 22.879776 23.66948 23.67495 23.22715 22.891537
23.203577 18.131464 22.847557 13.873017 -0.12838109 12.920105 -0.13628168 -0.04475531
23.330345 -0.12991591 22.875711 22.857662 15.953555 22.870651 -0.012592704 -0.0024186703
00000000: 3798 b33d 8a52 b741 d430 b741 8006 b741
00000010: c7a2 bd41 5e27 b741 6134 b741 0dd4 06bd
00000020: cdda bb41 76f6 9cc0 acdf b841 4d5a 1340
00000030: 9623 96c0 1d64 9b41 531d 64bd b8d4 b641
00000040: 7ff9 b641 57f9 b641 e5a8 9841 e773 bd41
00000050: 63eb b641 ca2a b741 c81c 33bd c297 6041
00000060: 26ce b641 c337 7041 d9f6 b641 c4f4 0f40
00000070: 05be 1540 5e05 97bc bdbe b641 5c7d 8341
00000080: 7809 3741 a5b2 b941 ef98 80bd 70e5 b641
00000090: b09e b7bd d870 b741 b47b f3bc 39ff b641
000000a0: 0602 b741 7468 71bd f3ef b641 b59a b941
000000b0: c38f f23f 0d23 b741 12f4 5441 089a 4d41
000000c0: 4931 c541 1860 bc41 7ba3 60bd c61e b741
000000d0: 7d7f 1840 433b 65bd 441c ffbd 7635 9fbc
000000e0: 1b8d 7741 240f b741 ea84 50bc f12a c3bd
000000f0: f4d8 71bd 4cc2 71bd 2499 b641 879c b641
00000100: d1ba ba41 e0f7 b641 db19 b841 e486 8d41
00000110: 822c dcbd 696a bd41 88ff b641 c5ee 1040
00000120: 94a1 8141 da0a 6241 6c35 b741 bd84 143d
00000130: b767 bd41 5541 1040 760b b741 766d bd41
00000140: 22f9 b641 2e6b 98bd 079f b941 c847 30bd
00000150: 2502 b741 5967 ba41 59fb b941 cacc b641
00000160: 278c ba41 7793 80bd 03f3 b941 4b26 b741
00000170: 9702 ba41 e221 5741 f0b0 4e41 1b82 e4bc
00000180: c6a0 9dbd e617 13bd d48f ba41 d10b b741
00000190: 96cc b641 0675 9dc0 682b c841 b666 1cbe
000001a0: e6f9 b641 c718 b741 3ee8 92bd c144 40bd
000001b0: 89d6 4541 ca2d b741 5600 b741 bd0a b741
000001c0: 8830 b741 1af2 6241 5e93 a941 e2da b641
000001d0: 64f9 b641 4111 5341 f756 ba41 73f1 b941
000001e0: 71ea b641 608a b7bd e0f7 b641 afcc a7bd
000001f0: 5f2e a5bd 2aa0 ba41 1deb 1140 d21e 51bd
00000200: f800 b741 a053 ba41 63ba b641 ceea b641
00000210: 08c0 36bd 8d82 9e41 aa60 b741 df5f a3bd
00000220: 7569 8ebd eddf b641 4697 ba41 0dfd 1440
00000230: a0d7 b641 438d bd41 0fc2 3b3f 0517 b741
00000240: 9e20 ba41 9905 b741 d613 be41 783d 3fbd
00000250: 0870 3bbe 3d1c 02bd 71cd 5c41 9da8 81bd
00000260: 920b b741 761c b741 5375 e6bc 77eb b641
00000270: 323a ba41 e37d 69bd 299b de3e 9e56 97bd
00000280: a3c2 69bd bdf1 b641 27e3 b641 751b 02bd
00000290: 28f7 bebd eb0c c241 d342 b741 c614 b741
000002a0: f12a c3bd 9ae1 b641 8253 6241 a19f 41be
000002b0: 1c6c ba41 39c4 b641 31ed 4541 df15 b741
000002c0: cdc3 b641 1265 d7bd 23b3 b641 edb2 8bbc
000002d0: e398 7141 885c ba41 6f0a a5bd 27ab b641
000002e0: 2e6d a041 eaec bd41 505d bd41 5545 b941
000002f0: 1ccb f5bd de44 ba41 7d36 b741 cc08 b741
00000300: 7c12 b741 f882 b641 e311 b741 835e ba41
00000310: ecbe f0bc e330 ba41 8602 b741 4ed8 b641
00000320: cc5a b741 c7fa b641 5dbd bd41 2fb0 323f
00000330: d604 b741 7569 8ebd 5f62 adbc 216e 5c41
00000340: ee07 b741 f0dc b641 8652 10bd 4f0e ba41
00000350: 1913 b741 0904 b741 827a b941 5d5c 1540
00000360: 64e4 b641 9f35 b741 320f b741 3cc1 b641
00000370: 68ff b641 0ecf b641 25ad b641 8488 ba41
00000380: 181c b741 ac0c b741 65a5 8abd 6032 b5bd
00000390: cda5 1540 5d52 9f41 9b03 b741 83ee b641
000003a0: 2bfa b641 7c10 b741 aae3 b641 c809 b741
000003b0: 185b bd41 4c66 bd41 34d1 b941 de21 b741
000003c0: eda0 b941 3d0d 9141 ccc7 b641 e1f7 5d41
000003d0: 5576 03be c0b8 4e41 6d8d 0bbe 5851 37bd
000003e0: 8ca4 ba41 ad08 05be 7501 b741 7edc b641
000003f0: c341 7f41 18f7 b641 a151 4ebc 8e82 1ebb

last_fc.weight f4 [1, 256]
0.008998169 -0.45712778 -0.42104614 -0.44245562 -0.9413036 -0.45151484 -0.40543807 0.030343078
-1.6654264 -0.6752914 -0.74073315 -1.6185179 0.7047481 -0.911028 0.017592516 -0.3853385
-0.39253744 -0.42791194 -0.06460181 -0.9044907 -0.42040586 -0.4353717 -0.022203684 0.019060653
-0.4077025 -0.45721275 -0.42085588 -1.1800658 -1.6995803 0.021790177 -0.35030654 -0.47279343
0.07332049 -0.68855083 0.009612841 -0.37852788 -0.013311313 -0.45997578 0.008969298 -0.43708917
-0.375547 -0.0050544324 -0.3777121 -0.6745263 -0.87333405 -0.40801534 0.15791522 0.13368589
-1.3028488 -0.4639942 -0.008746338 -0.45389605 -1.2153755 -0.009347414 -3.1056363e-05 0.0073358025
-0.33776492 -0.41973642 -0.011975982 0.029011285 -0.010975555 -0.02830348 -0.24500832 -0.3351519
-1.063055 -0.4232986 -0.49754474 -0.16577408 0.021756276 -0.89578694 -0.4045095 -1.5967026
-0.1058423 -0.37073824 -0.42857596 -0.00024969073 -0.8858839 -1.5466108 -0.3915895 -0.88209975
-0.4145571 0.0040898607 -0.65728825 0.011324428 -0.42668265 -0.8214294 -0.75194514 -0.29676282
-1.162872 -0.039639737 -0.6899608 -0.42351013 -0.6885131 1.194371 -0.06779364 0.0010833038
-0.013111265 0.026619274 -1.1295003 -0.3891208 -0.4199484 0.925202 -15.123858 0.031240128
-0.40958878 -0.39884505 0.029101437 0.017852169 0.050276194 -0.37674454 -0.4130502 -0.44448936
-0.44553998 -0.7628269 -0.40214992 -0.38035396 -0.43426064 0.028547859 -0.7716876 -0.72459066
-0.32949927 -0.006942225 -0.41494933 -0.02470857 0.019294973 -1.116149 -1.131333 0.027365824
-0.44716185 -1.1684633 -0.3277533 -0.41552812 -6.9653535e-05 -0.4734014 -0.46173474 0.012914756
-0.003658355 -0.41067266 -1.1514986 -1.2828481 -0.3996745 -0.91356903 0.00060774095 -0.39876416
-0.7597119 -0.4312208 -0.9741036 -0.029856555 0.031412054 -0.030446269 0.013392525 0.0031071512
-0.40480772 -0.42393294 -0.010250985 -0.39035267 -0.74679494 0.027507013 0.021637812 0.030853443
0.023930358 -0.4243843 -0.3230864 0.031346675 -0.029650174 -1.381187 -0.43685025 -0.4046788
-0.029838301 -0.37038895 -2.8039243 -0.018144604 -1.2152548 -0.32200772 1.3479127 -0.41401958
-0.35675803 -0.010720744 -0.3233366 0.02093224 -0.0073594577 -1.1093252 0.0038053642 -0.33126798
-1.2668741 -0.9377594 -0.91396815 -0.61343104 0.013589593 -1.1034833 -0.45334154 -0.39280048
-0.41940933 -0.29010224 -0.43543172 -1.1496105 0.008248826 -1.1548837 -0.42657754 -0.38649613
-0.44416198 -0.38875872 -0.9133842 0.018797647 -0.42610556 -0.0035972137 -0.001953998 0.21166076
-0.4503453 -0.381477 -0.02222976 -0.7141591 -0.4264762 -0.40783495 -0.6093441 -1.2117993
-0.3727071 -0.43929482 -0.41077223 -0.3475886 -0.40909436 -0.3750352 -0.29542783 -1.0918355
-0.3980652 -0.42456654 0.008490969 0.023459854 -1.1778485 -0.49340472 -0.40053043 -0.3461701
-0.3780506 -0.41462424 -0.3940966 -0.42529538 -0.9232436 -0.8875529 -0.68993145 -0.428585
-0.663604 -0.5579655 -0.32836494 0.0036809398 0.009715846 1.6397849 0.031752545 0.019813908
-1.0638626 0.02163148 -0.42234632 -0.4283151 -0.3973279 -0.379324 0.009987234 0.020973964
00000000: 0e6d 133c a70c eabe 5c93 d7be 8b89 e2be
00000010: 46f9 70bf f42c e7be 9495 cfbe 0c92 f83c
00000020: b12c d5bf e6df 2cbf b0a0 3dbf 982b cfbf
00000030: 5f6a 343f 2239 69bf 2e1e 903c 164b c5be
00000040: abfa c8be 4617 dbbe f44d 84bd b48c 67bf
00000050: 703f d7be 0ae9 debe 80e4 b5bc 1625 9c3c
00000060: 62be d0be ca17 eabe 6c7a d7be 650c 97bf
00000070: d98b d9bf 5081 b23c 615b b3be fb11 f2be
00000080: 0e29 963d de44 30bf 2d7f 1d3c 68ce c1be
00000090: b217 5abc f281 ebbe f6f3 123c 27ca dfbe
000000a0: b247 c0be a79f a5bb 7b63 c1be c1ad 2cbf
000000b0: d292 5fbf 63e7 d0be 87b4 213e f4e4 083e
000000c0: c0c3 a6bf a690 edbe cd4c 0fbc 1065 e8be
000000d0: 6d91 9bbf e525 19bc 8442 02b8 2c61 f03b
000000e0: 86ef acbe b1e7 d6be e936 44bc 13a9 ed3c
000000f0: d0d2 33bc b3dc e7bc 76e3 7abe 0899 abbe
00000100: 3012 88bf 98ba d8be 2fbe febe aec0 29be
00000110: 383a b23c 4b52 65bf df1b cfbe c060 ccbf
00000120: d9c3 d8bd 67d1 bdbe 4f6e dbbe ece8 82b9
00000130: 4ac9 62bf 58f7 c5bf 6b7e c8be 4ad1 61bf
00000140: d440 d4be 3d04 863b 0b44 28bf 188a 393c
00000150: 2676 dabe 3249 52bf 7a7f 40bf 4cf1 97be
00000160: fdd8 94bf 475d 22bd 45a1 30bf 52d6 d8be
00000170: 6542 30bf 26e1 983f 64d7 8abd a5fd 8d3a
00000180: a2d0 56bc aa10 da3c 7793 90bf d73a c7be
00000190: 7a03 d7be 0ada 6c3f 53fb 71c1 4ceb ff3c
000001a0: 9fb5 d1be 6b35 ccbe 2366 ee3c b63e 923c
000001b0: 69ee 4d3d a9e4 c0be 517b d3be 1c94 e3be
000001c0: d11d e4be a048 43bf 98e6 cdbe c1bd c2be
000001d0: 6957 debe 33dd e93c 528d 45bf c67e 39bf
000001e0: 21b4 a8be 9b7b e3bb 3d74 d4be a169 cabc
000001f0: 7e10 9e3c f8dd 8ebf 85cf 90bf 4b2e e03c
00000200: 66f2 e4be 3590 95bf 48cf a7be 1ac0 d4be
00000210: f512 92b8 ab61 f2be 7f68 ecbe 6a98 533c
00000220: 03c1 6fbb b043 d2be 4e64 93bf 5e34 a4bf
00000230: 23a2 ccbe a9df 69bf ce50 1f3a d12a ccbe
00000240: 7b7c 42bf f9c8 dcbe db5e 79bf bc95 f4bc
00000250: eda9 003d 746a f9bc 526c 5b3c 59a1 4b3b
00000260: f542 cfbe bd0d d9be bff3 27bc 4edc c7be
00000270: f42d 3fbf 6356 e13c c841 b13c 5cc0 fc3c
00000280: 9909 c43c e648 d9be 956b a5be 5f65 003d
00000290: ece4 f2bc bcca b0bf d6aa dfbe 0f32 cfbe
000002a0: 746f f4bc 9fa3 bdbe 7f73 33c0 fea3 94bc
000002b0: 788d 9bbf 32de a4be 6788 ac3f 60fa d3be
000002c0: fda8 b6be 0fa6 2fbc 608c a5be 177a ab3c
000002d0: 9b27 f1bb 5efe 8dbf 6b63 793b f59b a9be
000002e0: ee28 a2bf 0011 70bf d1f9 69bf d109 1dbf
000002f0: e2a6 5e3c f13e 8dbf 621c e8be 251d c9be
00000300: d2bc d6be 4888 94be e8f0 debe 7026 93bf
00000310: 1526 073c 3bd3 93bf 5f68 dabe d2e2 c5be
00000320: 3369 e3be 620b c7be 8cd3 69bf 86fd 993c
00000330: 822a dabe 3bbf 6bbb a60e 00bb 99bd 583e
00000340: a993 e6be f450 c3be 301b b6bc 21d3 36bf
00000350: 175b dabe becf d0be fafd 1bbf 3d1c 9bbf
00000360: 77d3 bebe 40eb e0be bd50 d2be 22f7 b1be
00000370: d174 d1be 9d04 c0be 5142 97be 44c1 8bbf
00000380: 34cf cbbe c960 d9be b51d 0b3c e12e c03c
00000390: bdc3 96bf 8b9f fcbe 5312 cdbe 353d b1be
000003a0: d98f c1be a149 d4be 08c7 c9be 51c0 d9be
000003b0: b159 6cbf ab36 63bf 599f 30bf 7e6f dbbe
000003c0: f4e1 29bf d4d6 0ebf 731f a8be ec3b 713b
000003d0: 362f 1f3c 79e4 d13f f50e 023d c750 a23c
000003e0: a62c 88bf 8034 b13c c73d d8be 1e4c dbbe
000003f0: 906e cbbe c136 c2be 7fa1 233c 97d1 ab3c
