save_mode/SAC_v_0_target_qf2_network.pth (torch, 329559 bytes, 5 tensors)

fc0.weight f4 [256, 61]
0	0x3d4b2521	0.049595956
1	0xbab04d40	-0.0013450757
2	0x3d5a6e6a	0.053327955
3	0xbcce3968	-0.025173858
4	0xbd5529fa	-0.052041985
5	0xbe599a01	-0.21250154
6	0xbe97e755	-0.2966868
7	0xbf02fdc1	-0.5116845
8	0xbcd3779a	-0.025813866
9	0x3cdb1bd9	0.026746677
10	0xbd076305	-0.033053417
11	0xbd1187e5	-0.03552999
12	0xbd7b8c8c	-0.061413333
13	0x3ebc5d96	0.3679015
14	0x3f08d2e8	0.5344682
15	0x3f28de78	0.6596446
16	0xbd25556e	-0.040364675
17	0x3d21c67e	0.039495938
18	0x3d1c30ce	0.03813248
19	0x3b26a946	0.0025430485
20	0x3d0c2fed	0.034225393
21	0x4024c338	2.5744152
22	0x401cf9f2	2.4527555
23	0x3fe90cb5	1.8207003
24	0xbcd1aaa9	-0.025594072
25	0x3b0a5f15	0.0021113802
26	0xb840ff79	-4.6014295e-05
27	0xbd461da1	-0.0483681
28	0xbc9bb495	-0.019007007
29	0xbecb5c63	-0.39718923
30	0xbe986dec	-0.29771364
31	0xbf25b1e4	-0.64724565
32	0xbcf8aa44	-0.030354626
33	0xba3c1fd0	-0.00071763713
34	0xbd3db6d8	-0.04631695
35	0x3c2fa227	0.0107198125
36	0xbd62143a	-0.05519507
37	0x3e8aacd7	0.2708499
38	0x3e25dadb	0.16196768
39	0x3f024d0c	0.50898814
40	0x3c1232fe	0.00892329
41	0x3cf69e0b	0.030104658
42	0x3d4465c9	0.047948632
43	0x3d69a683	0.057043564
44	0x3cab44f6	0.020906907
45	0xbe2df3f9	-0.169876
46	0xbe998b6a	-0.29989177
47	0xbefbf306	-0.4920885
48	0xc051f762	-3.280724
49	0xc068e04f	-3.6386907
50	0xc0fd369c	-7.912916
51	0x4111b18e	9.105848
52	0x3e3f5777	0.18685709
53	0xbdd90c30	-0.10598028
54	0x3f2cdb26	0.67521894
55	0x3f6a9b6b	0.916434
56	0xbf81a629	-1.0128833
57	0x3f393de2	0.7236005
58	0x3eba30b5	0.36365286
59	0xbee85270	-0.45375395
60	0x3e0f28cd	0.13980408
61	0xbd3031e8	-0.043016344
62	0x3d378678	0.044805974
63	0x3d7acb94	0.061229303
64	0x3c9532f5	0.018212775
65	0x3d66af23	0.056319367
66	0x3d0dec75	0.03464933
67	0x3d72e1cc	0.059297368
68	0xbbdd9bb2	-0.006762945
69	0xbc8e93a5	-0.017404387
70	0xbd37bd27	-0.044858124
71	0xbd67189b	-0.05641995
72	0x3d561522	0.052266248
73	0x3cdbe3da	0.026842047
74	0xbcfbe40c	-0.03074839
75	0xbd6a389b	-0.05718289
76	0xbc84a63d	-0.01619255
77	0xbd76161c	-0.06007968
78	0x3d0a92a4	0.033831254
79	0x3d7cef3c	0.06175159
80	0x3b473619	0.0030397235
81	0x3c923c5e	0.017851051
82	0x3d1411e5	0.036149878
83	0xbd74f2b4	-0.059801772
84	0x3cc0fd21	0.023558201
85	0xbccde1e9	-0.025132136
86	0x3d7852c4	0.060625806
87	0x3d422791	0.047401015
88	0xbd269367	-0.040667918
89	0x3cf990bc	0.030464523
90	0x3cd3cbfa	0.0258541
91	0xbc012c65	-0.00788412
92	0xbd09c6bd	-0.033636797
93	0x3d50e9b2	0.05100412
94	0xbc77f2ac	-0.015133541
95	0xbd38c470	-0.045109212
96	0xbd3e41e8	-0.04644957
97	0xbbf48b93	-0.0074629276
98	0xbd134855	-0.035957653
99	0xbd19dd7e	-0.037564747
100	0x3d2b604f	0.041839894
101	0x3c59b091	0.013286726
102	0x3d06d025	0.032913346
103	0x3d2f3657	0.042776432
104	0xbd07efa6	-0.03318753
105	0xbd6b1f13	-0.05740268
106	0x3cdf0e02	0.02722836
107	0xbd6f64d3	-0.058445763
108	0xbcc3d3b1	-0.023904653
109	0x3cc57be9	0.024106937
110	0xbd26942f	-0.040668663
111	0xbc6a33ea	-0.014294604
112	0x3c0ae0c4	0.00847644
113	0xbce6f31b	-0.028192094
114	0xb9968c46	-0.0002871474
115	0x3d6823cb	0.05667476
116	0xbc007c6a	-0.007842163
117	0xbd2abaae	-0.041681938
118	0x3d1e3b76	0.038630925
119	0xbb9f2765	-0.004856991
120	0xbd7610a4	-0.060074463
121	0xbd07dce5	-0.033169646
122	0x3d3eb1a0	0.046556115
123	0x3cd2329a	0.025658894
124	0x3ba6f50f	0.005095131
125	0x3d1cd4de	0.038288943
126	0xbcfe23d4	-0.031022944
127	0x3f689778	0.9085612
128	0x3f40eb43	0.7535898
129	0x3f1a498d	0.6026848
130	0xbd19fe4e	-0.03759604
131	0x3d48f111	0.049058024
132	0xbce7f03a	-0.028312791
133	0x3ceee4b3	0.029161787
134	0xbc36ae0f	-0.011149897
135	0x3e9e0d01	0.30869296
136	0x3f42f1d9	0.7615028
137	0x3f89f169	1.0776798
138	0x3cf91484	0.03040529
139	0x3c0949bd	0.008379397
140	0xbd68304b	-0.05668668
141	0x3ca3e707	0.020007623
142	0x3ca7946f	0.02045652
143	0x402988c5	2.6489727
144	0x4020d9e5	2.5132992
145	0x404f78b4	3.2417421
146	0xbc85d87c	-0.01633858
147	0xbd7de874	-0.061989263
148	0x3d184e46	0.037184022
149	0x3d535ab2	0.051600166
150	0xbcfd26b4	-0.030902244
151	0x3e6781f5	0.22608168
152	0x3e06a675	0.13149436
153	0x3ed4f842	0.41595656
154	0x3d3ca180	0.046052456
155	0x3d35b7f8	0.0443649
156	0xbd2698df	-0.040673133
157	0xbcf7e7bc	-0.030261867
158	0x3b65bb62	0.0035054316
159	0xbe8a051d	-0.26957026
160	0xbec87931	-0.39154962
161	0xbf3520b0	-0.70753
162	0x3d62dd03	0.055386554
163	0x3d72d6dc	0.059286937
164	0xbc35f678	-0.011106126
165	0x3d62017b	0.055177193
166	0x3d51ed12	0.05125148
167	0x3e31322b	0.17304294
168	0x3da02d82	0.0782118
169	0x3ec013e2	0.3751517
170	0xbf3b156b	-0.73079556
171	0x3fbfc221	1.4981118
172	0x40bc3130	5.8810043
173	0xc0e66344	-7.1996174
174	0x3e116fbc	0.1420278
175	0x3e79735c	0.24360412
176	0x3e00a078	0.12561214
177	0x3e2e55dd	0.17024942
178	0xbec1b2b5	-0.37831655
179	0x3e9d8e34	0.30772555
180	0xbe70c562	-0.23512796
181	0x3d86fe72	0.065915
182	0xbf366527	-0.71248096
183	0x3ca516ef	0.020152537
184	0x3d5dce7a	0.05415199
185	0xbd63836b	-0.05554525
186	0x3ca031ce	0.019554999
187	0xbd35b668	-0.04436341
188	0x3eaa569c	0.33269203
189	0x3d853080	0.06503391
190	0x3e342631	0.17592694
191	0x3d7ff31c	0.062487707
192	0x3c9063b6	0.01762567
193	0x3d74dff4	0.05978389
194	0x3d281c5e	0.041042678
195	0xbb90f9b5	-0.0044242986
196	0x3e1fe17d	0.1561336
197	0x3efcb612	0.4935766
198	0x3f486f31	0.78294665
199	0xbd41bfa9	-0.047301922
200	0xbc0989cd	-0.008394671
201	0xbd480909	-0.04883674
202	0xbc56ae42	-0.01310307
203	0x3c5d2749	0.013498136
204	0x401157d8	2.2709866
205	0x4006c586	2.1058059
206	0x4033d275	2.8097203
207	0x3bf51ce3	0.00748025
208	0x3c3febb0	0.011713907
209	0xbce5ca3b	-0.028050533
210	0xbcf5f484	-0.03002382
211	0x3c786a34	0.01516204
212	0x3e754fdd	0.23956247
213	0x3d8d208c	0.068909734
214	0x3ee6e43e	0.4509601
215	0x3d685f2b	0.056731384
216	0xbd2099b7	-0.039209094
217	0x3d3a6be0	0.045513034
218	0xbd202eae	-0.039107017
219	0xbc9104a6	-0.017702412
220	0xbe66a50d	-0.225239
221	0xbedac00a	-0.4272464
222	0xbf295e91	-0.6615992
223	0x3d5f4eda	0.054518558
224	0xbcf737f4	-0.030178048
225	0x3ce1b99a	0.027554322
226	0x3d11a1ae	0.03555458
227	0x3c8a2224	0.016861983
228	0x3dfc8ef8	0.123319566
229	0x3cd1d511	0.025614293
230	0x3ea029b6	0.31281823
231	0xbe4fea35	-0.20304187
232	0x3fba2e3e	1.4545362
233	0x40b43ab2	5.632165
234	0xc0e2e9ba	-7.091031
235	0x3dec7ba7	0.11547022
236	0x3f04aa88	0.5182271
237	0xbf0cc31a	-0.549852
238	0x3ce37958	0.027767822
239	0x3e1003b2	0.1406391
240	0xbe2c8f00	-0.16851425
241	0x3d8682b3	0.06567898
242	0x3ea1bb49	0.315882
243	0xbfacb9e6	-1.3494232
244	0xbd0e4fad	-0.034743953
245	0xbd59859a	-0.053105928
246	0x3d16f4f6	0.036854707
247	0xbc255f97	-0.010093591
248	0x3ba98f77	0.005174573
249	0x3f5cc02b	0.86230725
250	0x3f2db96c	0.67861056
251	0x3f0961a6	0.53664625
252	0x3d1610d6	0.03663715
253	0x3d5dab52	0.054118462
254	0xbcd15582	-0.025553469
255	0xbd1b5866	-0.0379261

fc0.bias f4 [256]
0	0xc1c4622e	-24.54794
1	0x00000000	0.0
2	0x41f4e2e6	30.61079
3	0x41f1321f	30.149473
4	0x41f4ff05	30.624521
5	0xc1cf4eb5	-25.913431
6	0x41ed539f	29.66583
7	0xc146b2d9	-12.418664
8	0xbd1ab51e	-0.037770383
9	0x41ec3663	29.526556
10	0x41f16368	30.173538
11	0xbc7621d4	-0.015022714
12	0x41f4bd6b	30.59249
13	0x41ea32e7	29.274855
14	0x41edcbe6	29.72456
15	0x41f50541	30.627565
16	0x41eb0158	29.375656
17	0x41f53c79	30.654528
18	0xc1d19916	-26.199749
19	0x41f4c8d2	30.598057
20	0xc1c91195	-25.133585
21	0xc1c7d36d	-24.978235
22	0xc1cb76bd	-25.432978
23	0xc1c9f9e9	-25.247026
24	0xbd12b31e	-0.03581535
25	0xbf96b8ce	-1.1775148
26	0xc0ea2513	-7.3170257
27	0xc1c67228	-24.80574
28	0xc1c1ad73	-24.209692
29	0x41f42906	30.520031
30	0xc1c41d5a	-24.514332
31	0xc1c3a241	-24.454226
32	0x41ee6e6e	29.80392
33	0xc1c49edf	-24.577574
34	0x41eef464	29.869331
35	0x41e333af	28.400236
36	0xc126253f	-10.384093
37	0x41f20217	30.25102
38	0xc1c98335	-25.189066
39	0xc1c46ea3	-24.554022
40	0xc1c68814	-24.816444
41	0x41eef7bc	29.870964
42	0x41f32cda	30.3969
43	0xc1c84713	-25.034704
44	0x41ea9bd8	29.326096
45	0xc1cfa9a4	-25.957832
46	0xbd92af36	-0.07162325
47	0x41f4a44b	30.580221
48	0xc1ce0859	-25.754076
49	0xc1c456a7	-24.54231
50	0xbd04aed5	-0.032393295
51	0xc1cdd6e7	-25.729933
52	0x41f2b115	30.336466
53	0x41f17198	30.180466
54	0xc1c76cb5	-24.92808
55	0x41f4da1c	30.606499
56	0xc1d0cd19	-26.100145
57	0xc1ce0a9b	-25.755178
58	0x00000000	0.0
59	0x41eff5ef	29.995085
60	0x41f18352	30.189121
61	0xc0d8f8fa	-6.7803926
62	0xc1c5658d	-24.674585
63	0x41f43b29	30.528887
64	0xc1c769e3	-24.926702
65	0xc1423731	-12.138474
66	0xc1c70084	-24.875252
67	0xc1c89b4d	-25.07583
68	0x41eda31b	29.704641
69	0xbd0219e5	-0.031762976
70	0xc1ced419	-25.853563
71	0x41f4e29a	30.610645
72	0xc1c4aef9	-24.585436
73	0x41f54fd7	30.663984
74	0x41f4cfa9	30.601397
75	0xc1c4fa7d	-24.622309
76	0x41f3df30	30.483978
77	0xc1c4203f	-24.515745
78	0xc1c5a2a2	-24.70441
79	0x41f4cbc4	30.599495
80	0xc1c0afc8	-24.08583
81	0xc1d0debd	-26.108759
82	0xc1a159e7	-20.168898
83	0xc1d07d36	-26.061138
84	0xc1c575f9	-24.682604
85	0xc1c1db6a	-24.232136
86	0xc1ce44a3	-25.783514
87	0xc1d0f545	-26.11976
88	0xc1c4d43f	-24.603636
89	0xc1c8be15	-25.092813
90	0x41eb09ad	29.379725
91	0xc1d1bed6	-26.218182
92	0x41edfc5e	29.748226
93	0x41ed0807	29.62892
94	0xbd565852	-0.052330323
95	0xc1c1c8ef	-24.223112
96	0xc15b0eec	-13.691143
97	0x41f4a34a	30.579731
98	0xc1d1f113	-26.242712
99	0xc1c7abc2	-24.958866
100	0xc11bc2a6	-9.735022
101	0xbd021c3d	-0.03176521
102	0xc1c1b9ae	-24.215664
103	0xc1cd67b7	-25.675642
104	0x41f51536	30.635357
105	0x41f4721b	30.555716
106	0xc1c66b08	-24.802261
107	0xc1c45f04	-24.546394
108	0x41f4d52c	30.604088
109	0x41d3e65c	26.48748
110	0x41f42666	30.51875
111	0x41f53c28	30.654373
112	0x3fc3d1ea	1.5298436
113	0xc1c49f69	-24.577837
114	0xc1c6c226	-24.844799
115	0x41f49a8c	30.575462
116	0xc1d28d60	-26.31903
117	0x41f4ce42	30.600712
118	0x41eb46fe	29.409664
119	0xbd86732d	-0.06564937
120	0x00000000	0.0
121	0xbd344670	-0.044012487
122	0x41f4c36d	30.595423
123	0xc1373218	-11.44973
124	0xc1d141fa	-26.157215
125	0xc1c45e1e	-24.545956
126	0xc1c68f68	-24.820023
127	0xc1cbde76	-25.483624
128	0xbd021c3d	-0.03176521
129	0x41f42466	30.517773
130	0xc1c9f6b1	-25.245455
131	0x41f49c93	30.576452
132	0x00000000	0.0
133	0xbd989c66	-0.07451706
134	0x41f46bce	30.552639
135	0xc1c6675c	-24.800468
136	0x41f55d88	30.67067
137	0x41f528e3	30.644964
138	0xc1c4fbf9	-24.623034
139	0xbf455fc0	-0.7709923
140	0xbcc15311	-0.02359918
141	0xbd95c50e	-0.07312976
142	0x41f52196	30.6414
143	0xc108c1cd	-8.547315
144	0xc200ec59	-32.23081
145	0xc1c59b29	-24.700762
146	0xc1d09f56	-26.0778
147	0x41f4711b	30.555227
148	0xc1c422ad	-24.516932
149	0xc1d1f431	-26.244234
150	0x41eb7f73	29.437231
151	0xc1d0e411	-26.11136
152	0x41f4d873	30.605688
153	0x41f48cb0	30.568695
154	0x41f4ac7f	30.584227
155	0xbbc4c9c9	-0.0060055
156	0x41f460d3	30.547277
157	0xc1c3e5bd	-24.487177
158	0xc1d333d8	-26.400314
159	0xbd067fad	-0.032836605
160	0x41f4ba6f	30.591032
161	0xc1c5f25a	-24.743336
162	0x41f50be1	30.6308
163	0xc1c09963	-24.074896
164	0x41f4cc00	30.59961
165	0x00000000	0.0
166	0x41ecca29	29.598711
167	0x41f495a7	30.573072
168	0x41f5124d	30.633936
169	0xbc4dc371	-0.012558804
170	0xc1c5e6d2	-24.737705
171	0x00000000	0.0
172	0x00000000	0.0
173	0x41f6c363	30.845404
174	0x00000000	0.0
175	0xc1c87eef	-25.06198
176	0x41ed8dc7	29.694227
177	0xbc38a850	-0.011270598
178	0xc1c489de	-24.567318
179	0xc1d18ee8	-26.194778
180	0xc1c654e8	-24.791458
181	0x41f4abb2	30.583836
182	0xc1d10873	-26.129126
183	0xc1c8029b	-25.001272
184	0xbd1325f6	-0.035924874
185	0x41f4af4e	30.585598
186	0xc1c6c921	-24.848207
187	0x41f02f05	30.022959
188	0xc1c8dab4	-25.106789
189	0xc1c454b2	-24.541355
190	0x41f4ee89	30.616472
191	0xc1c2b151	-24.33658
192	0xc1d20164	-26.250679
193	0x41ed2fc6	29.648327
194	0xbc136f66	-0.008998727
195	0x41f2b57a	30.338612
196	0xc1c21027	-24.257887
197	0xbd24d6df	-0.04024398
198	0x41f54e6d	30.663294
199	0xbc785db4	-0.015159059
200	0xbd1ab51e	-0.037770383
201	0xbe3f3738	-0.18673408
202	0xc1c7ba69	-24.96602
203	0xc1c8ae61	-25.085146
204	0xc1d25df6	-26.29588
205	0xc1c70115	-24.875528
206	0xc1d169ca	-26.176655
207	0x41f4d46d	30.603724
208	0xc1c308f2	-24.379368
209	0xc1cf12e3	-25.884222
210	0x41eea5f0	29.831024
211	0xc03f741e	-2.9914622
212	0xc1cae4df	-25.361753
213	0x41eecebd	29.850946
214	0x41ea59e8	29.2939
215	0x418ec549	17.84633
216	0x41f57d16	30.686077
217	0x00000000	0.0
218	0xc1c77b35	-24.93516
219	0xc1c4ca62	-24.59882
220	0xc1c53dde	-24.655209
221	0xc1c7717c	-24.930412
222	0x41f4a13c	30.578728
223	0x41f607b9	30.75377
224	0x41f4d562	30.60419
225	0xc1d204a9	-26.252275
226	0x41f37fa3	30.437323
227	0xc1c5b748	-24.714493
228	0xc1c77d25	-24.936106
229	0x41ec85a9	29.565264
230	0xc1d0863b	-26.065542
231	0xc1c38bfc	-24.443352
232	0x41f2d62c	30.354576
233	0x41f41961	30.512392
234	0xc1cf8b29	-25.94295
235	0xc1c646bf	-24.784544
236	0xbd0219e5	-0.031762976
237	0xc1d139cc	-26.153221
238	0xbd80af65	-0.06283454
239	0x41f3dc14	30.48246
240	0xc1c41e57	-24.514814
241	0xc1c758b0	-24.918304
242	0xc1c4f97a	-24.621815
243	0xc1d1d872	-26.230686
244	0x41efcd75	29.97532
245	0xc1d27ca7	-26.310865
246	0x41f4d9db	30.606375
247	0xbc8a51cd	-0.016884709
248	0x41ef06c6	29.878307
249	0x00000000	0.0
250	0x41f3134a	30.384418
251	0x41f4535a	30.540699
252	0xbd5baad2	-0.053629704
253	0xbd2063cf	-0.039157685
254	0x41f4c5e6	30.59663
255	0xc1c5db79	-24.732164

fc1.weight f4 [256, 256]
0	0x3d2367ae	0.0398938
1	0x3d7d966c	0.06191103
2	0xbd2eded7	-0.042692985
3	0x3d6c2272	0.057650037
4	0xbd1f043e	-0.038822405
5	0x3a16e6e5	0.0005756452
6	0x3de94412	0.113899365
7	0xbcc75941	-0.024334552
8	0xbd057c4d	-0.032589246
9	0x3db9a88f	0.09065353
10	0x3d808c6e	0.06276785
11	0x3d8576d5	0.06516806
12	0xbd7fc504	-0.062443748
13	0x3dbd345f	0.092385046
14	0xbbd85bf2	-0.0066027576
15	0xbe318818	-0.17337072
16	0x3e2b988e	0.16757414
17	0xbdceadd1	-0.100917466
18	0xbcac6b7f	-0.021047352
19	0xbdfb19b4	-0.12260762
20	0xb9c2f121	-0.00037182219
21	0xbb535152	-0.0032244516
22	0xbd5a65d2	-0.05331976
23	0xbdc09089	-0.09402568
24	0xbd4a7eb9	-0.04943726
25	0xbc991326	-0.018685888
26	0xbbff586b	-0.0077925227
27	0xbd906dde	-0.070522055
28	0x3d86e53c	0.06586692
29	0x3c8fde1c	0.017561965
30	0x3e0111d4	0.12604457
31	0x3e0dcec4	0.13848406
32	0x3e055604	0.13021094
33	0x3d1c9275	0.03822561
34	0x3db4402f	0.088013045
35	0x3d33368f	0.043753203
36	0xbcbc6a08	-0.022999778
37	0x3d553291	0.052050177
38	0xbc58b5ca	-0.013226936
39	0xbc13f2a6	-0.00903002
40	0x3d2ad21e	0.04170429
41	0x3e0e0894	0.1387046
42	0x3d1ce865	0.038307566
43	0x3d6259c2	0.05526138
44	0x3c1b6bec	0.00948618
45	0xbd5de842	-0.054176576
46	0xbbdc2a2a	-0.0067188935
47	0xbe160cee	-0.1465337
48	0x3b2141ae	0.0024605799
49	0x3d8ea72c	0.06965479
50	0xbb61e23c	-0.0034467122
51	0xbc578e7a	-0.013156528
52	0x3c35e867	0.011102772
53	0x3cc562e8	0.024095014
54	0xbd7c6cc4	-0.061627164
55	0xbd9b3796	-0.075789616
56	0xbcdba492	-0.026811872
57	0x3d266b8e	0.040629916
58	0x3d7cf25c	0.06175457
59	0x3db2dfd7	0.087341
60	0x3ca306ce	0.019900706
61	0xbe0bb47c	-0.13643068
62	0x3d9e3b75	0.07726184
63	0x3cd71179	0.026253449
64	0x3c8ae31c	0.016953997
65	0x3d01e8ac	0.031716034
66	0xbd4ac379	-0.049502824
67	0xbb4a2e41	-0.0030850323
68	0x3d82cccc	0.06386718
69	0xbd360617	-0.0444394
70	0x3c7e181b	0.015508677
71	0xbdee5b33	-0.116384886
72	0x3b91afbd	0.0044459985
73	0xbe2dbaa7	-0.16965733
74	0xbdb9fe80	-0.09081745
75	0xbd85e81d	-0.06538413
76	0xbc60d643	-0.013722959
77	0x3c152a5d	0.0091043385
78	0x3daa939e	0.08328937
79	0xbdbbfa50	-0.09178603
80	0x3dc06720	0.093946695
81	0x3d8a823c	0.067631215
82	0xbd94305e	-0.07235788
83	0x3cb1810f	0.021667985
84	0x3c88591c	0.016644053
85	0x3d963fb5	0.0733637
86	0x3d7458cb	0.059654992
87	0x3d5169d1	0.051126305
88	0xbc38db18	-0.011282705
89	0x3cb30b97	0.021856112
90	0x3e37e36f	0.17957853
91	0xbd292f5f	-0.041304942
92	0x3e17cc95	0.14824136
93	0x3e182415	0.14857514
94	0xbc0d780d	-0.008634579
95	0x3dd3a039	0.103332944
96	0xbdf42923	-0.11921909
97	0x3bf1292b	0.007359644
98	0x3b0d8874	0.0021596225
99	0x3cd1f4e1	0.025629463
100	0xbd79681b	-0.0608903
101	0x3d7ac2fc	0.061221108
102	0x3d0c010c	0.034180686
103	0xbc4a1861	-0.012334914
104	0xbe149b66	-0.14512405
105	0xbc5bfcda	-0.013426984
106	0xb72becef	-1.024756e-05
107	0x3d829eb4	0.063779265
108	0xbe104f66	-0.14092788
109	0xbd211526	-0.03932681
110	0xbda08ba7	-0.078391366
111	0xbdcf84a9	-0.10132725
112	0xbd1e779e	-0.038688295
113	0xbcc78371	-0.024354668
114	0x3afcbd3b	0.0019282469
115	0xbe14db76	-0.14536843
116	0x3d04b76c	0.032401487
117	0xbd7c2b24	-0.06156458
118	0x3e47dbb8	0.1951741
119	0x3d4c47c1	0.049873117
120	0x3d18eda6	0.037336014
121	0x3c77ad23	0.015116963
122	0xbdb87718	-0.0900709
123	0xbe1ceb86	-0.1532422
124	0xbdada337	-0.084783964
125	0xbd70b4c4	-0.05876614
126	0x3dce3648	0.10068947
127	0xbde1608b	-0.11004742
128	0xbd689a8b	-0.05678801
129	0x3c8a373c	0.01687204
130	0xbaf3e144	-0.0018606563
131	0xbda49b7f	-0.08037471
132	0xbd45f5c9	-0.048330102
133	0x3a38d988	0.00070514577
134	0xbe33c330	-0.17554927
135	0x3dcc6570	0.09980285
136	0xbda27967	-0.07933312
137	0xbdd3fba2	-0.103507295
138	0x3dcf7058	0.1012885
139	0xbd3bbb08	-0.045832664
140	0xbcdf1762	-0.02723283
141	0xbd43b9e8	-0.047784716
142	0xbdccb6b1	-0.09995783
143	0xbdbb7967	-0.09154015
144	0xbda9165e	-0.08256219
145	0xbc1990ee	-0.009372933
146	0x3d34ed9f	0.044171926
147	0xbdb3c650	-0.087780595
148	0x3d497838	0.049186915
149	0x3b39f83f	0.0028376726
150	0x3d15d18d	0.036576796
151	0x3b6e2ac2	0.0036341404
152	0xbdf0fb14	-0.11766639
153	0xbc8c475d	-0.017123872
154	0xbd921b8e	-0.07134162
155	0x3d3bda48	0.045862466
156	0xbe24025f	-0.1601653
157	0xbd353e18	-0.04424867
158	0x3d066a94	0.032816485
159	0xbba75c2f	-0.0051074247
160	0xbe3047c8	-0.17214882
161	0x3d1419b5	0.03615733
162	0xbd9b90a6	-0.07595949
163	0x3c0a1414	0.008427639
164	0xbe1b3796	-0.15157923
165	0xbc4f06e1	-0.012635917
166	0x3e249606	0.16072854
167	0xbd4c4889	-0.049873862
168	0xbd69cccb	-0.05708007
169	0x3c6a4773	0.014299261
170	0xbdb33d98	-0.087519825
171	0x3d422601	0.047399525
172	0x3c09eb74	0.008417953
173	0xbb2e7d2f	-0.0026624908
174	0x3cf4c7bc	0.029880397
175	0xbab1c378	-0.0013562283
176	0x3a118015	0.0005550397
177	0x3d8bd3bd	0.06827495
178	0xbcab5627	-0.020915104
179	0xbd6e9373	-0.058246087
180	0x3c817e6c	0.015807353
181	0xbcacade7	-0.021079017
182	0x3b0cd8ac	0.0021491451
183	0xbd2808d7	-0.041024055
184	0x3ca07d97	0.019591136
185	0xbdab5ad7	-0.08366936
186	0xbc8d5a5d	-0.017255003
187	0x3da257ce	0.07926904
188	0xbd86188d	-0.065476514
189	0xbd8eea5d	-0.06978295
190	0xbe035ee5	-0.12829168
191	0xbd3182a0	-0.043337464
192	0x3b9dbc1d	0.0048136846
193	0x3e04581c	0.12924236
194	0x3d6258fb	0.05526064
195	0x3c7e4d3b	0.015521343
196	0x3d89e084	0.06732276
197	0x3d28611e	0.041108243
198	0xbda0a0bf	-0.0784316
199	0x3d667f7b	0.05627392
200	0x3cb2d677	0.02183078
201	0xbca53ec6	-0.020171534
202	0x3d442040	0.04788232
203	0xbd68061b	-0.056646448
204	0xbd9c0c16	-0.07619493
205	0xbd8d172d	-0.06889186
206	0x3c9945ed	0.018710101
207	0xbe320db0	-0.17388034
208	0x3cabe06e	0.02098104
209	0xbd6eaa1b	-0.058267694
210	0x3e0b6d64	0.13615948
211	0x3caf6e96	0.021415036
212	0x3c5e8c51	0.013583259
213	0x3db50a87	0.088398986
214	0x3e38ec47	0.18058883
215	0xbd3c9d98	-0.04604873
216	0xbdcc5ff9	-0.09979243
217	0xbd0f8c15	-0.035045702
218	0x3d6b5fea	0.057464518
219	0x3ceb8f92	0.028754983
220	0x3e123a05	0.14279945
221	0x3cec8e42	0.028876428
222	0xbe0bfa05	-0.13669594
223	0xbdf0fe34	-0.117672354
224	0x3bd85291	0.0066016396
225	0xbdd235ba	-0.10264154
226	0x3b2091e6	0.0024501025
227	0xbcc86e99	-0.0244668
228	0xbd073d85	-0.033017654
229	0x3d9926ad	0.0747808
230	0xbdafb1c7	-0.0857883
231	0x3d4474a0	0.047962785
232	0x3cae3f76	0.021270495
233	0x3ccfad48	0.025351182
234	0xbbd17972	-0.0063926512
235	0x3caa9b6e	0.020826068
236	0xbc6137eb	-0.013746242
237	0x3cf1a3d3	0.029497063
238	0x3cb2cac0	0.021825194
239	0xbc15ac0e	-0.009135259
240	0xbd05e115	-0.032685358
241	0x3d15147d	0.036396492
242	0x3dd58ba1	0.10427023
243	0x3c8bf48c	0.017084382
244	0x3cd9b479	0.026575314
245	0xbc972ba6	-0.01845343
246	0xbe15c126	-0.14624462
247	0xbc370b07	-0.011172063
248	0x3da011c6	0.0781589
249	0x3d663ea3	0.05621208
250	0xbcb825d8	-0.022478983
251	0xbb12235e	-0.0022298913
252	0xbcaaf866	-0.020870399
253	0x3d298d1f	0.04139435
254	0xbe3043e0	-0.17213392
255	0x3c832a8c	0.016011499

fc1.bias f4 [256]
0	0x3e8974b5	0.26846853
1	0x3e4b2138	0.1983689
2	0xc1555689	-13.333627
3	0x3e6db722	0.23214391
4	0xbd72d484	-0.059284702
5	0x3e3f78d7	0.1869844
6	0x3f39c3e7	0.7256455
7	0x3e3e5187	0.18585788
8	0x3e423f00	0.18969345
9	0x3e69308a	0.22772422
10	0x3e3f0c3f	0.18657015
11	0x3e3de35f	0.18543766
12	0x3e6b4d2a	0.22978655
13	0xbecc0559	-0.3984783
14	0x3e47b570	0.19502807
15	0x3e1e7f6d	0.15478297
16	0x3e8d492d	0.2759489
17	0x3e5edc01	0.21763612
18	0x3e6be64a	0.23037067
19	0x3e423fc8	0.18969643
20	0x3e7a4f5b	0.24444334
21	0x3e856414	0.26052916
22	0xbfa650ff	-1.2993468
23	0xbdf6c5e4	-0.120494634
24	0x41ea23a7	29.267408
25	0x3e8c6765	0.27422634
26	0x41f29ca1	30.326479
27	0x3e66234a	0.22474399
28	0x3a7a8ddc	0.0009557882
29	0x40f0395c	7.507002
30	0x41f4685f	30.550962
31	0x3e8df69c	0.2772721
32	0xbe162a9e	-0.14664695
33	0xbfd316ba	-1.6491311
34	0xc1dd51c6	-27.664928
35	0x3e4a1158	0.19733179
36	0x3d80dcb4	0.06292096
37	0x41e6e50a	28.861835
38	0xbd031705	-0.032004375
39	0xbe9132be	-0.28359026
40	0x3dd1e3b1	0.10248507
41	0xbc822025	-0.015884468
42	0xbc0b99ed	-0.0085205855
43	0x3e333f27	0.1750456
44	0x3e26ec76	0.1630114
45	0x3e52b449	0.20576586
46	0xbfbc7818	-1.472415
47	0x3e5fb531	0.21846463
48	0x3e859d1c	0.26096427
49	0xbdfe0ed5	-0.12405173
50	0x3e8a58d4	0.27020895
51	0x3e673d52	0.22581986
52	0x41f42c94	30.521767
53	0x3e2739ce	0.16330644
54	0x3e80e22c	0.25172555
55	0x3e474108	0.19458401
56	0xbbcb9989	-0.006213371
57	0xbe83131d	-0.2560052
58	0xbfbc5f18	-1.471652
59	0x3e827164	0.25477135
60	0xbea0bda7	-0.31394693
61	0x3ccb4848	0.02481474
62	0x3e460888	0.19339192
63	0x41f33f91	30.406038
64	0xbf96aea6	-1.1772048
65	0x3d66df92	0.056365557
66	0x3e3e0fe7	0.18560754
67	0x3e814ba5	0.25253025
68	0x3e902b76	0.28158158
69	0x3e4546c8	0.19265282
70	0xbb036845	-0.0020051163
71	0x3e88c1cc	0.26710355
72	0x3e4aacd0	0.19792485
73	0x41f45056	30.539227
74	0x41f328f6	30.395
75	0x3e79daf3	0.24399929
76	0x3e40ae39	0.1881646
77	0x3e6d0cd3	0.23149423
78	0x3e392487	0.1808034
79	0x3e7eac8b	0.24870507
80	0x3e29bcc6	0.16575918
81	0xbc23f44f	-0.010006978
82	0x41de22d9	27.767015
83	0xbfdb0dca	-1.7113583
84	0xbe74af84	-0.23895079
85	0x3e6030a2	0.21893552
86	0x3f6c5080	0.92310333
87	0x3e1fe3ad	0.15614195
88	0x3e748d23	0.23881964
89	0x3e2ef3ee	0.1708524
90	0x3e2c1016	0.16803011
91	0x3e3b757f	0.1830654
92	0x3e7d132b	0.24714343
93	0x3e84af9c	0.2591523
94	0x3e617b1a	0.22019616
95	0xbd65df53	-0.05612118
96	0x3e2add0e	0.16685888
97	0xbec7b571	-0.39005616
98	0xbd356e88	-0.044294864
99	0x3e3a7b7f	0.18211173
100	0xbe7de16c	-0.24793023
101	0x41aed706	21.854992
102	0x41efb0d8	29.96135
103	0x41f3af19	30.460497
104	0x3e2c66ce	0.16836092
105	0x3e2db9de	0.16965434
106	0xbe690d63	-0.22759013
107	0x3e8260fc	0.25464618
108	0x41f455c5	30.54188
109	0x3d906b85	0.07051758
110	0x41f42559	30.518236
111	0x3c72a5a4	0.01481
112	0xbfce9a49	-1.6140834
113	0x41f21969	30.262407
114	0xc1db507c	-27.414299
115	0xbfb4ca78	-1.4124289
116	0x3e374d6f	0.17900632
117	0xbdba8cb0	-0.09108865
118	0x3e5e0781	0.2168255
119	0xbfb92168	-1.446332
120	0x41f1aa30	30.2081
121	0x3e7ec7e3	0.24880938
122	0x3e2949ee	0.16532108
123	0xbdf58a44	-0.11989263
124	0xbd89c2d5	-0.067266144
125	0x3cb5ffd7	0.02221672
126	0x3e365e5f	0.17809437
127	0x41f44df9	30.538073
128	0x41ecc6eb	29.597128
129	0xc1db60f7	-27.422346
130	0x3e5a2689	0.21303762
131	0xbfbad300	-1.4595642
132	0x3e432fa0	0.19061136
133	0xbdd7d0e2	-0.10537888
134	0x41f4795a	30.559254
135	0x3e71fa8b	0.23630731
136	0x41f4ae93	30.585241
137	0x3dc53341	0.096289165
138	0x3e34d17f	0.17658041
139	0x41f38081	30.437746
140	0x3e5b0469	0.21388401
141	0x3e735d3b	0.23766033
142	0x3e7dbfd3	0.24780206
143	0x3e844ad4	0.2583834
144	0xbc00dd7d	-0.007865307
145	0xbce2fe9b	-0.027709296
146	0x3fc0c135	1.5058962
147	0x3e5635f2	0.20919016
148	0x00000000	0.0
149	0x3e18680d	0.14883442
150	0x3e5a6761	0.21328498
151	0x41c575a8	24.68245
152	0xbfa7a72f	-1.3097895
153	0xbfc07081	-1.5034333
154	0x3e45b4f1	0.19307305
155	0x3e4a5870	0.19760299
156	0x41f33960	30.403015
157	0xbdcf9449	-0.10135705
158	0xbe8c81f5	-0.274429
159	0xbd1d2b96	-0.038371645
160	0xbe6595e3	-0.22420458
161	0x41f48f1e	30.569881
162	0x3e339a8f	0.17539428
163	0xbd261a4f	-0.040552434
164	0x3e90ba6e	0.28267235
165	0x3e42cc68	0.19023287
166	0x3d84199c	0.06450197
167	0xbd413a11	-0.047174517
168	0x3cdd7889	0.027035015
169	0xbfca2289	-1.5791789
170	0xbcf94044	-0.030426152
171	0x40bd5917	5.917125
172	0xc18a6a05	-17.301767
173	0x3d1a60bd	0.037689913
174	0x3e6859b2	0.22690466
175	0x3e6ec252	0.23316315
176	0x3e962dbd	0.2933177
177	0x41f3ae81	30.460207
178	0xbc5393ba	-0.012913639
179	0xc127176f	-10.443221
180	0x3e8e96c4	0.278494
181	0x3e584c51	0.21122862
182	0xbd2059a7	-0.039148
183	0x3e8ab694	0.2709242
184	0x3e571c69	0.21006931
185	0x3e77fe63	0.24218135
186	0xbd4cd2d1	-0.050005738
187	0x3e5c7b69	0.21531452
188	0x3e3d8a4f	0.18509792
189	0x3e91632d	0.28395978
190	0xbed89fea	-0.42309505
191	0xbd4c71f1	-0.04991335
192	0x3e8c7574	0.2743336
193	0x3e6500aa	0.22363535
194	0xbd495f39	-0.049163077
195	0x3e7228a3	0.23648314
196	0x3e248666	0.16066894
197	0xbd3671e8	-0.044542223
198	0xbbeed5db	-0.007288677
199	0x41f56400	30.673828
200	0x41fbbe91	31.46805
201	0x3e55c4a9	0.20875801
202	0x41f34ac8	30.411514
203	0x3e25fd66	0.16209945
204	0xbb4243b1	-0.0029642398
205	0x3ea05fe6	0.31323165
206	0xbd9fdfc6	-0.07806353
207	0x41f35a68	30.419144
208	0x3e224a86	0.15848741
209	0x3e5de909	0.21670927
210	0x3e48bd80	0.19603539
211	0x3e7b2ae3	0.24528079
212	0xbd397690	-0.045279086
213	0x3e4a61d0	0.19763875
214	0xbd6bdc23	-0.057582986
215	0x3e90b74d	0.28264847
216	0x41bb883f	23.441526
217	0xbc9d888e	-0.019230153
218	0xbd265a5f	-0.04061353
219	0x3e5f9849	0.21835436
220	0xbf9a449e	-1.205219
221	0xbfd586f2	-1.6681807
222	0xbcb82060	-0.022476375
223	0xbe90679e	-0.28204054
224	0xbc135fc6	-0.008995002
225	0x41f1d0cd	30.226954
226	0x3e2ba1ee	0.1676099
227	0xbd758c9c	-0.05994855
228	0x3e7c6363	0.24647288
229	0xbf9f3c7e	-1.2440336
230	0x3e8d799c	0.27631843
231	0x3e2b681e	0.16738936
232	0x3e8a535c	0.27016723
233	0xbfceadd1	-1.6146795
234	0xbfd4b65a	-1.6618149
235	0x3e803cbe	0.25046343
236	0x41f0dc51	30.107576
237	0x3e787393	0.24262838
238	0xbdd1f28a	-0.10251339
239	0xbd13fb3e	-0.036128275
240	0x3e1b16c5	0.15145405
241	0x41f4be6a	30.592976
242	0xbfb5f4e8	-1.4215364
243	0x41f2ad3a	30.334583
244	0x41f31042	30.382938
245	0x3e9c0125	0.30469623
246	0x3e71021b	0.2353596
247	0xbd4bbd79	-0.049741242
248	0x3e5ce351	0.2157109
249	0xbd333500	-0.043751717
250	0x3e88992c	0.2667936
251	0xbc0c9fa5	-0.008582984
252	0x3e841104	0.25794232
253	0x3e2ce946	0.16885862
254	0x3e022c60	0.1271224
255	0x3e678532	0.22609404

last_fc.weight f4 [1, 256]
0	0xbcc9ff61	-0.024657907
1	0xbc472678	-0.012155168
2	0xbf4c6b75	-0.79851466
3	0xbb23cae6	-0.0024992763
4	0x3c1fe2e5	0.009758686
5	0xbba90466	-0.005157995
6	0x3c7b0a14	0.015322227
7	0x3b9e59ee	0.004832498
8	0xbccf5f28	-0.025313929
9	0xbc119dc5	-0.008887713
10	0x39987dee	0.00029085524
11	0xbb6b9e6a	-0.0035952576
12	0xbb98bdfd	-0.0046613202
13	0x3e0a4f75	0.13506873
14	0xbbc712f0	-0.0060752556
15	0x3bd052ea	0.0063575404
16	0x3c9a35c6	0.01882447
17	0x3c1d15b6	0.009587696
18	0xbc19cea5	-0.009387647
19	0xbc010acc	-0.007876109
20	0xbbefdf7a	-0.0073203417
21	0xbdda6e6a	-0.10665591
22	0xbcd88a0a	-0.02643301
23	0xbf73795b	-0.9510705
24	0xbfa2e9c5	-1.2727591
25	0xbce4e61a	-0.027941752
26	0xbfcb5fe9	-1.5888644
27	0x3c12a1ee	0.00894974
28	0x3bc448e1	0.005990133
29	0xbf1d527a	-0.61453974
30	0xbfd0eeb4	-1.6322846
31	0xbcde34d1	-0.027124794
32	0x3ee3917a	0.44446927
33	0x3b6c346b	0.0036041986
34	0x3ea657ec	0.32488954
35	0x3b386db8	0.002814157
36	0x3d307b58	0.04308638
37	0xc07595fb	-3.837279
38	0x3c3f74f0	0.011685595
39	0x3ca152df	0.019692836
40	0xbb93c61e	-0.0045097014
41	0x3c189f86	0.009315377
42	0x3b36a4b0	0.0027869157
43	0xbd89838d	-0.067145444
44	0xbd01b83d	-0.031669844
45	0xbdd6b161	-0.10483051
46	0x3cd34fc2	0.025794867
47	0xbcd0b171	-0.025475236
48	0xbbb205df	-0.005432829
49	0xbfa85bf8	-1.3153067
50	0xbd39f51f	-0.04539978
51	0xbcfc309b	-0.030784896
52	0xbfa13fb5	-1.2597567
53	0x3be33613	0.0069339364
54	0xbd3319a7	-0.043725636
55	0xbccc87d0	-0.024967104
56	0x3bcde1e9	0.006283034
57	0x3e02f7c4	0.12789828
58	0xbd1106fe	-0.03540706
59	0xbcca57a8	-0.0247
60	0x3dc58ea9	0.09646351
61	0xbcc09219	-0.023507165
62	0xbc0bd7a4	-0.008535299
63	0xbfbc6146	-1.4717185
64	0x3d3184f7	0.043339696
65	0x3e2fd03e	0.17169282
66	0xbadf1a81	-0.0017021449
67	0xbcb740ef	-0.02236983
68	0xbd00d8cc	-0.031456754
69	0x3cd173fa	0.025567997
70	0x3ce06a73	0.027394509
71	0x3c22fb17	0.00994756
72	0x3cc5c301	0.024140837
73	0xbfcd693f	-1.6047744
74	0xbf81cb57	-1.0140179
75	0xbc964e8d	-0.018348003
76	0xbcae516f	-0.021279065
77	0xbcdab649	-0.026698248
78	0xba9974cd	-0.0011707783
79	0xbc0c556c	-0.008565288
80	0xbcbe9a2f	-0.02326688
81	0xbcb37b50	-0.021909386
82	0xc0755dbb	-3.8338459
83	0x3cf034a4	0.029321976
84	0x3bf05e0b	0.0073354295
85	0x3c2e674f	0.010644748
86	0xbffd93c2	-1.9810717
87	0xbd9a38e6	-0.07530384
88	0xbc2549b6	-0.010088375
89	0x3b80e86d	0.0039339573
90	0xbb04ea34	-0.0020281198
91	0xbba93efe	-0.00516498
92	0xbc918eed	-0.017768348
93	0xbb1f37cd	-0.0024294734
94	0x3a2f70ef	0.00066925486
95	0xbc2a31f7	-0.010387889
96	0xbcadb2d7	-0.021203442
97	0x3e371dc7	0.17882453
98	0xbc8c3f8d	-0.017120147
99	0xba8a260c	-0.0010539903
100	0xbbe2e27b	-0.006923971
101	0xbfaaabd6	-1.333369
102	0xbf5c3e2e	-0.8603238
103	0xbfa2dac4	-1.2723012
104	0xbc969735	-0.018382648
105	0xbb19ec55	-0.0023486812
106	0x3dd46c22	0.10372187
107	0xbd35dbe7	-0.04439917
108	0xbfcaf96f	-1.5857371
109	0xbcb1e2b8	-0.021714553
110	0xbfca6598	-1.5812254
111	0x3c10d116	0.0088389125
112	0x3ca21887	0.019787086
113	0xbf8daa78	-1.1067648
114	0x3e0192bc	0.12653631
115	0xb6e04b33	-6.6844746e-06
116	0xbbc0d480	-0.005884707
117	0x3c9f25d6	0.019427221
118	0x3a271c1f	0.0006374735
119	0x3de08cd2	0.10964359
120	0xbfc49a6e	-1.5359628
121	0xbca89256	-0.02057759
122	0xba3da737	-0.0007234695
123	0xbc11907e	-0.008884547
124	0xba32f5b8	-0.0006826776
125	0xbcefacb2	-0.029257152
126	0x3a5347f2	0.0008059732
127	0xbfd63bc5	-1.673699
128	0xbfdb66ed	-1.7140785
129	0x3e7a6d58	0.24455774
130	0xbc9c3fa6	-0.019073319
131	0xbc9b00e6	-0.018921327
132	0xbc8743c5	-0.016511807
133	0xbcef384b	-0.029201647
134	0xbfd48cb8	-1.6605444
135	0xbd94db76	-0.07268421
136	0xbfc55fd8	-1.5419874
137	0xbe12c9c6	-0.14334783
138	0xbbd71240	-0.006563455
139	0xbf98a16c	-1.1924262
140	0x3b7977bc	0.0038065752
141	0x3b913c1e	0.0044322154
142	0xbc5c1769	-0.013433316
143	0xbd11f545	-0.035634298
144	0x3b80d034	0.0039310697
145	0x3e2f7b16	0.17136797
146	0xbf8e7f46	-1.1132591
147	0x3cabdd4f	0.020979552
148	0x3b1ffb1e	0.0024411152
149	0x3c353d50	0.011061981
150	0xbd18c2ad	-0.037295032
151	0xbf3f98df	-0.7484264
152	0xbc83b27d	-0.01607632
153	0xbd002487	-0.031284835
154	0xbc9f2c15	-0.0194302
155	0xbd070864	-0.032966986
156	0xbfd8130c	-1.6880813
157	0x3c66ccd3	0.01408692
158	0x3d11d08e	0.035599284
159	0x3c28d64f	0.010305001
160	0xbcabc44f	-0.02096763
161	0xbfcc46cd	-1.5959107
162	0xbce43332	-0.027856443
163	0xbc5ba172	-0.013405191
164	0xbcedab6a	-0.0290124
165	0xbc0f5d34	-0.008750249
166	0x3c1fd1b6	0.009754589
167	0x3cc9c4c9	0.024629967
168	0xbcf2ae3c	-0.029624097
169	0x3cdcbd0a	0.02694561
170	0xbcb17ad0	-0.021665007
171	0xc0573e01	-3.3631594
172	0xbc5972d9	-0.013272011
173	0xbcfa29dc	-0.030537538
174	0x3c69f4a3	0.014279517
175	0xbd30eb0f	-0.04319292
176	0xbdbd12c8	-0.09232098
177	0xbfbe1686	-1.4850624
178	0x3c1bb23e	0.0095029455
179	0x3bcd6741	0.0062684123
180	0xbbbda5a7	-0.0057875696
181	0xbd0ae7cc	-0.033912465
182	0xbb8c443c	-0.004280595
183	0xbd4035e8	-0.04692641
184	0x39f43e3c	0.00046585675
185	0xbb88e42c	-0.004177591
186	0xbc8c3dfd	-0.017119402
187	0xbcfbc8b4	-0.030735351
188	0x3b9f444e	0.0048604375
189	0xbb82aa6c	-0.003987601
190	0xc0581b19	-3.376654
191	0xbaeda84b	-0.001813182
192	0xbc810554	-0.015749611
193	0xbbfcbf93	-0.007713267
194	0xbca23c77	-0.019804223
195	0xbbe84c6a	-0.0070891874
196	0x3a39aed0	0.0007083239
197	0xbb9aeb06	-0.004727724
198	0xbc3e8067	-0.011627293
199	0xbffa6195	-1.956103
200	0xc00a6103	-2.1621711
201	0xbd10d04d	-0.0353549
202	0xbfda2be6	-1.7044647
203	0xbc9d1105	-0.019173155
204	0x3c3e3d38	0.011611275
205	0xbac28870	-0.0014841687
206	0x3b179a96	0.0023132912
207	0xbf976a9d	-1.1829411
208	0x3c21659f	0.0098508885
209	0xbd3571a8	-0.044297844
210	0xbca2dfbe	-0.01988208
211	0xbd51c21a	-0.0512105
212	0xbca1708f	-0.019706992
213	0xbcde7739	-0.02715646
214	0xbcf5f54c	-0.030024193
215	0xbd92668e	-0.07148467
216	0xbff18ebb	-1.8871683
217	0x3be6ce63	0.007043646
218	0xbcca8a71	-0.024724217
219	0xba93847d	-0.0011254695
220	0x3d8a03ac	0.067389816
221	0xbbee22f3	-0.00726735
222	0xbcd4f34a	-0.025994916
223	0xbc83997d	-0.0160644
224	0xbbde1c9a	-0.006778312
225	0xbfc38a70	-1.5276623
226	0xbcad06f6	-0.021121483
227	0xbc430ae9	-0.011904457
228	0xbd109f15	-0.035307962
229	0x3d7deacb	0.061991494
230	0xbda2a6b7	-0.079419546
231	0xbcc469b0	-0.023976177
232	0xbc0cc13c	-0.008590993
233	0x3c08ebfd	0.008357045
234	0x3cb25720	0.02177006
235	0xbc85aa64	-0.0163166
236	0xbf9cc2cd	-1.2246948
237	0x3b364d30	0.0027817003
238	0x3c7ab424	0.015301738
239	0x3ccdb6f1	0.025111647
240	0x3cf3cdbc	0.029761188
241	0xbfc7c30a	-1.5606396
242	0xbcbe588f	-0.023235587
243	0xbfdc7c76	-1.7225482
244	0xbf8a9449	-1.0826503
245	0xbc4e0830	-0.012575194
246	0x3ba0e25f	0.004909798
247	0xbc3f58d0	-0.011678889
248	0xbcfec013	-0.031097447
249	0x3ca67297	0.020318313
250	0xbcd4a781	-0.025958778
251	0x3c7fe50c	0.015618574
252	0xbd2acd6e	-0.04169982
253	0x3bfbd2dc	0.0076850485
254	0xc01d9988	-2.4624958
255	0xba7158d3	-0.0009206656
