save_mode/SAC_v_50_policy_network.pth (torch, 342351 bytes, 8 tensors)

hidden1.weight f4 [256, 48]
0	0x3cbbb83c	0.022914998
1	0x3d00ce01	0.03144646
2	0xbd362214	-0.044466093
3	0x3d51b57a	0.05119846
4	0x3d38f864	0.04515876
5	0x3ced265f	0.02894896
6	0x3d2d9e8e	0.042387538
7	0xbd364eb8	-0.044508666
8	0x3cf16164	0.029465385
9	0xbd630ec4	-0.055434003
10	0xbcb55226	-0.022133898
11	0x3d2837c6	0.041068815
12	0xbd4022ec	-0.046908304
13	0xbd8bcc2d	-0.06826053
14	0xbd1b1b35	-0.037867744
15	0xbc7e1630	-0.01550822
16	0xbd2c1538	-0.042012423
17	0xbc9288d8	-0.017887518
18	0x3c3b47f0	0.011430725
19	0x3d1f24d4	0.03885348
20	0xbd4b2746	-0.049598
21	0xbcefc7ac	-0.029270016
22	0xbcfcacb4	-0.03084407
23	0x3c0c9db0	0.0085825175
24	0xbc6fdf80	-0.014640689
25	0x3c12c368	0.008957721
26	0x3ccb614e	0.024826672
27	0xbd9272e9	-0.071508236
28	0xbd55d8b0	-0.052208602
29	0x3cbf6b10	0.023366481
30	0xbdbf0b7e	-0.09328364
31	0x3c3ac110	0.011398569
32	0xbc253da8	-0.010085501
33	0x3d0c95be	0.034322493
34	0xbbece5b0	-0.0072295293
35	0x3ccfa582	0.025347475
36	0x3d426a6c	0.047464773
37	0x3d23be78	0.039976567
38	0xbc9ee554	-0.019396462
39	0xbd9e2eef	-0.077237956
40	0xbc11aac0	-0.008890808
41	0xbcafe0fc	-0.021469586
42	0xbd789d24	-0.060696736
43	0xbd8ce0a5	-0.06878785
44	0xbd48b167	-0.04899731
45	0xbc37f8f8	-0.011228792
46	0xbd09187c	-0.033470616
47	0xbc9e049c	-0.019289307
48	0xbd4fab2c	-0.05070035
49	0xbd890194	-0.06689754
50	0xbcb26468	-0.021776393
51	0x3c5d4d30	0.013507172
52	0x3c9edc04	0.019392021
53	0x3be2d407	0.0069222483
54	0xbd1f0000	-0.03881836
55	0x3d3ecdc0	0.046582937
56	0xbd70be16	-0.05877503
57	0xbd8dc8ce	-0.06923066
58	0xbd96d29c	-0.07364389
59	0xbcdbb070	-0.02681753
60	0x3d6a7f42	0.05725027
61	0xbd4788ed	-0.048714567
62	0xbd82cf37	-0.06387179
63	0x3d4181ec	0.047243044
64	0x3caabd2c	0.020842157
65	0x3d1c9df6	0.03823658
66	0x3c1f3676	0.009717574
67	0xbc30e270	-0.010796174
68	0x3d691f8e	0.05691486
69	0xb9601000	-0.00021368265
70	0x3c336c94	0.01095118
71	0xbd034080	-0.032043934
72	0x3b0d35a0	0.0021546856
73	0xbd2157ae	-0.03939026
74	0xbd3d90d0	-0.046280682
75	0x3c883b2e	0.016629782
76	0xbd7c95d4	-0.061666325
77	0xbc0a7228	-0.0084500685
78	0x3cef875d	0.02923935
79	0xbd964077	-0.073365144
80	0x3d09b2f0	0.033617914
81	0x3d4e8732	0.0504219
82	0xbcea2aa4	-0.028584786
83	0x3d43de26	0.04781928
84	0xbc8bdcbc	-0.017073028
85	0x3d67545c	0.056476936
86	0x3d3d010e	0.046143584
87	0x3c852e40	0.016257405
88	0xbdd2b702	-0.10288812
89	0x3d49135e	0.049090736
90	0x3c435880	0.0119229555
91	0xbce264a8	-0.027635887
92	0xbd0ed598	-0.034871668
93	0xbd03dbe8	-0.03219214
94	0xbd0be870	-0.034157217
95	0xbd8a9bbe	-0.06767987
96	0x3cc991d8	0.024605677
97	0xbcbb9f1c	-0.022903018
98	0xbd7c8b9e	-0.061656587
99	0xbc02fca0	-0.007994801
100	0x3cd65168	0.026161864
101	0x3cfcdef1	0.030868025
102	0x3d5cb880	0.05388689
103	0xbd2995bc	-0.041402563
104	0x3c855cb8	0.016279563
105	0xbd03d4ec	-0.03218548
106	0xbd619bdc	-0.05508028
107	0x3c49e490	0.01232256
108	0x3b956ca0	0.0045600682
109	0xbc77fd06	-0.015136009
110	0x3ce51897	0.027965827
111	0x3c9eb3b8	0.019372806
112	0x3d0ff7a6	0.035148285
113	0x3bac40d0	0.0052567497
114	0xbc1565c3	-0.0091185
115	0x3d12ddcc	0.035856053
116	0xbd093934	-0.03350182
117	0x3b77bc00	0.0037801266
118	0xbbc13f58	-0.0058974437
119	0xbd1982c4	-0.037478223
120	0x3bb15a50	0.0054123774
121	0x3b9bb1c0	0.004751414
122	0xbd86bcdc	-0.06578991
123	0xbd4a4eb1	-0.049391452
124	0x3c4bccc0	0.012438953
125	0xbd318f90	-0.043349802
126	0xbd322149	-0.043488774
127	0xba50c7b1	-0.00079643267
128	0xbd7d1c2c	-0.061794445
129	0x3d4ac952	0.0495084
130	0xbc59e6f0	-0.013299689
131	0xbd8fd25d	-0.070225455
132	0xbba14ff0	-0.0049228594
133	0xbc1ec328	-0.009690084
134	0xbcb6b5c8	-0.022303477
135	0xbd246deb	-0.04014389
136	0xbca3f48b	-0.020014068
137	0x3c297818	0.010343574
138	0x3d174038	0.03692648
139	0xbda71cac	-0.081597656
140	0x3d58a34b	0.052890103
141	0xbd7c1248	-0.06154087
142	0x3cfe40f4	0.031036831
143	0xbc3af0d2	-0.011409955
144	0x3d04b8aa	0.032402672
145	0xbd3efede	-0.04662978
146	0x3d2b2c0e	0.04179006
147	0x3cd04f1c	0.025428347
148	0xbcb518e0	-0.022106588
149	0xbd42cb2d	-0.047557045
150	0x3d2ecbc6	0.042674802
151	0xb9237800	-0.00015589595
152	0x3d522260	0.051302314
153	0x3c505105	0.012714629
154	0xbd68407c	-0.056702122
155	0xbd781700	-0.06056881
156	0x3af580c0	0.0018730387
157	0x3c1ef740	0.009702504
158	0xbb4d0d34	-0.0031288387
159	0xbd368d1a	-0.04456816
160	0x3d37bfa4	0.044860497
161	0x3d5e5b52	0.05428631
162	0x3c80f7ae	0.015743103
163	0x3c8a157c	0.016855948
164	0xbd19ced4	-0.037550762
165	0x3d0663c0	0.032809973
166	0xbd06558b	-0.032796424
167	0xbd36eaac	-0.044657394
168	0x3d7c9986	0.06166985
169	0x3d3597a4	0.04433407
170	0xbd87fa9d	-0.066395976
171	0xbd969945	-0.073534526
172	0x3ce35b44	0.02775348
173	0x3a7a5580	0.00095494837
174	0x3c16943a	0.009190613
175	0xbdce0984	-0.10060409
176	0xbd451eb4	-0.048124984
177	0xbcaf91b0	-0.021431774
178	0x3d528094	0.051392153
179	0xbcec86dc	-0.0288729
180	0xbd0080da	-0.031372882
181	0x3c17d1b0	0.009266302
182	0xbd124cf4	-0.03571792
183	0xbcbb26a8	-0.022845581
184	0xbcb90318	-0.022584483
185	0xbd0e11a2	-0.034684785
186	0x3d3ed914	0.04659374
187	0xbd688b5b	-0.056773525
188	0xbda910e4	-0.08255175
189	0x3d0dc99a	0.03461609
190	0x3b06c2a0	0.0020562783
191	0xbdab8ca2	-0.08376433
192	0x3bd27c10	0.006423481
193	0xbcc258a2	-0.023723904
194	0xbceb0854	-0.028690495
195	0x3b320760	0.002716504
196	0x3c4c6fa0	0.012477785
197	0xbd75a0ec	-0.05996792
198	0xbd2cccbc	-0.042187437
199	0xbcce6298	-0.025193498
200	0xbd1b71b0	-0.037950218
201	0x3d425ee2	0.04745377
202	0xbb20b3c4	-0.002452121
203	0xbc6e7140	-0.014553368
204	0xbc2a18c0	-0.010381877
205	0xbc69affe	-0.014263151
206	0xbd3dfc9a	-0.046383478
207	0x3d32539e	0.043536775
208	0xbcf84f7c	-0.030311339
209	0xbd7c04c8	-0.061527997
210	0x3c96fb3a	0.018430341
211	0x3d4b935a	0.049701072
212	0xbc084380	-0.0083168745
213	0x3d116ba8	0.03550306
214	0x3cd04670	0.025424212
215	0xbd7052fa	-0.058672883
216	0xbd19a232	-0.037508197
217	0x3b3ef9e0	0.0029140636
218	0xbd1baaaf	-0.038004573
219	0xbd8d1774	-0.06889239
220	0x3c7e1530	0.015507981
221	0xbd354258	-0.044252723
222	0xbda78c2f	-0.08181035
223	0xbc40e870	-0.011774167
224	0xbc8b3900	-0.016994953
225	0x3b22c5c0	0.0024837106
226	0xbd001044	-0.031265512
227	0xbb7dc478	-0.003872184
228	0x3d45f774	0.048331693
229	0x3c037a60	0.008024782
230	0x3c8e492c	0.017368875
231	0xbdaed6f5	-0.085370935
232	0xbc84d679	-0.01621555
233	0x3c9f6fbc	0.019462459
234	0x3d44950e	0.047993712
235	0xbb8f9773	-0.004382068
236	0xbd6bc4c0	-0.057560682
237	0xbcc48a48	-0.023991719
238	0xbcf9efd0	-0.03050986
239	0xbd5ddc0c	-0.05416493
240	0xbafa6300	-0.0019102991
241	0x3cdfa824	0.027301855
242	0x3d7843a0	0.060611367
243	0x3cf46d1c	0.029837184
244	0x3d68bf8c	0.0568233
245	0x3d3777bc	0.044791922
246	0x3d7c2a7c	0.061563954
247	0x3d1751ae	0.03694313
248	0xbd049cae	-0.032375984
249	0x3ca046c1	0.019564988
250	0xbc690937	-0.014223388
251	0x3d179210	0.03700453
252	0xbd4fda64	-0.050745383
253	0xbd2b5a21	-0.041834
254	0xbd07f438	-0.03319189
255	0xbcfd3ce4	-0.030912824

hidden1.bias f4 [256]
0	0xbce0608d	-0.027389789
1	0x3b158ef3	0.00228208
2	0xbd0c84f5	-0.034306485
3	0xbc9e8754	-0.019351639
4	0xbcefaba1	-0.029256644
5	0xbc9a15c5	-0.018809209
6	0x3bfbc429	0.007683296
7	0x3cc1b994	0.02364806
8	0xbd3edd86	-0.04659798
9	0xbd056952	-0.032571144
10	0xbee9dd79	-0.45676783
11	0xbde4c97d	-0.11171243
12	0xbda22570	-0.07917297
13	0x3a498777	0.00076877273
14	0xbccaaeda	-0.024741579
15	0xbb9c5769	-0.0047711623
16	0x00000000	0.0
17	0x3c76453d	0.015031156
18	0xbd21f08d	-0.039536048
19	0x3d81d878	0.06340116
20	0xbd46699b	-0.048440557
21	0xbf493091	-0.7858973
22	0xbf846f2b	-1.0346426
23	0x39c1f9c2	0.00036997913
24	0xbb2b052a	-0.0026095607
25	0x00000000	0.0
26	0xbcf57050	-0.029960781
27	0x3baf40a7	0.0053482833
28	0x3c19905a	0.009372795
29	0xbcae9abe	-0.021314021
30	0xbd094c2e	-0.033519916
31	0xbc01b910	-0.0079176575
32	0xbdb3ee0f	-0.087856404
33	0xbc5ae4e8	-0.01336024
34	0xbcc5f36f	-0.02416393
35	0xbcd59332	-0.026071165
36	0x3c9c6712	0.019092117
37	0x3cb067b1	0.021533819
38	0xbc168660	-0.009187311
39	0xbd5d4c58	-0.054027885
40	0xbcc0830c	-0.023499988
41	0xbcce7844	-0.025203831
42	0xbc03d0fc	-0.008045431
43	0x3e1eb607	0.15499125
44	0x3d74a28a	0.05972532
45	0xbbd8f6b5	-0.0066212066
46	0x3c04aee7	0.008098341
47	0xbc1d9b01	-0.009619475
48	0xbce6847d	-0.028139347
49	0xbb8f261b	-0.004368556
50	0xbcd30fd8	-0.02576439
51	0xbd66347f	-0.056202408
52	0x3be958ae	0.007121167
53	0xbd19f111	-0.037583414
54	0x3d08af6e	0.033370428
55	0xbd0deb98	-0.034648508
56	0x3c52bd42	0.012862505
57	0xbdadab1e	-0.08479904
58	0x3e3795fa	0.17928305
59	0xbee04353	-0.43801364
60	0xbc904978	-0.017613158
61	0xbc15546e	-0.009114368
62	0x3cb06fe2	0.021537725
63	0xbcb6915f	-0.022286115
64	0xbd432c7a	-0.047649838
65	0xbd221a8c	-0.0395761
66	0xbc9c1aa2	-0.019055668
67	0xbcf84372	-0.030305598
68	0xbd24eb35	-0.040263373
69	0x3c3dc9cb	0.011583756
70	0xbd24ecca	-0.040264882
71	0xbd9c2316	-0.076238796
72	0x3bb89d18	0.0056339614
73	0xbc13f701	-0.009031058
74	0xbca6eb67	-0.02037592
75	0xbb8e94d3	-0.0043512373
76	0xbcc1ed72	-0.023672793
77	0x3c884452	0.01663414
78	0xbc6ff889	-0.014646658
79	0xbcda5a0c	-0.026654266
80	0xbc835d9d	-0.01603585
81	0x3c2639dd	0.010145632
82	0xbe373bbb	-0.17893879
83	0xbc80e671	-0.015734883
84	0xba8f6929	-0.0010941374
85	0xbc0e3236	-0.008678963
86	0x3cf765d8	0.03019993
87	0xbd64102b	-0.05567948
88	0xbd31a654	-0.043371513
89	0x3cc7c203	0.024384504
90	0xbcbc7887	-0.02300669
91	0x3bf01b20	0.0073274523
92	0xbe44361f	-0.1916127
93	0xbc23aa28	-0.009989299
94	0xbc3f00e1	-0.011657924
95	0xbd541f63	-0.051787745
96	0xbc779102	-0.015110256
97	0xbd7c4d16	-0.061596952
98	0xbce98771	-0.028506966
99	0x3e1c75de	0.15279338
100	0xba7074dd	-0.00091726874
101	0xbc1d10b0	-0.009586498
102	0xbb8451e2	-0.0040380815
103	0x3c77303f	0.015087186
104	0x00000000	0.0
105	0xbc3efff7	-0.011657706
106	0xbd873c40	-0.06603289
107	0xbce52b6a	-0.027974803
108	0xbd2df2f9	-0.042468045
109	0xbd3d6629	-0.046240006
110	0xbc9b6ae5	-0.01897187
111	0x3b604c5c	0.0034225201
112	0xbd9bbde7	-0.076045804
113	0xbd573f7b	-0.052550774
114	0x3becc6be	0.0072258404
115	0xbc624689	-0.013810762
116	0xbddf3caa	-0.109002426
117	0xbd2e3278	-0.0425286
118	0x3d820823	0.06349208
119	0xbd928287	-0.07153802
120	0xbaf07109	-0.0018344234
121	0x3d9e53ac	0.07730803
122	0xbc8919b6	-0.016735893
123	0xbdb4d884	-0.088303596
124	0xbf267889	-0.6502767
125	0x00000000	0.0
126	0xbbb10213	-0.0054018586
127	0xbd888e9e	-0.06667827
128	0x3d1bddef	0.03805345
129	0xbd02696c	-0.03183882
130	0xbcc46757	-0.023975058
131	0xbd4aaba4	-0.049480096
132	0xbd363f91	-0.044494215
133	0xbc214dc2	-0.009845199
134	0x3a5f0326	0.0008507244
135	0x3c41f1fe	0.011837481
136	0xbcf0cb5b	-0.029393842
137	0xbb717fa1	-0.0036849754
138	0x3c4856c9	0.012227722
139	0x3d229988	0.0396972
140	0xbd18b249	-0.0372794
141	0xbd144ea1	-0.0362078
142	0x00000000	0.0
143	0x3c31b13d	0.01084548
144	0xbc2e64c9	-0.010644146
145	0x3deff05d	0.117157675
146	0xbc605db1	-0.013694213
147	0x3cfebc61	0.031095685
148	0x3baed46c	0.0053353813
149	0xbc7fe150	-0.0156176835
150	0xbb0a8258	-0.002113482
151	0x3bd592ac	0.006517729
152	0xbd66fac5	-0.056391496
153	0xbb501cd5	-0.0031755466
154	0xbd44f5b9	-0.048085902
155	0x3c7de9a9	0.015497603
156	0xbb6f03ac	-0.0036470694
157	0xbc6eff95	-0.014587303
158	0x3b55c027	0.0032615752
159	0xbce7862b	-0.028262218
160	0xbccaab10	-0.024739772
161	0xbbe0419c	-0.0068437587
162	0xb869c4aa	-5.5734687e-05
163	0x00000000	0.0
164	0xbcffb1dc	-0.03121274
165	0xbd4e2910	-0.05033213
166	0xbae51028	-0.0017476128
167	0xbd055604	-0.032552734
168	0xba580c92	-0.0008241619
169	0x3c4c801b	0.012481715
170	0xbce05915	-0.027386228
171	0xbd410ed5	-0.047133286
172	0x3c9232ee	0.01784655
173	0x3d25d804	0.04048921
174	0xbe53cdc8	-0.20683968
175	0xbd833045	-0.06405691
176	0xbc73df78	-0.014884822
177	0xbc0e8fba	-0.008701259
178	0xbd70d449	-0.0587962
179	0x3e83c7ee	0.25738472
180	0xbc994624	-0.018710203
181	0x00000000	0.0
182	0xbd1dfa50	-0.038568795
183	0x3a98e8ac	0.0011666021
184	0xbce6e74d	-0.028186465
185	0x3c1873b5	0.00930493
186	0xbd288f79	-0.04115245
187	0xbc07c571	-0.00828682
188	0xbbab03cb	-0.005218958
189	0x3c1cfe6a	0.009582141
190	0xbd308db8	-0.043103904
191	0xbbc244e5	-0.005928623
192	0x3eb7a8ca	0.35870963
193	0xbea189bb	-0.31550393
194	0xbcac1508	-0.021006122
195	0xbb011b31	-0.0019700045
196	0xbd80374e	-0.062605485
197	0xbd297002	-0.041366585
198	0xbcb6ed39	-0.022329913
199	0x00000000	0.0
200	0x00000000	0.0
201	0x3c42cd23	0.011889729
202	0xbd6c9a6b	-0.057764452
203	0xbc8b6277	-0.017014725
204	0xbd0f82b7	-0.03503677
205	0xbc592555	-0.01325353
206	0x00000000	0.0
207	0xbd408732	-0.047003932
208	0x3d00bf4a	0.031432427
209	0x3e84f9b5	0.2597176
210	0xbcc2684d	-0.023731375
211	0xb9a1e3ec	-0.00030878128
212	0xbccb6cdb	-0.02483218
213	0x00000000	0.0
214	0xbdc38015	-0.09545914
215	0x3e83af47	0.25719664
216	0x3c8e1e50	0.017348439
217	0xbd1b2e84	-0.037886158
218	0x00000000	0.0
219	0x3a2e250f	0.00066430954
220	0xbc518586	-0.012788182
221	0x3dbd5261	0.09244228
222	0xbcb59b4b	-0.022168776
223	0xbd855c46	-0.065117404
224	0x3b9404b9	0.0045171645
225	0xbcca4e68	-0.02469559
226	0xbda99cb2	-0.082818404
227	0xbc405918	-0.011739992
228	0x3cbbb86d	0.02291509
229	0xbcfac844	-0.030613072
230	0xbd60c636	-0.05487653
231	0xbc8e684c	-0.017383717
232	0xbca0953f	-0.019602416
233	0xbccf1178	-0.025276884
234	0xbda64f3a	-0.0812058
235	0xbaee870a	-0.0018198204
236	0xbd210848	-0.03931454
237	0xbd8c02a9	-0.06836445
238	0xbb870c4c	-0.004121339
239	0xbca4fa59	-0.020138906
240	0xbb4c6060	-0.0031185374
241	0xbb944fab	-0.0045260987
242	0xbc10ef03	-0.008846047
243	0xbd236298	-0.03988895
244	0x3c2319e7	0.009954906
245	0xbd3dc8d7	-0.046334114
246	0xbb9e6e19	-0.004834902
247	0xbc650382	-0.013977887
248	0xbcd501a8	-0.026001766
249	0xbb5890a9	-0.0033045209
250	0xbd270110	-0.040772498
251	0xbcf49a3d	-0.029858703
252	0xbd8465d8	-0.06464738
253	0xbc355275	-0.011067023
254	0x3bae7576	0.005324061
255	0xbcde6df2	-0.027152035

hidden2.weight f4 [256, 256]
0	0x3a4e3be9	0.00078672037
1	0x3c96bc9d	0.018400485
2	0xbd7187d6	-0.058967434
3	0xbd4f0dac	-0.050550148
4	0x3c091b62	0.008368345
5	0x3d183035	0.03715535
6	0xbd698e53	-0.057020497
7	0x3d9d78e0	0.07689071
8	0x3a8e842d	0.0010873132
9	0x3d2faab0	0.04288739
10	0xbd690534	-0.056889728
11	0x3ab1f2d5	0.0013576398
12	0xbd4f0619	-0.050542925
13	0xbd2024af	-0.039097484
14	0xbc3cc913	-0.011522549
15	0xbd9416af	-0.07230889
16	0xbd680d78	-0.05665347
17	0x3d84aedc	0.06478664
18	0xbc01ca62	-0.007921787
19	0xbdb9fffe	-0.0908203
20	0xbd090cdb	-0.033459526
21	0xbe09dc31	-0.13462903
22	0x3c5ccea8	0.013477005
23	0x3c74d660	0.014943689
24	0xbc99eb4b	-0.018788954
25	0xbc860698	-0.016360566
26	0x3d2ad6af	0.041708644
27	0x3d176e42	0.036970384
28	0xbc1a3177	-0.009411207
29	0x3b982632	0.004643225
30	0x3d86612f	0.06561505
31	0xbd7bd790	-0.061484873
32	0xbd298684	-0.04138805
33	0xbd51ee4d	-0.051252652
34	0x3d146c70	0.036236227
35	0x3d1d44df	0.03839576
36	0x39ccbf65	0.00039052512
37	0xbc2e4eb9	-0.010638886
38	0x3d787a88	0.06066373
39	0xbb397901	-0.0028300884
40	0x3aad1537	0.0013205175
41	0x3c1de6d6	0.009637555
42	0xbc9bdb17	-0.019025369
43	0xbd86c873	-0.065812014
44	0xbb80adfb	-0.00392699
45	0x3bfb9b9e	0.007678463
46	0x3cdac6a5	0.02670605
47	0x3d2d37d2	0.042289563
48	0x3d3f09a6	0.04664006
49	0xbca33005	-0.019920358
50	0x3d5f99ee	0.05459016
51	0x3d3de7cf	0.046363648
52	0x3ccdf91f	0.025143204
53	0xbb2d9de2	-0.002649181
54	0x3d414704	0.047186866
55	0x3d1eb083	0.038742553
56	0xbca84f9a	-0.02054577
57	0xbdb92aaa	-0.09041341
58	0xbde3fcf8	-0.11132234
59	0x3c0fb91c	0.008772161
60	0x3d5aa19f	0.05337679
61	0xbe2d1648	-0.16903031
62	0xbd5d904b	-0.054092687
63	0xbd895e86	-0.06707482
64	0x3cccbc02	0.024991993
65	0x3db1fe4b	0.08691081
66	0xbdecfa47	-0.11571174
67	0xbc88c678	-0.0166962
68	0xbd2297d0	-0.03969556
69	0xbd0dc1d4	-0.034608677
70	0x3d0c482c	0.034248516
71	0x3d062be8	0.032756716
72	0xbc022a9c	-0.007944729
73	0x3ce3cf35	0.027808765
74	0xbbc87d22	-0.0061184326
75	0xbc251091	-0.0100747505
76	0xbc91c198	-0.017792508
77	0xbd8f8fae	-0.070098266
78	0xbc98ed58	-0.018667862
79	0x3cadff95	0.021240035
80	0xbcb2a520	-0.021807253
81	0xbdd410ad	-0.10354743
82	0x3d1f2bb7	0.03886005
83	0xbd303b24	-0.04302515
84	0x3cde7090	0.027153283
85	0x3d06ab8d	0.032878447
86	0xbcddc5f6	-0.027071934
87	0xbd357257	-0.044298496
88	0x3c865dfd	0.016402239
89	0xbe0d3b92	-0.13792256
90	0x3c1306db	0.008973802
91	0x3bab50bc	0.00522813
92	0xbb43db8e	-0.0029885503
93	0x3d0c2f54	0.034224823
94	0x3d4ba630	0.049719036
95	0xbbbc9fb7	-0.005756344
96	0x3b1d166c	0.0023969663
97	0x3c79b7a5	0.015241538
98	0x3cb017ac	0.021495663
99	0xbd9ab555	-0.075541176
100	0xbd246ec9	-0.040144715
101	0x3d1766cb	0.036963265
102	0x3d5b8f7e	0.05360364
103	0xbdb859b9	-0.09001488
104	0x3ca99f18	0.020705745
105	0xbc7c587c	-0.015401956
106	0xbd714d77	-0.058911767
107	0xbb25cff4	-0.0025300952
108	0xbcaccc27	-0.021093441
109	0xbd20cfd5	-0.039260704
110	0x3cbbf613	0.022944486
111	0xbd2e09d6	-0.04248985
112	0xbd87d228	-0.06631881
113	0xbc7dba22	-0.015486272
114	0xbd9884c6	-0.074471995
115	0xbd3a8493	-0.04553659
116	0xbd16064a	-0.03662709
117	0x3c06d3fa	0.00822925
118	0xbc7d1a49	-0.015448161
119	0xbbc3174d	-0.0059537054
120	0x3d60c9cb	0.054879945
121	0xbd28c277	-0.04120108
122	0x3d2651e8	0.040605456
123	0xbc9750be	-0.018471118
124	0xbd27e083	-0.040985595
125	0x3d1de3e4	0.03854741
126	0xbd62b5c3	-0.055349123
127	0x3d800db0	0.06252611
128	0xbe16e732	-0.14736632
129	0xbd7882d2	-0.060671635
130	0xbc965a5c	-0.018353634
131	0xbb5e0330	-0.0033876412
132	0x3d485ed1	0.04891855
133	0x3aee8ecb	0.0018200515
134	0x3b24652f	0.0025084724
135	0xbd380462	-0.044926055
136	0x3ca17c9a	0.019712735
137	0xbd9d9234	-0.07693902
138	0xbd4131b3	-0.047166537
139	0x3cff557b	0.03116869
140	0x3d80d82a	0.0629123
141	0xba3b448e	-0.00071436993
142	0xbd2d909a	-0.04237423
143	0xbd23142e	-0.039814167
144	0x3d2f6445	0.042820234
145	0xbdd40d12	-0.103540555
146	0x3d85df64	0.06536749
147	0x3d156a71	0.036478464
148	0xbc65fde1	-0.01403758
149	0xba0aad7b	-0.0005290133
150	0xbc2a4862	-0.010393234
151	0xbd9f30d4	-0.07772985
152	0x3d208e3f	0.039198156
153	0xbcd0b6c8	-0.025477782
154	0xbb48c5d5	-0.0030635495
155	0x3d432d2d	0.047650505
156	0xbcc6069f	-0.024173079
157	0x3d188511	0.037236277
158	0xbd17c71e	-0.037055127
159	0xbb483c79	-0.0030553623
160	0x3ab21e6c	0.0013589389
161	0x3d147d78	0.03625247
162	0xba7764e3	-0.00094373355
163	0xbd18f7fa	-0.037345864
164	0xbe0572e8	-0.13032115
165	0xbcca5169	-0.024697023
166	0xbc949386	-0.01813675
167	0xbd05703a	-0.03257773
168	0xbd840aef	-0.06447398
169	0xbd67e948	-0.05661896
170	0x3d4c71d3	0.04991324
171	0x3c42a12a	0.011879245
172	0xbd04f644	-0.03246142
173	0xbc9f6fa4	-0.019462414
174	0xbdcf2215	-0.101139225
175	0xbd4addb4	-0.04952784
176	0xbdb141ad	-0.08655105
177	0xbd729e01	-0.059232716
178	0xbd472232	-0.048616596
179	0xbd8a5e1c	-0.06756231
180	0x3abb5c2a	0.0014294435
181	0xbcbc1b08	-0.022962108
182	0xbd1007ee	-0.035163812
183	0xbd07d902	-0.03316594
184	0x3d1ea4fd	0.038731564
185	0xbcc33832	-0.023830507
186	0x3c96fa3a	0.018429864
187	0x3d668abe	0.05628466
188	0xbd06bdd4	-0.032895878
189	0x3c713b12	0.014723556
190	0x3cf25735	0.0295826
191	0x3ccfba64	0.025357433
192	0x3c885ff8	0.016647324
193	0xbd4f4603	-0.050603878
194	0xbcd93cff	-0.026518343
195	0xbd12e63f	-0.03586411
196	0xbb39ba40	-0.0028339773
197	0xbbef3887	-0.0073004398
198	0x3c996d5a	0.0187289
199	0x3c268ae8	0.010164954
200	0x3b9ee680	0.004849255
201	0xbc28ee2d	-0.010310692
202	0x3ca952cd	0.020669365
203	0x3ca0f0de	0.019646104
204	0xbc901417	-0.017587705
205	0xbca5beaa	-0.020232517
206	0xbcf8f090	-0.030388147
207	0xbd37a95d	-0.04483925
208	0xbb6553ca	-0.003499257
209	0x3aa3e4c1	0.0012504087
210	0x3cc8cd6d	0.024512017
211	0x3d28c1cf	0.041200455
212	0xbc619833	-0.013769197
213	0xbd2d224c	-0.042269036
214	0xbd6b7b90	-0.057490885
215	0xbd82bb16	-0.0638334
216	0xbdf959b1	-0.121753104
217	0x3d4d6a1c	0.050150022
218	0xbc00c520	-0.007859498
219	0x3d4617c9	0.048362527
220	0x3c10d892	0.008840697
221	0xbda654a2	-0.08121611
222	0xbbb48ad0	-0.005509712
223	0x3d80029e	0.06250499
224	0x3d0daf31	0.034590904
225	0xbd4f8047	-0.050659444
226	0xbd3209d0	-0.04346639
227	0x3be273d0	0.0069107786
228	0x3c9f1a07	0.01942159
229	0x3caefa09	0.02135946
230	0xbd18e1c8	-0.037324697
231	0xbd64e75f	-0.055884715
232	0x3d343986	0.04400017
233	0x3d461054	0.048355415
234	0x3ce0f810	0.027462035
235	0x3cf02c35	0.029317955
236	0x3cb0d3c6	0.021585356
237	0x3ca27e99	0.019835757
238	0x3d0d1702	0.03444577
239	0x3be73205	0.0070555233
240	0x3d1d78f6	0.038445435
241	0x3d54300e	0.05180364
242	0x3c00e963	0.007868144
243	0x3cbc8dad	0.023016775
244	0xbd69ec06	-0.057109855
245	0x3b48b16b	0.0030623327
246	0xbd55e158	-0.052216858
247	0x3bb9d435	0.005671049
248	0xbd432520	-0.047642827
249	0xbc49f0ee	-0.0123255085
250	0xbd29fc77	-0.041500535
251	0x3cc22806	0.023700725
252	0x3d0c6ee5	0.034285445
253	0x3d52bc2e	0.051448993
254	0xbd9a49cd	-0.07533608
255	0xbc2563fe	-0.010094641

hidden2.bias f4 [256]
0	0xbd005ceb	-0.031338613
1	0x3de7b64c	0.11314067
2	0x3cdea209	0.027176874
3	0x3ca191f9	0.019722925
4	0xbc36b176	-0.011150708
5	0xbcf12f4c	-0.029441498
6	0x3d81ebea	0.06343825
7	0x3c98d8ee	0.018658128
8	0xbcbbdcfa	-0.022932518
9	0x3d22b972	0.039727636
10	0x3a45572b	0.00075279427
11	0xbcea700e	-0.028617885
12	0xbd3daa74	-0.046305135
13	0x3daf4456	0.08557956
14	0xbca48225	-0.020081589
15	0xbe181b6b	-0.14854209
16	0xbd885f07	-0.0665875
17	0xbd9db1a4	-0.07699898
18	0xbd0eab2f	-0.034831222
19	0xbd1fde92	-0.03903062
20	0x3ddce583	0.107859634
21	0xbd625af0	-0.055262506
22	0x3c89fb19	0.016843366
23	0x3d4e1cb5	0.050320346
24	0x3bee1d38	0.0072666667
25	0x3d770518	0.060307592
26	0xbcacb1dd	-0.021080906
27	0xbd293be9	-0.0413169
28	0xbdb5869a	-0.08863564
29	0x3d066e5d	0.032820094
30	0xbbe8f49f	-0.007109239
31	0xbd313cc0	-0.043270826
32	0xbb8cdb8e	-0.004298634
33	0xbdcfc8bb	-0.10145708
34	0x3b784669	0.0037883765
35	0x3d6c8ff7	0.057754483
36	0x3cc00b8a	0.023443002
37	0xbb9d3878	-0.0047979914
38	0xbe1125e6	-0.14174613
39	0x3d20b703	0.039237034
40	0xbdb905a5	-0.0903428
41	0x3bff6ba1	0.007794813
42	0x3eeee1d3	0.46656665
43	0x3d2fe1a5	0.0429398
44	0xbc8afaed	-0.016965354
45	0x3d4efb97	0.050532904
46	0xbe2749d9	-0.16336764
47	0x3cbfc514	0.023409404
48	0xbc685f44	-0.014182869
49	0x3ce3f334	0.02782593
50	0xbd1234fb	-0.035695057
51	0xbdaf51b6	-0.08560507
52	0x3cbf0009	0.023315446
53	0x3e31e62c	0.1737296
54	0xbd6dc3c7	-0.058048036
55	0x3d39adde	0.04533183
56	0xbd133467	-0.035938647
57	0xbcdb630a	-0.026780624
58	0xbd41bafd	-0.047297467
59	0x3bb0f508	0.0054003038
60	0x3d9a14fc	0.07523534
61	0xbd011323	-0.03151239
62	0xbcfb981d	-0.030712182
63	0x3cb6bdb8	0.022307262
64	0x3d6315bf	0.05544066
65	0xbcf3f4ea	-0.02977987
66	0xbd8e740a	-0.069557264
67	0xbd0204a8	-0.03174272
68	0x3c8b9c0e	0.017042186
69	0xbc42ac9c	-0.011881974
70	0x3d04b734	0.03240128
71	0xbd4a89a6	-0.049447678
72	0xbd22f878	-0.03978774
73	0xbdc55a88	-0.09636408
74	0xbd08c659	-0.033392284
75	0xbd3316eb	-0.04372303
76	0x3e0be851	0.1366284
77	0xbd2c2676	-0.042028867
78	0x3ce0c2e5	0.027436683
79	0xbd4cbb7b	-0.049983483
80	0xbe11b090	-0.1422751
81	0xbd725b43	-0.059169065
82	0xbc3e8afb	-0.011629815
83	0x3c08e052	0.008354263
84	0xbb0fbb6e	-0.0021931785
85	0xbcc93008	-0.024559036
86	0xbc5a6cea	-0.013331631
87	0x3c12fe65	0.008971785
88	0xbd30ad85	-0.04313423
89	0x3d93d619	0.0721857
90	0xbe00fdf1	-0.12596871
91	0x3b7f6e34	0.0038975598
92	0xbd062c1b	-0.032756906
93	0xbc1b3b11	-0.009474532
94	0x3a4a49d8	0.0007716692
95	0x3c8a17fe	0.016857143
96	0x3e58795a	0.21140042
97	0x3d38eb07	0.045146015
98	0xbe0adeda	-0.13561574
99	0x3cabef28	0.020988062
100	0xbcc8bf3d	-0.024505252
101	0xbcbc350c	-0.022974513
102	0xbd92acc5	-0.071618594
103	0xbcd680e7	-0.026184512
104	0xbcf47372	-0.029840205
105	0x3e02ea51	0.12784697
106	0xbd91ceba	-0.07119508
107	0x3c96a57b	0.018389454
108	0xbc04f620	-0.008115321
109	0xbcef5d1d	-0.029219205
110	0x3d5b3e49	0.053526197
111	0x3c4e34ec	0.01258586
112	0x3cb0de3d	0.021590346
113	0xbc9216af	-0.017833082
114	0xbd213e9f	-0.03936636
115	0xbca4dabd	-0.020123834
116	0x3ca2caf4	0.019872166
117	0x3bc6e952	0.0060702944
118	0x3dac7501	0.08420754
119	0xbc514553	-0.012772876
120	0x3e29847d	0.16554447
121	0xbc9862eb	-0.018601855
122	0x3c955e74	0.018233515
123	0xbcdcd3ce	-0.026956465
124	0xbd76c834	-0.060249522
125	0xbc9dbbb0	-0.019254535
126	0xbb1e796c	-0.002418126
127	0x3e00bd94	0.12572318
128	0xbb8cfe3f	-0.0043027694
129	0xbd0274e1	-0.031849746
130	0x3c0470f4	0.008083571
131	0xbb430e30	-0.0029763095
132	0xbda15ee8	-0.0787943
133	0xbd5a591a	-0.05330763
134	0x3cc33e74	0.02383349
135	0x3e0cbc10	0.13743615
136	0xbdaf23a8	-0.08551723
137	0x3c865f59	0.016402887
138	0xbbcbe13e	-0.0062219193
139	0x3cf8cd5e	0.030371364
140	0x3ba39e2b	0.0049932203
141	0x3d67a02e	0.056549244
142	0x3aac9890	0.0013168026
143	0x3c92cfa8	0.017921284
144	0x3bd1de1d	0.006404652
145	0x3cc33871	0.023830624
146	0xbc5a08cb	-0.0133077605
147	0xbcf8c3bf	-0.030366777
148	0xbdcc9c13	-0.09990706
149	0xbd832892	-0.064042225
150	0x3c1e4ec1	0.009662331
151	0xbd6784ef	-0.05652326
152	0x3c1184c3	0.0088817505
153	0xbd0846e6	-0.03327074
154	0xbdd41ed4	-0.103574425
155	0x3c31e36d	0.010857445
156	0xbc9e252a	-0.01930483
157	0x3ea386cc	0.3193878
158	0x3babd3a6	0.0052437363
159	0xbbc0ec49	-0.0058875424
160	0xbd904336	-0.070440695
161	0xbcb54d02	-0.022131447
162	0xbc7e9c1e	-0.015540151
163	0x3ca5d28d	0.020242
164	0xbd5202a3	-0.051272046
165	0xbd8ca645	-0.06867651
166	0x3c20f462	0.00982389
167	0x3c4d23f6	0.012520781
168	0xbcfd76f2	-0.030940507
169	0xbc8684ba	-0.01642071
170	0x3f311542	0.6917306
171	0x3d1d4974	0.03840013
172	0xbd444c73	-0.04792447
173	0x3c2200c3	0.009887877
174	0xbc6a124e	-0.014286591
175	0xbd500061	-0.05078161
176	0x3d8f3e0b	0.06994256
177	0xbd6f6a19	-0.058450792
178	0x3c298929	0.010347643
179	0xbd86fe45	-0.06591467
180	0xbce7a54f	-0.028277067
181	0xbd80cae6	-0.062887
182	0x3c181b5c	0.009283867
183	0x3d52ed34	0.051495746
184	0x3c70ad5b	0.014689769
185	0x3d99d413	0.07511153
186	0x3ea4b158	0.32166553
187	0xbda411c5	-0.08011202
188	0xbdef8e13	-0.116970204
189	0xbc7d5e99	-0.015464448
190	0xbc778976	-0.015108457
191	0x3bcdafaa	0.0062770443
192	0xbd426d72	-0.047467656
193	0xbd918f70	-0.07107437
194	0xbc3b62be	-0.011437116
195	0xbdc9fe08	-0.09862906
196	0x3cd82916	0.026386779
197	0x3b231b7a	0.0024888203
198	0x39f12d6b	0.0004600094
199	0xbd1058da	-0.035240985
200	0x3de03752	0.109480515
201	0x3d013420	0.03154385
202	0x3c5aa430	0.013344809
203	0xbd024b56	-0.031810127
204	0xbd345f0c	-0.044035956
205	0x3c642d6c	0.013926845
206	0x3d02793e	0.031853907
207	0x3dabaf91	0.08383096
208	0x3d281a8d	0.041040946
209	0x3c702f4b	0.014659713
210	0xbc9f04ff	-0.019411562
211	0xbb2747ca	-0.0025524967
212	0xbdb25ab1	-0.08708704
213	0xbdac417c	-0.08410928
214	0x3e00c715	0.12575944
215	0xbdd723af	-0.10504853
216	0x3eb15b5a	0.34640008
217	0xbd533134	-0.051560596
218	0x3c9b2c79	0.018942105
219	0xbc6dc461	-0.014512152
220	0xbd08482c	-0.033271953
221	0x3d3750a4	0.04475464
222	0xbcf82f6f	-0.030296056
223	0xbcf0fbb8	-0.029416904
224	0xbd7a6830	-0.061134517
225	0xbaf3d54b	-0.0018602995
226	0x3b89c16f	0.0042039673
227	0x3be6630c	0.0070308503
228	0xbd24a4c4	-0.040196195
229	0x3b87ca28	0.004143972
230	0xbdcad56f	-0.099039905
231	0xbd2e5096	-0.04255732
232	0x3dcc3666	0.09971313
233	0xbdd40bce	-0.10353814
234	0xbd32e105	-0.043671627
235	0xbbc77777	-0.0060872394
236	0x3da41a2c	0.080128044
237	0x3ce8c08c	0.028412126
238	0xbd70857a	-0.058721043
239	0x3b97dc79	0.0046344367
240	0x3e1100bf	0.14160441
241	0xbc8b0efa	-0.016974915
242	0xbc542a91	-0.012949602
243	0x3c174a5a	0.009234035
244	0xbc948233	-0.01812849
245	0xbcc2eea3	-0.023795431
246	0xbc6ecc75	-0.014575114
247	0x3c482815	0.012216588
248	0xbe0ed7d8	-0.13949525
249	0x3ce80cce	0.028326418
250	0xbcaaeac5	-0.0208639
251	0x3d5a498a	0.05329279
252	0x3c0d02dd	0.00860664
253	0xbccdea47	-0.025136126
254	0xbd8bcd07	-0.06826215
255	0xbca9541b	-0.020669987

last_mean.weight f4 [13, 256]
0	0x3de9116a	0.113802746
1	0x3e933e98	0.28758693
2	0x3ca2a9a1	0.019856276
3	0xbce211c5	-0.027596364
4	0xbc14f45e	-0.009091465
5	0x3c12f811	0.008970276
6	0xbd206273	-0.03915639
7	0xbd5856ca	-0.052817143
8	0xbc770e32	-0.015079068
9	0xbd6981d5	-0.057008583
10	0x3c2c6732	0.010522651
11	0x3c707369	0.014675953
12	0x3cd864bd	0.026415223
13	0xbe61bce6	-0.22044715
14	0xbc5afe8b	-0.013366352
15	0xba2d5d62	-0.00066133414
16	0x3c2b5bde	0.010458915
17	0xbbbc02c9	-0.0057376367
18	0x3c77a830	0.015115783
19	0xbc52d55d	-0.012868253
20	0xbd4fbb72	-0.05071587
21	0xbd20917b	-0.03920124
22	0x3d924641	0.07142306
23	0xbe29f2c3	-0.16596512
24	0xbd48d340	-0.04902959
25	0xbc5c086b	-0.013429741
26	0xbc02fbf5	-0.007994642
27	0x3cb72981	0.022358658
28	0xbcd84654	-0.026400723
29	0xbb7a9eed	-0.00382417
30	0xbc8a5de4	-0.016890474
31	0xbdb24620	-0.087047815
32	0xbd1164e6	-0.035496615
33	0xbc4c6eff	-0.012477635
34	0xbc99b42e	-0.018762674
35	0x3d9a7daf	0.075435035
36	0x3d91fbcc	0.071281046
37	0x3cf9b6f4	0.030482747
38	0xbde9b3c4	-0.11411241
39	0x3e647415	0.22309907
40	0xbe111b7e	-0.14170644
41	0x3b31799d	0.0027080544
42	0x3e1de45e	0.15419146
43	0x3b7da381	0.0038702192
44	0x3d70e623	0.058813225
45	0xbda003c5	-0.07813219
46	0xbc6ecc04	-0.014575008
47	0x3b1292ec	0.0022365404
48	0x3e28a85b	0.16470473
49	0xbd04fb6d	-0.03246634
50	0xbbb7a7eb	-0.005604734
51	0x3dd88bf5	0.1057357
52	0xbbef3811	-0.007300385
53	0x3e31ad76	0.17351326
54	0xbcdf7070	-0.027275294
55	0xbdf92794	-0.12165752
56	0xbe0b28d6	-0.13589796
57	0xbd0c2cdf	-0.03422248
58	0xbd98946d	-0.07450185
59	0x3d20509c	0.039139375
60	0xbe2a4ab8	-0.16630065
61	0xbda77fd5	-0.08178679
62	0x3c818ff7	0.015815718
63	0xbd3e0275	-0.046389062
64	0xbdf7e702	-0.12104608
65	0xbcaec03b	-0.021331897
66	0xbde09c39	-0.10967297
67	0xbe1ccf14	-0.15313369
68	0x3d74ae1d	0.05973636
69	0x3da21097	0.079133205
70	0xbbd91556	-0.006624858
71	0x3d2670a0	0.04063475
72	0x3d488619	0.04895601
73	0x3e058568	0.13039172
74	0xbc9c44e1	-0.019075813
75	0xbabe2007	-0.0014505395
76	0xbc8d674a	-0.017261166
77	0x3b739d5b	0.0037172649
78	0xbc79ee78	-0.015254609
79	0x3e2f4dbb	0.17119496
80	0xbc37bd60	-0.011214584
81	0x3dac1c4a	0.08403833
82	0xbd871cd6	-0.06597297
83	0xbd72c6f9	-0.059271786
84	0x3c673756	0.014112314
85	0xbb3396ca	-0.002740311
86	0x3ba9349e	0.005163743
87	0xbd78cd2e	-0.06074255
88	0x3d12a8a2	0.035805352
89	0xbd6884b2	-0.056767173
90	0xbc5a0162	-0.013305994
91	0x3c101d52	0.008796053
92	0x3dd367b7	0.103225164
93	0x3bfb7839	0.0076742438
94	0xbd9835a3	-0.074321054
95	0x3d3e65c6	0.046483777
96	0xbc852080	-0.016250849
97	0x3d85ac6f	0.0652703
98	0x3dfd6dd0	0.12374461
99	0x3bbbcc82	0.0057311663
100	0xba0301fa	-0.0004997548
101	0x3d3425bc	0.0439813
102	0xbb914c46	-0.0044341413
103	0x3a85536d	0.0010171958
104	0x3c3bb065	0.01145563
105	0x3d2b3085	0.04179432
106	0x3d8900d3	0.0668961
107	0x3d5c5116	0.053788267
108	0xbbf47182	-0.0074598202
109	0x3c2889b0	0.0102867335
110	0xbdbbf4e1	-0.09177566
111	0xbda0bd91	-0.07848657
112	0x3eadc1e0	0.33936977
113	0xbc3db265	-0.011578177
114	0x3def040a	0.11670692
115	0x3b1562b6	0.0022794432
116	0x3c49b64b	0.012311528
117	0x3c0471a7	0.008083737
118	0xbdce521c	-0.10074255
119	0x3cd4f3b8	0.02599512
120	0x3e128ee7	0.14312325
121	0x3ccae5cb	0.024767777
122	0x3dd62fa6	0.10458307
123	0x3c80bd14	0.01571516
124	0x3bd17317	0.0063918936
125	0x3e27fd44	0.16405207
126	0xbe874ca6	-0.26425666
127	0xbbcfb8ac	-0.0063391533
128	0x3ce1d3bf	0.027566789
129	0xba0f8537	-0.00054748676
130	0xbd6c3591	-0.057668272
131	0x3da5edf7	0.08102029
132	0xbdb0cc37	-0.08632701
133	0x3d6bb54a	0.057545938
134	0x3d3eabe2	0.04655064
135	0xbc28827f	-0.010285019
136	0xbe03c86c	-0.12869424
137	0xbdeda1f3	-0.11603155
138	0xbc89da36	-0.016827684
139	0x3c436305	0.011925464
140	0x3e0170e2	0.12640718
141	0xbca6418c	-0.020294927
142	0x3ec969f3	0.39338645
143	0x3be615ff	0.007021665
144	0xbc6fd969	-0.014639237
145	0xbd46548a	-0.048420466
146	0x3a10d120	0.0005524326
147	0xbd257684	-0.04039623
148	0xbd6999d8	-0.057031482
149	0x3b767013	0.0037603423
150	0xbacca7fa	-0.0015614026
151	0x3c9a3d13	0.01882795
152	0xbbb7fbc6	-0.0056147305
153	0x3c7df77c	0.015500899
154	0xbca7cd95	-0.020483771
155	0xbde48921	-0.11158968
156	0xbe04f51f	-0.12984131
157	0xbeb9ce70	-0.36290312
158	0x3dabe719	0.08393688
159	0xbd6d17ea	-0.057884134
160	0x3e353748	0.1769687
161	0xbe5d26cc	-0.21596831
162	0xbd067620	-0.032827497
163	0x3d7bc47f	0.06146669
164	0xbd8e1dc6	-0.069392726
165	0x3ca34f2e	0.019935217
166	0xbc63bfbc	-0.0139006935
167	0x3cc46e7d	0.023978466
168	0x3d38daf7	0.045130696
169	0xbcebe619	-0.028796243
170	0xbe07a350	-0.13245893
171	0x3da82aa0	0.08211255
172	0xbdc3bf5b	-0.095579825
173	0x3e057a33	0.13034897
174	0xbd770878	-0.06031081
175	0x3e124331	0.14283444
176	0xbd68cae5	-0.05683412
177	0x3c9b9d03	0.018995767
178	0x3dc1cb50	0.09462607
179	0x3f118993	0.56850547
180	0x3b8fab1f	0.004384413
181	0xbbba34ad	-0.005682549
182	0xbcea35d8	-0.028590128
183	0xbc4c2bd5	-0.012461622
184	0xbd08579c	-0.033286676
185	0xbd9b76a7	-0.075909905
186	0xbe0c6c6b	-0.13713233
187	0xbe88da0a	-0.2672885
188	0xbcd1ce25	-0.025610993
189	0x3c390043	0.011291566
190	0xbb8b0bb4	-0.0042433385
191	0x3d0dd2cf	0.03462487
192	0x3e1d5cd8	0.15367448
193	0xbe47c3d2	-0.19508293
194	0x3d183043	0.0371554
195	0xbd99ce1c	-0.07510015
196	0xbd1725e0	-0.036901355
197	0x3ccd8bfd	0.025091166
198	0xbd91e7d9	-0.071242996
199	0xbd55209d	-0.052033056
200	0x3c82701a	0.015922595
201	0xbab743ea	-0.0013982032
202	0xbded62a2	-0.11591078
203	0x3c1be84e	0.009515835
204	0xbc46c3e1	-0.012131662
205	0xbd75137a	-0.059833027
206	0xbd89bbb0	-0.06725252
207	0xbe715b27	-0.23569928
208	0x3c04d452	0.008107262
209	0x3c38c0e2	0.011276456
210	0x3d9fba55	0.07799212
211	0x3da03b66	0.07823829
212	0xbd979356	-0.07401149
213	0xbdb88fbd	-0.09011791
214	0xbd8917af	-0.066939704
215	0xbbbc4931	-0.00574603
216	0xbdba8000	-0.09106445
217	0x3d32a500	0.043614388
218	0x3d154a91	0.036448065
219	0x3d2ff9bc	0.042962775
220	0x3d3f9424	0.046772137
221	0x3c8b530b	0.017007371
222	0x3cdecda5	0.027197668
223	0xbd85f847	-0.06541496
224	0xbce64111	-0.028107198
225	0xbcd601cb	-0.026123902
226	0xbd52732c	-0.051379368
227	0xbd49779f	-0.049186345
228	0x3d2f5489	0.04280523
229	0x3bb4dbde	0.0055193743
230	0xbd536fb1	-0.05162019
231	0xbdb279de	-0.087146506
232	0xbd5aa67e	-0.053381436
233	0xbd855da2	-0.06512
234	0xbd8155f5	-0.06315223
235	0x3c8e54ea	0.017374475
236	0xbdc5d4ec	-0.09659752
237	0x3c70aa75	0.014689078
238	0xbdd95f84	-0.10613921
239	0x3d547d01	0.051877026
240	0xbc0bbf47	-0.008529491
241	0x3d538b63	0.0516466
242	0xbd096e31	-0.033552352
243	0x3d4c84e9	0.04993144
244	0x3ebd7d80	0.3700981
245	0xbbb28456	-0.0054479046
246	0xba3d822c	-0.0007229175
247	0x3ad37fe8	0.0016136141
248	0x3d4143f8	0.04718396
249	0x3d996e8a	0.07491787
250	0x3de7e5d9	0.11323137
251	0x3a19fd2f	0.0005874214
252	0xbc6498d0	-0.013952449
253	0x3d05df9b	0.03268395
254	0xbd262fe5	-0.04057302
255	0xbd3c88ac	-0.046028778

last_mean.bias f4 [13]
0	0x3e2d55d8	0.16927278
1	0xbf271f1a	-0.6528183
2	0xbf43cc62	-0.7648374
3	0x3f5405a3	0.828211
4	0xbe55f6ca	-0.20894924
5	0x3e7ad5d8	0.24495637
6	0xbe278023	-0.16357474
7	0xbe80d9cb	-0.25166163
8	0x3e4c103e	0.19928071
9	0xbe394e17	-0.18096195
10	0xbe76840e	-0.24073812
11	0x3e58b9a1	0.21164562
12	0xbe1c3b19	-0.15256919

last_fc_log_std.weight f4 [13, 256]
0	0xbd3ea1cf	-0.04654103
1	0x3ea278bb	0.31732735
2	0x3d28c7d6	0.041206203
3	0x3c393542	0.011304202
4	0x3d272926	0.040810727
5	0xbbbf9991	-0.005847164
6	0x3ca5cd2e	0.020239439
7	0xbb20afed	-0.0024518922
8	0xbc811935	-0.01575909
9	0xbc20bf13	-0.009811181
10	0xbb361fe6	-0.002779001
11	0x3bfda090	0.007740088
12	0x3c911f47	0.01771511
13	0x3e05d44f	0.1306927
14	0xbbca853f	-0.006180435
15	0x3d77e724	0.060523167
16	0x3b011335	0.0019695286
17	0x3ca46ec5	0.02007235
18	0x3c84f010	0.016227752
19	0xbd660a80	-0.056162357
20	0x3d355fd7	0.044280853
21	0x3c4533ab	0.012036244
22	0x3ca46768	0.02006884
23	0x3dee6ff7	0.11642449
24	0xbc10e5e4	-0.008843873
25	0x3ca17184	0.019707449
26	0x3d17e2cb	0.03708152
27	0x3d0b3bbd	0.033992518
28	0x3dbdbe0b	0.092647634
29	0xbd78240b	-0.06058125
30	0x3d595d96	0.053067766
31	0x3e239164	0.15973431
32	0x3d3d630a	0.04623703
33	0x3d09dc68	0.03365746
34	0x3cf8f470	0.030389994
35	0xbd63e9a4	-0.05564274
36	0x3c4f82ca	0.01266546
37	0x3c07ade1	0.008281202
38	0xbd20c620	-0.039251447
39	0xbd8c06c9	-0.06837232
40	0x3db7c04e	0.08972226
41	0x3d0e5efe	0.03475856
42	0xbd04d31b	-0.03242789
43	0x39a2a328	0.0003102061
44	0x3eb1e768	0.3474686
45	0x3d97e6c5	0.07417063
46	0xbc85d57b	-0.016337147
47	0x3cea1522	0.02857453
48	0x3e762670	0.240381
49	0x3da490a7	0.08035403
50	0x3c828462	0.015932266
51	0x3d5aa141	0.05337644
52	0x3c7000c3	0.014648619
53	0x3d41730c	0.047228858
54	0x3b6b7122	0.0035925587
55	0xbb1a2529	-0.0023520684
56	0x3d36ccae	0.04462879
57	0x3d3dcd26	0.046338223
58	0xbc6701b8	-0.014099531
59	0x3b999f8f	0.0046882103
60	0xbca1df5b	-0.019759824
61	0xbcfe8788	-0.031070486
62	0x3c810ae1	0.015752258
63	0x3e2320e0	0.1593051
64	0x3d36d0e0	0.044632792
65	0x3ce9c5cc	0.0285367
66	0x3d76b3b4	0.060229972
67	0x3db844ab	0.089974724
68	0xbd5f68db	-0.054543357
69	0x3e1e0614	0.15432006
70	0xbceebf98	-0.029144093
71	0x3da6c035	0.08142129
72	0x3d86dec7	0.0658546
73	0x3e748a16	0.238808
74	0xbb890e22	-0.004182593
75	0x3cb86e9d	0.022513682
76	0x3d48277a	0.048865773
77	0x3c1251e5	0.008930658
78	0x3c3b8a77	0.011446587
79	0x3e6b4add	0.22977777
80	0x3ced22ee	0.02894732
81	0x3d6add1b	0.05733977
82	0x3cd13648	0.025538579
83	0xbde479a1	-0.111560114
84	0x3c8397df	0.016063629
85	0xbc809573	-0.015696263
86	0x3b4f7664	0.003165626
87	0x3da45048	0.08023125
88	0x3dea642e	0.11444889
89	0x3d9b2143	0.075747035
90	0x3e22f59a	0.15914002
91	0x3d1d939b	0.038470846
92	0x3e469c05	0.19395454
93	0x3c1610c3	0.00915927
94	0xbc578fab	-0.013156812
95	0x3c93ce5f	0.018042741
96	0x3d3efcac	0.046627685
97	0xbd41f229	-0.047350083
98	0x3d81c362	0.063360944
99	0x3a9844d1	0.0011617189
100	0xbc6438db	-0.013929571
101	0x3d2d31c1	0.042283777
102	0x3bfa3613	0.0076358407
103	0x3d3ba2b5	0.045809466
104	0xbc3ed852	-0.0116482545
105	0x3d54dc90	0.051968157
106	0xbc48126b	-0.012211422
107	0x3b3a17c3	0.002839551
108	0x3d08f65b	0.033438068
109	0x3ca1f7d9	0.019771503
110	0x3cf65190	0.030068189
111	0x3dadfd90	0.08495629
112	0x3ab974c9	0.0014149185
113	0x3d797c5e	0.06090962
114	0xbc125091	-0.008930341
115	0x3b8db824	0.00432493
116	0xbc864f91	-0.016395362
117	0x3c90cd06	0.017675888
118	0x3decfe39	0.115719266
119	0x3c56daad	0.01311366
120	0x3d03376d	0.03203528
121	0x3c050842	0.008119645
122	0x3cdfed26	0.02733476
123	0x3c049dc9	0.00809426
124	0x3d957afe	0.072988495
125	0x3e47a7cf	0.19497608
126	0x3d7dcf4d	0.061965276
127	0x3e517cbf	0.20457743
128	0xbbc61724	-0.006045239
129	0x3c5d51f4	0.013508309
130	0x3d13a0ae	0.036041908
131	0x39af4018	0.00033426355
132	0xbca3ae8b	-0.01998069
133	0x3d934421	0.07190729
134	0x3bd22deb	0.0064141653
135	0x3b04b7f7	0.0020251253
136	0x3eb0e0f8	0.34546638
137	0x3dd15ed8	0.10223168
138	0xbc74d5c2	-0.014943542
139	0x3d2d920d	0.042375613
140	0x3ba60f37	0.0050677317
141	0x3c740840	0.014894545
142	0x3eed00af	0.46289584
143	0xbc13a1ff	-0.009010791
144	0x3cf57dcc	0.029967211
145	0x3d0f2d0e	0.034955077
146	0xbc037857	-0.008024297
147	0xbc93a0d9	-0.018021034
148	0x3be9f982	0.0071403394
149	0xbd2e7821	-0.042595033
150	0x3d13feb8	0.03613159
151	0xbd045e3d	-0.032316435
152	0xbd0f5982	-0.03499747
153	0x3d8de93a	0.0692925
154	0x3db7883d	0.08961532
155	0xbc1b024a	-0.009460995
156	0xbcdbcb47	-0.026830329
157	0x3c285021	0.0102730105
158	0xbcffda02	-0.031231884
159	0x3d5889fb	0.052865963
160	0x3d9d1777	0.07670491
161	0x3ed17b94	0.40914595
162	0x3cdaf1c8	0.026726618
163	0x3d140b9a	0.036143877
164	0xbcb9cec9	-0.02268161
165	0x3c7747a9	0.015092769
166	0x3b815f70	0.0039481446
167	0x3c14c2b0	0.00907962
168	0x3d30f2e4	0.04320039
169	0x3d127092	0.035751887
170	0x3b9107d5	0.0044259825
171	0xbb642278	-0.0034810584
172	0xbce9cfb5	-0.028541425
173	0x3c38541b	0.011250521
174	0x3d21b880	0.039482594
175	0x3da63114	0.0811483
176	0x3d6a60e8	0.057221323
177	0x3d1aff6f	0.037841257
178	0x3be58ca0	0.007005289
179	0x3e4bc612	0.19899777
180	0xbca20a3b	-0.019780269
181	0x3d058415	0.032596666
182	0x3d2a497b	0.041573983
183	0x3d9c962e	0.07645832
184	0x3befd772	0.0073193843
185	0x3cc44b2d	0.023961628
186	0x3d6f9d0c	0.05849938
187	0x3e84f599	0.25968626
188	0x3c329413	0.010899561
189	0xbd344265	-0.04400863
190	0x3d0c72fe	0.034289353
191	0x3e078356	0.13233694
192	0x39ec72b1	0.0004509888
193	0x3e4cbc73	0.19993763
194	0xbceb80a4	-0.028747864
195	0x3cf068c8	0.029346839
196	0x3b61cbfa	0.0034453855
197	0xbd6555b7	-0.055989947
198	0x3d972953	0.07380929
199	0x3cc225d0	0.023699671
200	0x3d33bd91	0.043881956
201	0xbca65c4c	-0.020307682
202	0xbc84264b	-0.01613154
203	0x3bac4774	0.0052575413
204	0xba2ce103	-0.00065948087
205	0x3d87c7b8	0.0662989
206	0x3e3f078c	0.18655223
207	0x3ccb1f47	0.024795188
208	0xbc5ef604	-0.013608459
209	0x3ce0fb09	0.027463453
210	0x3d3bc7d4	0.045844868
211	0x3df0bc5c	0.11754677
212	0xbd973385	-0.073828734
213	0x3e2a90f0	0.16656852
214	0xba84ec54	-0.0010141232
215	0x3dc5df56	0.096617386
216	0xbd1a3322	-0.03764642
217	0x3e2cb574	0.16866094
218	0xbc461516	-0.012089988
219	0x3bf108fd	0.007355808
220	0xbc8bcbe7	-0.017065002
221	0xbc5a6803	-0.013330462
222	0x3d26ba4e	0.040705018
223	0x3caa9630	0.020823568
224	0x3d517917	0.05114087
225	0x3d8375ce	0.06418954
226	0x3d618efa	0.055067994
227	0x3d69d4ae	0.057087593
228	0x3c2dd6d3	0.0106103
229	0xbc385c06	-0.011252409
230	0x3d828da8	0.06374675
231	0x3d6278eb	0.055291098
232	0x3e30f31e	0.17280242
233	0x3e21fc82	0.1581898
234	0xbb1ad8b9	-0.0023627712
235	0x3c54db07	0.012991673
236	0x3dbe73db	0.092994414
237	0x3d45f97a	0.048333623
238	0xba25baee	-0.0006322105
239	0xbc9add62	-0.018904392
240	0x3d7402c4	0.05957295
241	0xbd48ff33	-0.049071502
242	0x3e480225	0.19532068
243	0xbc91c5d9	-0.017794536
244	0x3cb2f86c	0.021846972
245	0xbc825f76	-0.01591466
246	0x3ba88f6b	0.00514405
247	0xbd5fbfbe	-0.05462622
248	0x3d02642a	0.031833805
249	0x3bcf6cc2	0.0063301036
250	0x3d7a1643	0.061056387
251	0x3d42aa80	0.047525883
252	0xbb9989a1	-0.004685596
253	0x3cb3138d	0.021859908
254	0x3d923cc7	0.071404986
255	0x3db700c7	0.08935695

last_fc_log_std.bias f4 [13]
0	0xbe706518	-0.23476064
1	0xbec5d073	-0.38635597
2	0xbed1ebd3	-0.41000232
3	0xbed84446	-0.42239588
4	0xbe32bc54	-0.17454654
5	0xbe291099	-0.16510238
6	0xbe2c681d	-0.16836591
7	0xbe41de01	-0.18932344
8	0xbe24a1ca	-0.16077343
9	0xbe30bcae	-0.17259476
10	0xbe3fde16	-0.18737063
11	0xbe235874	-0.15951711
12	0xbe21ac97	-0.15788494
